checkpoints/DLinear/Electricity_100_336_96/fe470a2a26e13987a67226d27ff46f7b/DLinear_100.pt (torch, 782262 bytes, 12 tensors)

Linear_Seasonal.weight f4 [96, 336]
00000000: 8e55 82b7 c542 213b 5adb 26bc 1ced d8bb
00000010: fdec 0cbc 12a9 e1bb f9ab 88bb a0df abbb
00000020: 32b6 bbbb 22bf 9abb 8bf1 aebb 0667 a6bb
00000030: 588b 35bb e2b6 dfba f0e2 2eba 70ea f3b9
00000040: 7bcc 8eba eeeb d939 943e 563b f8f8 2b3b
00000050: 2be9 fa3a 4a88 7a3a f9f2 2eba 3e81 27bd
00000060: 6c47 7c3d 94ca b53b 45df da3b ad42 103c
00000070: c632 d73b c868 e43b 7048 d53b b710 f53b
00000080: aff2 dd3b e77d c73b ecb7 b73b 7cd1 9c3b
00000090: ad9b 063c 0fbb 633b 85a2 773b c5a6 7c3b
000000a0: cca1 6a3b 9177 4a3b 1493 2a3b 47ad 023b
000000b0: a91d 453b 7799 b93a 0647 e13b 2467 bebc
000000c0: 5eb5 c83c f69f 0ebc 9659 5a39 29a2 933a
000000d0: adf5 a53a ce89 c83a 8253 bbb8 3cd9 743a
000000e0: 5988 4d38 8b59 f339 8784 353a 1290 e637
000000f0: 98e7 263a 5026 b3b9 e471 323a be64 cc3a
00000100: 14fd 433a 483c 913a 5a90 ba3a cd63 ad3a
00000110: f5fd ed3a 95f8 ea39 399b 923b bbe2 94bc
00000120: 770f ad3c 2d6e b4bb 2298 193b 95bb 373b
00000130: 4d4c 2c3b d48a 683b 3574 933a 8d30 163b
00000140: 2a58 e83a 2556 163b 01cf 263b 1689 243b
00000150: 9a14 483b 3774 6b3a d1df 2d3b a41f 453b
00000160: 832c 033b c90f 373b 3330 d43a 0ece be3a
00000170: 2ca1 163b c834 fb3a 5bbc a33b 6768 92bc
00000180: 3892 b43c 320f ffbb 8c79 583a de53 aa3a
00000190: 3407 463a 3e45 0e3b 8a36 02ba 32b0 5a38
000001a0: 31d2 693a 79a9 dd3a 8782 9a3a eaf8 ce3a
000001b0: fb83 ac39 2826 dfba 5768 473a f736 fc39
000001c0: d08c 88ba d52e 073a 2067 d0ba 5c0a cbb9
000001d0: 9d22 273b 6389 383b a809 1b3c 1cd3 8abc
000001e0: 4a7a 583c c842 80bc 6388 e5ba 6705 d239
000001f0: 3654 8e3a b7fe 0c3b 76e2 8339 f59e 173b
00000200: 12de 363b 1a24 4b3b 4dd0 1d3b 092e 4e3b
00000210: f936 5f3b 082c 7d3b e8ac 803b 199f 9d3b
00000220: 23a9 7a3b 216e c73b dc6a ae3b fb6e d33b
00000230: 6b0c ab3b 9ea6 de3b 5670 7d3b d04c 2fbd
00000240: 0e41 593d 467f 4fbc 311f c7bb 300c 19bb
00000250: d1c3 29bb b089 96ba ed3a 18bb e948 f2ba
00000260: c866 73bb 0069 50bb 808e 9dbb 0325 02bc
00000270: 3eb8 fcba e312 40b9 df89 e9b9 15e4 903a
00000280: 8fc9 28bb 6bd7 91ba 2b8c 19bb 919f 70bb
00000290: c1b0 3abc a3c3 92bc c1f3 42bd aa20 f4bd
000002a0: 465d 493e f747 2f3d cce9 e33b d7ba 9d3b
000002b0: 06bd b6ba 81dc 4739 6120 d03a b238 8b3a
000002c0: 2c96 9dba ad4e 36ba 9f8b b8ba 4f81 4b3a
000002d0: 2d25 d73b c92a 0c38 f843 b1ba ec8a 26bb
000002e0: ac92 4cbb 5d1b 60bb 2d6d 2ebb 1a54 6eba
000002f0: 8803 6ebb 7dab 5cbb cc13 02bc 51a1 82bd
00000300: a57c af3d 3a53 ed3a 4a23 e8ba c780 ecba
00000310: de59 27bb 7703 bbba 077d baba 3b69 62ba
00000320: 74f5 fbba 0c34 b5b9 845e 39ba 3722 f1b9
00000330: 7b86 773b 83ca c73a ad6a 953a f62e a63a
00000340: b4cc 853a 63ed 0e3b ec4b 43b9 f1a1 093b
00000350: 4af0 023b 2a2b 233b fbd0 c63b a11e 05bd
00000360: aa6a 313d 6079 5fbb 25f7 003a b164 4d3a
00000370: 6a3c 803b d83b 4c3b 1a60 293b ce7f 7a3b
00000380: 46d7 5b3b 09a7 a43b 1bea 923b c3b6 483b
00000390: ee32 9c3b 04ac 8d3b e833 7b3b b39f 653b
000003a0: af74 933b f004 923b f19f 233b 00eb 503b
000003b0: fd7c 723b f36f 3e3b cbc1 d83a 90e6 19bd
000003c0: 2e89 663d adb9 ca3a b6aa d73a 166e d83a
000003d0: 3d82 fe3a 4eac 9f3a b5f6 993a 903f 4a3a
000003e0: b478 3f3a afb4 be3a dc03 ba39 a9ae 03bb
000003f0: a4e2 e23a 0722 873a e698 2aba 1646 2db9
-1.5537047e-05 0.0024606448 -0.010184133 -0.0066200625 -0.008601424 -0.00688661 -0.0041708914 -0.005245164
-0.0057285065 -0.004722492 -0.0053388528 -0.0050781993 -0.0027701464 -0.0017068053 -0.00066713896 -0.0004652324
-0.001089468 0.00041565247 0.0032691108 0.0026240926 0.0019142976 0.0009557052 -0.0006673779 -0.04089474
0.06159155 0.005547831 0.006679448 0.008804959 0.006567332 0.0069704987 0.0065088794 0.007478799
0.006773315 0.006088007 0.005606642 0.0047857147 0.008215827 0.0034748947 0.0037786078 0.003855155
0.0035802005 0.003089402 0.0026027607 0.0019939707 0.0030077493 0.0014160116 0.0068749217 -0.02324254
0.024500545 -0.00870513 0.00020823473 0.0011263537 0.0012661718 0.0015299858 -8.9324094e-05 0.0009340232
4.9002792e-05 0.00046415286 0.000692435 2.7485225e-05 0.00063669076 -0.00034170086 0.0006807132 0.0015593988
0.0007476371 0.0011080587 0.0014233694 0.0013228595 0.001815735 0.00044817166 0.0044740704 -0.01817452
0.021125538 -0.005506298 0.0023436625 0.0028035392 0.0026290596 0.0035483139 0.0011249842 0.0022917122
0.001772647 0.002293953 0.0025452974 0.0025106124 0.0030529858 0.0008981856 0.002653111 0.0030078674
0.0020015545 0.0027932993 0.0016188681 0.0014557259 0.002298425 0.001916551 0.004996819 -0.017872049
0.022042379 -0.007783794 0.0008257858 0.0012994965 0.0007554174 0.0021708752 -0.00049672334 5.2139345e-05
0.00089195656 0.0016911469 0.0011788168 0.0015790735 0.0003290473 -0.0017024921 0.00076067954 0.00048106138
-0.0010417942 0.000515682 -0.0015899874 -0.00038726896 0.002550281 0.002815806 0.009462751 -0.016946368
0.01321275 -0.015656844 -0.001751196 0.00040058346 0.0010858837 0.0021514127 0.00025154994 0.0023135517
0.002790336 0.003099686 0.0024080456 0.0031460545 0.0034059866 0.003863098 0.003926862 0.0048102257
0.0038247786 0.0060861264 0.005322797 0.006452439 0.005219986 0.0067947647 0.0038671694 -0.042797863
0.053040557 -0.012664622 -0.0060767164 -0.0023353212 -0.002590407 -0.0011485126 -0.0023228482 -0.0018484864
-0.003714012 -0.0031800866 -0.004808247 -0.007943395 -0.0019280983 -0.00018317583 -0.00044543945 0.0011054302
-0.0025754904 -0.0011126822 -0.0023429494 -0.0036716203 -0.0113946805 -0.017915552 -0.047595743 -0.11920293
0.19664487 0.04279324 0.006955361 0.004813533 -0.0013941831 0.00019060263 0.001587879 0.0010621755
-0.0012022904 -0.00069544726 -0.0014079696 0.0007763104 0.006565711 3.3418448e-05 -0.0013524285 -0.0025412394
-0.0031215353 -0.0034195997 -0.0026615367 -0.00090915116 -0.0036318023 -0.003367155 -0.00793929 -0.06378425
0.08568696 0.0018106468 -0.0017710712 -0.001804375 -0.0025535743 -0.0014268 -0.0014227935 -0.00086368964
-0.0019222931 -0.00034561788 -0.0007071274 -0.00045992594 0.0037769366 0.0015242848 0.001139959 0.001267879
0.0010208101 0.0021808974 -0.00018624932 0.0021001066 0.001997965 0.0024897554 0.006067393 -0.032499913
0.043314613 -0.0034099445 0.000491964 0.00078351336 0.003913452 0.00311636 0.0025844635 0.003822315
0.003354506 0.005024795 0.004483474 0.0030626513 0.0047668135 0.0043234844 0.00383305 0.0035037815
0.0044999938 0.004456155 0.0024967159 0.0031878352 0.0037000768 0.0029058426 0.0016537247 -0.037573397
0.05628317 0.0015466713 0.0016454074 0.00165123 0.0019417476 0.0012182088 0.0011746498 0.000771516
0.0007304058 0.0014549698 0.0003547956 -0.002009312 0.0017309976 0.0010309824 -0.0006507769 -0.00016524675

Linear_Seasonal.bias f4 [96]
00000000: c6f7 f23b a3a1 d5bb 46ff b3b6 7f83 69bc
00000010: f32e 4bbc 40f7 cdbb 11a7 efbb 62d0 82bc
00000020: 3456 f1bb 3b9a 973b 5267 5cbc e04d 70bc
00000030: 8981 7fbc f832 14bc 2dcf 54bb ec18 313b
00000040: 2f03 6ebc 3592 e3ba baf2 11bb 05b6 6abc
00000050: 6065 9b3c d39b f1bb 8640 eabc 3ded 94bc
00000060: f499 29bc 6284 113b 8d5c e5ba b326 873b
00000070: 9101 c5ba 9d85 663a afb1 febc b6d4 17bc
00000080: 72e0 a3bb 50cd 7a3c a62d 24bc a346 4ebc
00000090: 4c9d c9bc 6457 17bb 4fa0 13bc a6f6 5e3c
000000a0: ca4e 71bc e028 c0bb 74d9 dbbc c993 70bc
000000b0: 5b2f 59bb 0ab1 23bb a010 2bbc 83f1 92bc
000000c0: 5429 30bc b134 81bc 60ce aebb a457 e6bc
000000d0: 0589 21ba 4a96 d03b 515e 0e3c ca3b 02bc
000000e0: fad9 c0bc b472 8dbb 828d f2bb f1d0 09bc
000000f0: 5223 f4bb a308 efba fadb 5cba 5b04 5d3a
00000100: 63ed 803b c5a8 88bc 783e 96bb ea60 c3bc
00000110: 0dd1 cf3b 6347 daba 8fd8 bcbc bb31 5fbc
00000120: 4a2e 8fbc 5b10 8e3b eeda 10bc 764b 0e3b
00000130: 4e7b 35bb 35bb ddbc fd45 4cba ff50 0bbc
00000140: 1700 1fbc 8a37 603c e5f2 fcbb 81f4 0bbc
00000150: 45a1 893b f4da ec3b b013 6dbc 51fd 27bb
00000160: 82a4 073a dc4c 6f3c 0b7b 953b da67 a23b
00000170: a10c 57bb ad0a 98b9 3960 9839 0934 a2bc
0.007414791 -0.0065195127 -5.3643334e-06 -0.0142525425 -0.01240133 -0.006285578 -0.007313617 -0.015968505
-0.0073650125 0.00462654 -0.013452368 -0.014667004 -0.015594848 -0.009045355 -0.003247212 0.0027022911
-0.014527126 -0.0017362299 -0.002226992 -0.014325623 0.018969238 -0.007373312 -0.02859522 -0.01817953
-0.010351647 0.002220415 -0.0017498896 0.0041244864 -0.0015030374 0.00087937136 -0.031090586 -0.009267023
-0.005001121 0.015307739 -0.010020649 -0.012590083 -0.024611138 -0.002309286 -0.0090103885 0.01360861
-0.014728257 -0.0058642477 -0.026837088 -0.014683672 -0.0033139798 -0.002497735 -0.010440975 -0.017937427
-0.010752041 -0.015772196 -0.0053346604 -0.028117962 -0.000616208 0.006365572 0.008689479 -0.007948825
-0.02354144 -0.004316652 -0.007402123 -0.008411632 -0.0074504996 -0.0018236827 -0.0008425113 0.000843113
0.0039345487 -0.016682038 -0.0045850836 -0.023849923 0.0063420595 -0.0016653355 -0.023052482 -0.0136226965
-0.017478127 0.004335446 -0.008841259 0.0021712459 -0.0027691904 -0.027066806 -0.00077924115 -0.008503198
-0.009704611 0.013685117 -0.007719385 -0.008542181 0.004200133 0.0072282497 -0.014470026 -0.0025633166
0.0005174355 0.014605727 0.004561787 0.0049562277 -0.0032813924 -0.00028999653 0.0002906339 -0.019800203

Linear_Trend.weight f4 [96, 336]
00000000: 18b2 e43c b86f 533c 0c3e 6d3b 7b24 0d3c
00000010: 408d 8e3c 41e0 f2ba 534b 653c 9a02 1a38
00000020: 4af8 8b3b 8cd2 ad3b 51cd 703b 6a17 bbba
00000030: 9367 fcbb fabd 5bbb a0e7 9a3a 7eca ccbb
00000040: 3168 51bb b22b d7ba b4a8 e239 593d 22bc
00000050: ca8e 21bc f497 d0ba 6a18 02bc b418 0dbc
00000060: fa70 0bbb cc2b f9bb 5130 663b 9c39 843b
00000070: b593 f33a 95de b0bb 08eb ebbb 358f 7ebb
00000080: 7e6a 173b fa0d 853b 015a 37ba 7d02 073b
00000090: b903 d03a 8d0a 293b 0ff2 983b 7e41 c0bb
000000a0: 5b14 40ba 007c 873a fc06 803b 7376 82bb
000000b0: 006b 5c3b 40a8 7a3a 6138 d93a b938 68bb
000000c0: 4ac1 f33b 8493 b43b dc27 9cbb b18d a2bb
000000d0: e77e 57bb 9626 7b3b 0f5b 3b3b 946b bfbb
000000e0: 7de3 4aba 879e 463b 1456 8abb bbc0 583b
000000f0: a86c eb3b 9bb3 a8bb 39fe 9f3b 5232 a3ba
00000100: 5062 beba c4e8 d4bb 0550 04bb 9ba1 143b
00000110: 1d88 053c 1213 5e3b 649c 34bb a079 113b
00000120: fc28 9ebb ff7f 193b 38bc 353b 5011 703a
00000130: c8ad 7ebb a958 a0bb 9cd5 3ebb ec7d 7e3b
00000140: b85e d0bb c9b1 643b f43a daba 72d9 6f3b
00000150: 35d1 e0ba e1cb 88bb 07f5 35bb 4506 80ba
00000160: 5d6e 0bbb e974 33bb e195 873b 1308 673a
00000170: 53e0 ba3b 8d80 9abb 645e a53a 8808 273b
00000180: 711f d7ba fa05 4439 9551 563b 02a1 90bb
00000190: 9e19 9fbb 3bf9 97ba 5090 073b 5930 c53b
000001a0: 7ea4 923a 9c7e 9bbb 00cb 903b e110 c3ba
000001b0: b2c1 b6ba e5c9 8dbb 4ea0 913b 8485 4fbb
000001c0: d61e 203b 1ffd 2cbb c940 2e3b 9c53 cb3b
000001d0: dd83 f3bb 63fd 03bb dc5b 413b d700 8a3b
000001e0: 4130 023a 9094 b03a 983d e5bb 064d c83b
000001f0: 853b a43b 2c3a 033b 0c1b 1e3b 1dcd c6bb
00000200: 1d07 04ba 6ca3 ebba 935a a3b9 7fc3 7cb9
00000210: 5015 edbb 3bb7 27bb deb4 01b9 3ff0 c7bb
00000220: e6db dabb 5804 0c3b 942f 21bc 0429 023b
00000230: bfb6 813b 9283 7d3b fd45 093b adf6 20bc
00000240: 0baf 5bba d831 443b 761f 6e3b 37c6 1ebc
00000250: 40e9 a2bb 2b75 0dbc 2937 11bc 5855 213b
00000260: e1cd 30bc ab56 39bc 5b8a cfbb 7536 87bc
00000270: 9056 423b b8e4 8f3b b385 143c f44a 213c
00000280: 156e 523c 0739 783a 9143 33bb d971 243c
00000290: 9884 81bb 65f8 47b9 41c8 bfba ef34 c0b7
000002a0: 1698 623b 0f47 d33b 45ad 9a3a 8b17 d23b
000002b0: b53e 16bb 25fd 183c 3aa8 313c 307a 963a
000002c0: 6dd9 073c ddae 233c bdca 6e3a c3fe 633b
000002d0: 1b33 893c 2c1c 033a 7380 d2bb 607e 413b
000002e0: 682b 8a3a 9d53 37bb 2566 b9bb 79e6 c8bb
000002f0: 3b7f bd3b 33e4 fa3a e976 123c 9cad e339
00000300: 3170 e43b 1638 3cbb d711 bc3a b840 c1ba
00000310: 4e94 d23a 7498 0f3b 2227 79ba 6e20 8ebb
00000320: 4da7 0f3a 223e 093c 5e0b 9fbb 596b 4ebb
00000330: 0a49 913a bc3f 99bb 20a9 eb3b d91d ee3b
00000340: 12bc 54bb d6d5 353b 1045 ab3a 1f0d a93a
00000350: 8aad ca3a 1e52 6f3b c629 e639 ed0a 97bb
00000360: afa2 eabb 6c19 b1ba 6e68 cfbb 8668 593b
00000370: bc97 f0b7 1063 9d3b 527b 9eba aafa 9d3b
00000380: c8cf d1ba 09db f8ba c844 b0bb 4855 8ebb
00000390: fea8 993b fed9 883b b8d2 563b 515a 99bb
000003a0: 0bf0 85bb 880c 09bb f2a8 fabb 8c08 303b
000003b0: b8b4 b03a 253f 7cbb cb96 bc3a f2cf 3fbb
000003c0: 9687 ab3b d508 04ba df37 b13b 22b7 df3a
000003d0: 7e01 443a 4e65 a0ba 6af3 7f3b 2d99 8a3b
000003e0: e236 b73a 52eb f5bb 3a28 ca3a 80c4 1fbb
000003f0: bdc8 883b 8308 2e3a 9fc9 8f3b cba7 b2bb
0.027916953 0.012905054 0.0036200313 0.008614655 0.017401338 -0.0018529968 0.0139950095 3.6718884e-05
0.0042715417 0.00530464 0.0036743472 -0.0014273946 -0.0077027767 -0.0033529983 0.0011818297 -0.006249725
-0.0031952972 -0.001641622 0.00043231773 -0.009902322 -0.009860704 -0.0015914426 -0.007940391 -0.008611847
-0.0021277056 -0.007604098 0.0035124014 0.004035188 0.0018583449 -0.0053976276 -0.007199649 -0.0038842682
0.0023104246 0.004060504 -0.00069943076 0.0020600848 0.001587025 0.0025793642 0.0046675275 -0.0058671823
-0.0007327252 0.0010336637 0.0039070826 -0.0039814054 0.0033633113 0.00095618144 0.0016572588 -0.00354342
0.0074388133 0.0055107493 -0.004765494 -0.0049607386 -0.0032882036 0.003832256 0.002858821 -0.0058416817
-0.0007739587 0.0030306892 -0.004221687 0.003307386 0.0071845837 -0.0051483638 0.0048826006 -0.001245091
-0.0014525149 -0.0064974744 -0.0020189297 0.0022679332 0.008150128 0.0033885879 -0.0027559036 0.0022197738
-0.004826663 0.002342224 0.0027730595 0.0009157853 -0.0038860906 -0.0048933816 -0.002911902 0.003883238
-0.0063589476 0.0034896007 -0.001664965 0.0036598113 -0.0017152192 -0.004174695 -0.0027764456 -0.0009767493
-0.0021275498 -0.0027382916 0.00413774 0.0008813154 0.005703011 -0.0047150315 0.0012616632 0.0025487263
-0.0016412569 0.00018694243 0.0032702435 -0.004413725 -0.0048553487 -0.0011594662 0.0020685382 0.0060177264
0.0011187939 -0.0047453176 0.0044187307 -0.001488235 -0.0013943224 -0.004327046 0.0044441586 -0.0031665275
0.0024432442 -0.002639599 0.0026588908 0.0062050354 -0.007431491 -0.0020140044 0.0029504215 0.004211526
0.0004966297 0.001347201 -0.006995868 0.0061126975 0.005011978 0.0020023687 0.0024125008 -0.006066932
-0.00050364604 -0.0017977781 -0.00031157266 -0.00024105421 -0.0072352067 -0.0025591392 -0.00012369777 -0.0061016376
-0.006679046 0.0021364894 -0.009838004 0.0019860873 0.0039585526 0.0038683158 0.0020946257 -0.009824437
-0.00083802704 0.0029936936 0.003633467 -0.009690813 -0.004971653 -0.008633892 -0.008863249 0.002461752
-0.010791273 -0.011312167 -0.006333632 -0.01650546 0.0029653646 0.004391279 0.0090650795 0.00984453
0.012843628 0.0009468947 -0.0027353505 0.010036909 -0.003952574 -0.00019070653 -0.0014631824 -2.2912833e-05
0.0034575514 0.00644768 0.0011800906 0.006411498 -0.002292556 0.009337698 0.010843331 0.0011480507
0.008291584 0.009990421 0.000910919 0.00347893 0.016748002 0.00050014514 -0.0064240037 0.0029524788
0.00105415 -0.0027973421 -0.0056579285 -0.00613099 0.0057829893 0.0019141495 0.008939483 0.00043426163
0.006971382 -0.0028719953 0.0014348578 -0.0014744019 0.0016065927 0.0021910938 -0.00095044274 -0.004337362
0.0005479947 0.00837663 -0.00485365 -0.003149709 0.0011084389 -0.004676787 0.007191792 0.0072667417
-0.0032460731 0.0027745864 0.0013066847 0.0012897587 0.0015463096 0.0036517452 0.00043900142 -0.0046094568
-0.0071605067 -0.0013511605 -0.0063295877 0.0033173873 -2.8680886e-05 0.004803069 -0.0012091196 0.0048211413
-0.0016007358 -0.0018986176 -0.005379293 -0.0043436624 0.004689335 0.0041763773 0.0032779407 -0.004679956
-0.0040874532 -0.002091201 -0.0076495344 0.0026860563 0.0013481593 -0.0038489786 0.0014388202 -0.0029268232
0.005234669 -0.00050367165 0.0054082717 0.0017068128 0.0007477029 -0.0012237222 0.0039054998 0.0042296858
0.0013978148 -0.007504859 0.0015423365 -0.0024378598 0.0041743205 0.00066388416 0.004388049 -0.0054521314

Linear_Trend.bias f4 [96]
00000000: 64d8 2cbc d93f d93a 39ce cfbb f209 d63b
00000010: f8ff 7f3b 002b 28bb 487b 01bb 4f82 cf3b
00000020: ecba 21bb ad45 69bc 6202 7d3b d73d ae3b
00000030: ecc2 c33b d00b 08ba c76e c8bb 4eb3 49bc
00000040: 3b36 973b 0b6d 0dbc d2bc 06bc 4356 7f3b
00000050: e3f6 f4bc 72f2 6fbb d722 913c fd3a eb3b
00000060: a961 abba 8710 6fbc 611a 37bc 098a 8dbc
00000070: f2e4 43bc 111c 6ebc 2e03 8e3c 7695 9bbb
00000080: 85da 10bc 35fd efbc 16d7 74bb c8b6 a4ba
00000090: 9aac 2d3c 2159 42bc 4755 a1bb 1f3f e2bc
000000a0: bfe2 043a 1d60 09bc 7d9e 503c 8f01 483a
000000b0: 4ca6 32bc d753 3bbc 6d8d 71bb ea00 7b3b
000000c0: f798 73bb 5c33 8a3a 98a8 1bbc f7f3 503c
000000d0: e88f 79bc c083 b7bc 6f04 cbbc fe0d 08bc
000000e0: ba94 f33b 4440 3dbc 1985 09bc d692 f1bb
000000f0: 2c84 0abc 15e4 69bc 9ff0 78bc 3b78 8abc
00000100: d16e a5bc b1cf ea39 d6f2 3fbc b0cf f73b
00000110: 2f0e babc 6988 71bc f850 d33b d674 48bb
00000120: b51e fd39 e001 afbc b811 08bc 1bb5 9ebc
00000130: 1718 71bc d92d 1b3c aa7d 89bc 491b 16bc
00000140: fb8a f7bb 0e0b fcbc c102 17bc 3721 09bc
00000150: 9cce adbc 6682 c7bc cf13 38bb fb09 72bc
00000160: fcaa 93bc 7849 04bd 3bdc b4bc 3adc b6bc
00000170: 5d7e 69bc e5ad 8cbc ea70 90bc 9285 2f3b
-0.010549638 0.0016574814 -0.0063417223 0.0065319473 0.0039062481 -0.0025660396 -0.001975732 0.0063326727
-0.0024678065 -0.014237803 0.0038606157 0.0053174305 0.005974164 -0.00051897485 -0.0061167213 -0.012310816
0.004614619 -0.008631955 -0.008223729 0.0038961328 -0.029902881 -0.0036613015 0.017716808 0.007178663
-0.001307537 -0.014591343 -0.011175723 -0.017277734 -0.01195644 -0.014533059 0.0173355 -0.0047480417
-0.008841162 -0.029295543 -0.0037359647 -0.001256668 0.010600233 -0.01186207 -0.004923496 -0.02761799
0.0005069188 -0.008384732 0.012733099 0.0007629627 -0.010903906 -0.011433563 -0.0036857978 0.0038300105
-0.0037170032 0.0010543871 -0.009500645 0.012753478 -0.015232064 -0.02240169 -0.024782388 -0.008304117
0.007433501 -0.011550967 -0.008393549 -0.0073722405 -0.008454364 -0.01427557 -0.015194087 -0.016903033
-0.020194443 0.000447867 -0.011715611 0.0075626 -0.022711841 -0.014741995 0.006448861 -0.0030587218
0.000482788 -0.021363199 -0.008305006 -0.019373467 -0.014715216 0.00947138 -0.016783554 -0.009161779
-0.0075544096 -0.03076699 -0.009216965 -0.008369735 -0.021216683 -0.024354171 -0.0028087979 -0.014772887
-0.018025868 -0.032296628 -0.02207767 -0.02232181 -0.014251319 -0.017172763 -0.017631967 0.0026782495

exp_avg f4 [96, 336]
00000000: 7b12 fcb6 482d 7ab7 c529 40b7 fec8 c9b7
00000010: 861c 5ab8 6378 8bb8 2cd1 a0b8 124a 82b8
00000020: 1eac 4db8 386b a5b7 8203 4d37 47b1 2838
00000030: 8a53 9b38 47ce bc38 75da d338 d48b b638
00000040: 1845 c238 5c5e a538 abd3 9a38 eaf7 6238
00000050: 2718 c637 2455 cfb6 5880 e1b7 1ba9 55b8
00000060: 9d30 63b8 283d aab8 7123 91b8 bccd 8db8
00000070: 830d a2b8 e150 a3b8 6f05 b8b8 cec2 82b8
00000080: aec0 4bb8 65dc 14b8 8613 f2b6 584d d537
00000090: 35df 8838 801a ae38 bacc ca38 7f83 cd38
000000a0: e2e3 ce38 63a3 b938 3667 c138 93af a538
000000b0: 0615 4538 4ae3 7037 bb96 6fb7 260f afb8
000000c0: c4da 85b8 a9ac 96b8 3d2e 71b8 145c 71b8
000000d0: c1c3 9eb8 ec1b b7b8 058f bab8 b121 91b8
000000e0: f5fc 61b8 8e67 eeb7 4e33 b335 0adf 1338
000000f0: 2a72 7f38 0267 aa38 1a44 bd38 95aa a738
00000100: f367 b938 45f9 9e38 83c9 a038 1c91 8b38
00000110: 0788 2738 e310 1137 6026 a8b7 0ea1 61b8
00000120: 775a 91b8 450e 9eb8 3d55 80b8 d402 81b8
00000130: 0218 99b8 02ca 9eb8 22e0 a5b8 064e 8ab8
00000140: 89d2 34b8 e176 8cb7 8083 f236 b928 0938
00000150: c392 8938 6bb2 b638 908d c838 5626 bd38
00000160: 2eb5 c538 33db a438 669c ad38 143e 8a38
00000170: 53f8 2838 4104 9137 7514 96b7 47e9 5bb8
00000180: f9e2 98b8 30ae b0b8 fe8c a5b8 bede 9fb8
00000190: 528a b0b8 bd10 b9b8 bf11 c3b8 e57c 93b8
000001a0: 4dcd 4ab8 a312 4fb7 f746 4e37 936c 1938
000001b0: 9c10 9b38 9f92 c338 d34d ce38 4c0a c738
000001c0: 5a21 d138 abad af38 d61e a538 29cd 8338
000001d0: 72b0 1938 6370 ba36 c44c 8db7 1dfc 40b8
000001e0: 72ca 78b8 294f 9eb8 c611 98b8 1205 a0b8
000001f0: 0fc6 c4b8 5964 d2b8 a440 dcb8 aece cab8
00000200: 51b6 75b8 5aa6 8ab7 feaf 9837 5e10 3f38
00000210: 5978 a938 baa0 e338 9caa e938 c321 cb38
00000220: ba7b ba38 bae0 7f38 ee49 9138 72f8 6238
00000230: 6b79 e237 88fd 6135 8926 cdb7 f5f3 4cb8
00000240: 1932 79b8 2b43 7ab8 14c6 56b8 435c 7cb8
00000250: 9477 a6b8 2ddf c2b8 0644 d9b8 e472 b3b8
00000260: 3665 76b8 40e7 01b8 81fb 1936 d8e7 2038
00000270: ec0e 9638 5f63 b638 a13b cc38 61d3 c138
00000280: 318b bf38 87d2 9d38 0d0d a838 353f 9238
00000290: 54da 2638 dbba 1a37 9102 a0b7 24df 23b8
000002a0: 2a12 2fb8 205b 93b8 2410 7bb8 f40e 6cb8
000002b0: c5c8 9bb8 1d20 aab8 c761 b5b8 a0c3 93b8
000002c0: 5cbf 5eb8 b7ed 85b7 15ba 7e37 3956 3038
000002d0: b4ee a438 76df c938 5534 e438 f324 cc38
000002e0: e39b c938 5f74 a838 57fa a438 6740 8138
000002f0: f639 cf37 66cd f3b6 59f8 19b8 073c 94b8
00000300: 4f83 adb8 d0c8 cab8 ed35 a6b8 0dd8 92b8
00000310: 0510 afb8 c2b6 b1b8 c462 c5b8 22bc 9bb8
00000320: 2c97 70b8 d451 fcb7 9e01 8cb6 8a68 e937
00000330: 04f0 9038 f617 c138 4e97 ea38 faeb db38
00000340: 3a61 da38 4ef6 c938 fec1 c338 3c55 9238
00000350: 291d 1f38 c688 0536 0faf 0bb8 87fc 7ab8
00000360: dd09 a2b8 c191 b2b8 62ce 90b8 f0bb 85b8
00000370: 28c9 afb8 a76f b7b8 b939 bfb8 8e10 8bb8
00000380: adca 42b8 b31f 65b7 145c e836 cde9 2638
00000390: bf2d 9b38 300d c738 59d8 e138 b708 d438
000003a0: 1d63 ca38 868d b138 458e 9838 649f 8838
000003b0: 6495 1f38 f936 3437 8b72 02b8 9b96 74b8
000003c0: 41d2 a6b8 b48d c4b8 66e7 a3b8 e196 93b8
000003d0: d445 a2b8 e137 acb8 f87f b5b8 c812 acb8
000003e0: ba9d 46b8 ffbc 80b7 7b0a 6637 990a 1138
000003f0: 1303 9438 05fe ba38 bd8d d438 52df cc38
-7.5123367e-06 -1.4911704e-05 -1.1453817e-05 -2.4054661e-05 -5.2001815e-05 -6.65046e-05 -7.668356e-05 -6.21268e-05
-4.9036105e-05 -1.971946e-05 1.2219769e-05 4.0219424e-05 7.406536e-05 9.002961e-05 0.00010101955 8.704481e-05
9.2635106e-05 7.885389e-05 7.3827185e-05 5.4113487e-05 2.3614686e-05 -6.1789924e-06 -2.6881855e-05 -5.094065e-05
-5.4166292e-05 -8.117623e-05 -6.92074e-05 -6.761725e-05 -7.727279e-05 -7.7875105e-05 -8.774816e-05 -6.235168e-05
-4.857842e-05 -3.5491208e-05 -7.214435e-06 2.5427595e-05 6.526561e-05 8.3019026e-05 9.670244e-05 9.799655e-05
9.865292e-05 8.8519206e-05 9.222182e-05 7.900516e-05 4.698804e-05 1.4358035e-05 -1.4280605e-05 -8.347472e-05
-6.3826825e-05 -7.184718e-05 -5.750194e-05 -5.7544632e-05 -7.570489e-05 -8.731321e-05 -8.8958106e-05 -6.920414e-05
-5.3879765e-05 -2.8420032e-05 1.3351471e-06 3.5255252e-05 6.090306e-05 8.1254184e-05 9.024907e-05 7.994954e-05
8.8408495e-05 7.580457e-05 7.666929e-05 6.655065e-05 3.9942588e-05 8.646605e-06 -2.004503e-05 -5.3794174e-05
-6.930989e-05 -7.536685e-05 -6.1193925e-05 -6.151726e-05 -7.30008e-05 -7.571654e-05 -7.909561e-05 -6.594886e-05
-4.311142e-05 -1.6744658e-05 7.2274706e-06 3.270127e-05 6.5600056e-05 8.711669e-05 9.563111e-05 9.019363e-05
9.427439e-05 7.8609584e-05 8.278414e-05 6.591916e-05 4.028559e-05 1.7287328e-05 -1.789092e-05 -5.2430925e-05
-7.290202e-05 -8.424779e-05 -7.894075e-05 -7.6232e-05 -8.418098e-05 -8.824605e-05 -9.30163e-05 -7.03277e-05
-4.8351754e-05 -1.2342501e-05 1.229508e-05 3.657916e-05 7.39407e-05 9.325635e-05 9.837341e-05 9.4909774e-05
9.972109e-05 8.3769984e-05 7.873557e-05 6.284781e-05 3.664237e-05 5.5563155e-06 -1.6844257e-05 -4.6011166e-05
-5.931635e-05 -7.548772e-05 -7.2512354e-05 -7.630339e-05 -9.3828996e-05 -0.000100322715 -0.00010502458 -9.670608e-05
-5.8582347e-05 -1.6528345e-05 1.8201765e-05 4.555319e-05 8.0809645e-05 0.00010854141 0.00011142084 9.686083e-05
8.892217e-05 6.100603e-05 6.927909e-05 5.411398e-05 2.6997839e-05 8.418797e-07 -2.4455849e-05 -4.8864593e-05
-5.9412883e-05 -5.96672e-05 -5.120605e-05 -6.0167407e-05 -7.93777e-05 -9.2922106e-05 -0.00010360037 -8.556785e-05
-5.874523e-05 -3.0971365e-05 2.2945171e-06 3.8362894e-05 7.155337e-05 8.6969456e-05 9.738585e-05 9.2423295e-05
9.133516e-05 7.525557e-05 8.013295e-05 6.973596e-05 3.9780818e-05 9.222621e-06 -1.9074681e-05 -3.9070044e-05
-4.1740168e-05 -7.0264796e-05 -5.9858095e-05 -5.628071e-05 -7.428372e-05 -8.112213e-05 -8.648965e-05 -7.045944e-05
-5.3107142e-05 -1.596553e-05 1.5182905e-05 4.204197e-05 7.864591e-05 9.62605e-05 0.00010881635 9.73436e-05
9.613463e-05 8.03254e-05 7.866759e-05 6.163195e-05 2.4703313e-05 -7.265876e-06 -3.6709334e-05 -7.068371e-05
-8.273741e-05 -9.669515e-05 -7.925541e-05 -7.002065e-05 -8.347634e-05 -8.474059e-05 -9.4120885e-05 -7.4260184e-05
-5.736125e-05 -3.0078845e-05 -4.1725134e-06 2.7824444e-05 6.9111615e-05 9.20742e-05 0.00011186172 0.00010486688
0.0001041316 9.630305e-05 9.3344584e-05 6.977699e-05 3.793571e-05 1.9898157e-06 -3.330322e-05 -5.983983e-05
-7.726599e-05 -8.51485e-05 -6.904897e-05 -6.37694e-05 -8.3821185e-05 -8.746917e-05 -9.1183414e-05 -6.63112e-05
-4.644196e-05 -1.3656844e-05 6.924858e-06 3.9795228e-05 7.399497e-05 9.491516e-05 0.00010769134 0.00010110571
9.650572e-05 8.4663785e-05 7.2744246e-05 6.514674e-05 3.8047685e-05 1.0741635e-05 -3.110109e-05 -5.8314396e-05
-7.95466e-05 -9.3724026e-05 -7.815547e-05 -7.0376096e-05 -7.7377685e-05 -8.2120074e-05 -8.6545886e-05 -8.2050974e-05
-4.7353773e-05 -1.5346797e-05 1.37115085e-05 3.4580564e-05 7.0577626e-05 8.916486e-05 0.000101353486 9.769075e-05

exp_avg_sq f4 [96, 336]
00000000: 8d62 b032 cf2d c732 26b2 dc32 e18f f632
00000010: 4519 0a33 8a55 1a33 7688 2d33 16b7 4033
00000020: a74b 5633 a07c 6933 fe6b 7433 9c27 7d33
00000030: ee57 8333 8ede 8733 469f 8833 afea 8733
00000040: 4377 8033 3cbc 7133 5f81 6333 83b0 5733
00000050: 230c 5633 1f84 6133 ddcd 7d33 7c31 9333
00000060: 3672 a233 3a50 a433 1eae 9c33 7db5 8f33
00000070: 4e29 8133 7cbe 6733 ef5e 5833 3923 5733
00000080: 8946 5d33 375a 6c33 e379 7533 49fd 7e33
00000090: 3d63 8533 bb0e 8a33 3397 8c33 fd02 8a33
000000a0: 98bb 8233 f5b4 7433 006c 6533 a2e2 5b33
000000b0: 806b 5b33 2c11 6533 f42c 8133 de3e 9433
000000c0: 84ed a133 0ce6 a433 a3a5 9c33 75ba 8f33
000000d0: e6de 8133 39a4 6a33 358a 5b33 d01f 5933
000000e0: 2e18 6033 5ecf 6e33 b6e2 7833 ff58 8033
000000f0: 23f7 8433 75dd 8933 fa16 8c33 f8a9 8933
00000100: 98bf 8133 cb36 7333 b645 6533 2783 5a33
00000110: 7880 5933 0b07 6333 2100 8033 993e 9233
00000120: 0c7c a033 41b5 a433 a574 9c33 0a34 9033
00000130: 43d3 8233 647e 6a33 aa49 5a33 72d6 5633
00000140: a66c 5e33 e498 6c33 4eb7 7833 b180 8033
00000150: 9114 8533 140c 8933 51c8 8a33 43ca 8833
00000160: 4a5a 8133 5645 7133 1fad 6533 2045 5b33
00000170: b213 5833 e5d1 6133 6bfc 7d33 13b7 9133
00000180: 88b2 9d33 8ee9 a233 e0ba 9a33 9bf2 8e33
00000190: 5153 8133 1e0e 6b33 0d10 5a33 4cdb 5833
000001a0: 4641 6033 8e0e 6e33 c935 7733 b651 7e33
000001b0: 4a24 8533 8d9b 8933 8bb9 8b33 847b 8933
000001c0: dcf2 8233 c0f3 7533 8ad3 6733 4ecc 5c33
000001d0: 50f1 5933 ec76 6133 28ce 7d33 6de5 8f33
000001e0: 11d1 9e33 3646 a433 5eae 9b33 76f9 8f33
000001f0: 615e 8233 e70e 6c33 202f 5c33 2ac5 5933
00000200: fa2c 6033 40a6 6d33 efa0 7633 4efc 7d33
00000210: e7f3 8433 02c9 8a33 4599 8c33 ae4e 8b33
00000220: 6ae8 8433 1162 7933 a17e 6933 28f8 5f33
00000230: 6f24 5d33 7e59 6633 6a5d 8033 fd85 9333
00000240: 1c3d a433 091d a733 d716 9e33 f21f 9033
00000250: dda4 8233 3af8 6933 971f 5b33 08f3 5833
00000260: 1c22 5f33 9358 6c33 3925 7133 a205 7733
00000270: 24db 8133 3896 8833 5925 8b33 e961 8a33
00000280: 4a63 8333 6ef5 7633 a7cc 6533 247c 5833
00000290: 8863 5633 4380 6133 b039 8133 3aee 9333
000002a0: a384 a133 1ad6 a333 2222 9a33 7f72 8d33
000002b0: 910e 7e33 5ffb 6233 6d60 5233 367b 5233
000002c0: 9843 5b33 b5f7 6933 090d 7433 5e6c 7a33
000002d0: 8601 8333 26fe 8733 947a 8933 72af 8733
000002e0: 1619 8033 93c8 6f33 6d2c 6233 446d 5833
000002f0: d962 5833 a2ba 6333 ea44 7f33 12a6 9133
00000300: e14f a233 9215 a533 a77b 9c33 65bc 8f33
00000310: 47d3 8133 f8c5 6833 29a4 5833 dbae 5733
00000320: 031a 5e33 73ee 6e33 1940 7833 3a75 8033
00000330: 9c43 8633 02d1 8b33 78e2 8d33 aacd 8b33
00000340: be85 8433 49f8 7633 b45d 6733 0f3b 5e33
00000350: 486e 5d33 7720 6633 aac6 8033 2a67 9633
00000360: 5d84 a233 29d4 a633 ba85 9d33 d78e 9133
00000370: 7f71 8433 999e 6c33 293e 5e33 5ab0 5a33
00000380: afed 6033 d2cc 7033 7d2c 7b33 9990 8133
00000390: cc05 8733 f01b 8c33 6369 8d33 508c 8a33
000003a0: ada4 8133 56b8 7333 83f9 6533 e788 5c33
000003b0: 5940 5c33 8fac 6633 8e57 8133 22b8 9233
000003c0: e20b a133 fb59 a433 937e 9c33 c00c 9033
000003d0: 05f5 8233 f01a 6b33 54a3 5c33 038b 5a33
000003e0: ee41 6033 bf77 6d33 10c5 7833 1fa2 8033
000003f0: 1577 8633 ad5b 8a33 aca9 8b33 fba4 8933
2.0533912e-08 2.318748e-08 2.5692383e-08 2.8703598e-08 3.215361e-08 3.5933716e-08 4.0403812e-08 4.487e-08
4.9894563e-08 5.4362886e-08 5.6908895e-08 5.8942177e-08 6.116157e-08 6.32691e-08 6.361965e-08 6.329116e-08
5.982158e-08 5.6283383e-08 5.297022e-08 5.0219125e-08 4.9836796e-08 5.250706e-08 5.9093384e-08 6.854222e-08
7.564488e-08 7.651438e-08 7.295988e-08 6.691969e-08 6.014544e-08 5.3957123e-08 5.037776e-08 5.0090623e-08
5.1519724e-08 5.5030082e-08 5.7154363e-08 5.9369345e-08 6.2113465e-08 6.428805e-08 6.546761e-08 6.426669e-08
6.08772e-08 5.6975257e-08 5.3416443e-08 5.1196032e-08 5.108768e-08 5.3333835e-08 6.0152075e-08 6.9032225e-08
7.5403506e-08 7.6786904e-08 7.294445e-08 6.692873e-08 6.0475756e-08 5.463173e-08 5.111561e-08 5.0553183e-08
5.2176055e-08 5.5602293e-08 5.7948192e-08 5.976653e-08 6.191683e-08 6.4198424e-08 6.5234374e-08 6.410477e-08
6.041881e-08 5.662768e-08 5.338162e-08 5.0876363e-08 5.064109e-08 5.285896e-08 5.960488e-08 6.810041e-08
7.4731446e-08 7.669815e-08 7.2855336e-08 6.7149884e-08 6.092025e-08 5.4597322e-08 5.0824077e-08 5.0020795e-08
5.1787218e-08 5.5087085e-08 5.7908714e-08 5.983873e-08 6.197036e-08 6.3817566e-08 6.462563e-08 6.369785e-08
6.023454e-08 5.6175246e-08 5.347567e-08 5.105278e-08 5.0309332e-08 5.2577793e-08 5.9135726e-08 6.78539e-08
7.343357e-08 7.586196e-08 7.205176e-08 6.65652e-08 6.022186e-08 5.472804e-08 5.077168e-08 5.049087e-08
5.221343e-08 5.542693e-08 5.7558086e-08 5.92133e-08 6.199896e-08 6.407854e-08 6.506442e-08 6.402027e-08
6.0977726e-08 5.7265197e-08 5.3976272e-08 5.1408556e-08 5.0743722e-08 5.2495054e-08 5.909365e-08 6.700689e-08
7.395477e-08 7.6496164e-08 7.249467e-08 6.704333e-08 6.070764e-08 5.4961586e-08 5.12656e-08 5.070357e-08
5.219497e-08 5.5332066e-08 5.7422707e-08 5.9135623e-08 6.1910946e-08 6.462689e-08 6.5471376e-08 6.487004e-08
6.189005e-08 5.806402e-08 5.436471e-08 5.214693e-08 5.148871e-08 5.363244e-08 5.9774564e-08 6.869593e-08
7.647961e-08 7.781825e-08 7.361603e-08 6.7113334e-08 6.083585e-08 5.44753e-08 5.101864e-08 5.0512455e-08
5.1952256e-08 5.502859e-08 5.614604e-08 5.7514292e-08 6.046892e-08 6.360318e-08 6.4794854e-08 6.4439355e-08
6.1182234e-08 5.7499555e-08 5.3504348e-08 5.0404324e-08 4.991628e-08 5.2503548e-08 6.017524e-08 6.888554e-08
7.521273e-08 7.629224e-08 7.1773925e-08 6.586651e-08 5.915223e-08 5.2848346e-08 4.8982134e-08 4.9006495e-08
5.1051387e-08 5.4474828e-08 5.6822532e-08 5.830622e-08 6.10044e-08 6.332657e-08 6.4018565e-08 6.318341e-08
5.9650276e-08 5.5828945e-08 5.266013e-08 5.0390796e-08 5.038132e-08 5.3022298e-08 5.943449e-08 6.782297e-08
7.558243e-08 7.687335e-08 7.286808e-08 6.693225e-08 6.045462e-08 5.419676e-08 5.0440722e-08 5.021762e-08
5.171206e-08 5.563056e-08 5.7800296e-08 5.981788e-08 6.252159e-08 6.51071e-08 6.6070186e-08 6.510102e-08
6.1710566e-08 5.7502152e-08 5.38691e-08 5.1742116e-08 5.1555872e-08 5.3580575e-08 5.996601e-08 7.003685e-08
7.5677896e-08 7.768569e-08 7.335207e-08 6.778071e-08 6.167374e-08 5.5092276e-08 5.1744937e-08 5.091747e-08
5.2370236e-08 5.6065637e-08 5.8480953e-08 6.033333e-08 6.287482e-08 6.52434e-08 6.584994e-08 6.4516485e-08
6.036985e-08 5.67455e-08 5.3545147e-08 5.1347254e-08 5.1281265e-08 5.370799e-08 6.022957e-08 6.8321484e-08
7.499308e-08 7.6532125e-08 7.28734e-08 6.707842e-08 6.0981655e-08 5.47397e-08 5.1371288e-08 5.088351e-08
5.2214027e-08 5.528977e-08 5.7921227e-08 5.989954e-08 6.261522e-08 6.4428015e-08 6.503555e-08 6.4095694e-08

exp_avg f4 [96]
00000000: 1eb9 9db7 0109 4f37 a74e 6736 5dec 69b7
00000010: 3217 9eb7 3cce 81b8 899f a9b8 b8e1 90b8
00000020: b401 c9b8 a056 88b8 ff7f 71b8 8f19 28b8
00000030: ab85 13b7 ba7f 3937 38e2 a737 dfb8 fa37
00000040: 24c4 8338 7301 8938 3b87 4a38 3211 2b38
00000050: 20e5 b838 2fb9 d438 dbf7 ed38 ceb1 0439
00000060: 7508 0939 adb1 2839 4550 ee38 ef56 ff38
00000070: 7049 cf38 3070 94b7 f7fb 63b8 f6b1 74b8
00000080: a742 04b8 e136 0a38 5fa4 7738 037a 0538
00000090: a812 db37 8203 1a38 506c 0835 9998 0738
000000a0: 8150 7738 cc5c ee38 d450 dc38 7670 1939
000000b0: 479c 2d39 dd4f 1c39 fd74 f638 08be 1a39
000000c0: 5c44 0139 3822 1539 8658 f838 a853 0339
000000d0: 8272 0439 b1c7 f937 f8c1 3638 8bd7 1d38
000000e0: 72e6 4138 c979 e438 9d0c c038 5d79 5138
000000f0: f4d5 3438 3974 a238 bc33 4d38 bc72 5338
00000100: be59 b238 8b97 0339 4cce 1c39 dfd2 5739
00000110: 91f7 6b39 79f8 2839 831f 4e39 1ef9 6139
00000120: 0c0a 7939 0631 6839 107c 6a39 8590 7339
00000130: d8af 7b39 7836 5b39 c4d7 5439 9d30 3e39
00000140: 2520 1139 9655 2f39 cf7f 1739 45dd 1539
00000150: 637d d938 3204 0939 f1ba 0339 4c17 0039
00000160: 2573 0339 0fac 4e39 0dfe 6039 0885 8339
00000170: 2f00 8439 33f7 8439 b741 6d39 6cd6 4a39
-1.880206e-05 1.2340258e-05 3.4467464e-06 -1.3942915e-05 -1.8845869e-05 -6.1896135e-05 -8.088264e-05 -6.9084985e-05
-9.584744e-05 -6.5011205e-05 -5.7578083e-05 -4.0078125e-05 -8.793005e-06 1.1056598e-05 2.0013293e-05 2.988841e-05
6.283101e-05 6.532939e-05 4.8286496e-05 4.078559e-05 8.8164816e-05 0.00010143441 0.00011347207 0.00012654738
0.00013068489 0.00016087918 0.00011363676 0.0001217554 9.884208e-05 -1.7695216e-05 -5.4355678e-05 -5.8339872e-05
-3.1533327e-05 3.2952874e-05 5.904247e-05 3.1823303e-05 2.6115522e-05 3.6719728e-05 5.0821563e-07 3.2328626e-05
5.8964364e-05 0.00011366009 0.00010505473 0.00014633112 0.00016556784 0.0001490707 0.00011751985 0.00014757377
0.00012327865 0.00014222495 0.0001184205 0.00012524298 0.00012631158 2.9776102e-05 4.357283e-05 3.7632457e-05
4.6229405e-05 0.000108945715 9.157623e-05 4.994251e-05 4.3114604e-05 7.74641e-05 4.892399e-05 5.0413175e-05
8.504417e-05 0.00012549588 0.00014954171 0.00020582553 0.00022503572 0.00016114292 0.0001965743 0.00021550476
0.00023750233 0.00022143507 0.00022362196 0.00023228124 0.00024002732 0.00020905759 0.00020298274 0.00018137922
0.00013840252 0.00016721184 0.00014448095 0.00014292177 0.000103707214 0.00013066901 0.00012562775 0.0001221571
0.00012536028 0.00019709788 0.00021456946 0.00025085383 0.0002517714 0.0002536118 0.00022626562 0.000193441

exp_avg_sq f4 [96]
00000000: 2ff3 8833 a306 b533 62dc c933 6013 dc33
00000010: bf96 e633 7819 f033 53cf f733 1573 fb33
00000020: b721 fb33 7957 0234 c0ac 0134 3f3d 0434
00000030: a6d7 0434 1d9f 0734 0146 0834 e2d3 0934
00000040: 16e6 0a34 1516 0c34 c648 0d34 394a 0c34
00000050: 497a 0a34 4586 0b34 d765 0f34 c58c 1134
00000060: 5183 1334 207e 1634 8ae5 1b34 baee 1b34
00000070: f6ff 2034 b4e8 2334 9e8b 2534 3f32 2534
00000080: e64a 2634 191a 2634 7ea4 2534 70de 2534
00000090: 8d21 2834 93ef 2834 d220 2a34 b881 2e34
000000a0: 4fab 2f34 9e90 3034 5065 2c34 c59e 2834
000000b0: 8492 2a34 8715 2c34 a22e 2834 828b 2c34
000000c0: 21c1 2934 7e62 2934 67e4 2934 2c73 2b34
000000d0: 702e 2c34 7a09 2c34 f060 2b34 b052 2d34
000000e0: 23aa 2f34 ff00 3234 8ae8 3034 5fd4 2e34
000000f0: 3ee2 2f34 b991 3134 86e2 3434 2e1d 3734
00000100: 52cb 3234 bfdc 3634 3c84 3b34 d56e 3734
00000110: 0ba0 3a34 3b9d 3a34 ab5f 3a34 b713 3b34
00000120: 3f21 3a34 c830 3434 e3d0 3234 7c66 3734
00000130: 4817 3734 d2d3 3a34 2e5a 3c34 8020 3c34
00000140: ef07 3c34 6649 3c34 198e 3834 54fd 3234
00000150: 203c 3434 6fad 3534 0a1c 3334 80c8 3434
00000160: ba22 3234 6e99 3734 ccb7 3a34 c8c5 3734
00000170: 5133 3a34 09a9 3934 65e9 3e34 e391 4134
6.377228e-08 8.4296765e-08 9.399879e-08 1.02480726e-07 1.073763e-07 1.11805036e-07 1.1539546e-07 1.17090316e-07
1.1694231e-07 1.2139016e-07 1.2076907e-07 1.2315739e-07 1.237191e-07 1.263074e-07 1.2691454e-07 1.2836202e-07
1.2935956e-07 1.304655e-07 1.3158123e-07 1.3065518e-07 1.2896739e-07 1.2994231e-07 1.3354962e-07 1.3555389e-07
1.3738214e-07 1.4015723e-07 1.4519006e-07 1.4522348e-07 1.4994279e-07 1.5265215e-07 1.5417615e-07 1.5385102e-07
1.5487203e-07 1.5469449e-07 1.5426664e-07 1.5447745e-07 1.5658425e-07 1.5733376e-07 1.5844424e-07 1.6252204e-07
1.6360467e-07 1.6443889e-07 1.6055606e-07 1.5703979e-07 1.5885786e-07 1.602658e-07 1.5663184e-07 1.6069501e-07
1.5809611e-07 1.5775183e-07 1.5822444e-07 1.5967515e-07 1.6035642e-07 1.6022196e-07 1.5960882e-07 1.6141962e-07
1.636004e-07 1.6577904e-07 1.6475875e-07 1.6282273e-07 1.6380451e-07 1.6537423e-07 1.6846215e-07 1.7053819e-07
1.665151e-07 1.7030378e-07 1.7463839e-07 1.7083524e-07 1.7380823e-07 1.73798e-07 1.7357404e-07 1.7422904e-07
1.7334695e-07 1.6781553e-07 1.6653534e-07 1.7080487e-07 1.7051673e-07 1.739966e-07 1.7541672e-07 1.7520688e-07
1.751175e-07 1.7535567e-07 1.718803e-07 1.6669702e-07 1.678568e-07 1.6920033e-07 1.6680875e-07 1.6836748e-07
1.6590175e-07 1.709902e-07 1.7389465e-07 1.7115156e-07 1.7341269e-07 1.7290962e-07 1.7780037e-07 1.8027599e-07

exp_avg f4 [96, 336]
00000000: f8bb 83b8 e61f 77b8 fbb4 62b8 cadc 4ab8
00000010: acb3 30b8 49b9 24b8 97fa 0ab8 3ee6 00b8
00000020: 0e5d e8b7 b166 dbb7 046b d7b7 cdf2 dcb7
00000030: 20b6 e7b7 aea8 f0b7 11a1 f4b7 36dd 02b8
00000040: 4231 07b8 0880 08b8 9f74 09b8 d64d 0ab8
00000050: 5a94 07b8 e5da 01b8 60aa 02b8 4b62 01b8
00000060: b268 f6b7 f10a f9b7 1786 edb7 a884 edb7
00000070: 0565 eab7 e064 f0b7 6ac4 ebb7 fbff e4b7
00000080: aa1b e0b7 d489 dfb7 ffeb e3b7 d2e1 f0b7
00000090: d673 f4b7 bbdb f3b7 fa93 e6b7 d632 e8b7
000000a0: 4e53 e3b7 e681 e2b7 962d e1b7 7389 dfb7
000000b0: c410 d5b7 8554 cfb7 14c7 c1b7 d0ae b7b7
000000c0: 8795 a1b7 2ca1 9cb7 ea9a a1b7 3da2 a6b7
000000d0: ef11 a8b7 2557 a9b7 fb7e adb7 ce54 bcb7
000000e0: 7f03 c4b7 0bff cbb7 d3d7 dbb7 b009 e0b7
000000f0: 72ab d7b7 cd17 e3b7 fda4 d5b7 b576 dab7
00000100: 7fa9 ddb7 48b9 dfb7 8482 d6b7 478f c8b7
00000110: 4636 b8b7 14f3 acb7 f540 a3b7 45ad 91b7
00000120: 1e7b 8ab7 5e14 72b7 90c1 62b7 05d8 61b7
00000130: aadb 5cb7 f824 62b7 8edb 57b7 66c8 51b7
00000140: ba65 73b7 2f2c 71b7 7ae4 85b7 5ed2 8bb7
00000150: 4482 98b7 5051 9fb7 09b3 a0b7 3bc7 a5b7
00000160: e1f2 afb7 57c5 b7b7 48f1 b9b7 7484 bcb7
00000170: e8c4 b5b7 a1b6 b7b7 33c3 acb7 b9c5 a5b7
00000180: 0c32 9fb7 a7d3 97b7 1ddc 94b7 80e2 9eb7
00000190: 4c71 9fb7 6d5a a3b7 6716 a4b7 aaf0 aab7
000001a0: 127d bcb7 5b84 d0b7 94fe d7b7 7d10 e9b7
000001b0: 248a efb7 e1df f4b7 a027 edb7 5d2a f6b7
000001c0: d1ea fab7 0768 04b8 1c0a 07b8 7a68 08b8
000001d0: 9d6f 0eb8 b70c 09b8 dfec 03b8 098c ffb7
000001e0: f676 f7b7 437e eeb7 5d5a f2b7 9b90 eab7
000001f0: 7510 f0b7 22e9 00b8 1e06 04b8 5f3b 0cb8
00000200: 5df1 0fb8 fb36 16b8 4c31 1ab8 3514 1eb8
00000210: e2b5 23b8 f0b3 20b8 c935 1bb8 1426 1bb8
00000220: 1038 1bb8 c191 16b8 37bf 1ab8 07e3 10b8
00000230: a8c0 07b8 96f2 00b8 310b f8b7 2890 f5b7
00000240: 4c64 dfb7 68ea d3b7 2bc5 d0b7 373b dcb7
00000250: 530a d4b7 1489 d5b7 1fd4 c8b7 9826 b8b7
00000260: 60a1 c0b7 0e72 bfb7 7a3d b9b7 a8a3 bbb7
00000270: 141f aab7 e7cd a5b7 9866 9cb7 98ed 97b7
00000280: a97b 94b7 fd0c 9ab7 724f 96b7 ddd9 79b7
00000290: efd1 76b7 6e87 51b7 469c 34b7 5d25 1ab7
000002a0: 2c63 ffb6 1b7f e3b6 bb92 e9b6 8d2b edb6
000002b0: ae2f 0fb7 492a 11b7 d71e 1cb7 50ff 49b7
000002c0: 481c 6fb7 ab4e 90b7 14b0 b2b7 c329 cdb7
000002d0: 55e2 e3b7 6820 05b8 6c4d 0fb8 fd9b 13b8
000002e0: b574 1fb8 7f64 29b8 c90c 33b8 e165 37b8
000002f0: 6b40 36b8 a9c3 39b8 d22f 3ab8 5789 40b8
00000300: f1a3 3db8 adf3 42b8 4b45 41b8 016b 45b8
00000310: b4e9 44b8 c410 46b8 5a2f 46b8 b179 49b8
00000320: 0b49 4bb8 3b31 4bb8 da1d 54b8 d72b 55b8
00000330: a00d 54b8 8fdf 52b8 8072 46b8 3a0a 41b8
00000340: afe3 44b8 2d28 40b8 9af4 3eb8 bf8e 37b8
00000350: eb11 30b8 701e 25b8 e57d 1db8 405d 15b8
00000360: b7e1 0bb8 fc35 02b8 e4ac fdb7 dcfe f3b7
00000370: 41ee f4b7 769f f2b7 4fb5 fab7 bd36 fab7
00000380: e4bc 02b8 1908 05b8 c2c1 09b8 5f98 0ab8
00000390: c385 09b8 6df0 09b8 e280 07b8 3c89 09b8
000003a0: 40f5 09b8 3425 07b8 968d 07b8 4b89 ffb7
000003b0: 0558 f6b7 2836 ecb7 1767 dab7 273b d0b7
000003c0: 798d bab7 8443 b5b7 bc93 a8b7 0082 a9b7
000003d0: 3094 a4b7 21bb a3b7 f082 9cb7 2eea 97b7
000003e0: a0cf 9cb7 2080 a6b7 6e6a a2b7 8098 a4b7
000003f0: 99b3 9eb7 fb2e 9cb7 75c6 8cb7 9f62 8fb7
-6.281579e-05 -5.8919097e-05 -5.405115e-05 -4.836618e-05 -4.2129002e-05 -3.9273207e-05 -3.3135144e-05 -3.0732008e-05
-2.7699887e-05 -2.6154654e-05 -2.567983e-05 -2.6339107e-05 -2.7622154e-05 -2.8688777e-05 -2.9162069e-05 -3.1200434e-05
-3.2232383e-05 -3.2544165e-05 -3.2771957e-05 -3.2974254e-05 -3.232467e-05 -3.0959858e-05 -3.115309e-05 -3.084754e-05
-2.9374238e-05 -2.9688208e-05 -2.8315042e-05 -2.8314375e-05 -2.7942015e-05 -2.8657203e-05 -2.8105645e-05 -2.7298918e-05
-2.6715763e-05 -2.6647853e-05 -2.7170403e-05 -2.8715385e-05 -2.9141007e-05 -2.9070177e-05 -2.7487044e-05 -2.7680228e-05
-2.70993e-05 -2.7001788e-05 -2.6843318e-05 -2.6647676e-05 -2.5399386e-05 -2.471568e-05 -2.3100096e-05 -2.1896703e-05
-1.9262325e-05 -1.86717e-05 -1.9264833e-05 -1.986429e-05 -2.0035512e-05 -2.018695e-05 -2.0682337e-05 -2.2450837e-05
-2.3366649e-05 -2.431825e-05 -2.6207335e-05 -2.6707392e-05 -2.5709833e-05 -2.7071592e-05 -2.5468407e-05 -2.6042902e-05
-2.642418e-05 -2.666995e-05 -2.5571564e-05 -2.3908577e-05 -2.1959782e-05 -2.061719e-05 -1.9461362e-05 -1.7366032e-05
-1.6508213e-05 -1.4429066e-05 -1.3515717e-05 -1.3461341e-05 -1.3164166e-05 -1.3479257e-05 -1.2866118e-05 -1.250403e-05
-1.4507614e-05 -1.4375007e-05 -1.5961228e-05 -1.6668051e-05 -1.8180472e-05 -1.8992141e-05 -1.9156856e-05 -1.9762307e-05
-2.0974725e-05 -2.1907194e-05 -2.2166074e-05 -2.2473025e-05 -2.1668573e-05 -2.1900343e-05 -2.0594895e-05 -1.9761605e-05
-1.8977582e-05 -1.8099161e-05 -1.7745473e-05 -1.894054e-05 -1.9007035e-05 -1.9473222e-05 -1.9560755e-05 -2.0377647e-05
-2.2469587e-05 -2.4857165e-05 -2.5748544e-05 -2.7783442e-05 -2.8555347e-05 -2.9191318e-05 -2.8271053e-05 -2.9345212e-05
-2.9911667e-05 -3.1568135e-05 -3.2195923e-05 -3.2522228e-05 -3.3959386e-05 -3.2675187e-05 -3.1453437e-05 -3.0463578e-05
-2.950009e-05 -2.8430606e-05 -2.8890727e-05 -2.7962311e-05 -2.8617893e-05 -3.07347e-05 -3.147695e-05 -3.3433895e-05
-3.4318644e-05 -3.581399e-05 -3.6762372e-05 -3.7688955e-05 -3.903162e-05 -3.8314553e-05 -3.700497e-05 -3.6990343e-05
-3.7007092e-05 -3.589853e-05 -3.6894544e-05 -3.454371e-05 -3.2365933e-05 -3.0743504e-05 -2.9569115e-05 -2.9273404e-05
-2.6630376e-05 -2.5262314e-05 -2.4887346e-05 -2.6253618e-05 -2.5277177e-05 -2.545541e-05 -2.3940634e-05 -2.195248e-05
-2.296333e-05 -2.2822085e-05 -2.2082346e-05 -2.2368346e-05 -2.0280051e-05 -1.9765414e-05 -1.8644423e-05 -1.8111241e-05
-1.7700559e-05 -1.8364279e-05 -1.7918388e-05 -1.4892282e-05 -1.4711622e-05 -1.2488903e-05 -1.0765221e-05 -9.187815e-06
-7.6111373e-06 -6.779924e-06 -6.961023e-06 -7.0682204e-06 -8.5345655e-06 -8.652519e-06 -9.305505e-06 -1.2039978e-05
-1.4252095e-05 -1.720277e-05 -2.1301246e-05 -2.4457351e-05 -2.7165903e-05 -3.173985e-05 -3.416596e-05 -3.5192807e-05
-3.8017246e-05 -4.0386334e-05 -4.2688833e-05 -4.3725482e-05 -4.3452175e-05 -4.428966e-05 -4.4390392e-05 -4.5904275e-05
-4.5213794e-05 -4.6480145e-05 -4.607932e-05 -4.7068115e-05 -4.6947694e-05 -4.7222493e-05 -4.725098e-05 -4.803547e-05
-4.8466998e-05 -4.844482e-05 -5.057254e-05 -5.0823986e-05 -5.0557428e-05 -5.0276107e-05 -4.7313515e-05 -4.602431e-05
-4.694209e-05 -4.5813784e-05 -4.5527333e-05 -4.3763543e-05 -4.1978357e-05 -3.9367413e-05 -3.7548965e-05 -3.5611214e-05
-3.3350396e-05 -3.1044692e-05 -3.0240459e-05 -2.9086536e-05 -2.9198012e-05 -2.8922903e-05 -2.988675e-05 -2.9827812e-05
-3.1170333e-05 -3.1717213e-05 -3.2843796e-05 -3.304367e-05 -3.278792e-05 -3.288726e-05 -3.230654e-05 -3.2791155e-05
-3.2891752e-05 -3.2221156e-05 -3.231837e-05 -3.04623e-05 -2.9366473e-05 -2.815861e-05 -2.603563e-05 -2.4823077e-05
-2.2238806e-05 -2.160832e-05 -2.0095955e-05 -2.0206906e-05 -1.9619329e-05 -1.9518253e-05 -1.8657622e-05 -1.8109651e-05
-1.8693332e-05 -1.9848405e-05 -1.9361465e-05 -1.9621337e-05 -1.89187e-05 -1.8618526e-05 -1.6781714e-05 -1.7092852e-05
