checkpoints/DLinear/ETTm1_100_336_96/1514159180707450e1fb2116cbfe9257/DLinear_100.pt (torch, 782262 bytes, 12 tensors)

Linear_Seasonal.weight f4 [96, 336]
0	0x3c14c887	0.009081013
1	0xba4943f6	-0.00076776685
2	0xbaf1f996	-0.0018461223
3	0x3ab91a1d	0.0014122162
4	0xb8da87d3	-0.00010420349
5	0xbb4f1594	-0.0031598555
6	0xbaa56456	-0.0012618403
7	0xbb80d5f5	-0.0039317557
8	0xbba1a973	-0.00493353
9	0xbbe731ae	-0.007055483
10	0xbc069323	-0.008213791
11	0xbb91bbf3	-0.004447454
12	0xbb82d87d	-0.0039930926
13	0xbc26572a	-0.0101526175
14	0xbbcc6a44	-0.006238254
15	0xbb38e18e	-0.0028210613
16	0xbbdc2dd3	-0.00671933
17	0xbbb3e489	-0.00548989
18	0xbb860659	-0.004090112
19	0xbb4da85f	-0.0031380875
20	0xbb9a00ca	-0.004699801
21	0xbb68847b	-0.0035479355
22	0xbb580926	-0.0032964437
23	0xbb764632	-0.003757846
24	0xbb914a9d	-0.0044339434
25	0xbae22a7c	-0.0017255093
26	0xbb1761a3	-0.0023098968
27	0x39f0d56d	0.00045935382
28	0x3a4c4ab3	0.00077931135
29	0x3bab8816	0.0052347286
30	0x3b9bb96d	0.004752329
31	0x3b8f31ff	0.0043699737
32	0x3ac696a3	0.0015151094
33	0x3b5e8f2e	0.0033959853
34	0xba0deb46	-0.00054137816
35	0x3baced05	0.0052772784
36	0xbafbe6bc	-0.0019218544
37	0x3bf63cc9	0.0075145704
38	0x3ac8f4cb	0.0015331743
39	0x3bb00bb1	0.0053724875
40	0x3b2bb0b7	0.002619786
41	0x3ba3eef2	0.0050028497
42	0xbab1c508	-0.0013562748
43	0xbb4059fd	-0.0029350512
44	0xbb443eba	-0.0029944615
45	0xbc9b3621	-0.01894671
46	0xbcb57cb1	-0.022154184
47	0xbc33f210	-0.010983005
48	0x3d0c4797	0.03424796
49	0x3c92bd26	0.017912459
50	0x3c002d7f	0.007823347
51	0x3bf1b642	0.007376463
52	0x3b9b231e	0.004734411
53	0x3ba11066	0.004915285
54	0xbba8c490	-0.005150385
55	0xbbe32010	-0.0069313124
56	0xbb574ece	-0.0032853368
57	0xb8d4e293	-0.000101511505
58	0xbc2053ea	-0.009785632
59	0x3b0e4ba9	0.0021712577
60	0x3a311247	0.00067547377
61	0x3a802a23	0.0009778183
62	0x3ad2dde3	0.0016087856
63	0xbab5fedf	-0.0013885162
64	0x3a0bb310	0.00053291116
65	0x3be0f6b4	0.006865347
66	0x3afb8639	0.0019189782
67	0xb8970625	-7.2013856e-05
68	0xbbb5c29f	-0.0055468823
69	0xbb755721	-0.0037435966
70	0xbb36f211	-0.002791528
71	0xbb2b08e0	-0.002609782
72	0xba8cdb90	-0.0010746587
73	0xb9da7d42	-0.00041673525
74	0xbb1fe4a3	-0.0024397753
75	0xbb76afd1	-0.0037641416
76	0xb988810c	-0.0002603609
77	0xba41e967	-0.00073971454
78	0x3a7a3cb9	0.00095457915
79	0xba215ff3	-0.000615596
80	0x3b142e85	0.0022610736
81	0x3a2d7fd0	0.0006618472
82	0xbb2277d3	-0.002479066
83	0xbb06172f	-0.0020460596
84	0x3960b5c2	0.00021430015
85	0x3b398086	0.0028305366
86	0x3b842936	0.004033233
87	0xbb9bf1b6	-0.004759039
88	0xba365db1	-0.000695671
89	0xb9e90715	-0.000444465
90	0x38ca7c38	9.655248e-05
91	0x3a174f82	0.00057720405
92	0x35ac1d46	1.2823518e-06
93	0x3b093383	0.0020935244
94	0x39fd5e76	0.000483263
95	0x3ac5803b	0.0015068123
96	0xbb6ac21a	-0.003582126
97	0xba9eb9a8	-0.0012109773
98	0xbb137c34	-0.002250445
99	0x3bc80f9a	0.0061053755
100	0x398bf999	0.0002669811
101	0x3a860547	0.0010224961
102	0xbb4a7bb2	-0.0030896482
103	0xbbd0671f	-0.0063599492
104	0xbba74955	-0.0051051774
105	0xbb24494e	-0.0025068107
106	0x3904f9d7	0.00012681574
107	0x3b894bc4	0.00418994
108	0x3b38cc42	0.002819792
109	0xbba74123	-0.0051042004
110	0x3acf9507	0.001583726
111	0xb99ea962	-0.00030262308
112	0x3b64580e	0.0034842524
113	0x39cfee76	0.00039659784
114	0xba54b82f	-0.00081146037
115	0x3ad8f924	0.0016553742
116	0xbad3011b	-0.0016098352
117	0x39bd7872	0.00036138628
118	0x3a063b3a	0.000512052
119	0xbabb4af8	-0.001428931
120	0x3be4b224	0.006979244
121	0x3b115dc7	0.002218114
122	0x3b43e00d	0.0029888183
123	0xba4a4a2f	-0.00077167427
124	0x3b3e8a90	0.002907429
125	0x3bc8676f	0.006115846
126	0x3b4c8855	0.003120919
127	0xba261701	-0.00063358253
128	0x3a909f7e	0.001103386
129	0xbaa6d2ae	-0.0012727582
130	0x3ac15166	0.001474899
131	0x3b071d30	0.0020616762
132	0xbae0f04c	-0.0017161458
133	0xbaf848d9	-0.0018942609
134	0xbade1378	-0.0016943058
135	0x3b06441d	0.0020487376
136	0xb95360d7	-0.00020158604
137	0xba559cc6	-0.0008148666
138	0xbbc08b18	-0.0058759563
139	0xbc0f6271	-0.008751498
140	0xbc8846f0	-0.016635388
141	0xbcc88269	-0.024476247
142	0xbd135c50	-0.035976708
143	0xbc3cc5bd	-0.011521754
144	0x3d3b2d84	0.045697704
145	0x3cc84759	0.024448084
146	0x3bd56a44	0.006512912
147	0x3c3139b8	0.010816984
148	0x3bba7ee9	0.0056913984
149	0x3ac5b8d3	0.0015084989
150	0xbb713b7e	-0.0036809142
151	0xbbcd2628	-0.006260652
152	0x39198d7b	0.00014643923
153	0x3b5b5629	0.0033468104
154	0xbb81c6a1	-0.003960446
155	0xb99d4036	-0.00029993214
156	0x3ae86db6	0.0017732892
157	0x398d99e7	0.00027008282
158	0xbb857903	-0.0040732636
159	0x3bbc80e5	0.00575267
160	0xbb03a859	-0.0020089357
161	0x3b09168f	0.0020917987
162	0xbb855743	-0.0040692403
163	0xbb2cc925	-0.0026365009
164	0xb900fc79	-0.00012301085
165	0xbb9dcad8	-0.0048154406
166	0x3a6bd986	0.0008996952
167	0xba324c99	-0.0006801575
168	0xba01680d	-0.0004936464
169	0x3b64420e	0.003482941
170	0x3b0aa7c6	0.002115713
171	0x39ea4df0	0.00044690026
172	0xbafed2ff	-0.0019441544
173	0x3b25ff15	0.0025329043
174	0xba26ad1a	-0.00063581916
175	0xba2224bc	-0.00061852834
176	0xbac189d8	-0.0014765812
177	0xba8d25fe	-0.0010768769
178	0x398f7fd0	0.00027370313
179	0xbbe9464d	-0.007118976
180	0xbb34fbdb	-0.0027615938
181	0x3b84e080	0.004055083
182	0x3b3b7690	0.0028604604
183	0xbb686805	-0.003546239
184	0xbafcee41	-0.0019297079
185	0x38fcc74f	0.000120534205
186	0x3a1f393b	0.00060738967
187	0x37d0345b	2.4819912e-05
188	0x3aa26f2d	0.0012392752
189	0x3aa1a35a	0.0012332008
190	0xb9b00ec3	-0.00033580334
191	0xba10a693	-0.00055179856
192	0xbb24a773	-0.0025124222
193	0xbadd80af	-0.0016899313
194	0xbb2b43dd	-0.002613298
195	0x3b78901f	0.00379277
196	0xba226704	-0.000619516
197	0x3ad8c3b8	0.0016537821
198	0xb9e27709	-0.00043194767
199	0x3b4ed27e	0.0031558569
200	0xbaec1b02	-0.001801342
201	0x3866de83	5.5043503e-05
202	0xbaa4c2fd	-0.0012570318
203	0x3b826b4f	0.0039800773
204	0x3aacc3ac	0.0013180873
205	0x3ae79683	0.0017668757
206	0x3ab75f85	0.0013990259
207	0x3a7439d5	0.0009316479
208	0x3b815080	0.003946364
209	0x38dd74c8	0.000105598534
210	0xbb741321	-0.0037242847
211	0xb78c8d94	-1.6755228e-05
212	0xba91349c	-0.0011078301
213	0xbb15d2c5	-0.0022861224
214	0xb9cab56a	-0.00038663606
215	0x3a9b02b2	0.0011826365
216	0x3ab74c95	0.0013984615
217	0xba9fc653	-0.0012189843
218	0x3b4666d3	0.003027369
219	0x3b4a2faa	0.0030851164
220	0x3ac2febf	0.0014876946
221	0x3a0d7297	0.00053957984
222	0xbb0a0827	-0.0021061988
223	0xbb36cb6d	-0.0027892247
224	0xbc080b9f	-0.008303552
225	0xbaacef39	-0.0013193853
226	0xbba5f550	-0.005064644
227	0xbb4e6de9	-0.0031498617
228	0x3b0099e7	0.0019622983
229	0x3a99afa1	0.0011725315
230	0x3b88e223	0.004177348
231	0xbb2a9b92	-0.0026032669
232	0x3ae687e3	0.0017588105
233	0x3900f276	0.00012297355
234	0xbbf92853	-0.007603684
235	0xbbd35736	-0.0064496053
236	0xbc214557	-0.009843192
237	0xbc87dc2c	-0.016584478
238	0xbcbdc82a	-0.023166735
239	0xbc621f1f	-0.013801365
240	0x3d09e6b5	0.033667285
241	0x3cb7c6f9	0.022433745
242	0x3c55b317	0.013043187
243	0x3c0f0e53	0.0087314425
244	0x3c2dbe52	0.010604458
245	0xb9dc49ac	-0.0004201656
246	0x3a3cfc03	0.00072091835
247	0x3aa05c46	0.0012234531
248	0xbab6b88b	-0.0013940496
249	0x3b4cdc9d	0.0031259425
250	0x3b4ad5c8	0.0030950177
251	0xb9d5a218	-0.00040747295
252	0x3bca73ec	0.0061783697
253	0xbb97262f	-0.004612706
254	0x3a442ce7	0.00074834976
255	0x3a924b51	0.0011161362

Linear_Seasonal.bias f4 [96]
0	0x3b61a79e	0.0034432183
1	0x3b9d3a0c	0.0047981795
2	0x39af1a90	0.00033398392
3	0x3be31380	0.006929815
4	0xbc7228e1	-0.014780254
5	0x3bcf2216	0.006321202
6	0xbc2bfaab	-0.010496776
7	0x3c2cf96a	0.010557512
8	0x3c4fb10e	0.0126764905
9	0xbc67b4e0	-0.014142245
10	0xbbd4cc13	-0.006494054
11	0xbc5c0234	-0.01342826
12	0x3b6cdbdf	0.0036141796
13	0x3c28e51c	0.01030853
14	0x3c32cf28	0.010913648
15	0xbc2a266c	-0.010385137
16	0x3c63da88	0.013907082
17	0xbb76cfb2	-0.0037660417
18	0xbcac5690	-0.02103737
19	0xbc43e79d	-0.011957076
20	0x3b092782	0.002092809
21	0xbc054fbe	-0.008136688
22	0xbbbd3167	-0.0057737115
23	0xbb7fc097	-0.0039024705
24	0xbb4beada	-0.0031115324
25	0x3caeb760	0.021327674
26	0xb81ed19c	-3.786535e-05
27	0xbb748679	-0.0037311597
28	0x3c29a9b5	0.010355403
29	0x3ba78948	0.0051128007
30	0x3bccaf0d	0.0062464536
31	0xbb046d91	-0.0020206908
32	0xbc2b9141	-0.010471643
33	0x3c80ee88	0.01573874
34	0x3c9f034b	0.01941075
35	0xbc5b8a62	-0.013399692
36	0xbc85d5e8	-0.01633735
37	0xbc23c916	-0.009996673
38	0xbc6db1ac	-0.014507692
39	0x3c741873	0.014898407
40	0xbc94d39b	-0.018167308
41	0xbb40e94f	-0.0029435938
42	0xbb159c4d	-0.0022828758
43	0xbb529030	-0.00321294
44	0x3ba2ab84	0.004964294
45	0x3c32da83	0.010916355
46	0x3c88dd70	0.016707152
47	0x3bf74162	0.007545636
48	0x3af7ac6f	0.0018895994
49	0xbc9e76e4	-0.0193438
50	0xbba02914	-0.0048877094
51	0x390869ca	0.0001300938
52	0xbaa95d44	-0.0012921472
53	0x3721018f	9.596711e-06
54	0x3c69e1f6	0.014275065
55	0xbc33331c	-0.010937478
56	0xbc3dc0a7	-0.011581576
57	0xbc5a001c	-0.01330569
58	0xbc32d430	-0.010914847
59	0x3ac6e6d7	0.0015174997
60	0xbc0e19b5	-0.008673121
61	0x3c417d5c	0.011809673
62	0xba85a66f	-0.0010196696
63	0x3affecdd	0.0019525547
64	0x3a80208c	0.0009775325
65	0x3b879c0b	0.004138475
66	0xbb131d32	-0.0022447822
67	0x3c196dbc	0.009364542
68	0x3bdc5ef6	0.0067251874
69	0x3c39e90e	0.0113470685
70	0x3b268eac	0.002541463
71	0xbca0d3f6	-0.01963232
72	0x3ca35a8b	0.019940635
73	0x3c3fada3	0.011699113
74	0x3c3509b8	0.01104968
75	0xbcdba7a2	-0.026813332
76	0xb8c94522	-9.597304e-05
77	0x3cc2fd5d	0.023802454
78	0xbc18fe8b	-0.0093380315
79	0xbc2d4bec	-0.010577183
80	0xbc2a6f3c	-0.010402497
81	0x3c189b04	0.009314302
82	0x3c0d35d1	0.008618788
83	0xbc9f6e48	-0.019461766
84	0xbbc87081	-0.006116927
85	0xbca4c7c6	-0.02011479
86	0xbb41266b	-0.0029472362
87	0x3b157ef0	0.0022811256
88	0x3c583db5	0.013198306
89	0xbbab57a8	-0.0052289553
90	0x3b82bf10	0.0039900616
91	0x3b79d2d3	0.0038120046
92	0xbbc7fe62	-0.006103323
93	0x3b7f5d70	0.0038965605
94	0x3b250bb5	0.002518398
95	0x3b2f463b	0.0026744741

Linear_Trend.weight f4 [96, 336]
0	0xbc4d6f03	-0.012538674
1	0xbc6754ac	-0.014119308
2	0x3cc936d6	0.02456228
3	0xbc8131f3	-0.015770888
4	0x3c82fed2	0.015990648
5	0x3c7278df	0.014799326
6	0xbc92c770	-0.017917365
7	0xbc550495	-0.013001581
8	0xbc5b979e	-0.013402848
9	0xbb7b04b4	-0.0038302364
10	0xbccfcc3d	-0.025365943
11	0x3c6d749a	0.014493132
12	0x3989a748	0.0002625531
13	0x3aaf3c37	0.0013369386
14	0x3cbf1861	0.023327054
15	0x3c519ca1	0.012793691
16	0x3c01089a	0.007875586
17	0x3c494d23	0.012286457
18	0xbb132b2f	-0.002245616
19	0x3c8fa0fb	0.017532816
20	0x3c1c9615	0.009557267
21	0x3ccb95f9	0.024851786
22	0x3c80f338	0.015740976
23	0xbc378aa4	-0.011202488
24	0xbcb0db9d	-0.021589095
25	0x3b4124ba	0.0029471354
26	0x3ce0edde	0.027457174
27	0x3aaff191	0.0013423433
28	0xbcc2770c	-0.023738407
29	0x3ac41bc4	0.0014961888
30	0xbcbd0949	-0.023075717
31	0xbc2d3d15	-0.010573645
32	0xbcaa7c5e	-0.020811256
33	0x3c56d487	0.013112194
34	0xbae45aba	-0.0017422058
35	0xbc9d854c	-0.0192286
36	0xbc9f9cff	-0.019484041
37	0xbc010940	-0.0078757405
38	0x3ccc7e8e	0.02496269
39	0xbca6f527	-0.02038057
40	0xbc816653	-0.015795862
41	0xbc8b723f	-0.01702225
42	0xbba86214	-0.005138645
43	0xbb81cecc	-0.0039614197
44	0x3a00e28d	0.0004916571
45	0x3c04fee3	0.00811741
46	0x3cb630cf	0.02224007
47	0x3ce623ed	0.028093303
48	0x3c105437	0.008809141
49	0x3cd9e9eb	0.026600799
50	0x3ca3fe1d	0.020018632
51	0x3c4c1b4e	0.012457682
52	0xbc40568c	-0.011739384
53	0x3ac0617e	0.0014677492
54	0xbcb39085	-0.021919498
55	0xbc86f525	-0.016474316
56	0xbb6ff882	-0.0036616628
57	0x398de824	0.00027066574
58	0x3c4d25bc	0.012521204
59	0xbbc5a570	-0.0060316846
60	0x3c6b81c4	0.0143742
61	0xbc58ff06	-0.013244396
62	0xbcbff03a	-0.023429979
63	0x3ccd5060	0.02506274
64	0xbc53d642	-0.012929501
65	0x3c6f4e5d	0.014606086
66	0xba9fe889	-0.0012200038
67	0x3b6e8e8c	0.0036400883
68	0xbc995cbf	-0.018720983
69	0x3bb46e40	0.005506307
70	0x3c809930	0.015698045
71	0xbc9bbb7c	-0.019010298
72	0xba0a02a2	-0.00052646745
73	0x3b47ea85	0.0030504775
74	0xbc780d7f	-0.0151399365
75	0x397282da	0.00023127664
76	0xbb4642d6	-0.003025224
77	0xbb8d47c7	-0.004311535
78	0x3c9a752c	0.0188547
79	0x3c9fe73a	0.019519437
80	0x3cba57e9	0.022746997
81	0x3c994cd2	0.018713389
82	0xbcd47bef	-0.025938002
83	0xbc597df6	-0.01327466
84	0xbbab1add	-0.005221708
85	0x3bff38fd	0.007788776
86	0x3cf26d34	0.029593088
87	0xbc9f10d6	-0.019417208
88	0xbcb9b574	-0.022669531
89	0xbbfee50d	-0.00777877
90	0xbcaaec94	-0.020864762
91	0xbbdb2fac	-0.0066890325
92	0xbc1ab476	-0.009442439
93	0xbc476ca1	-0.012171895
94	0x3d033bde	0.032039516
95	0x3bb4d934	0.0055190567
96	0xbc42eada	-0.011896813
97	0xbc1aba5b	-0.009443845
98	0x3cc05267	0.023476792
99	0x3c71a6cc	0.01474924
100	0xbc4b4293	-0.012406009
101	0xbcba20c3	-0.0227207
102	0x3c4e3832	0.01258664
103	0x3c353416	0.011059782
104	0x3bdc12fa	0.0067161294
105	0xbcc792a2	-0.024361912
106	0x3cace57e	0.021105524
107	0x3c47f595	0.012204547
108	0x3c1de1ad	0.009636325
109	0xbc161ad0	-0.009161666
110	0xbc5a6941	-0.013330759
111	0xbb2cdde6	-0.002637738
112	0x3cae282b	0.021259388
113	0x3c9dfbd5	0.019285122
114	0x3ca77378	0.020440802
115	0xbcc54a60	-0.024083316
116	0x3c0487a2	0.008088978
117	0xbcc6521f	-0.02420908
118	0xbc6ef6b6	-0.014585188
119	0xbc7feef1	-0.015620933
120	0xbbf39cd9	-0.007434469
121	0xbbd4633f	-0.0064815576
122	0x3c8d49dc	0.017247133
123	0xbcde4ee1	-0.027137222
124	0xbc2eb9c4	-0.010664407
125	0x3c708310	0.014679685
126	0x3ce8bdf6	0.028410893
127	0xbc237c1e	-0.009978322
128	0x3cdbc16a	0.026825625
129	0xbc7490b7	-0.014927081
130	0xbbf3deec	-0.007442346
131	0x3b93bb5d	0.0045084194
132	0xbbc74289	-0.0060809297
133	0x3c1cd5af	0.0095724305
134	0x3b98ab94	0.0046591256
135	0xbc5500bb	-0.013000662
136	0xbb2d1deb	-0.0026415538
137	0x3bfecbe3	0.00777577
138	0xbcd672fc	-0.026177876
139	0x3b211cc3	0.0024583794
140	0xbbb1bfb5	-0.0054244646
141	0x3c9ca248	0.01912035
142	0xbb993439	-0.004675415
143	0x3c426630	0.011865184
144	0xbcd19475	-0.025583485
145	0x3b54cb7c	0.003246992
146	0x3c67253f	0.014108001
147	0xbc61b2ce	-0.0137755405
148	0x3ca3ac4f	0.019979624
149	0x3c6b4934	0.014360715
150	0xbcaf47a2	-0.021396462
151	0x3cd56964	0.02605123
152	0x3b4da9b3	0.0031381666
153	0xbc7edf8b	-0.0155562265
154	0x3c797b68	0.015227176
155	0x3ca776e2	0.02044243
156	0xbcb384cf	-0.021913914
157	0x3ca5c3b1	0.020234914
158	0xbbcb961d	-0.0062129633
159	0xbc824aa5	-0.015904734
160	0x3c4f0a9f	0.01263681
161	0x3ca54c00	0.020177841
162	0xbc596069	-0.013267615
163	0xbc85bc05	-0.016325006
164	0xbcdcbad0	-0.026944548
165	0x3c92d319	0.017922925
166	0xba9c3e87	-0.001192049
167	0xbb7dd21d	-0.0038729974
168	0xbba35f54	-0.004985729
169	0x3c3e9b77	0.011633745
170	0xbc8d8fdf	-0.017280517
171	0x3bdfccba	0.006829825
172	0xbc890218	-0.016724631
173	0x3ca809c5	0.020512471
174	0x3cc6f865	0.024288366
175	0x3cdc9aea	0.026929338
176	0xbc8d877a	-0.017276514
177	0xbc8ce533	-0.017199134
178	0xbc363370	-0.011120662
179	0xbc77db36	-0.015127948
180	0x397b86bf	0.00023987422
181	0xbcb0e186	-0.021591913
182	0x3ce71cca	0.02821197
183	0x3cc67b3a	0.02422868
184	0x3b8beab1	0.0042699208
185	0xbc74cd63	-0.014941546
186	0xbbc2d1d3	-0.005945423
187	0x3bf5341f	0.00748302
188	0x3c3d7869	0.011564353
189	0xbcda28f7	-0.026630862
190	0x3c5b1a64	0.013372991
191	0x3c61de41	0.0137859
192	0x3b32a947	0.0027261542
193	0xbc8eb291	-0.017419131
194	0xbbae3747	-0.005316648
195	0x3cdfc6d2	0.027316485
196	0xbcf119ff	-0.029431341
197	0xbcbb5709	-0.02286865
198	0x3c246c57	0.010035596
199	0x3c0a098e	0.00842513
200	0x3bd8ed5d	0.006620093
201	0x3bcc6975	0.0062381574
202	0xbb8f405f	-0.0043716873
203	0xbc8f36c0	-0.017482162
204	0x3ca7a4c0	0.020464301
205	0x3c6f44fa	0.014603848
206	0x3cce53e6	0.02518649
207	0xbcdc7487	-0.026911033
208	0x3c263d5f	0.010146468
209	0xbcf586f6	-0.029971581
210	0xbc383802	-0.011243822
211	0xbcf3a6d1	-0.02974263
212	0x3a5cdd26	0.00084252877
213	0x3c93ccca	0.018041987
214	0x3cc976ed	0.024592841
215	0x38b75435	8.741805e-05
216	0x3c8204f1	0.015871497
217	0x3b9f7195	0.004865835
218	0xbca2700c	-0.019828819
219	0x3bbbb958	0.005728882
220	0xbc540428	-0.012940444
221	0xb9b9e779	-0.0003545841
222	0x3cbf72cf	0.023370175
223	0xbc9a4001	-0.018829348
224	0xbc9acdb6	-0.018896919
225	0x3cbd4252	0.023102913
226	0x3bdf90c6	0.0068226783
227	0xbb071dc2	-0.0020617102
228	0x3c854575	0.016268471
229	0xbb6cfbb6	-0.0036160774
230	0xbc338ac1	-0.0109583745
231	0xbc94f475	-0.018182972
232	0xbc3ee49f	-0.011651187
233	0x3c6c04f0	0.014405474
234	0x3cabfe26	0.02099521
235	0x3b090b6e	0.0020911354
236	0xbcd11ff6	-0.025527935
237	0xbbd22c2c	-0.006413957
238	0xbbbaca0d	-0.005700356
239	0x3beb50d4	0.0071812663
240	0xbcc125a3	-0.023577517
241	0x3cb886cc	0.022525214
242	0xbc6dfa28	-0.014524974
243	0x3b354a3c	0.0027662655
244	0x3c6d363d	0.014478263
245	0xbbfd76f8	-0.0077351294
246	0x3c795a54	0.01521929
247	0xbbf3fe97	-0.007446121
248	0xbcf2ce55	-0.029639402
249	0x3cd85056	0.026405495
250	0x3cd7a28b	0.026322624
251	0xbba0b711	-0.0049046357
252	0xbb1ea182	-0.0024205153
253	0xbc0dca2f	-0.008654161
254	0xbbc184da	-0.0059057297
255	0x3caef180	0.02135539

Linear_Trend.bias f4 [96]
0	0xbb873695	-0.0041263797
1	0xbbf9676e	-0.0076112067
2	0xbb35a160	-0.0027714595
3	0xbc1ba553	-0.009499866
4	0x3c47a488	0.012185223
5	0xbc16b256	-0.009197792
6	0x3be2c65f	0.0069206203
7	0xbc71412c	-0.014725011
8	0xbc8bbae3	-0.017056888
9	0x3c26a3ea	0.010170916
10	0x3b4bd790	0.0031103827
11	0x3c1f22a9	0.0097128535
12	0xbbe0c913	-0.0068599074
13	0xbc582f62	-0.013194891
14	0xbc6772e6	-0.014126515
15	0x3bf1ce59	0.007379335
16	0xbc8274f4	-0.015924908
17	0x3aa011e2	0.0012212361
18	0x3c904ef3	0.01761577
19	0x3c11a3bb	0.008889134
20	0xbbc36560	-0.0059630126
21	0x3b982a5b	0.004643721
22	0x3a9e2a8f	0.0012067127
23	0xba3291df	-0.00068118976
24	0xbb1a8d30	-0.002358269
25	0xbcd906ac	-0.02649244
26	0xbbac80a7	-0.00526436
27	0xbab1396e	-0.0013521144
28	0xbc794bdc	-0.01521584
29	0xbc233c68	-0.009963132
30	0xbc251eb9	-0.010078126
31	0xbb0d52a3	-0.0021564148
32	0x3bbb05c6	0.0057074754
33	0xbca14a05	-0.019688616
34	0xbcb902f9	-0.022584425
35	0x3c20aaa2	0.009806307
36	0x3c4cf372	0.012509214
37	0x3bbefa08	0.005828146
38	0x3c324c1e	0.010882406
39	0xbc9b307a	-0.018944014
40	0x3c5ee60b	0.013604651
41	0xbb0d52d8	-0.0021564271
42	0xbb32546d	-0.0027210966
43	0xbab0d9cb	-0.0013492642
44	0xbc116f81	-0.008876682
45	0xbc6e5c6f	-0.014548405
46	0xbca8ae75	-0.020591
47	0xbc2f9a3b	-0.010717924
48	0xbbd33a69	-0.006446172
49	0x3c7f9c56	0.015601238
50	0x3ab495f2	0.0013777597
51	0xbb78ae48	-0.0037945677
52	0xbaf7391c	-0.0018861624
53	0xbb5f8b5e	-0.003411017
54	0xbc960e88	-0.018317476
55	0x3bdf55cf	0.006815649
56	0x3be77875	0.00706392
57	0x3c1c147f	0.009526371
58	0x3bdfd9da	0.00683139
59	0xbba84fac	-0.0051364508
60	0x3ba41a0e	0.005007989
61	0xbc7828ea	-0.015146473
62	0xbb09c302	-0.0021020775
63	0xbba49a64	-0.0050232876
64	0xbba25f6b	-0.0049552224
65	0xbc0484bf	-0.00808829
66	0xba1fc6ed	-0.0006095011
67	0xbc550b5c	-0.013003197
68	0xbc26ce8a	-0.010181079
69	0xbc767254	-0.015041906
70	0xbbd26bde	-0.00642155
71	0x3c746112	0.0149157215
72	0xbccad846	-0.02476133
73	0xbc82e2e6	-0.015977334
74	0xbc66bfc8	-0.01408381
75	0x3cc06659	0.023486303
76	0xbb8fd21d	-0.004389061
77	0xbce56c9a	-0.028005887
78	0x3bc75a92	0.006083795
79	0x3be304d3	0.0069280653
80	0x3bd3b291	0.0064604958
81	0xbc4d5d0a	-0.012534389
82	0xbc3ef420	-0.011654884
83	0x3c8105c7	0.015749825
84	0x3b344299	0.0027505516
85	0x3c862999	0.016377257
86	0xb99d3daa	-0.00029991317
87	0xbbc558fe	-0.0060225716
88	0xbc871337	-0.016488655
89	0x3b04c9a7	0.0020261796
90	0xbbf1432b	-0.0073627434
91	0xbbdfd146	-0.0068303673
92	0x3b37b0e1	0.0028029012
93	0xbbe606b5	-0.0070198425
94	0xbbd05658	-0.006357949
95	0xbbe57781	-0.0070027714

exp_avg f4 [96, 336]
0	0x380bbcf9	3.3316177e-05
1	0x3797493a	1.8034701e-05
2	0x37dd5ddf	2.6388965e-05
3	0xb7f26d3e	-2.8899518e-05
4	0x35e844a8	1.7305329e-06
5	0xb6fe855f	-7.5853163e-06
6	0xb7e16cd3	-2.6872765e-05
7	0x363716b6	2.7282344e-06
8	0x37427dcc	1.159259e-05
9	0x3805f43c	3.1937132e-05
10	0x376d0aa2	1.41287765e-05
11	0x3797ddce	1.8103889e-05
12	0xb78aefd7	-1.6562566e-05
13	0xb7ca52ad	-2.4118775e-05
14	0xb82bc116	-4.0949402e-05
15	0xb8039993	-3.137586e-05
16	0x3767e81c	1.3822715e-05
17	0x35bf7267	1.4263904e-06
18	0x3595cb7f	1.116059e-06
19	0xb80a04ca	-3.2906224e-05
20	0x3727a658	9.992706e-06
21	0xb854740b	-5.0652812e-05
22	0xb63610f6	-2.7129986e-06
23	0xb8358f4b	-4.3287215e-05
24	0xb8870c39	-6.439578e-05
25	0xb7dc2f97	-2.6248204e-05
26	0xb72e3a2a	-1.0384751e-05
27	0xb7a4aed4	-1.9631734e-05
28	0xb88526eb	-6.349183e-05
29	0x36d32b0d	6.293302e-06
30	0xb768c238	-1.3873498e-05
31	0xb81b36bf	-3.7005866e-05
32	0xb79f65cd	-1.9001682e-05
33	0xb79f9326	-1.9022798e-05
34	0xb6cffb1b	-6.1983133e-06
35	0x37acfcb4	2.0621672e-05
36	0x38e7befa	0.000110505105
37	0x388c4725	6.688972e-05
38	0x385ec1ee	5.3109536e-05
39	0x37804fb9	1.5295913e-05
40	0x3731ac53	1.05901445e-05
41	0xb80f0ad4	-3.410394e-05
42	0x37de4181	2.6494965e-05
43	0xb6de5c1c	-6.6268385e-06
44	0xb7a85db9	-2.0070804e-05
45	0x37a0534e	1.9112278e-05
46	0x3813753b	3.515671e-05
47	0x379ac149	1.8448236e-05
48	0xb790d08a	-1.7263246e-05
49	0xb6a48139	-4.9026244e-06
50	0xb82f159b	-4.1743373e-05
51	0xb7b6016f	-2.1696758e-05
52	0xb72bc9d0	-1.0239382e-05
53	0xb870dfec	-5.7429002e-05
54	0xb8748e02	-5.830639e-05
55	0xb8250892	-3.9347047e-05
56	0xb8590849	-5.1744548e-05
57	0x38147f9b	3.540479e-05
58	0x37aa06d5	2.026876e-05
59	0xb767c6fd	-1.38150035e-05
60	0xb7dbd183	-2.6204396e-05
61	0xb88ae117	-6.622279e-05
62	0xb88c2eaf	-6.684416e-05
63	0xb89901f0	-7.2959694e-05
64	0xb78a1342	-1.645985e-05
65	0x36a2f6d0	4.856709e-06
66	0x37939358	1.7592378e-05
67	0x38a0bbac	7.664351e-05
68	0x384963ca	4.801507e-05
69	0x383c2494	4.485676e-05
70	0x388f53bb	6.8343674e-05
71	0x38b8b2ad	8.807085e-05
72	0x38445aec	4.681472e-05
73	0x38584685	5.156409e-05
74	0x36a4ed30	4.915193e-06
75	0x3804d651	3.167085e-05
76	0xb6637f5c	-3.3899769e-06
77	0x36ffe8fe	7.626716e-06
78	0x37e5d137	2.739635e-05
79	0x36a13c48	4.8051916e-06
80	0x37a5083a	1.9673364e-05
81	0xb73b4115	-1.1161222e-05
82	0xb8080de8	-3.2437878e-05
83	0xb68e5e26	-4.24289e-06
84	0x369da931	4.698661e-06
85	0x380840ab	3.2485153e-05
86	0x370bae03	8.325561e-06
87	0x381c2dd1	3.723597e-05
88	0x38a9c54e	8.095299e-05
89	0x3860ea9b	5.3624255e-05
90	0x3810da1f	3.4535416e-05
91	0x36e4b960	6.81651e-06
92	0x38386dcd	4.397128e-05
93	0xb7e33d1f	-2.708897e-05
94	0xb7870291	-1.609445e-05
95	0xb82cd0ed	-4.1202573e-05
96	0xb7d3ff0b	-2.5271924e-05
97	0xb827d8e0	-4.0017883e-05
98	0xb879c7a9	-5.9552174e-05
99	0xb8b95f2e	-8.839216e-05
100	0xb891c8b4	-6.951523e-05
101	0xb8157b11	-3.5638983e-05
102	0xb7fded31	-3.0270401e-05
103	0xb871bf26	-5.76369e-05
104	0xb87aa3dd	-5.9757254e-05
105	0xb76b3567	-1.4019525e-05
106	0xb70ea6ba	-8.502679e-06
107	0xb7a4adf0	-1.963132e-05
108	0xb87894ad	-5.9266273e-05
109	0xb7a4b132	-1.9632836e-05
110	0xb7806ff1	-1.5310916e-05
111	0x3870d171	5.7415516e-05
112	0x37675dae	1.3790484e-05
113	0x377f7a6d	1.5227689e-05
114	0xb7066b91	-8.012067e-06
115	0x378e39b6	1.6954593e-05
116	0x38d143e2	9.978541e-05
117	0x381ff074	3.8132494e-05
118	0x38296dfc	4.039517e-05
119	0xb72c4c8a	-1.02698195e-05
120	0xb8047aba	-3.158555e-05
121	0xb8ce2ca4	-9.8311604e-05
122	0xb83a90f1	-4.4480843e-05
123	0xb72a461f	-1.0149116e-05
124	0x38118392	3.469323e-05
125	0x364bd080	3.037072e-06
126	0xb79de494	-1.8822298e-05
127	0x3828d634	4.0253813e-05
128	0x37511df1	1.2464342e-05
129	0x383267eb	4.253529e-05
130	0x3841147d	4.6033867e-05
131	0x3797179e	1.80116e-05
132	0x38978f6f	7.226958e-05
133	0x389d7be4	7.50942e-05
134	0x386dba38	5.6678633e-05
135	0x381402db	3.528861e-05
136	0x37be542e	2.2688964e-05
137	0xb7d6e6ba	-2.5618228e-05
138	0x357cffab	9.424936e-07
139	0x371e7c1c	9.44643e-06
140	0x36aad790	5.0914896e-06
141	0x383951d1	4.4183635e-05
142	0x38536cff	5.040783e-05
143	0x374c5758	1.2179684e-05
144	0xb89e91cb	-7.561183e-05
145	0xb8b167d7	-8.4593594e-05
146	0xb882bc8a	-6.234001e-05
147	0xb8969764	-7.180756e-05
148	0xb8848b2e	-6.320175e-05
149	0xb86e2ce2	-5.6785422e-05
150	0x3715857d	8.912172e-06
151	0xb81e0652	-3.767602e-05
152	0xb8051a97	-3.1734435e-05
153	0x3728412c	1.0028754e-05
154	0xb72511ce	-9.838912e-06
155	0xb88c75df	-6.6976754e-05
156	0x3811f50b	3.4798908e-05
157	0x37ec3e57	2.8162422e-05
158	0x37a980e5	2.0206391e-05
159	0x365533c1	3.1769598e-06
160	0x3770ba0a	1.434843e-05
161	0x366f27b4	3.5636886e-06
162	0xb8269b2f	-3.972201e-05
163	0x37d733fb	2.5654203e-05
164	0x369b1df7	4.6228483e-06
165	0x3830347e	4.2010557e-05
166	0x38190a6b	3.6487745e-05
167	0xb83204f4	-4.244312e-05
168	0x380c2959	3.341711e-05
169	0x368540f1	3.971269e-06
170	0x37b1467e	2.113287e-05
171	0x379c8bfb	1.8661833e-05
172	0x350c8fb8	5.23632e-07
173	0x37afd6ad	2.0961592e-05
174	0x381f7432	3.801677e-05
175	0x381e6146	3.776073e-05
176	0x37029892	7.784127e-06
177	0x36f59c80	7.319788e-06
178	0xb821e0cb	-3.8594746e-05
179	0x3786ffa3	1.6093085e-05
180	0x3638a2f8	2.7512997e-06
181	0xb5fcdc44	-1.8839569e-06
182	0x38605460	5.3484342e-05
183	0x37f11260	2.8737995e-05
184	0x3854b43f	5.0712606e-05
185	0x37f91564	2.9693074e-05
186	0x380c8124	3.3498873e-05
187	0x37a2e3f8	1.9418061e-05
188	0xb7b55f1b	-2.1621168e-05
189	0xb524f0c1	-6.1445104e-07
190	0x380d1f70	3.3646298e-05
191	0x37a14158	1.9223124e-05
192	0x37fb5c9d	2.9964658e-05
193	0xb689f2c2	-4.111179e-06
194	0x3839e45c	4.4320113e-05
195	0xb7e2658d	-2.6988588e-05
196	0x37097c9d	8.19485e-06
197	0x3686dfa3	4.019546e-06
198	0xb856dc29	-5.1226616e-05
199	0xb7040b84	-7.870494e-06
200	0xb827c045	-3.9994968e-05
201	0xb7bf593e	-2.2810531e-05
202	0xb6b8ad09	-5.5037713e-06
203	0xb802ae73	-3.1156884e-05
204	0xb86328fa	-5.415918e-05
205	0xb7b4b2d8	-2.1540953e-05
206	0xb83f60e8	-4.56282e-05
207	0xb8264f10	-3.9651117e-05
208	0x36e5ae6e	6.845038e-06
209	0xb6c3af63	-5.8318706e-06
210	0x37cfdf63	2.4780345e-05
211	0x3734e07c	1.0781103e-05
212	0x379a16e0	1.8368883e-05
213	0x362b8c67	2.556271e-06
214	0x37ed8c14	2.831783e-05
215	0xb779c684	-1.4887777e-05
216	0xb72b4d0d	-1.0210334e-05
217	0xb85f1ed9	-5.3196072e-05
218	0xb84551a3	-4.704449e-05
219	0xb87ef35d	-6.078497e-05
220	0xb82ae385	-4.0743053e-05
221	0xb7c103a1	-2.3009083e-05
222	0xb807d786	-3.238723e-05
223	0xb7ddf535	-2.6459436e-05
224	0xb711a937	-8.682072e-06
225	0xb806fd44	-3.218396e-05
226	0x37247b5e	9.803885e-06
227	0xb6d9c8a7	-6.490463e-06
228	0x359f96ce	1.1890313e-06
229	0x383a526e	4.4422624e-05
230	0x38519c48	4.997503e-05
231	0x37745cac	1.456511e-05
232	0xb7a5c4c7	-1.9761164e-05
233	0xb891f715	-6.9601614e-05
234	0x37b1f436	2.1213764e-05
235	0x3631f463	2.6517307e-06
236	0x37db29c5	2.6126285e-05
237	0x3833c0b9	4.2856413e-05
238	0x37abe072	2.0489304e-05
239	0x37fc1925	3.005245e-05
240	0x3815842a	3.5647456e-05
241	0x37f5641a	2.925289e-05
242	0x368651dc	4.003041e-06
243	0x377d7c9c	1.5108988e-05
244	0x3628c371	2.5147713e-06
245	0xb7a62bc5	-1.9809124e-05
246	0xb7c96f3b	-2.4012863e-05
247	0xb8bb2f14	-8.925624e-05
248	0xb842c02e	-4.6432186e-05
249	0xb895669a	-7.123985e-05
250	0xb5b14b9c	-1.3209533e-06
251	0xb6dc80b9	-6.571496e-06
252	0xb8674c2a	-5.5145625e-05
253	0xb7e1ecb6	-2.6932317e-05
254	0xb8070b77	-3.2197186e-05
255	0x378cbac6	1.6776274e-05

exp_avg_sq f4 [96, 336]
0	0x325072d1	1.21333e-08
1	0x3288c8dd	1.5923826e-08
2	0x3299961c	1.7879806e-08
3	0x32ab91a4	1.997325e-08
4	0x32b35f85	2.088178e-08
5	0x32b3081a	2.0842027e-08
6	0x32bb1055	2.1777092e-08
7	0x32b7265b	2.1321446e-08
8	0x32c38210	2.2760133e-08
9	0x32c7274b	2.3184517e-08
10	0x32c8120f	2.3291276e-08
11	0x32d061f3	2.4258929e-08
12	0x32cb2a89	2.3651653e-08
13	0x32dd95a7	2.579584e-08
14	0x32d977ed	2.531666e-08
15	0x32dd691a	2.577558e-08
16	0x32d9028c	2.5263283e-08
17	0x32da2dc3	2.539935e-08
18	0x32d84aeb	2.5179778e-08
19	0x32ce9b0d	2.4052065e-08
20	0x32d2d8cd	2.4545807e-08
21	0x32da5142	2.5415492e-08
22	0x32d16501	2.4376734e-08
23	0x32d10c9d	2.4336538e-08
24	0x32cd4af1	2.389922e-08
25	0x32db22f3	2.5510849e-08
26	0x32d8f3d4	2.525659e-08
27	0x32e03f73	2.6105885e-08
28	0x32ee91b7	2.777311e-08
29	0x32e6e723	2.6880633e-08
30	0x32e3051e	2.6428605e-08
31	0x32e2e245	2.6412758e-08
32	0x32e849bb	2.7041883e-08
33	0x32dae64a	2.5483263e-08
34	0x32d7be00	2.5115696e-08
35	0x32e27ef1	2.6367589e-08
36	0x32e043c0	2.6107841e-08
37	0x32f19053	2.8121724e-08
38	0x32f0a0d0	2.8012806e-08
39	0x32e89b6a	2.7079029e-08
40	0x32ea9041	2.7306784e-08
41	0x32e3a26f	2.6500144e-08
42	0x32dc09c7	2.5615817e-08
43	0x32e5bf3f	2.6746077e-08
44	0x32dedfc9	2.5945967e-08
45	0x32e7751c	2.6945195e-08
46	0x32f0c23c	2.8028005e-08
47	0x32eae3d9	2.7344798e-08
48	0x32e7a264	2.6965786e-08
49	0x32ed38bd	2.7616233e-08
50	0x32e95ad3	2.7166072e-08
51	0x32e08820	2.6138935e-08
52	0x32de4bcc	2.587867e-08
53	0x32e7a007	2.6964711e-08
54	0x32d80a9e	2.5150538e-08
55	0x32e1af64	2.6273206e-08
56	0x32e3bdc6	2.6512577e-08
57	0x32ecbc17	2.755955e-08
58	0x32eb2222	2.7373122e-08
59	0x32e58d82	2.6723459e-08
60	0x32db452c	2.5526411e-08
61	0x32de21b5	2.585953e-08
62	0x32d479d6	2.4735453e-08
63	0x32dcedb1	2.571946e-08
64	0x32d90b6f	2.5267324e-08
65	0x32ceb4ef	2.4063835e-08
66	0x32d14259	2.4360974e-08
67	0x32d480a5	2.4738549e-08
68	0x32d26f63	2.449787e-08
69	0x32ddda4c	2.5827056e-08
70	0x32dc48d5	2.5644491e-08
71	0x32e53c3e	2.6686504e-08
72	0x32d6518b	2.494996e-08
73	0x32d8deb5	2.5246985e-08
74	0x32d754ac	2.5067799e-08
75	0x32d5c335	2.4885233e-08
76	0x32d7c492	2.5118684e-08
77	0x32d5ce4a	2.4890273e-08
78	0x32d6c859	2.5003986e-08
79	0x32d33495	2.4587544e-08
80	0x32cd2b1d	2.3884747e-08
81	0x32d10030	2.4330888e-08
82	0x32ce8fd5	2.4046964e-08
83	0x32c4c1e6	2.2905578e-08
84	0x32d11659	2.4340965e-08
85	0x32d091c0	2.4280666e-08
86	0x32cbe779	2.3737572e-08
87	0x32cab7e8	2.3599526e-08
88	0x32c950e1	2.343626e-08
89	0x32cdd502	2.3962006e-08
90	0x32d0d898	2.4312882e-08
91	0x32cf6584	2.4144136e-08
92	0x32cc8f60	2.3813925e-08
93	0x32d35445	2.4601954e-08
94	0x32d2af5f	2.4526967e-08
95	0x32d2ece4	2.4554943e-08
96	0x32d80dc8	2.5151977e-08
97	0x32d9ff50	2.5378228e-08
98	0x32d4c17e	2.4768038e-08
99	0x32cfb4f9	2.4180268e-08
100	0x32d38eb1	2.4628521e-08
101	0x32d32e20	2.4584608e-08
102	0x32d2affd	2.4527248e-08
103	0x32cb93ee	2.3699581e-08
104	0x32cdfe82	2.3980878e-08
105	0x32d7c674	2.511954e-08
106	0x32ce25c7	2.3998735e-08
107	0x32cc4b1c	2.3782881e-08
108	0x32ce3fda	2.4010593e-08
109	0x32d58cb4	2.4860448e-08
110	0x32d227aa	2.4465255e-08
111	0x32d73844	2.505488e-08
112	0x32dcf8d1	2.572452e-08
113	0x32d3c663	2.4653849e-08
114	0x32da23d1	2.5394828e-08
115	0x32d332fc	2.4586818e-08
116	0x32dee17c	2.594674e-08
117	0x32d434e3	2.4704098e-08
118	0x32ce0a09	2.398612e-08
119	0x32da0edc	2.5385297e-08
120	0x32e10272	2.619456e-08
121	0x32e26b03	2.6358526e-08
122	0x32e502bf	2.6660357e-08
123	0x32ed0be0	2.7595831e-08
124	0x32ea90a2	2.7306957e-08
125	0x32e96979	2.7172733e-08
126	0x32e0a271	2.6150902e-08
127	0x32def74a	2.5956655e-08
128	0x32dbd080	2.558977e-08
129	0x32cee63d	2.4086257e-08
130	0x32dc621d	2.5655988e-08
131	0x32e0c913	2.616847e-08
132	0x32e25ab7	2.6351115e-08
133	0x32e2b1a8	2.6390651e-08
134	0x32f0ebc7	2.8046896e-08
135	0x32ea7576	2.72946e-08
136	0x32f04734	2.7972057e-08
137	0x32e5b78a	2.6742573e-08
138	0x32e686d3	2.6836835e-08
139	0x32e4e6d5	2.6647664e-08
140	0x32e19e3b	2.6265402e-08
141	0x32e92aea	2.7144285e-08
142	0x32f58791	2.8583402e-08
143	0x32ef8622	2.7884258e-08
144	0x32e596cc	2.6727683e-08
145	0x32eb6e12	2.7407655e-08
146	0x32eb132d	2.736632e-08
147	0x32ecc351	2.7562836e-08
148	0x32ec3dde	2.750215e-08
149	0x32ebb63e	2.7440475e-08
150	0x32f4e99f	2.8511577e-08
151	0x32e21626	2.6319935e-08
152	0x32e9e528	2.7228978e-08
153	0x32f6166c	2.8648365e-08
154	0x32f07829	2.799432e-08
155	0x32eba6f8	2.743353e-08
156	0x32e4f521	2.6654165e-08
157	0x32d95d1f	2.5304471e-08
158	0x32e3b1c3	2.6507115e-08
159	0x32dafb78	2.5492895e-08
160	0x32df9932	2.6030282e-08
161	0x32e30aa3	2.6431115e-08
162	0x32e2fe66	2.642555e-08
163	0x32dca42f	2.5686033e-08
164	0x32d6fd57	2.5028084e-08
165	0x32d437ef	2.4705484e-08
166	0x32d3abf5	2.464183e-08
167	0x32dd67a9	2.5774925e-08
168	0x32df2b38	2.598027e-08
169	0x32e22f22	2.6331296e-08
170	0x32dfe4ad	2.6064606e-08
171	0x32cf0b9b	2.410325e-08
172	0x32cee072	2.4083622e-08
173	0x32cf9fe2	2.4170678e-08
174	0x32d97a77	2.5317815e-08
175	0x32d59469	2.4863953e-08
176	0x32d87cd1	2.520247e-08
177	0x32d18db9	2.439525e-08
178	0x32cee8a0	2.4087342e-08
179	0x32d239fa	2.4473582e-08
180	0x32d129b1	2.4349761e-08
181	0x32d406ac	2.4683082e-08
182	0x32cc61b5	2.3793158e-08
183	0x32d1fbb6	2.4445267e-08
184	0x32d3733c	2.4616035e-08
185	0x32cdc87e	2.3956314e-08
186	0x32ce6fc6	2.4032385e-08
187	0x32ce33e7	2.4005159e-08
188	0x32c5d8b4	2.3032364e-08
189	0x32cf3d09	2.4125727e-08
190	0x32d2164f	2.4457362e-08
191	0x32d1f27f	2.4441077e-08
192	0x32d45b72	2.4721633e-08
193	0x32d66458	2.495851e-08
194	0x32d7e52a	2.5133506e-08
195	0x32cfa08b	2.4170978e-08
196	0x32d73829	2.5054833e-08
197	0x32ce4d0f	2.4016598e-08
198	0x32d106ce	2.4333897e-08
199	0x32ca1f30	2.3530077e-08
200	0x32c4581a	2.2857467e-08
201	0x32cd7de4	2.392239e-08
202	0x32d09f6f	2.4286889e-08
203	0x32cd95fb	2.3933344e-08
204	0x32d3bc9e	2.4649406e-08
205	0x32d2c4c1	2.4536691e-08
206	0x32d28f51	2.451239e-08
207	0x32d0e7a9	2.4319734e-08
208	0x32d9e95d	2.5368246e-08
209	0x32dbc1ed	2.5583143e-08
210	0x32da8a11	2.5441325e-08
211	0x32d6b999	2.4997279e-08
212	0x32cf0322	2.4099396e-08
213	0x32d107db	2.4334375e-08
214	0x32cf9925	2.4167614e-08
215	0x32d64705	2.4945175e-08
216	0x32e19e6b	2.6265488e-08
217	0x32eb6e27	2.7407692e-08
218	0x32e2d8e0	2.6408486e-08
219	0x32e6ade1	2.6854595e-08
220	0x32e9d3c2	2.7221066e-08
221	0x32e2b38a	2.6391508e-08
222	0x32e1fd2f	2.6308582e-08
223	0x32e57091	2.6710298e-08
224	0x32d44234	2.4710154e-08
225	0x32ccff77	2.3864898e-08
226	0x32de2790	2.5862192e-08
227	0x32df0b8a	2.5965864e-08
228	0x32d530cf	2.481866e-08
229	0x32d8cab5	2.523789e-08
230	0x32e6c7ee	2.6866442e-08
231	0x32eda333	2.7664646e-08
232	0x32e56fa9	2.6709886e-08
233	0x32f18b96	2.8119569e-08
234	0x32e14595	2.622509e-08
235	0x32f7073d	2.8757876e-08
236	0x32f4b1e8	2.8486241e-08
237	0x32dfe3e7	2.6064255e-08
238	0x32e4676a	2.658972e-08
239	0x32f379ba	2.8344278e-08
240	0x32eaa7e7	2.7317538e-08
241	0x32f3679f	2.8336045e-08
242	0x32f17fd7	2.8114227e-08
243	0x32e0795d	2.6132222e-08
244	0x32ef04f1	2.7825509e-08
245	0x32e7e082	2.6994034e-08
246	0x32e7a1b6	2.6965477e-08
247	0x32e8c546	2.7098064e-08
248	0x32e90c2f	2.713031e-08
249	0x32ea6dd6	2.7291133e-08
250	0x32e4f30a	2.6653215e-08
251	0x32ddacf0	2.5806429e-08
252	0x32de6ded	2.589419e-08
253	0x32ec0a46	2.7478688e-08
254	0x32e13112	2.6215762e-08
255	0x32dc47ec	2.5644077e-08

exp_avg f4 [96]
0	0x39d34c19	0.00040301753
1	0x37ad25e8	2.0640859e-05
2	0xb8a087fa	-7.654722e-05
3	0x38c285da	9.275573e-05
4	0x394c0e31	0.00019460243
5	0x37b3af93	2.1420221e-05
6	0x38cd7702	9.797329e-05
7	0x39823784	0.00024836895
8	0x3892585a	6.978279e-05
9	0x394cffa1	0.00019550185
10	0x38d2bf5b	0.00010049223
11	0x383ee008	4.5508175e-05
12	0x394e69a4	0.00019685045
13	0xb825b819	-3.951052e-05
14	0x39011512	0.00012310248
15	0xb8888b9b	-6.510989e-05
16	0xb8f45075	-0.00011649813
17	0x3940235a	0.00018323716
18	0xb9432bea	-0.00018613008
19	0x371b8638	9.26997e-06
20	0xb8d8d9d5	-0.00010340257
21	0xb8b3ca70	-8.573092e-05
22	0xb8bbafad	-8.949577e-05
23	0xb8b584e0	-8.6555025e-05
24	0xb9653aaa	-0.00021860996
25	0xb95f322c	-0.00021285628
26	0xb9064c0a	-0.00012807563
27	0xb6eaa618	-6.9930793e-06
28	0xb8806f72	-6.124274e-05
29	0x37b3d03c	2.143543e-05
30	0xb89bfd6e	-7.438181e-05
31	0xb942f125	-0.00018591115
32	0xb8d885a7	-0.00010324577
33	0xb8e7681c	-0.0001103433
34	0xb80de8f6	-3.383398e-05
35	0xb82eb307	-4.1651565e-05
36	0xb835edcb	-4.3375225e-05
37	0xb8fe34f8	-0.0001212153
38	0xb8e325a2	-0.00010831213
39	0xb95aecd0	-0.0002087832
40	0xb955bece	-0.00020384343
41	0xb91b0ae5	-0.0001478601
42	0xb995bb28	-0.00028558937
43	0xb87c45b9	-6.0146416e-05
44	0xb9410a56	-0.00018409765
45	0xb95bf906	-0.00020978236
46	0xb9a2f511	-0.00031081637
47	0xb95ded57	-0.00021164618
48	0xb85d13d7	-5.2708983e-05
49	0xb8a80072	-8.010947e-05
50	0xb945b161	-0.00018853463
51	0xb985ea41	-0.0002554227
52	0xb9adba89	-0.0003313611
53	0xb98709e9	-0.0002575659
54	0xb9e56dbd	-0.00043760045
55	0xb97bbc10	-0.00024007284
56	0xb903d06f	-0.00012570781
57	0xb78d302d	-1.6830943e-05
58	0xb888dd80	-6.526243e-05
59	0xb856fb7c	-5.125579e-05
60	0xb5dc6944	-1.6421914e-06
61	0xb8c3e314	-9.340621e-05
62	0xb92aa2c2	-0.00016273095
63	0xb94135ac	-0.00018425909
64	0xb8610aef	-5.3654363e-05
65	0xb9580c98	-0.00020604057
66	0xb971964f	-0.00023039545
67	0xb8d0e0a4	-9.9600555e-05
68	0xb8fd9bca	-0.00012092998
69	0xb90db836	-0.00013515432
70	0xb889e353	-6.5750115e-05
71	0xb94472fb	-0.0001873485
72	0xb936ef89	-0.00017446106
73	0xb90dc369	-0.00013519604
74	0x3730d2a4	1.0539461e-05
75	0xb90384df	-0.00012542632
76	0x39018855	0.00012353186
77	0x360b9e02	2.0804587e-06
78	0xb88ff6d7	-6.864749e-05
79	0x3847c026	4.762425e-05
80	0x38dffccb	0.00010680555
81	0xb93e93e7	-0.0001817491
82	0xb946e625	-0.00018968487
83	0xb8aac7ea	-8.1434686e-05
84	0xb916b5c0	-0.00014372822
85	0xb930d571	-0.00016864181
86	0xb8d1bafe	-0.000100007266
87	0xb9444d6b	-0.00018720857
88	0x37c2478c	2.3159919e-05
89	0x3558da64	8.078407e-07
90	0xb961167a	-0.00021466045
91	0xb90afa18	-0.00013253873
92	0xb8cbf9cc	-9.7263226e-05
93	0xb92b483e	-0.00016334743
94	0x3904a5b8	0.00012650236
95	0x38c34d1e	9.312689e-05

exp_avg_sq f4 [96]
0	0x34ef7588	4.4602734e-07
1	0x3500d16f	4.798848e-07
2	0x350eb35c	5.3160124e-07
3	0x3505742b	4.971541e-07
4	0x350772d0	5.0458493e-07
5	0x350485d1	4.936856e-07
6	0x3507a8e6	5.05372e-07
7	0x3509c683	5.132535e-07
8	0x350c8ee2	5.2361986e-07
9	0x350c0399	5.21593e-07
10	0x350c259d	5.22088e-07
11	0x350d0e93	5.25478e-07
12	0x350f2f04	5.334007e-07
13	0x350deaf2	5.2868484e-07
14	0x350ca9ae	5.240098e-07
15	0x350e0007	5.289916e-07
16	0x35156fe8	5.566967e-07
17	0x351268c1	5.4541675e-07
18	0x351462ad	5.527789e-07
19	0x350e8979	5.309917e-07
20	0x3514293b	5.5194295e-07
21	0x3514adc2	5.538715e-07
22	0x35156d07	5.566548e-07
23	0x35186a09	5.6778714e-07
24	0x3515bf5f	5.5785307e-07
25	0x3518b825	5.689238e-07
26	0x35160617	5.5888216e-07
27	0x35141ea0	5.517886e-07
28	0x3514138a	5.516273e-07
29	0x35131252	5.4788427e-07
30	0x351541c8	5.560255e-07
31	0x351243dc	5.4487987e-07
32	0x35156029	5.5646757e-07
33	0x351093ec	5.3859435e-07
34	0x3512dcae	5.471037e-07
35	0x35139ce4	5.4990073e-07
36	0x3519c8ea	5.728931e-07
37	0x3516bc81	5.6153664e-07
38	0x351920f5	5.70449e-07
39	0x351839bd	5.670843e-07
40	0x351ad588	5.76802e-07
41	0x351d46d6	5.859014e-07
42	0x351cfc32	5.848152e-07
43	0x351704fa	5.6259125e-07
44	0x351a690d	5.752234e-07
45	0x3518ead0	5.696611e-07
46	0x3517a706	5.6494935e-07
47	0x3515ba99	5.577836e-07
48	0x351624bd	5.5932816e-07
49	0x351b0822	5.7753834e-07
50	0x35181d7e	5.666733e-07
51	0x3516d1cb	5.6184643e-07
52	0x3515e368	5.5837745e-07
53	0x35129536	5.460637e-07
54	0x35180a60	5.663951e-07
55	0x351f7456	5.9401407e-07
56	0x351cacbd	5.8365896e-07
57	0x351c535d	5.823584e-07
58	0x35189407	5.683982e-07
59	0x3516a3c3	5.611766e-07
60	0x351dcd41	5.878574e-07
61	0x351e7d5a	5.9042e-07
62	0x3515cc03	5.58037e-07
63	0x351849c4	5.6731756e-07
64	0x351ec2e6	5.91432e-07
65	0x3517ce9e	5.655255e-07
66	0x351f21ae	5.9281126e-07
67	0x35194ffc	5.7113334e-07
68	0x35210d06	5.9996125e-07
69	0x351c9631	5.8333086e-07
70	0x351ce4d0	5.8447495e-07
71	0x3520d8e0	5.992024e-07
72	0x351e32ac	5.8933324e-07
73	0x3525e838	6.180521e-07
74	0x35206987	5.975821e-07
75	0x351f3d19	5.9321025e-07
76	0x3521c932	6.026995e-07
77	0x351f10ea	5.925673e-07
78	0x3521aa73	6.022521e-07
79	0x351fd61a	5.9543675e-07
80	0x351d0dbd	5.850705e-07
81	0x352304aa	6.072902e-07
82	0x351c56f8	5.8241085e-07
83	0x351d9089	5.8697384e-07
84	0x351e724d	5.9025916e-07
85	0x35206073	5.9744997e-07
86	0x3525ea12	6.1807907e-07
87	0x35251bb1	6.1507586e-07
88	0x35271464	6.224202e-07
89	0x352eb32a	6.508077e-07
90	0x352920e7	6.3005285e-07
91	0x35243ba5	6.1181555e-07
92	0x3525c0b0	6.1747687e-07
93	0x35227b08	6.0528737e-07
94	0x3527cda9	6.2511623e-07
95	0x3527f815	6.2573355e-07

exp_avg f4 [96, 336]
0	0xb7edf048	-2.8364491e-05
1	0xb80f0a47	-3.410343e-05
2	0xb81a04a8	-3.6720798e-05
3	0xb8458f58	-4.710196e-05
4	0xb84c0b09	-4.8647667e-05
5	0xb862ff21	-5.4120206e-05
6	0xb883e97d	-6.290057e-05
7	0xb891927f	-6.941426e-05
8	0xb89d059f	-7.4873904e-05
9	0xb8abc4b6	-8.190556e-05
10	0xb8bd4a8c	-9.026108e-05
11	0xb8c56d77	-9.4140814e-05
12	0xb8da6f47	-0.00010415777
13	0xb8e8ce71	-0.00011101075
14	0xb8ef8895	-0.000114218485
15	0xb8fdd690	-0.000121039455
16	0xb904a177	-0.00012648651
17	0xb90797d1	-0.0001293116
18	0xb90cb32f	-0.00013418192
19	0xb90e1784	-0.00013550936
20	0xb912814a	-0.00013971809
21	0xb9148b35	-0.00014166239
22	0xb918e126	-0.00014579724
23	0xb91cd8f9	-0.00014958148
24	0xb91af5e4	-0.00014778186
25	0xb915465b	-0.00014235957
26	0xb90f8146	-0.00013685701
27	0xb90fa3b1	-0.00013698523
28	0xb90fe721	-0.00013723645
29	0xb90e62e8	-0.00013579021
30	0xb90edfe0	-0.00013625575
31	0xb90ca196	-0.00013411636
32	0xb90bac85	-0.00013320342
33	0xb905d204	-0.00012762105
34	0xb9017fa7	-0.00012349953
35	0xb8ffe63f	-0.00012202234
36	0xb8f8f093	-0.00011870372
37	0xb8ed14b1	-0.00011304895
38	0xb8e355b8	-0.0001084017
39	0xb8e9f9d5	-0.000111568406
40	0xb8e45160	-0.000108870445
41	0xb8dffdae	-0.0001068072
42	0xb8de0d43	-0.00010588255
43	0xb8daa1b3	-0.00010425169
44	0xb8d517b1	-0.00010161044
45	0xb8c89c5d	-9.565868e-05
46	0xb8bb7fa6	-8.940631e-05
47	0xb8b407d9	-8.5845306e-05
48	0xb8b4c784	-8.6202315e-05
49	0xb8b8454c	-8.786711e-05
50	0xb8bd066d	-9.013419e-05
51	0xb8c0b2e1	-9.188592e-05
52	0xb8bf6c92	-9.1278125e-05
53	0xb8b3c26c	-8.571599e-05
54	0xb8aa3be4	-8.117387e-05
55	0xb89a1074	-7.346357e-05
56	0xb8875ff8	-6.455177e-05
57	0xb86a9649	-5.592991e-05
58	0xb8465905	-4.7289785e-05
59	0xb82eb717	-4.165535e-05
60	0xb80a6e19	-3.30043e-05
61	0xb7e425b9	-2.7197284e-05
62	0xb7b60cc4	-2.1702035e-05
63	0xb6fc23a5	-7.514335e-06
64	0xb6814dd8	-3.853562e-06
65	0x36d5792f	6.3620023e-06
66	0x3778699b	1.480654e-05
67	0x37ca41d2	2.4110926e-05
68	0x37fcc679	3.0133162e-05
69	0x382624c8	3.961174e-05
70	0x3833d01b	4.287074e-05
71	0x38336831	4.277396e-05
72	0x384e436c	4.917702e-05
73	0x386760bb	5.516478e-05
74	0x387749f8	5.8958278e-05
75	0x388c0c6f	6.678036e-05
76	0x389b3b81	7.4020594e-05
77	0x38a2bbb5	7.759725e-05
78	0x38aae791	8.149364e-05
79	0x38a96c8d	8.078767e-05
80	0x38a553d1	7.883425e-05
81	0x389af23e	7.388413e-05
82	0x388860b1	6.5029955e-05
83	0x387aaa09	5.9763002e-05
84	0x3860acdd	5.3566753e-05
85	0x384bda2f	4.860217e-05
86	0x38350f35	4.3167925e-05
87	0x38028479	3.111779e-05
88	0x37c126f1	2.3025526e-05
89	0x37a03c8d	1.9101682e-05
90	0x37483b12	1.1934682e-05
91	0x36bb0bed	5.5744226e-06
92	0xb5bf967f	-1.4274409e-06
93	0xb6eb88b8	-7.019462e-06
94	0xb6cbed21	-6.077477e-06
95	0xb7413e33	-1.1518178e-05
96	0xb799c3e5	-1.8330242e-05
97	0xb7b4c913	-2.1551305e-05
98	0xb7ba9a65	-2.2244823e-05
99	0xb7bdc4ee	-2.2622258e-05
100	0xb7e34af2	-2.7095408e-05
101	0xb80199f6	-3.0899384e-05
102	0xb7f76fde	-2.9496787e-05
103	0xb7f6eb4e	-2.9435058e-05
104	0xb7cdf2f5	-2.455104e-05
105	0xb7d7058c	-2.563258e-05
106	0xb7829e1b	-1.5570831e-05
107	0xb75a14c3	-1.29986465e-05
108	0xb71a2954	-9.188738e-06
109	0xb722565a	-9.676058e-06
110	0xb6b7c11d	-5.4763063e-06
111	0x363d4fdb	2.8209677e-06
112	0x37822d06	1.5518173e-05
113	0x37c73152	2.3745615e-05
114	0x37fe4b79	3.0314304e-05
115	0x38119bd8	3.4715835e-05
116	0x38447d39	4.6846664e-05
117	0x3860f9c8	5.363839e-05
118	0x38840a93	6.29622e-05
119	0x389223de	6.968503e-05
120	0x38a74e2b	7.9777405e-05
121	0x38be0cd5	9.062296e-05
122	0x38d4aa4f	0.0001014067
123	0x38da5f5f	0.00010412814
124	0x38e4df16	0.0001091344
125	0x38efa924	0.00011427913
126	0x38f967d3	0.00011892584
127	0x38fa3de5	0.00011932458
128	0x3903b733	0.0001256138
129	0x38ffb39f	0.000121928046
130	0x390384d8	0.00012542622
131	0x3905484c	0.00012710801
132	0x3902974d	0.0001245413
133	0x3902d0fb	0.00012475617
134	0x3904214d	0.00012600906
135	0x390100b7	0.00012302665
136	0x38fedb39	0.00012152497
137	0x38f84b6b	0.00011839609
138	0x38f08390	0.00011468597
139	0x38f3b97e	0.000116216936
140	0x38ea846f	0.00011182657
141	0x38ee0514	0.0001134967
142	0x38e35a91	0.00010841073
143	0x38dbb721	0.00010476844
144	0x38d3e8ab	0.00010104602
145	0x38d58ada	0.000101824946
146	0x38d34a16	0.000100750636
147	0x38c95cdd	9.601724e-05
148	0x38cfd919	9.910967e-05
149	0x38cefbaf	9.869725e-05
150	0x38c9400d	9.596357e-05
151	0x38d89cc8	0.000103288854
152	0x38d74266	0.000102643666
153	0x38dafd5d	0.00010442243
154	0x38e56a77	0.000109394015
155	0x38e3d22e	0.000108633525
156	0x38e2f573	0.00010822238
157	0x38f9432a	0.000118857555
158	0x3901d4e0	0.00012381701
159	0x3907dd1e	0.00012956976
160	0x3911c96c	0.00013903313
161	0x391a08f9	0.00014689927
162	0x391e7a6f	0.00015113664
163	0x39235d31	0.00015579608
164	0x3927e9e2	0.00016013489
165	0x3931e4ae	0.00016965225
166	0x39313ce9	0.00016902726
167	0x393538fd	0.00017282735
168	0x393b412f	0.00017857992
169	0x393e49ed	0.00018147352
170	0x393ec6e8	0.0001819391
171	0x394388f1	0.00018647664
172	0x39447366	0.00018735006
173	0x3949d79e	0.00019249177
174	0x394bade9	0.00019424375
175	0x394deef5	0.00019639342
176	0x39463041	0.00018900727
177	0x39444ab7	0.0001871985
178	0x39425973	0.00018534604
179	0x393ea65d	0.00018181787
180	0x39402399	0.00018323808
181	0x39387ee1	0.00017594873
182	0x393b3152	0.00017852083
183	0x3933dd5c	0.00017153233
184	0x392bfbd5	0.00016401646
185	0x39242d1c	0.00015657063
186	0x391bc64c	0.00014855823
187	0x39147d62	0.00014161089
188	0x390a8315	0.00013209537
189	0x38fbdc45	0.00012009641
190	0x38f44641	0.000116479125
191	0x38e58a45	0.000109453256
192	0x38cd7a65	9.7979595e-05
193	0x38b6a61e	8.709378e-05
194	0x38a4db26	7.860949e-05
195	0x3892ad13	6.99406e-05
196	0x38679ed1	5.52226e-05
197	0x383ecff0	4.5493187e-05
198	0x3829f6cd	4.052259e-05
199	0x3804cbc2	3.1661017e-05
200	0x37c867d2	2.3890203e-05
201	0x3793cca7	1.7619064e-05
202	0x3735c5b2	1.083447e-05
203	0x35805142	9.560392e-07
204	0xb6376216	-2.7326219e-06
205	0xb74f81f5	-1.2368419e-05
206	0xb7993388	-1.8263017e-05
207	0xb807cc6a	-3.2376884e-05
208	0xb80bab9d	-3.330001e-05
209	0xb8317d4f	-4.231679e-05
210	0xb83d03d4	-4.5064677e-05
211	0xb84c28e4	-4.8675472e-05
212	0xb848b82a	-4.7855232e-05
213	0xb8479a39	-4.758893e-05
214	0xb844dd32	-4.6936046e-05
215	0xb8532d87	-5.034872e-05
216	0xb84887ab	-4.7810066e-05
217	0xb83bcbe6	-4.477417e-05
218	0xb836c51b	-4.357575e-05
219	0xb81c24f9	-3.722773e-05
220	0xb8184135	-3.6300353e-05
221	0xb815a4cc	-3.5677847e-05
222	0xb7f6848c	-2.9387207e-05
223	0xb8039a0f	-3.1376312e-05
224	0xb7e597e1	-2.7369651e-05
225	0xb79bb825	-1.8563189e-05
226	0xb7820b34	-1.5502425e-05
227	0xb74c7947	-1.2187585e-05
228	0xb68d063f	-4.2028546e-06
229	0xb4a10903	-2.9995144e-07
230	0x36b9506d	5.5227924e-06
231	0x3742bc75	1.160718e-05
232	0x37a12ae6	1.9212672e-05
233	0x37e4decc	2.7283466e-05
234	0x380a1fc3	3.2931344e-05
235	0x380e4254	3.391721e-05
236	0x3815f821	3.5755456e-05
237	0x382a0443	4.0535127e-05
238	0x38462124	4.7237743e-05
239	0x385fa6ac	5.332257e-05
240	0x386199c7	5.3787397e-05
241	0x3883aabc	6.2783685e-05
242	0x3880e0c8	6.1453844e-05
243	0x388d186b	6.727952e-05
244	0x389d2230	7.492711e-05
245	0x38a734d1	7.9730184e-05
246	0x38c029cf	9.163061e-05
247	0x38cab027	9.6649215e-05
248	0x38d748b0	0.00010265538
249	0x38ec0840	0.000112548936
250	0x38f59cab	0.00011711692
251	0x38fbd2a5	0.00012007848
252	0x3903fd5e	0.0001258752
253	0x3908bd31	0.0001304045
254	0x390e01b4	0.0001354281
255	0x39170f98	0.00014406291
