checkpoints/DLinear/ETTm1_100_336_96/1514159180707450e1fb2116cbfe9257/DLinear_best_val_MAE.pt (torch, 782442 bytes, 12 tensors)

Linear_Seasonal.weight f4 [96, 336]
0.009632849 -0.00069300295 -0.001836797 0.0008187256 -0.00026129282 -0.0036679332 -0.0011745233 -0.0041167666
-0.0050129998 -0.0073256237 -0.009065127 -0.004756311 -0.004346339 -0.010956965 -0.007764654 -0.0033884246
-0.007238928 -0.006688451 -0.005142671 -0.0038662 -0.005409757 -0.004174854 -0.004688822 -0.004552814
-0.0051311557 -0.0017687832 -0.002333479 0.0008646931 0.0010573134 0.0053448263 0.0049621114 0.004626462
0.0018942646 0.0039923848 0.0005536411 0.005817207 -0.0015098932 0.007270395 0.0016241621 0.0054960414
0.0033463452 0.0065902877 -0.00025589924 -0.0019474621 -0.002398448 -0.01895575 -0.022412214 -0.010902657
0.034581408 0.017448483 0.007348164 0.00713788 0.004168213 0.0043987287 -0.0046426724 -0.0073137977
-0.0035362581 8.92037e-05 -0.01047835 0.0025948628 0.0004111596 0.0011429174 0.0020703303 -0.0010384085
0.00081701204 0.006641889 0.0014031638 -0.00053846603 -0.0065062046 -0.0041511143 -0.0017899284 -0.0019605076
-0.00058675697 -0.00028703353 -0.0024177183 -0.00415588 -0.0006233715 -0.00038789707 0.0010696166 -0.0006567734
0.001887405 0.0005258586 -0.0028738522 -0.0026802768 -0.00045366774 0.0024597135 0.0038998083 -0.004706689
-0.0011907541 -0.0001419533 0.00030704687 0.0005723914 0.0005319726 0.0024321945 0.0013453932 0.0026498574
-0.0027148768 -0.00061596825 -0.0025058847 0.0061782887 0.000596728 0.0005804951 -0.0031282671 -0.0064490237
-0.00596633 -0.0033641285 -0.00012761215 0.0038189848 0.002377018 -0.005144508 0.0012484838 -0.0009164935
0.0035743073 0.00018368452 -0.0013186364 0.0022599858 -0.0011166543 0.00030980355 -4.0046787e-05 -0.00048264206
0.0075500053 0.0019769678 0.0026472826 -0.0011703635 0.002807758 0.0060108607 0.003944119 -0.00069975585
0.0014546445 -0.0015157388 0.0012569894 0.0026027858 -0.0015767544 -0.001083215 -0.0010680452 0.0019765527
-0.00010529065 -0.0012880962 -0.0065398323 -0.009756498 -0.017394844 -0.024376862 -0.036253583 -0.011508925
0.04525247 0.023693705 0.006024745 0.010256275 0.004939229 0.00082283234 -0.004253889 -0.006137332
0.0004206622 0.0038259022 -0.0031805653 0.00039483348 0.002292057 0.00033366925 -0.003964389 0.0065316306
-0.0017112881 0.0020009838 -0.0045229993 -0.0036380107 -0.0005745938 -0.005357746 0.0009981235 -0.000113205424
-0.0010490902 0.0031200536 0.0017409603 0.001046707 -0.0016048307 0.002602459 -0.0009956763 -0.0011876044
-0.001287774 -0.0015114631 0.0009621807 -0.005893681 -0.0023034664 0.004026498 0.0025586265 -0.0037276093
-0.0028541773 -0.0010254179 -3.3102853e-05 0.00014583133 0.0011452471 0.0011370967 -0.0010436765 -0.0013971755
-0.00293846 -0.0018238209 -0.0024615137 0.004550847 0.00032214937 0.002039965 0.00042242868 0.0037550346
-0.0013907002 0.00072000705 -0.0018379217 0.004550193 0.0013277521 0.0021642668 0.0014407509 0.00018404824
0.003952172 -0.00050439563 -0.0033645993 3.059118e-05 -0.0007759336 -0.00223028 -0.0002600925 0.0007302905
0.0012664238 -0.0013357989 0.0024117697 0.0027419725 0.0008815796 1.811339e-05 -0.0028064419 -0.0034059717
-0.00922983 -0.0013542566 -0.00493153 -0.0028342758 0.0021182885 0.00095749745 0.004029375 -0.0030235858
0.00074824045 0.0001179511 -0.007609276 -0.006500404 -0.009470784 -0.015880775 -0.02240233 -0.013740591
0.0345117 0.022962535 0.013601868 0.0085539855 0.010606017 -0.0001771535 0.0011770739 0.0019079107
-0.000819357 0.003387043 0.0040573208 -0.00067005807 0.0059639723 -0.0049691433 0.00089702033 0.0015304951
00000000: 19d3 1d3c a4aa 35ba aec0 f0ba bf9f 563a
00000010: 21fe 88b9 b561 70bb 76f2 99ba f1e5 86bb
00000020: 1744 a4bb c90b f0bb e685 14bc d4da 9bbb
00000030: bc6b 8ebb d884 33bc a36e febb 5510 5ebb
00000040: 8834 edbb cb2a dbbb da83 a8bb 1360 7dbb
00000050: 5544 b1bb 37cd 88bb b1a4 99bb c62f 95bb
00000060: 4123 a8bb 84d6 e7ba 48ed 18bb 92ac 623a
00000070: 8d95 8a3a a723 af3b 3599 a23b 9399 973b
00000080: f948 f83a 8dd2 823b 3a22 113a 459e be3b
00000090: 9ce7 c5ba 7e3c ee3b d6e1 d43a 2318 b43b
000000a0: 5b4e 5b3b 57f3 d73b 372a 86b9 fc41 ffba
000000b0: 482f 1dbb 1749 9bbc d299 b7bc 0fa1 32bc
000000c0: 3ca5 0d3d 1ff0 8e3c dec8 f03b e1e4 e93b
000000d0: 8195 883b 3623 903b 8f21 98bb 95a8 efbb
000000e0: 91c0 67bb df12 bb38 63ad 2bbc 930e 2a3b
000000f0: e890 d739 f2cd 953a 61ae 073b 351b 88ba
00000100: c02c 563a 34a4 d93b 5dea b73a d827 0dba
00000110: 0032 d5bb 1206 88bb 089c eaba dc7b 00bb
00000120: 98d0 19ba fd7c 96b9 9572 1ebb 0c2e 88bb
00000130: c169 23ba aa5e cbb9 6132 8c3a 512b 2cba
00000140: cd62 f73a c6d9 093a 3d57 3cbb 95a7 2fbb
00000150: 41da edb9 2533 213b ed93 7f3b 923a 9abb
00000160: 1413 9cba 4cd9 14b9 22fb a039 890c 163a
00000170: 1474 0b3a 7465 1f3b e857 b03a 3ba9 2d3b
00000180: 13ec 31bb ee78 21ba c539 24bb 3e73 ca3b
00000190: bd6d 1c3a 5e2c 183a 9d03 4dbb 5552 d3bb
000001a0: 3481 c3bb b678 5cbb a0cf 05b9 ef47 7a3b
000001b0: bfc7 1b3b 4393 a8bb 2aa4 a33a d640 70ba
000001c0: ed3e 6a3b 709b 4039 18d6 acba 451c 143b
000001d0: b35c 92ba 216d a239 e9f7 27b8 1f0b fdb9
000001e0: 0966 f73b 0490 013b 087e 2d3b e266 99ba
000001f0: 5d02 383b c1f6 c43b ab3d 813b d26f 37ba
00000200: c5a9 be3a c1ab c6ba 91c1 a43a 8093 2a3b
00000210: 19ab ceba aafa 8dba a6fd 8bba 0d89 013b
00000220: 7dcf dcb8 56d5 a8ba 174c d6bb b8d9 1fbc
00000230: a27f 8ebc fcb1 c7bc a37e 14bd ee8f 3cbc
00000240: a75a 393d 4d19 c23c 396b c53b ef09 283c
00000250: 42d9 a13b 58b3 573a 3564 8bbb ac1b c9bb
00000260: 538c dc39 fdbb 7a3b 0871 50bb a701 cf39
00000270: 5636 163b 54f0 ae39 b5e7 81bb 4a07 d63b
00000280: 4d4d e0ba f022 033b ab35 94bb b16b 6ebb
00000290: 56a0 16ba 0890 afbb 78d3 823a b368 edb8
000002a0: a081 89ba d079 4c3b ef30 e43a a931 893a
000002b0: 2f59 d2ba 048e 2a3b 5a81 82ba 64a9 9bba
000002c0: 86ca a8ba 491c c6ba db3a 7c3a c81f c1bb
000002d0: c1f5 16bb b7f0 833b a1ae 273b e84a 74bb
000002e0: 260d 3bbb 5167 86ba ebd7 0ab8 4dea 1839
000002f0: 1e1c 963a a20a 953a f9cb 88ba 6e21 b7ba
00000300: 2e93 40bb 460d efba 5951 21bb 461f 953b
00000310: 28e6 a839 efb0 053b 6b79 dd39 0717 763b
00000320: 2848 b6ba dbbe 3c3a 6be6 f0ba c919 953b
00000330: f807 ae3a 5fd6 0d3b 94d7 bc3a 13fd 4039
00000340: 3981 813b 6b39 04ba 9c80 5cbb 084f 0038
00000350: 0668 4bba e429 12bb 065d 88b9 f770 3f3a
00000360: 22fe a53a f915 afba c80e 1e3b aab2 333b
00000370: ce19 673a 35f2 9737 48ec 37bb b936 5fbb
00000380: b638 17bc 5081 b1ba ac98 a1bb 42bf 39bb
00000390: fcd2 0a3b 9100 7b3a d908 843b 5a27 46bb
000003a0: 9125 443a 845c f738 3c57 f9bb 5701 d5bb
000003b0: 592b 1bbc 6618 82bc 1785 b7bc 3720 61bc
000003c0: 245c 0d3d ed1b bc3c 5fda 5e3c 0426 0c3c
000003d0: dcc4 2d3c 48c2 39b9 0c48 9a3a dc12 fa3a
000003e0: 1eca 56ba 27f9 5d3b 46f3 843b d6a6 2fba
000003f0: 6d6d c33b 32d4 a2bb 0426 6b3a e59a c83a

Linear_Seasonal.bias f4 [96]
0.0036149204 0.005658287 8.828454e-05 0.007293654 -0.015617011 0.0062527484 -0.011373953 0.011465449
0.01397187 -0.014754408 -0.007269835 -0.014319448 0.0028827183 0.01015458 0.010977357 -0.011237077
0.013374058 -0.0046547106 -0.022039797 -0.012703304 0.0024752945 -0.008556388 -0.0054559484 -0.004025664
-0.0023326543 0.023183575 0.0006258351 -0.0037621423 0.011604527 0.0058650863 0.006124073 -0.002622503
-0.010936697 0.016040733 0.019399514 -0.014804231 -0.017817767 -0.010819978 -0.015303522 0.015739394
-0.018783297 -0.0026610105 -0.0022832153 -0.0037767908 0.0043955636 0.010880368 0.017199947 0.0072337715
0.002160609 -0.020479595 -0.0055597774 5.7720645e-05 -0.0016333463 -0.00062666624 0.014827018 -0.0114163
-0.012013282 -0.014376554 -0.011740777 0.0012217349 -0.009449113 0.011832746 -0.0016433843 0.0016279406
0.0009274549 0.00435588 -0.0027644432 0.009562494 0.0067981877 0.012157406 0.0023911002 -0.01995568
0.021659546 0.012628547 0.011714684 -0.028548222 0.00054744724 0.024938464 -0.010182575 -0.011482894
-0.011116283 0.008975831 0.008345029 -0.020770533 -0.0064758076 -0.021297922 -0.0037397183 0.0022922992
0.013525767 -0.005879821 0.0044173305 0.0037701728 -0.006628783 0.0037577865 0.0026156649 0.002820652
00000000: 4de8 6c3b 2769 b93b 6725 b938 9bff ee3b
00000010: 7ede 7fbc dbe3 cc3b d159 3abc 94d9 3b3c
00000020: 45ea 643c 79bc 71bc cc37 eebb 1e9c 6abc
00000030: fdeb 3c3b 655f 263c 5fda 333c b81b 38bc
00000040: dd1e 5b3c 8b86 98bb ce8c b4bc 8521 50bc
00000050: 8d38 223b 1830 0cbc d0c7 b2bb b8e9 83bb
00000060: 72df 18bb 7beb bd3c 150f 243a 468e 76bb
00000070: ea20 3e3c e92f c03b 73ac c83b 4dde 2bbb
00000080: d52f 33bc db67 833c bbeb 9e3c 728d 72bc
00000090: 91f6 91bc 4746 31bc a0bb 7abc e7ef 803c
000000a0: 6edf 99bc 5964 2ebb ffa1 15bb 0984 77bb
000000b0: a908 903b 9243 323c e7e6 8c3c 4609 ed3b
000000c0: 0199 0d3b d3c4 a7bc cb2e b6bb 1219 7238
000000d0: 0216 d6ba dc46 24ba 05ed 723c 6f0b 3bbc
000000e0: 5bd3 44bc a38b 6bbc 635c 40bc 9f22 a03a
000000f0: 74d0 1abc 22de 413c d466 d7ba 9f60 d53a
00000100: 7220 733a c5bb 8e3b a92b 35bb 02ac 1c3c
00000110: 55c3 de3b db2f 473c 01b4 1c3b 187a a3bc
00000120: 5c6f b13c f7e7 4e3c f2ee 3f3c f6dd e9bc
00000130: 9082 0f3a c04b cc3c d1d4 26bc c022 3cbc
00000140: 1221 36bc 5d0f 133c 97b9 083c f726 aabc
00000150: 0333 d4bb fb78 aebc 1016 75bb 663a 163b
00000160: 2e9b 5d3c 83ab c0bb 41bf 903b 0115 773b
00000170: 4336 d9bb 3245 763b 936b 2b3b b0da 383b

Linear_Trend.weight f4 [96, 336]
-0.013861358 -0.015471792 0.025340475 -0.017124584 0.016410407 0.015203808 -0.019238753 -0.0140101
-0.014382644 -0.004240625 -0.02690278 0.015169221 0.00021502504 0.0013953925 0.024603609 0.0135180615
0.008360058 0.013015899 -0.0022976166 0.018552125 0.010147808 0.026267074 0.016669912 -0.01174048
-0.022686668 0.0031544627 0.028973557 0.0014249645 -0.025026988 0.0015631167 -0.024347752 -0.011157854
-0.021952158 0.013862198 -0.00176893 -0.020196466 -0.020548327 -0.008351815 0.02628129 -0.021601994
-0.016779896 -0.018091206 -0.005517386 -0.004252747 0.0004639216 0.008521595 0.02345695 0.029626539
0.0092554875 0.02804561 0.021117836 0.013148333 -0.012393828 0.001555269 -0.023149457 -0.017398192
-0.0038588129 0.00030049647 0.0132267205 -0.0064030173 0.015148184 -0.013945025 -0.02464529 0.026624529
-0.013491438 0.015625961 -0.0010703624 0.0040580384 -0.019573681 0.0060193646 0.016793616 -0.01987222
-0.0003446709 0.0034375412 -0.015774725 0.00047218884 -0.0029726133 -0.0043260395 0.02015039 0.02085633
0.024268175 0.020001287 -0.027132593 -0.013776768 -0.005276448 0.008452883 0.031458788 -0.020279858
-0.023717793 -0.008014592 -0.02182491 -0.0068620066 -0.009768946 -0.012648259 0.033976853 0.0059813494
-0.012403905 -0.009811562 0.02489662 0.015687345 -0.012974973 -0.023863021 0.013346712 0.0117248595
0.007140536 -0.025641613 0.022276284 0.012886038 0.010153056 -0.009692403 -0.014112785 -0.002852812
0.022338688 0.020235017 0.021453517 -0.025496202 0.008407529 -0.025651723 -0.015506308 -0.016590763
-0.007940037 -0.006915671 0.018108256 -0.02869453 -0.011315061 0.015423426 0.029923644 -0.010550476
0.028306384 -0.01568743 -0.0077076317 0.004937842 -0.006345209 0.0101271095 0.0049329023 -0.013719721
-0.0028015822 0.008192333 -0.027627688 0.0026151086 -0.005708165 0.020194756 -0.004921316 0.01253693
-0.027020724 0.0034030776 0.0148640545 -0.014596855 0.021053353 0.015113372 -0.022631973 0.027452422
0.0032454096 -0.016515091 0.01592755 0.021361573 -0.023380026 0.021209614 -0.006652711 -0.016858535
0.01330436 0.021278523 -0.014011499 -0.017242499 -0.028456038 0.018897993 -0.0012612351 -0.0040731397
-0.005233011 0.012309302 -0.01820002 0.0072477097 -0.017594343 0.021686096 0.02567271 0.028456902
-0.01817976 -0.018092705 -0.011686749 -0.015915764 0.00029412485 -0.022727441 0.029819984 0.025621532
0.0045759683 -0.015692506 -0.0061919554 0.007967403 0.012281053 -0.027988989 0.014187791 0.014613554
0.002926964 -0.018318364 -0.0055561033 0.02883702 -0.030992629 -0.024082487 0.010608972 0.008913755
0.0070117074 0.0066148625 -0.004563226 -0.018380895 0.021602323 0.015426317 0.026563177 -0.028343165
0.010698109 -0.031583555 -0.011847913 -0.031344276 0.00089814677 0.019021459 0.025939047 0.0001338434
0.016775792 0.00517954 -0.020853952 0.0060908766 -0.013588571 -0.00031164638 0.024722481 -0.019757964
-0.019803232 0.02451925 0.007406443 -0.0019326964 0.01733629 -0.0036769789 -0.011449428 -0.019080266
-0.012207523 0.015291327 0.02225067 0.0023056292 -0.026838092 -0.006691896 -0.005951173 0.0076155253
-0.024888426 0.023768248 -0.015339536 0.0029167954 0.0152795585 -0.008152654 0.016073735 -0.007871301
-0.03131645 0.027814506 0.027688209 -0.005333052 -0.0027367875 -0.009236241 -0.006292817 0.022523763
00000000: c01a 63bc 667d 7dbc d496 cf3c db48 8cbc
00000010: 1e6f 863c 6519 793c 979a 9dbc 9e8a 65bc
00000020: 2ea5 6bbc f1f4 8abb 3863 dcbc 5388 783c
00000030: 5878 6139 9ae5 b63a 828d c93c dc7a 5d3c
00000040: a0f8 083c a340 553c 9c93 16bb a0fa 973c
00000050: fe42 263c 0c2e d73c 578f 883c 245b 40bc
00000060: 64d9 b9bc 1abb 4e3b f459 ed3c e0c5 ba3a
00000070: 6605 cdbc 7ee1 cc3a f074 c7bc 6fcf 36bc
00000080: 03d5 b3bc 461e 633c 71db e7ba 0f73 a5bc
00000090: f754 a8bc 0dd6 08bc dc4b d73c aaf6 b0bc
000000a0: fe75 89bc 0234 94bc 30cb b4bb a15a 8bbb
000000b0: 813a f339 299e 0b3c ca28 c03c 5bb3 f23c
000000c0: 54a4 173c e8bf e53c 50ff ac3c 1b6c 573c
000000d0: 7b0f 4bbc 2bda cb3a eea3 bdbc a786 8ebc
000000e0: 23e4 7cbb f48b 9d39 e3b4 583c 67d0 d1bb
000000f0: 1730 783c ad79 64bc ebe4 c9bc af1b da3c
00000100: 310b 5dbc 0402 803c 674b 8cba 4bf9 843b
00000110: fc58 a0bc 173e c53b c492 893c 11cb a2bc
00000120: f2b4 b4b9 5f48 613b ff39 81bc 1d90 f739
00000130: 2dd0 42bb 73c1 8dbb 6e12 a53c e5da aa3c
00000140: 0dce c63c bdd9 a33c 2c45 debc f4b7 61bc
00000150: 0ee6 acbb f67d 0a3c eeda 003d f221 a6bc
00000160: d14b c2bc a34f 03bc 27ca b2bc afda e0bb
00000170: ee0d 20bc a53a 4fbc 502b 0b3d 32ff c33b
00000180: c039 4bbc acc0 20bc fff3 cb3c bf82 803c
00000190: fb94 54bc 627c c3bc 2bac 5a3c a019 403c
000001a0: 28fb e93b 5c0e d2bc c17c b63c f61f 533c
000001b0: 0159 263c e2cc 1ebc 5039 67bc 3ef6 3abb
000001c0: a0ff b63c e8c3 a53c 49bf af3c 69dd d0bc
000001d0: bcbf 093c 9023 d2bc 2b0e 7ebc 5ae9 87bc
000001e0: ee16 02bc da9c e2bb c457 943c ca10 ebbc
000001f0: ce62 39bc 8ab2 7c3c 6e22 f53c e7db 2cbc
00000200: cae2 e73c ed82 80bc 4d90 fcbb 9fcd a13b
00000210: 79eb cfbb 2dec 253c 2fa4 a13b aec8 60bc
00000220: c09a 37bb 2339 063c 7653 e2bc 3e62 2b3b
00000230: 8f0b bbbb 796f a53c fe42 a1bb b267 4d3c
00000240: 915a ddbc 2b06 5f3b 5d88 733c a627 6fbc
00000250: 1578 ac3c 149e 773c b066 b9bc e7e3 e03c
00000260: f0b0 543b a84a 87bc 7e7a 823c 77fe ae3c
00000270: 7887 bfbc c9bf ad3c fcfe d9bb e91a 8abc
00000280: 88fa 593c 4c50 ae3c 7c90 65bc 2440 8dbc
00000290: a31c e9bc f7cf 9a3c 0750 a5ba f977 85bb
000002a0: ae79 abbb f4ac 493c 3518 95bc 327e ed3b
000002b0: 0322 90bc 0aa7 b13c 934f d23c 731e e93c
000002c0: b8ed 94bc 2737 94bc c779 3fbc c761 82bc
000002d0: c534 9a39 e62e babc 0a49 f43c 3fe4 d13c
000002e0: 01f2 953b 928d 80bc e3e5 cabb b689 023c
000002f0: 7836 493c 2a49 e5bc e973 683c b06d 6f3c
00000300: 4fd2 3f3b 6510 96bc f90f b6bb 9d3b ec3c
00000310: 41e4 fdbc a348 c5bc 41d1 2d3c 000b 123c
00000320: 77c2 e53b 7dc1 d83b 1d87 95bb 8893 96bc
00000330: 5bf7 b03c aabe 7c3c 059b d93c ed2f e8bc
00000340: 1f47 2f3c c25d 01bd c01d 42bc db62 00bd
00000350: 9c71 6b3a e4d2 9b3c 207e d43c 5058 0c39
00000360: 636d 893c 21b9 a93b e8d5 aabc fa95 c73b
00000370: 99a2 5ebc 7864 a3b9 cd86 ca3c 74db a1bc
00000380: 633a a2bc 98dc c83c bfb1 f23b 8852 fdba
00000390: d604 8e3c 78f9 70bb 6296 3bbc 384e 9cbc
000003a0: 1002 48bc 7988 7a3c 0947 b63c 0a1a 173b
000003b0: 8fdb dbbc b147 dbbb 0f02 c3bb a88b f93b
000003c0: d0e2 cbbc a1b5 c23c ad52 7bbc b527 3f3b
000003d0: 1d57 7a3c b692 05bc 11ad 833c a1f6 00bc
000003e0: ae45 00bd 3fdb e33c 62d2 e23c e2c0 aebb
000003f0: ad5b 33bb 9a53 17bc fa33 cebb c183 b83c

Linear_Trend.bias f4 [96]
-0.004423262 -0.007489287 -0.003199486 -0.010096881 0.0129005825 -0.01016149 0.007045971 -0.015261998
-0.017438054 0.0109376395 0.0028765358 0.010126683 -0.00817825 -0.014666955 -0.015462323 0.007512499
-0.018103437 0.00060730876 0.01875381 0.009303036 -0.0060286513 0.004933164 0.0019076271 -0.0006263346
-0.0015376416 -0.027286988 -0.0048905374 -0.0012501151 -0.015383324 -0.0100455405 -0.011112277 -0.0027658283
0.0061427285 -0.021334505 -0.024900284 0.009680896 0.012616266 0.0058795363 0.011469321 -0.019954965
0.014710089 -0.0018311637 -0.0027449583 -0.0018124683 -0.010202579 -0.015970077 -0.022114504 -0.012026791
-0.0066315182 0.016373908 0.0010455862 -0.0040794457 -0.002259879 -0.004235171 -0.019553464 0.0073065604
0.007658883 0.009704329 0.0069700275 -0.0057957666 0.0049803583 -0.016598824 -0.0027851113 -0.005728675
-0.005325555 -0.008535325 -0.0010407276 -0.014011299 -0.011024573 -0.015667766 -0.0070610805 0.016475696
-0.025474038 -0.016531412 -0.014772781 0.024458932 -0.003979147 -0.029676555 0.006065486 0.0069658235
0.006653927 -0.014053391 -0.013024068 0.016325917 0.00287221 0.017153315 -0.0009525472 -0.0064532147
-0.017735 0.0017581859 -0.007539603 -0.0074394564 0.002753172 -0.0077412557 -0.0067364792 -0.007370322
00000000: 03f1 90bb b168 f5bb 78ae 51bb 636d 25bc
00000010: f75c 533c 617c 26bc e4e1 e63b 760d 7abc
00000020: 40da 8ebc c933 333c 4384 3c3b 63ea 253c
00000030: 11fe 05bc ab4d 70bc af55 7dbc 692b f63b
00000040: a94d 94bc cd33 1f3a 97a1 993c c36b 183c
00000050: fe8b c5bb 61a6 a13b 5809 fa3a 9a30 24ba
00000060: b18a c9ba f688 dfbc cd40 a0bb e7da a3ba
00000070: 560a 7cbc 0d96 24bc 4510 36bc e642 35bb
00000080: f148 c93b b3c5 aebc aefb cbbc 9f9c 1e3c
00000090: 74b4 4e3c 20a9 c03b d2e9 3b3c 9878 a3bc
000000a0: 9602 713c a803 f0ba c2e4 33bb 5890 edba
000000b0: b828 27bc aed3 82bc 7a29 b5bc 050c 45bc
000000c0: 354d d9bb 9322 863c 0d0c 893a dfac 85bb
000000d0: 7a1a 14bb 30c7 8abb 962e a0bc df6b ef3b
000000e0: 5ef7 fa3b e8fe 1e3c d464 e43b 6aea bdbb
000000f0: 4632 a33b 42fa 87bc 6a86 36bb 9cb7 bbbb
00000100: fe81 aebb bfd7 0bbc 0669 88ba a68f 65bc
00000110: 69a0 34bc b059 80bc a360 e7bb 0af8 863c
00000120: eeae d0bc e26c 87bc 8909 72bc 195e c83c
00000130: 8163 82bb 3f1c f3bc fcc0 c63b 9041 e43b
00000140: 2f09 da3b 3240 66bc e762 55bc eebd 853c
00000150: b03b 3c3b 1c85 8c3c 5cb4 79ba 7d75 d3bb
00000160: fe48 91bc ee72 e63a c60e f7bb afc6 f3bb
00000170: 906e 343b 5caa fdbb afbd dcbb be82 f1bb

exp_avg f4 [96, 336]
-5.439688e-05 -5.6568257e-05 -7.064135e-06 2.9391333e-06 -2.9752064e-06 -4.4190224e-06 3.898025e-05 8.977192e-05
5.3195625e-05 2.1595612e-05 2.1888667e-05 -1.1424523e-06 3.3199223e-05 -6.4673923e-06 -9.975339e-07 3.5361634e-05
-5.2499654e-06 -2.229676e-05 -9.579848e-06 1.5389192e-05 5.1184204e-05 7.8133446e-05 1.7704297e-06 -3.532136e-05
-1.7139397e-05 -2.2606984e-05 -1.8891335e-05 8.695077e-06 3.9625975e-05 -7.4005156e-06 -6.884595e-07 2.8474156e-07
-4.57818e-06 9.441628e-06 5.9495203e-05 5.204191e-05 -2.6870315e-05 -3.746799e-05 1.6732822e-05 2.7986434e-05
9.373471e-08 1.5734873e-05 -2.3669141e-05 -1.4937981e-05 -3.9299914e-05 -2.8140197e-05 -3.096605e-05 -3.622194e-05
6.890915e-06 2.2540346e-06 -1.5392012e-06 2.4952184e-05 3.4355e-05 9.828544e-06 -1.0803113e-05 -2.2293923e-05
2.8854327e-05 6.020518e-05 5.729896e-05 6.29664e-05 4.9127964e-05 3.0601066e-05 8.24479e-06 -4.764801e-06
-3.2691485e-05 3.3667708e-05 4.073825e-05 5.1335654e-05 8.671559e-06 -3.1867557e-06 4.6197616e-05 -1.6010257e-05
-1.1327988e-05 -9.403584e-06 -4.4769266e-05 -8.5545784e-05 -0.00011061734 -1.6538532e-05 6.0887414e-06 -6.234346e-05
-2.7393127e-05 -1.3735695e-05 1.25405595e-05 5.1708386e-05 5.0045608e-05 3.5704103e-05 2.3365548e-05 -5.3488053e-05
-5.4091743e-05 -3.0259898e-05 -2.3294218e-05 -5.711002e-05 -3.7502763e-05 -3.4529297e-05 -2.825432e-05 -4.185216e-05
6.660653e-06 -1.3674271e-05 -1.30383105e-05 3.108822e-05 4.6103305e-06 -1.2297735e-05 -2.1023596e-05 4.7755704e-05
7.1686204e-06 -3.6828456e-05 -6.220349e-05 -1.3606218e-05 -8.487661e-06 -6.2867824e-05 -8.112012e-05 -6.230209e-05
-3.493872e-05 -6.9456237e-06 6.403825e-05 0.00010794495 0.0001078877 8.158941e-05 6.86343e-05 2.9365625e-05
5.0925024e-05 1.90209e-05 3.234343e-05 1.0740097e-05 7.3535455e-05 5.962206e-05 2.2625092e-05 1.3466617e-05
1.4450001e-05 -1.961255e-05 4.792033e-06 -1.9111763e-05 6.8000772e-06 -1.8856954e-05 -1.8352095e-05 -8.933794e-05
-6.4607826e-05 -2.8983113e-05 -4.1712436e-05 -7.8677846e-07 -7.6963795e-07 6.0838825e-06 -5.7362617e-05 -4.157074e-05
-3.4131575e-05 1.0662253e-05 -3.2222604e-05 -4.184202e-05 -2.2835045e-05 -4.58437e-05 -4.6042853e-05 -2.2754595e-05
-2.1735155e-05 7.075986e-05 0.00010878896 7.991398e-05 5.1989304e-05 5.936765e-05 6.811341e-05 9.790742e-05
0.00012611845 3.206917e-05 1.0691638e-06 -2.509785e-05 -3.0293183e-06 -9.179736e-07 3.8865032e-06 -2.346837e-05
-3.3230812e-05 2.988173e-05 -5.1250468e-06 3.540428e-06 -5.253309e-05 -6.1325736e-05 -6.0568696e-06 -3.859196e-05
-8.3197e-06 4.695134e-05 3.6151102e-06 -2.3649707e-05 -6.5760665e-05 -3.091886e-05 8.875989e-06 3.679169e-06
2.7127064e-05 -4.2431566e-05 1.6653525e-05 -3.2332104e-05 -1.6686246e-05 1.4665926e-05 -3.4367207e-05 -1.58914e-06
-2.7774246e-05 1.0082799e-05 1.4892971e-05 3.2854605e-05 4.742637e-06 -4.1053354e-05 1.8146564e-05 -2.52684e-06
-2.6763804e-05 -6.426354e-05 -2.5953716e-05 -3.9633463e-07 -1.1536929e-05 -6.472882e-05 -2.7656508e-05 -5.0699156e-05
-2.2031618e-05 -5.486956e-06 2.3923209e-05 5.180816e-05 5.0807274e-05 8.106429e-05 6.0559032e-05 2.9182582e-05
-1.2728634e-05 -6.005158e-05 -8.0053236e-05 3.8732785e-05 3.7798676e-05 1.4918555e-05 3.180899e-05 5.529019e-05
6.490724e-05 -4.4620233e-06 1.4618505e-05 1.6098202e-05 -7.4427603e-06 -2.5618228e-05 -3.1973334e-05 -4.084276e-05
-7.0104696e-05 -4.7638223e-05 -9.975766e-05 -4.7537775e-05 -4.8840764e-05 3.4782075e-05 8.691985e-06 1.9602014e-05
2.518553e-05 3.299434e-05 4.4460943e-05 7.277148e-05 2.7200194e-05 3.183392e-05 1.088287e-05 -2.5091033e-05
4.870735e-05 6.1144936e-05 8.229467e-05 7.472944e-05 0.00010945651 3.834905e-05 -7.389608e-07 -3.768087e-05
00000000: 3528 64b8 b443 6db8 7508 edb6 ed3d 4536
00000010: a8a9 47b6 1d47 94b6 ba7e 2338 ef43 bc38
00000020: 5e1e 5f38 3928 b537 8e9d b737 5d56 99b5
00000030: 653f 0b38 7a02 d9b6 01e3 85b5 4451 1438
00000040: dc28 b0b6 ed09 bbb7 22b9 20b7 0a18 8137
00000050: 9fae 5638 93db a338 809f ed35 0626 14b8
00000060: 93c6 8fb7 21a4 bdb7 d578 9eb7 12e1 1137
00000070: 1134 2638 f251 f8b6 94ce 38b5 95de 9834
00000080: 449e 99b6 7c67 1e37 7d8a 7938 9347 5a38
00000090: 9067 e1b7 f326 1db8 765d 8c37 69c4 ea37
000000a0: 344b c933 62fe 8337 188d c6b7 249e 7ab7
000000b0: f6d5 24b8 9d0e ecb7 8be1 01b8 03ed 17b8
000000c0: 8238 e736 0544 1736 8d96 ceb5 6850 d137
000000d0: 6618 1038 46e5 2437 043f 35b7 d603 bbb7
000000e0: 320c f237 d284 7c38 4a54 7038 d40c 8438
000000f0: c00e 4e38 a559 0038 1a53 0a37 54e1 9fb6
00000100: 371e 09b8 6d36 0d38 5dde 2a38 3d51 5738
00000110: 107c 1137 0cdc 55b6 50c4 4138 c44d 86b7
00000120: 570d 3eb7 16c4 1db7 a2c6 3bb8 0b67 b3b8
00000130: 3bfb e7b8 3abc 8ab7 e44d cc36 64be 82b8
00000140: 4bca e5b7 5c72 66b7 4b65 5237 75e1 5838
00000150: 10e8 5138 fdc0 1538 2201 c437 5c58 60b8
00000160: 91e0 62b8 a3d6 fdb7 f467 c3b7 6b89 6fb8
00000170: 494c 1db8 8dd3 10b8 b103 edb7 6a8a 2fb8
00000180: 937e df36 8c6a 65b7 1ebf 5ab7 b964 0238
00000190: 70b2 9a36 5f52 4eb7 d45b b0b7 4c4d 4838
000001a0: fb89 f036 4178 1ab8 3f73 82b8 4346 64b7
000001b0: 3a66 0eb7 e8d7 83b8 081f aab8 2ea8 82b8
000001c0: 2a8b 12b8 740e e9b6 464c 8638 8160 e238
000001d0: c541 e238 fb1a ab38 c2ef 8f38 3356 f637
000001e0: 5498 5538 128f 9f37 7ea8 0738 5e30 3437
000001f0: 0c37 9a38 b312 7a38 04cb bd37 aeee 6137
00000200: 486e 7237 a185 a4b7 40cb a036 3352 a0b7
00000210: 382c e436 002f 9eb7 d3f2 99b7 f15a bbb8
00000220: 107e 87b8 c320 f3b7 63f4 2eb8 0133 53b5
00000230: 1e99 4eb5 2724 cc36 a498 70b8 3e5c 2eb8
00000240: 8028 0fb8 07e2 3237 c226 07b8 877f 2fb8
00000250: e38d bfb7 4c48 40b8 231e 41b8 1fe1 beb7
00000260: e453 b6b7 e964 9438 a125 e438 7e97 a738
00000270: 170f 5a38 8701 7938 1cd8 8e38 a553 cd38
00000280: aa3e 0439 0282 0638 3080 8f35 3989 d2b7
00000290: 4b4b 4bb6 aa6a 76b5 cf68 8236 f1dd c4b7
000002a0: 5061 0bb8 87aa fa37 d1f7 abb6 1798 6d36
000002b0: fa56 5cb8 019c 80b8 1d3c cbb6 cddd 21b8
000002c0: d794 0bb7 9eed 4438 1f9b 7236 5c63 c6b7
000002d0: fde8 89b8 e0ae 01b8 15ea 1437 a4e7 7636
000002e0: ed8e e337 8cf8 31b8 2cb3 8b37 559c 07b8
000002f0: 71f9 8bb7 ac0d 7637 8225 10b8 6f4a d5b5
00000300: bdfc e8b7 4b29 2937 d3dc 7937 5dcd 0938
00000310: f122 9f36 b430 2cb8 7339 9837 c892 29b6
00000320: d582 e0b7 3ac5 86b8 2eb7 d9b7 d1c7 d4b4
00000330: bc8e 41b7 05bf 87b8 e6ff e7b7 cea5 54b8
00000340: 8ad0 b8b7 981c b8b6 b3ae c837 974c 5938
00000350: e519 5538 0f01 aa38 c400 7e38 1ecd f437
00000360: 118d 55b7 e5df 7bb8 41e2 a7b8 0375 2238
00000370: 058a 1e38 b54a 7a37 a56a 0538 64e7 6738
00000380: cf1e 8838 7db8 95b6 0042 7537 a00a 8737
00000390: d3bc f9b6 bae6 d6b7 1b1b 06b8 944e 2bb8
000003a0: 2c05 93b8 27cf 47b8 fc34 d1b8 4c63 47b8
000003b0: 5fda 4cb8 f8e2 1138 cbd3 1137 016f a437
000003c0: 8445 d337 6763 0a38 937b 3a38 e49c 9838
000003d0: f92b e437 6985 0538 9295 3637 957a d2b7
000003e0: 1e4b 4c38 f03a 8038 9d95 ac38 10b8 9c38
000003f0: 048c e538 fbd8 2038 005d 46b5 870b 1eb8

exp_avg_sq f4 [96, 336]
1.2480627e-08 1.7036452e-08 1.8098358e-08 1.8778406e-08 2.0569669e-08 2.0609566e-08 2.2641316e-08 2.395336e-08
2.4937153e-08 2.499478e-08 2.4088479e-08 2.517711e-08 2.5147443e-08 2.54487e-08 2.562113e-08 2.5462457e-08
2.6491067e-08 2.6021432e-08 2.4937659e-08 2.5721835e-08 2.6288332e-08 2.6264562e-08 2.4874813e-08 2.4356167e-08
2.5823878e-08 2.6196764e-08 2.475146e-08 2.4813234e-08 2.5163821e-08 2.5716714e-08 2.5849925e-08 2.6135247e-08
2.5923125e-08 2.675834e-08 2.5062901e-08 2.7883127e-08 2.7901857e-08 2.769452e-08 2.6671009e-08 2.649302e-08
2.7183708e-08 2.661847e-08 2.612103e-08 2.6666108e-08 2.7022772e-08 2.726418e-08 2.667078e-08 2.7071426e-08
2.7819604e-08 2.7059063e-08 2.6709515e-08 2.812441e-08 2.7765e-08 2.7535469e-08 2.6170282e-08 2.579822e-08
2.5256728e-08 2.6038101e-08 2.6622946e-08 2.5766964e-08 2.5556014e-08 2.4798851e-08 2.5683466e-08 2.6667173e-08
2.5930905e-08 2.579314e-08 2.5513016e-08 2.4342176e-08 2.4317664e-08 2.5785132e-08 2.7045026e-08 2.482134e-08
2.5629342e-08 2.6024765e-08 2.5221802e-08 2.5331675e-08 2.6025415e-08 2.5191408e-08 2.5689813e-08 2.4259956e-08
2.3727019e-08 2.3994405e-08 2.4482427e-08 2.5213481e-08 2.5247147e-08 2.489098e-08 2.569019e-08 2.523956e-08
2.4003612e-08 2.3585187e-08 2.3114563e-08 2.422112e-08 2.3664093e-08 2.4550342e-08 2.3965116e-08 2.3973067e-08
2.492694e-08 2.50598e-08 2.5198284e-08 2.4265283e-08 2.5836046e-08 2.5947639e-08 2.5308152e-08 2.410088e-08
2.4883205e-08 2.4035096e-08 2.494345e-08 2.2238309e-08 2.356598e-08 2.4628404e-08 2.444293e-08 2.4912907e-08
2.6414398e-08 2.6323717e-08 2.6006107e-08 2.628687e-08 2.6281178e-08 2.6242711e-08 2.5816226e-08 2.4369733e-08
2.374815e-08 2.4858185e-08 2.4771847e-08 2.6299915e-08 2.5584509e-08 2.5537837e-08 2.4826928e-08 2.6551811e-08
2.5881059e-08 2.6005047e-08 2.6559949e-08 2.6298467e-08 2.6500826e-08 2.7342535e-08 2.7759496e-08 2.7109031e-08
2.7857398e-08 2.7526262e-08 2.7174126e-08 2.7504905e-08 2.6680933e-08 2.8614807e-08 2.8027701e-08 2.8302841e-08
2.8978423e-08 2.84196e-08 2.7924028e-08 2.9259638e-08 2.694128e-08 2.7572245e-08 2.7322022e-08 2.6054433e-08
2.5738586e-08 2.6400246e-08 2.6889493e-08 2.7350623e-08 2.6990287e-08 2.6032621e-08 2.6779123e-08 2.6337677e-08
2.5948637e-08 2.558785e-08 2.5388246e-08 2.5320947e-08 2.6906068e-08 2.5757686e-08 2.5437418e-08 2.6276837e-08
2.610599e-08 2.648281e-08 2.5122647e-08 2.5021759e-08 2.4005509e-08 2.4504466e-08 2.358624e-08 2.3932353e-08
2.337826e-08 2.4303173e-08 2.4321833e-08 2.4831323e-08 2.5122274e-08 2.2945638e-08 2.3160739e-08 2.435729e-08
2.236502e-08 2.3687805e-08 2.2673508e-08 2.3346631e-08 2.3470184e-08 2.5143054e-08 2.5167314e-08 2.4054982e-08
2.4217538e-08 2.4256382e-08 2.3827003e-08 2.4369923e-08 2.4857435e-08 2.5928093e-08 2.6387546e-08 2.6099091e-08
2.580206e-08 2.5018787e-08 2.340696e-08 2.3599833e-08 2.4198954e-08 2.4350594e-08 2.631323e-08 2.5619732e-08
2.6191568e-08 2.4593245e-08 2.4506916e-08 2.4453264e-08 2.4455804e-08 2.3763247e-08 2.4166876e-08 2.4235538e-08
2.4353922e-08 2.4534303e-08 2.5850758e-08 2.5876242e-08 2.548337e-08 2.4160203e-08 2.402875e-08 2.4764253e-08
2.5227932e-08 2.5708198e-08 2.633506e-08 2.5932072e-08 2.6654442e-08 2.8148891e-08 2.8565758e-08 2.8035057e-08
2.699458e-08 2.6707076e-08 2.7809506e-08 2.7587742e-08 2.7582855e-08 2.8427802e-08 2.7521136e-08 2.7483992e-08
2.6799267e-08 2.6543827e-08 2.6475076e-08 2.752272e-08 2.7673435e-08 2.660708e-08 2.5853153e-08 2.5851616e-08
2.6260604e-08 2.706664e-08 2.6234735e-08 2.571088e-08 2.6491394e-08 2.534847e-08 2.5681503e-08 2.4653517e-08
00000000: 616a 5632 8e57 9232 b676 9b32 274e a132
00000010: 2eb1 b032 ea08 b132 c87c c232 ffc1 cd32
00000020: 6135 d632 1ab4 d632 20eb ce32 0d45 d832
00000030: d003 d832 489a da32 7615 dc32 89b8 da32
00000040: 798e e332 bc85 df32 7e36 d632 eaf2 dc32
00000050: a7d0 e132 629c e132 4bac d532 c737 d132
00000060: 4fd3 dd32 4b07 e132 099d d432 e124 d532
00000070: d427 d832 a7e7 dc32 960c de32 0480 e032
00000080: 8ead de32 36da e532 e749 d732 a583 ef32
00000090: d5ac ef32 e5e4 ed32 2b1a e532 c492 e332
000000a0: 9b81 e932 a2a6 e432 c160 e032 640f e532
000000b0: b41f e832 9132 ea32 aa19 e532 b28a e832
000000c0: f5f7 ee32 826f e832 d86e e532 3b96 f132
000000d0: e17f ee32 2387 ec32 0fcd e032 e39a dd32
000000e0: 22f4 d832 64aa df32 7ab0 e432 2756 dd32
000000f0: 4586 db32 4005 d532 8a9e dc32 bc11 e532
00000100: aabe de32 b78f dd32 b727 db32 0319 d132
00000110: 1ce3 d032 1b7e dd32 a450 e832 b436 d532
00000120: 8527 dc32 108d df32 54a7 d832 f198 d932
00000130: 7e8e df32 7e64 d832 7fac dc32 3564 d032
00000140: 44d0 cb32 411c ce32 6d4d d232 0895 d832
00000150: 10df d832 d8cf d532 53ad dc32 61ce d832
00000160: 8030 ce32 6098 ca32 768d c632 ce0e d032
00000170: e445 cb32 c6e2 d232 d9db cd32 55ed cd32
00000180: ec1e d632 1543 d732 9d73 d832 ec6f d032
00000190: 11ee dd32 76e3 de32 3765 d932 6506 cf32
000001a0: bfbe d532 bc75 ce32 3a43 d632 8f06 bf32
000001b0: 236e ca32 6f8e d332 92f6 d132 1000 d632
000001c0: e0e5 e232 771e e232 0964 df32 70cd e132
000001d0: ecc0 e132 556c e132 7bc2 dd32 9c55 d132
000001e0: bcfe cb32 ba87 d532 dec9 d432 20ea e132
000001f0: eec4 db32 4c5e db32 fe42 d532 0d14 e432
00000200: 0d51 de32 b461 df32 f225 e432 f1e6 e132
00000210: efa3 e332 dfde ea32 c773 ee32 64dd e832
00000220: 114b ef32 e472 ec32 896c e932 ed43 ec32
00000230: fe2f e532 a0cc f532 91c1 f032 9b1e f332
00000240: 3aec f832 5c1f f432 96dd ef32 a056 fb32
00000250: 806c e732 02d8 ec32 c3b1 ea32 4ece df32
00000260: c017 dd32 c1c6 e232 9ffa e632 a8f0 ea32
00000270: 45d8 e732 579e df32 ea07 e632 2a3d e232
00000280: a8e5 de32 47cc db32 5815 da32 5a81 d932
00000290: 121f e732 c041 dd32 7981 da32 60b7 e132
000002a0: ae3f e032 517c e332 49cd d732 6eef d632
000002b0: ac34 ce32 e47d d232 b19a ca32 cd93 cd32
000002c0: 56d1 c832 3ec3 d032 47ec d032 a84c d532
000002d0: 77cc d732 fe19 c532 01f3 c632 3f3a d132
000002e0: 331d c032 097a cb32 92c3 c232 c98b c832
000002f0: 7b9b c932 29fa d732 822f d832 77a1 ce32
00000300: ee06 d032 595c d032 22ac cc32 0756 d132
00000310: 1486 d532 7bb8 de32 d4aa e232 8230 e032
00000320: 54a3 dd32 e5e8 d632 7310 c932 95b8 ca32
00000330: 10de cf32 862b d132 6807 e232 6312 dc32
00000340: defb e032 1e41 d332 4783 d232 4c0d d232
00000350: e212 d232 ef1f cc32 8697 cf32 832e d032
00000360: d732 d132 81bf d232 6b0e de32 7546 de32
00000370: 86e6 da32 d988 cf32 c867 ce32 2bb9 d432
00000380: cfb4 d832 edd4 dc32 6937 e232 3bc1 de32
00000390: bdf5 e432 11cc f132 c460 f532 bed1 f032
000003a0: b6e1 e732 7b69 e532 c0e1 ee32 16fa ec32
000003b0: 57ef ec32 6631 f432 9e67 ec32 f015 ec32
000003c0: 3634 e632 7e02 e432 4f6b e332 1a6b ec32
000003d0: 87b6 ed32 968d e432 af13 de32 4e10 de32
000003e0: ae93 e132 2c80 e832 cb5a e132 d3da dc32
000003f0: 318f e332 e0bd d932 399a dc32 a8c5 d332

exp_avg f4 [96]
-7.0555565e-05 -0.0001461555 -9.447579e-05 -0.00015467031 4.047689e-06 -0.00013243347 8.099103e-06 2.899091e-05
-1.8255898e-05 -0.00015023099 -0.00016234422 8.196139e-05 0.000346265 8.798297e-05 -0.00012774282 8.943726e-05
9.56133e-05 -4.648048e-06 9.126471e-05 -9.721061e-05 -0.00021112809 4.951353e-05 2.1657526e-05 -4.0370644e-05
-6.297445e-05 0.00018290294 -2.5387782e-05 -1.8188934e-05 -3.158439e-05 -0.00016330986 -0.00014443189 0.00017873949
0.00016544649 -3.0660434e-05 -0.00010749223 -0.00012363408 -5.5745815e-05 -9.90304e-05 -6.48747e-05 3.728673e-05
-9.694173e-05 1.4089417e-05 -4.3766693e-05 -6.9171845e-05 -1.8457256e-05 -0.00014094029 -0.00016993243 -9.666152e-05
-0.00018508764 -0.00024564276 -0.0001312183 3.5196852e-06 8.456161e-05 0.000121796744 3.929795e-05 -1.9833064e-05
-1.8836203e-05 4.871324e-05 0.00010422107 4.5445126e-05 2.6210053e-05 6.85671e-05 8.4361193e-07 -0.00017026413
-4.0387353e-05 6.381858e-05 -0.00017408408 -0.00018825899 4.9891358e-05 -0.0001272697 -0.0001535373 -0.0001953053
-0.00025307146 -0.00043193356 -0.00024718483 -0.00027679768 -0.00029662185 -0.00010672837 -0.00011040905 -2.6471645e-05
-0.0001883333 -0.00014398935 -0.00014352363 -0.00029934788 -0.00017384235 -7.594224e-05 -0.000110355875 -0.00010772975
-0.00019159696 -8.633816e-05 4.116923e-05 -0.00017366312 -9.416154e-05 -0.00019446689 -0.00021373684 -0.0004335709
00000000: 3bf7 93b8 5141 19b9 4e21 c6b8 ff2e 22b9
00000010: 62d1 8736 d7dd 0ab9 62e1 0737 8131 f337
00000020: 3e24 99b7 5387 1db9 f23a 2ab9 b0e2 ab38
00000030: e78a b539 7f83 b838 b4f2 05b9 4390 bb38
00000040: 0084 c838 6ef6 9bb6 5e65 bf38 8ddd cbb8
00000050: 4462 5db9 bfac 4f38 2fad b537 a653 29b8
00000060: 2711 84b8 a2c9 3f39 d9f7 d4b7 7094 98b7
00000070: 7b79 04b8 283e 2bb9 a472 17b9 046c 3b39
00000080: b47b 2d39 6499 00b8 746d e1b8 c5a3 01b9
00000090: 9dd0 69b8 8bae cfb8 570d 88b8 5264 1c38
000000a0: 324d cbb8 9661 6c37 2192 37b8 5a10 91b8
000000b0: a8d4 9ab7 5fc9 13b9 e42f 32b9 c2b6 cab8
000000c0: 1614 42b9 9dc9 80b9 a597 09b9 bb33 6c36
000000d0: ab56 b138 216d ff38 dad3 2438 2e5f a6b7
000000e0: 7002 9eb7 7151 4c38 4391 da38 559c 3e38
000000f0: a9dd db37 aecb 8f38 9274 6235 ee88 32b9
00000100: 9765 29b8 57d6 8538 578a 36b9 6367 45b9
00000110: 7042 5138 b373 05b9 dbfe 20b9 deca 4cb9
00000120: adae 84b9 2475 e2b9 9698 81b9 281f 91b9
00000130: e983 9bb9 5bd3 dfb8 688b e7b8 6d0f deb7
00000140: 567b 45b9 d9fb 16b9 d57e 16b9 cbf1 9cb9
00000150: 7349 36b9 2e43 9fb8 dc6e e7b8 f8ec e1b8
00000160: 6be7 48b9 7210 b5b8 20ad 2c38 5719 36b9
00000170: 9878 c5b8 cfe9 4bb9 8c1e 60b9 e750 e3b9

exp_avg_sq f4 [96]
4.635874e-07 4.877497e-07 4.815443e-07 4.999019e-07 5.1731314e-07 5.1605844e-07 5.029416e-07 5.3393916e-07
5.4196175e-07 5.272819e-07 5.4929194e-07 5.3651263e-07 5.3187165e-07 5.418045e-07 5.3581624e-07 5.460635e-07
5.778969e-07 5.8181575e-07 5.792034e-07 5.7697923e-07 5.802176e-07 5.8147333e-07 5.678765e-07 5.54773e-07
5.6654443e-07 5.730071e-07 5.652139e-07 5.775874e-07 5.4628293e-07 5.5766327e-07 5.4282646e-07 5.4264905e-07
5.5203e-07 5.799053e-07 5.5887756e-07 5.7154534e-07 5.798952e-07 5.761095e-07 5.641568e-07 5.6991104e-07
5.7351133e-07 5.8660095e-07 5.8786475e-07 5.872213e-07 5.859023e-07 5.759909e-07 5.705693e-07 5.727943e-07
5.620877e-07 5.7071907e-07 5.6536237e-07 5.585638e-07 5.369302e-07 5.5764104e-07 5.465363e-07 5.4926676e-07
5.548509e-07 5.559849e-07 5.7656973e-07 5.739799e-07 5.689172e-07 5.8129143e-07 5.859708e-07 5.9944057e-07
6.033034e-07 5.8017736e-07 5.7475233e-07 5.8396665e-07 5.6130364e-07 5.835341e-07 5.7523425e-07 5.6938757e-07
5.6940297e-07 5.6818556e-07 5.8763027e-07 5.8071447e-07 5.7418856e-07 5.8438695e-07 5.8358233e-07 5.8060397e-07
5.7786957e-07 5.8011165e-07 5.6628085e-07 5.5474555e-07 5.746169e-07 5.702943e-07 5.784247e-07 5.658875e-07
5.7885717e-07 5.69611e-07 5.5947714e-07 5.7082804e-07 5.8363383e-07 5.793927e-07 5.734005e-07 5.76117e-07
00000000: f8e2 f834 e7ed 0235 7943 0135 ff30 0635
00000010: 7ddd 0a35 4487 0a35 e201 0735 0554 0f35
00000020: 547b 1135 898a 0d35 0e73 1335 de04 1035
00000030: f1c5 0e35 8670 1135 03d5 0f35 3395 1235
00000040: c620 1b35 132e 1c35 8e7a 1b35 b6e1 1a35
00000050: 40c0 1b35 8b16 1c35 2d70 1835 b6eb 1435
00000060: a314 1835 c0d0 1935 34b9 1735 810b 1b35
00000070: 47a4 1235 54b2 1535 c0b6 1135 8faa 1135
00000080: 362f 1435 caaa 1b35 c605 1635 4c6c 1935
00000090: 18aa 1b35 f2a5 1a35 8f70 1735 fdfb 1835
000000a0: 66f3 1935 e976 1d35 c2cd 1d35 8aa1 1d35
000000b0: e646 1d35 cb9d 1a35 3929 1935 20c2 1935
000000c0: 5fe2 1635 8433 1935 68c3 1735 36f0 1535
000000d0: 9021 1035 cdb0 1535 b0b5 1235 5371 1335
000000e0: 10f1 1435 fe3e 1535 92c5 1a35 9913 1a35
000000f0: b1b7 1835 0b0a 1c35 9b4b 1d35 3ee9 2035
00000100: b2f2 2135 7cbd 1b35 ae48 1a35 e2c1 1c35
00000110: 7eac 1635 28a4 1c35 cc69 1a35 04d8 1835
00000120: 13d9 1835 6a85 1835 a5bd 1d35 65e2 1b35
00000130: f021 1a35 c4de 1c35 79a7 1c35 cdda 1b35
00000140: e51e 1b35 f8b8 1b35 8602 1835 d3e9 1435
00000150: 5f3f 1a35 5316 1935 0b45 1b35 7ee7 1735
00000160: c362 1b35 5fe7 1835 fa2e 1635 013b 1935
00000170: 03ab 1c35 9087 1b35 c8eb 1935 75a6 1a35

exp_avg f4 [96, 336]
6.3600135e-05 6.9017726e-05 7.91319e-05 8.255942e-05 9.2204384e-05 9.784122e-05 0.00010081009 0.00010881474
0.000117666874 0.00012867387 0.00013348661 0.00014339967 0.00014835378 0.00015462103 0.00016313668 0.00016716005
0.00017227828 0.00017650003 0.00017880433 0.00018276379 0.00018116986 0.00018354929 0.0001860443 0.00018595834
0.00018523808 0.00018610976 0.000190492 0.0001895549 0.0001859753 0.0001896026 0.00018690892 0.0001877406
0.0001841224 0.00018431566 0.00017818343 0.00017437695 0.00017522863 0.00017649133 0.0001801738 0.00017630367
0.00017670802 0.0001742315 0.0001741068 0.00017209494 0.0001723055 0.00017424644 0.00017629546 0.00017561099
0.0001719313 0.00017425155 0.00017322974 0.00016899045 0.00016089853 0.00016013121 0.00015498177 0.00015452322
0.00015255976 0.00014976236 0.00014884376 0.00014190917 0.00013922603 0.00012972085 0.00012040704 0.00011537792
9.889331e-05 9.265809e-05 8.345771e-05 7.420369e-05 6.358452e-05 5.6262343e-05 4.7178524e-05 3.4763572e-05
2.7797016e-05 1.9261543e-05 8.8001725e-06 8.062812e-08 -9.67481e-06 -1.6551414e-05 -2.2872664e-05 -3.2860287e-05
-4.1685435e-05 -4.9099905e-05 -5.9649115e-05 -6.6180146e-05 -6.834631e-05 -7.0650654e-05 -7.17156e-05 -7.6711505e-05
-7.563202e-05 -7.161819e-05 -7.399527e-05 -7.0821e-05 -6.741102e-05 -6.634845e-05 -6.121256e-05 -6.208754e-05
-6.262908e-05 -6.2737185e-05 -5.9312588e-05 -5.8575282e-05 -5.5336386e-05 -4.885798e-05 -3.54705e-05 -2.418219e-05
-1.1749706e-05 -4.0033724e-06 1.1337163e-05 1.9286004e-05 2.9329634e-05 3.4451692e-05 4.2609605e-05 5.14784e-05
6.24565e-05 7.093697e-05 7.857583e-05 8.0857244e-05 8.7813365e-05 8.752101e-05 9.36804e-05 9.813821e-05
0.00010218088 0.00010369454 0.00010936418 0.000105254105 0.00010741328 0.00011031962 0.00010985752 0.00010233015
0.00010069813 9.103772e-05 8.5253865e-05 8.0944556e-05 7.5867014e-05 7.4633725e-05 7.099248e-05 6.5203836e-05
6.440082e-05 6.041517e-05 5.2446456e-05 5.3676205e-05 5.1623243e-05 5.694338e-05 6.0324746e-05 6.617781e-05
6.6412744e-05 7.3156516e-05 7.9467245e-05 8.295189e-05 9.703335e-05 0.00010209094 0.00010146828 0.00010911519
0.00010849593 0.00010839205 0.00011298377 0.00011564358 0.00011177466 0.00011877703 0.00011482263 0.00011410769
0.00011501583 0.00011164909 0.00010662733 0.00010311306 9.877864e-05 0.00010225359 9.321569e-05 8.304734e-05
7.22508e-05 6.5708366e-05 5.5391298e-05 5.0100185e-05 3.9440358e-05 3.1245338e-05 2.5879282e-05 1.9655943e-05
1.0274545e-05 5.97384e-06 1.8378734e-07 -5.2280584e-06 -8.097006e-06 -1.25170545e-05 -1.13007445e-05 -1.3410091e-05
-1.8310297e-05 -2.2372473e-05 -2.0014755e-05 -1.9853313e-05 -1.9802348e-05 -2.6445747e-05 -2.5112326e-05 -2.468828e-05
-2.4491124e-05 -2.5378837e-05 -2.2626287e-05 -1.9839188e-05 -2.4892708e-05 -2.3202627e-05 -1.436281e-05 -1.0227936e-05
-3.8508506e-06 3.4952445e-06 8.075882e-06 1.3425614e-05 2.1289155e-05 2.3769997e-05 2.5819576e-05 2.5911528e-05
3.4840865e-05 3.5918678e-05 4.5692952e-05 4.9929222e-05 6.0397673e-05 6.744491e-05 7.538429e-05 7.839885e-05
8.3550425e-05 8.563421e-05 8.8308865e-05 9.479814e-05 9.622957e-05 0.00010062781 0.000103356404 9.973843e-05
9.927589e-05 0.00010647111 0.00010531556 0.00010606459 0.00011096989 0.000113889604 0.000120473465 0.00012884203
0.00013196762 0.00013726993 0.0001404578 0.00013900708 0.00013861666 0.0001432097 0.00014918421 0.00015522519
0.00015772616 0.00016623194 0.00016460064 0.00016678029 0.0001689926 0.00016643888 0.00016871103 0.0001710633
0.0001685328 0.00017352458 0.00016810045 0.00016147319 0.00015731348 0.00015280624 0.0001457427 0.00013817585
00000000: 1061 8538 9cbd 9038 9ef3 a538 c023 ad38
00000010: da5d c138 1b30 cd38 016a d338 7833 e438
00000020: ecc3 f638 a1ec 0639 8af8 0b39 8e5d 1639
00000030: 6a8f 1b39 c421 2239 ab0f 2b39 af47 2f39
00000040: 99a5 3439 de12 3939 6c7d 3b39 48a4 3f39
00000050: 6af8 3d39 2377 4039 e314 4339 d0fd 4239
00000060: 783c 4239 7526 4339 cfbe 4739 42c3 4639
00000070: 5d02 4339 0fd0 4639 fbfc 4339 3cdc 4439
00000080: fb10 4139 dc44 4139 c0d6 3a39 f5d8 3639
00000090: 94bd 3739 8810 3939 09ed 3c39 28de 3839
000000a0: b34a 3939 eab1 3639 7090 3639 6274 3439
000000b0: e8ac 3439 ecb5 3639 f4db 3839 3724 3839
000000c0: 7548 3439 4bb7 3639 01a5 3539 0733 3139
000000d0: dfb6 2839 e5e8 2739 9a82 2239 8307 2239
000000e0: 73f8 1f39 8709 1d39 f112 1c39 74cd 1439
000000f0: 34fd 1139 ad05 0839 0a83 fc38 0df7 f138
00000100: f164 cf38 6f51 c238 0406 af38 cd9d 9b38
00000110: ae58 8538 3bfb 6b38 8ee1 4538 1acf 1138
00000120: a32d e937 d993 a137 74a4 1337 c725 ad33
00000130: fe50 22b7 e4d7 8ab7 acde bfb7 77d3 09b8
00000140: 65d7 2eb8 9ff0 4db8 c02f 7ab8 32ca 8ab8
00000150: 2555 8fb8 482a 94b8 0566 96b8 2de0 a0b8
00000160: a29c 9eb8 b931 96b8 e82d 9bb8 bc85 94b8
00000170: 045f 8db8 8e24 8bb8 3e5f 80b8 ff34 82b8
00000180: bb57 83b8 c591 83b8 68c6 78b8 bbae 75b8
00000190: fe18 68b8 dbec 4cb8 29c6 14b8 dcda cab7
000001a0: 9a20 45b7 b554 86b6 bf34 3e37 61c8 a137
000001b0: e908 f637 3980 1038 b7b7 3238 83ea 5738
000001c0: 14fb 8238 ffc3 9438 14c9 a438 e791 a938
000001d0: 7128 b838 7c8b b738 4876 c438 8dcf cd38
000001e0: f149 d638 9576 d938 725a e538 debb dc38
000001f0: 1143 e138 655b e738 4f63 e638 159a d638
00000200: e62d d338 81eb be38 52ca b238 c7c0 a938
00000210: cb1a 9f38 ad84 9c38 cce1 9438 0bbe 8838
00000220: ed0e 8738 4b66 7d38 f4f9 5b38 6322 6138
00000230: 0986 5838 7dd6 6e38 3405 7d38 f1c8 8a38
00000240: 1247 8b38 9b6b 9938 a7a7 a638 75f6 ad38
00000250: 627e cb38 a819 d638 5ecb d438 c6d4 e438
00000260: 4f88 e338 8a50 e338 b3f1 ec38 ad85 f238
00000270: 9068 ea38 ef17 f938 eecc f038 194d ef38
00000280: a734 f138 2625 ea38 1d9d df38 673e d838
00000290: 6127 cf38 fa70 d638 cb7c c338 b329 ae38
000002a0: 5a85 9738 e9cc 8938 f453 6838 aa22 5238
000002b0: c36c 2538 6d0d 0338 5617 d937 d1e2 a437
000002c0: d660 2c37 e572 c836 1457 4534 ae6c afb6
000002d0: 60d8 07b7 5700 52b7 5498 3db7 e7fb 60b7
000002e0: 1099 99b7 85ac bbb7 5ce5 a7b7 aa8a a6b7
000002f0: 381d a6b7 cfd7 ddb7 4fa8 d2b7 ad19 cfb7
00000300: 4a72 cdb7 a3e4 d4b7 95cd bdb7 556c a6b7
00000310: afd0 d0b7 43a3 c2b7 cdf7 70b7 a798 2bb7
00000320: 8e36 81b6 d88f 6a36 a67d 0737 933e 6137
00000330: 1d96 b237 ae65 c737 1e97 d837 955c d937
00000340: 1822 1238 63a7 1638 6fa6 3f38 186b 5138
00000350: 8253 7d38 3671 8d38 a217 9e38 106a a438
00000360: cb37 af38 8496 b338 7632 b938 5dce c638
00000370: dbce c938 2508 d338 0cc1 d838 a92a d138
00000380: 5632 d038 3e49 df38 dcdc dc38 fe6e de38
00000390: 82b8 e838 04d8 ee38 b3a6 fc38 c519 0739
000003a0: ca60 0a39 1ef0 0f39 db47 1339 6ec2 1139
000003b0: a059 1139 902a 1639 556e 1c39 f2c3 2239
000003c0: 4b63 2539 8c4e 2e39 a698 2c39 bee1 2e39
000003d0: 9b33 3139 1986 2e39 06e8 3039 745f 3339
000003e0: 2eb8 3039 26f4 3539 1f44 3039 2151 2939
000003f0: 84f4 2439 9d3a 2039 82d2 1839 4ce3 1039

exp_avg_sq f4 [96, 336]
5.605089e-07 5.588638e-07 5.571706e-07 5.5573764e-07 5.543178e-07 5.529682e-07 5.517371e-07 5.5071604e-07
5.4998156e-07 5.495185e-07 5.49412e-07 5.4950135e-07 5.503022e-07 5.516792e-07 5.5313836e-07 5.5405707e-07
5.5491745e-07 5.559928e-07 5.566372e-07 5.5713707e-07 5.572479e-07 5.572229e-07 5.5682585e-07 5.5601794e-07
5.550191e-07 5.5380144e-07 5.521762e-07 5.506239e-07 5.486606e-07 5.4670136e-07 5.4483627e-07 5.4271396e-07
5.4043346e-07 5.384003e-07 5.3650103e-07 5.343625e-07 5.326446e-07 5.307499e-07 5.291261e-07 5.278245e-07
5.2661403e-07 5.253211e-07 5.241304e-07 5.2343745e-07 5.2280427e-07 5.225612e-07 5.22477e-07 5.224843e-07
5.226693e-07 5.2268007e-07 5.225942e-07 5.228228e-07 5.230625e-07 5.237211e-07 5.240497e-07 5.243824e-07
5.243204e-07 5.2448723e-07 5.244058e-07 5.244251e-07 5.2452947e-07 5.245399e-07 5.243878e-07 5.2382205e-07
5.235097e-07 5.231857e-07 5.226236e-07 5.222724e-07 5.222236e-07 5.225405e-07 5.228029e-07 5.2315966e-07
5.2360684e-07 5.2416607e-07 5.2483944e-07 5.256391e-07 5.265124e-07 5.2723715e-07 5.2789653e-07 5.290557e-07
5.3009734e-07 5.3158954e-07 5.3320423e-07 5.3479545e-07 5.3638735e-07 5.380156e-07 5.3980443e-07 5.4171073e-07
5.4348214e-07 5.449571e-07 5.4648746e-07 5.481073e-07 5.497857e-07 5.5087804e-07 5.518443e-07 5.5294146e-07
5.541576e-07 5.554397e-07 5.5674315e-07 5.585106e-07 5.60109e-07 5.6157813e-07 5.6311904e-07 5.646131e-07
5.6569803e-07 5.665819e-07 5.6715254e-07 5.673352e-07 5.6762025e-07 5.674252e-07 5.6746006e-07 5.674851e-07
5.6733e-07 5.6748956e-07 5.674526e-07 5.6713014e-07 5.666291e-07 5.6627437e-07 5.6603267e-07 5.6572844e-07
5.65169e-07 5.6424517e-07 5.6312814e-07 5.6191124e-07 5.6026516e-07 5.5902484e-07 5.578387e-07 5.5653913e-07
5.549521e-07 5.5356827e-07 5.526183e-07 5.513019e-07 5.500379e-07 5.4874357e-07 5.474236e-07 5.462007e-07
5.4527936e-07 5.44061e-07 5.4274796e-07 5.4151275e-07 5.40492e-07 5.397028e-07 5.3903926e-07 5.384435e-07
5.377204e-07 5.3697187e-07 5.3643436e-07 5.3595784e-07 5.35906e-07 5.3602605e-07 5.361177e-07 5.365992e-07
5.3695555e-07 5.372759e-07 5.377282e-07 5.377476e-07 5.379438e-07 5.380444e-07 5.380432e-07 5.384372e-07
5.3889755e-07 5.392177e-07 5.395904e-07 5.4004425e-07 5.408096e-07 5.411792e-07 5.4117197e-07 5.41506e-07
5.418555e-07 5.4209426e-07 5.424731e-07 5.430097e-07 5.435345e-07 5.437593e-07 5.438818e-07 5.4411703e-07
5.4407525e-07 5.440593e-07 5.4420605e-07 5.445244e-07 5.4527e-07 5.4617414e-07 5.472104e-07 5.4839785e-07
5.4931013e-07 5.50045e-07 5.505595e-07 5.5099383e-07 5.5137053e-07 5.5211376e-07 5.5276587e-07 5.535237e-07
5.543462e-07 5.5521315e-07 5.5623195e-07 5.5713497e-07 5.5824455e-07 5.594461e-07 5.606653e-07 5.617336e-07
5.625613e-07 5.6312905e-07 5.634606e-07 5.639235e-07 5.644495e-07 5.65103e-07 5.653799e-07 5.65502e-07
5.65371e-07 5.650662e-07 5.647606e-07 5.6470424e-07 5.643739e-07 5.644457e-07 5.639674e-07 5.6362825e-07
5.630803e-07 5.622611e-07 5.611395e-07 5.6026437e-07 5.592088e-07 5.5793174e-07 5.565162e-07 5.549707e-07
5.532572e-07 5.518836e-07 5.5007524e-07 5.485676e-07 5.468525e-07 5.4495587e-07 5.424893e-07 5.4051486e-07
5.3856286e-07 5.3660557e-07 5.3485815e-07 5.33442e-07 5.321249e-07 5.3123824e-07 5.3007744e-07 5.293327e-07
5.2864675e-07 5.2816756e-07 5.2765455e-07 5.276152e-07 5.2770145e-07 5.280006e-07 5.285453e-07 5.2932904e-07
5.302869e-07 5.316035e-07 5.327437e-07 5.340073e-07 5.352944e-07 5.366592e-07 5.379552e-07 5.391886e-07
00000000: e175 1635 d404 1635 7990 1535 002e 1535
00000010: 6ecc 1435 af6f 1435 161b 1435 ebd4 1335
00000020: 72a2 1335 a082 1335 4e7b 1335 7281 1335
00000030: 7bb8 1335 1b17 1435 617b 1435 83ba 1435
00000040: a3f5 1435 893f 1535 d16b 1535 2b8e 1535
00000050: c995 1535 1194 1535 c878 1535 4341 1535
00000060: 9ffc 1435 f2a8 1435 4239 1435 96ce 1335
00000070: ab47 1335 08c1 1235 dd40 1235 05af 1135
00000080: 4e12 1135 9686 1035 1204 1035 1d71 0f35
00000090: 0ffb 0e35 db78 0e35 4509 0e35 d3af 0d35
000000a0: a45c 0d35 cb03 0d35 f8b1 0c35 5982 0c35
000000b0: d656 0c35 2246 0c35 5940 0c35 d940 0c35
000000c0: 904d 0c35 4d4e 0c35 6648 0c35 1c58 0c35
000000d0: 9568 0c35 d795 0c35 6cac 0c35 49c3 0c35
000000e0: 06bf 0c35 7dca 0c35 e4c4 0c35 38c6 0c35
000000f0: 64cd 0c35 1cce 0c35 a8c3 0c35 c79c 0c35
00000100: 5087 0c35 0c71 0c35 6c4a 0c35 4932 0c35
00000110: ef2e 0c35 b644 0c35 be56 0c35 426f 0c35
00000120: fd8d 0c35 6bb4 0c35 b1e2 0c35 a519 0d35
00000130: a855 0d35 7687 0d35 c6b4 0d35 6e04 0e35
00000140: 034c 0e35 8eb2 0e35 8421 0f35 dd8e 0f35
00000150: 42fc 0f35 276c 1035 14e7 1035 146a 1135
00000160: cfe3 1135 2b49 1235 55b2 1235 a621 1335
00000170: fc94 1335 0de0 1335 7422 1435 d96d 1435
00000180: 6cc1 1435 8719 1535 1973 1535 8eec 1535
00000190: 665a 1635 5bbf 1635 3f29 1735 eb8f 1735
000001a0: 79da 1735 3617 1835 6d3e 1835 fa4a 1835
000001b0: 915e 1835 2a51 1835 8f53 1835 4755 1835
000001c0: 9f4a 1835 9655 1835 0c53 1835 e33c 1835
000001d0: 751a 1835 1402 1835 78f1 1735 90dc 1735
000001e0: 1eb6 1735 a276 1735 df29 1735 3fd6 1635
000001f0: 2165 1635 e50f 1635 62be 1535 1465 1535
00000200: 05f8 1435 ec98 1435 a457 1435 2efd 1335
00000210: 51a6 1335 5f4d 1335 aaf2 1235 a09e 1235
00000220: 505f 1235 960b 1235 5bb1 1135 795c 1135
00000230: 5416 1135 18e0 1035 7fb2 1035 8e89 1035
00000240: dd57 1035 6d24 1035 7dff 0f35 bede 0f35
00000250: 2edb 0f35 6ee3 0f35 bae9 0f35 d10a 1035
00000260: 4e23 1035 5239 1035 6758 1035 bc59 1035
00000270: 3767 1035 216e 1035 0c6e 1035 1f89 1035
00000280: c2a8 1035 c2be 1035 5fd8 1035 8ff7 1035
00000290: 272c 1135 8d45 1135 0e45 1135 025c 1135
000002a0: 0774 1135 6f84 1135 789e 1135 58c3 1135
000002b0: 68e7 1135 dbf6 1135 46ff 1135 700f 1235
000002c0: 910c 1235 780b 1235 8e15 1235 6f2b 1235
000002d0: ab5e 1235 cd9c 1235 03e4 1235 9d35 1335
000002e0: 4e74 1335 cea6 1335 29ca 1335 02e8 1335
000002f0: e501 1435 f834 1435 c861 1435 dc95 1435
00000300: 61ce 1435 f509 1535 f84f 1535 068e 1535
00000310: 46da 1535 d82c 1635 a080 1635 0aca 1635
00000320: eb02 1735 ef29 1735 b840 1735 8760 1735
00000330: ad84 1735 95b1 1735 9cc4 1735 00cd 1735
00000340: 00c4 1735 0eaf 1735 0e9a 1735 2e96 1735
00000350: 7b7f 1735 6a84 1735 8b63 1735 3d4c 1735
00000360: 9526 1735 4aee 1635 36a1 1635 1365 1635
00000370: 891c 1635 c7c4 1535 8163 1535 4cf9 1435
00000380: 8c83 1435 2725 1435 e2a8 1335 4741 1335
00000390: 6bcb 1235 1549 1235 959f 1135 e617 1135
000003a0: c291 1035 410b 1035 2c93 0f35 db31 0f35
000003b0: 58d7 0e35 6a9a 0e35 a54a 0e35 7717 0e35
000003c0: 54e8 0d35 66c7 0d35 25a4 0d35 71a1 0d35
000003d0: 5ea7 0d35 edbb 0d35 5be1 0d35 3717 0e35
000003e0: 0a59 0e35 84b3 0e35 de01 0f35 b458 0f35
000003f0: 27b1 0f35 f00e 1035 0068 1035 c2bc 1035
