checkpoints/DLinear/Weather_100_336_96/498fa29ee618e3bf43213071a03c141a/DLinear_100.pt (torch, 782262 bytes, 12 tensors)

Linear_Seasonal.weight f4 [96, 336]
00000000: ea19 033b fd13 42ba 81b4 05bb 4bd4 17bb
00000010: fac0 9aba cb3c e3ba f3bd 26bb f162 81ba
00000020: bef7 b8ba c2fd c1ba ba5d 8dba 34fc 8e39
00000030: 54bc aa3a 3beb 553a 0cf7 7d3a db8c a8ba
00000040: 7451 b4ba 7a1b bcba d775 b5ba f5f5 e3b9
00000050: 013b a83a 9930 aa3a 116f ec39 4944 7c3a
00000060: c3f3 623a 08d6 823a 56bd 1e3a 5163 123a
00000070: fe98 f339 58b6 cfba 20de 383a 0d11 fa39
00000080: 253a c8ba 01e6 4eba 039a f5ba 44f8 a2ba
00000090: 0d74 d1ba cfb0 4ebb c1cf 2bbb cdee 05bb
000000a0: 1743 02bb 9a05 7bba 7e9f 6fba e4ec 4fb9
000000b0: 5bcf 64ba 7c7d aaba 6653 d639 e302 a73a
000000c0: f6ef a33a 5c2b 2e3a c50c db38 6ab8 a138
000000d0: a635 a83a 323f fc3a cc76 133b c974 b43a
000000e0: a107 df39 874f dc3a 91ef 2d3b 1890 be3a
000000f0: b0dd 8e3a 07d4 4239 4307 8637 fe42 fcba
00000100: 33bc 59ba 1195 663a b5ea ca3a 0a7f 9f3a
00000110: 610b 65ba 9d18 1f3a aab8 c53a b569 9f3a
00000120: e84e d93a ddf2 663a e78a 183a 04e8 c73a
00000130: 6f3b cd3a 8dc5 3739 a10b 7cba 7c66 06bb
00000140: 6899 92ba e74b e8ba 3657 44ba cdf4 c8ba
00000150: e0eb aab9 525b 063a be17 e439 70a2 ec3a
00000160: d42b 0c3b bc7a 693a 6a7a 26ba f71c afba
00000170: 62bb feb9 f08e 8c3a f594 403a eb5f c3ba
00000180: 2687 b5ba e747 a0ba 1f99 333a 13b6 e539
00000190: 9318 9bb9 2e63 a4b9 254c 2f38 3a31 c539
000001a0: 85c6 ec3a 916b ae3a bcfe 223b 7e63 e13a
000001b0: 3a28 223b 9f57 a83a b8b5 5db9 4d2f b1ba
000001c0: c10a ceba 6abb d5ba f675 0fbb 8bf5 baba
000001d0: 0153 98ba 3f0d c2ba 388a 12bb 39f7 42bb
000001e0: c3e4 28bb 2959 05bb 381b 90ba 23be 00bb
000001f0: b79d 15bb 8691 06ba 204b e939 62a0 f539
00000200: 9b51 6e39 6fa2 d53a ad5a fb3a 422e 0b3b
00000210: 669c 923a c759 6139 e065 1b3a 0e37 f939
00000220: ed0b 543a 04e1 9e3a 60be d739 17a5 0c3a
00000230: 19b0 113a 32ab 8eba 64c7 91b9 7093 093a
00000240: 0c17 be3a f885 f43a ce88 cf39 7de3 c1b7
00000250: f9f0 a13a 0e9d 8539 1f69 1638 f0dd f539
00000260: c154 093a 7593 a638 9da3 ddba 4261 deba
00000270: 831e 40bb f2fb 79ba c311 03ba c44f 80ba
00000280: c052 84b9 0734 6139 8ddd 383a 7497 bb3a
00000290: c32d 143a 202a d43a 9eec 4c3a 286d 80ba
000002a0: 7bba b7ba 6e90 22bb 9b72 fbba f9a2 daba
000002b0: 8043 e8ba 1a5c 5bbb 722f 3fbb 0e89 1ebb
000002c0: 8f9a 43bb f05d 4cbb ab15 19bb 4eb3 dab7
000002d0: b363 54ba 94bd a8b9 cd7f f8ba 3cda c8ba
000002e0: bb2c 8b3a 2c81 663a 1747 203a 498a f439
000002f0: 3003 c93a bbe2 363b ad1c 603a 347c d03a
00000300: d0e1 333b c063 8e3b c530 9c3b 3178 8d3b
00000310: 4e6b 983a b210 d439 b87d 8738 cc6d 803a
00000320: c410 7139 06ec 9d39 5a10 a43a 60e3 2b3a
00000330: 015d 2339 de97 1cb9 933f 61ba 4402 cb3a
00000340: c163 5dba eff7 42ba b51b ecba b575 9aba
00000350: 04fa 9aba 8525 22ba 1993 b6b9 6596 b7b9
00000360: c847 baba 38db b5ba 70b1 07bb a724 2cbb
00000370: 747d 7bba 7397 42ba 9c79 a1b9 f395 2f3a
00000380: 0848 d03a e82f eb3a 35b2 653b 7de2 0c3b
00000390: 1e48 d13a d3c8 c1b9 ae5c 223a 616b 1a3a
000003a0: 9c29 cfb9 d576 ec38 7152 4a3a 5cc1 013b
000003b0: b809 893a 099b 813a 067f bb3a 3a4b 4739
000003c0: 9ccf e639 fd25 b9b9 aacb 9639 ef94 8b39
000003d0: d77e bc3a c5e6 0e3b 171c 8b3a 86f1 273a
000003e0: 1d5b a53a 5dbe 8fb9 5eca 073a 84b0 b0ba
000003f0: 2c51 7fba a424 2fb8 055c 903a 9b27 5d3a
0.002000446 -0.0007403491 -0.0020401778 -0.0023167308 -0.0011806779 -0.0017336843 -0.0025442808 -0.0009871406
-0.0014111919 -0.0014800357 -0.0010785379 0.00027272257 0.0013026097 0.0008160357 0.0009687997 -0.0012859361
-0.0013757185 -0.001435145 -0.0013844323 -0.00043480066 0.0012834967 0.0012984454 0.0004509618 0.00096232124
0.0008657539 0.0009981999 0.0006055435 0.00055842573 0.0004646256 -0.0015847189 0.0007052142 0.0004769642
-0.0015276117 -0.00078925496 -0.0018737916 -0.0012433608 -0.001598002 -0.0031538492 -0.002621636 -0.0020436526
-0.0019876414 -0.0009575725 -0.00091408927 -0.00019829307 -0.0008728408 -0.0013007368 0.00040879397 0.0012741949
0.0012507427 0.00066440343 0.00010445112 7.711428e-05 0.0012833371 0.0019244908 0.0022501228 0.0013767715
0.00042539558 0.0016808369 0.0026540498 0.0014538793 0.0010899808 0.00018580268 1.5977426e-05 -0.001924604
-0.0008305937 0.00087960163 0.0015481325 0.0012168598 -0.00087373523 0.00060690363 0.0015084941 0.001216224
0.0016579302 0.0008809993 0.0005819038 0.0015251641 0.0015657971 0.00017525833 -0.000961477 -0.0020507863
-0.0011184635 -0.0017722816 -0.0007489802 -0.0015331745 -0.00032600667 0.0005125302 0.00043505238 0.0018053781
0.0021388428 0.00089065335 -0.00063506386 -0.0013360073 -0.00048586266 0.0010723751 0.0007346415 -0.0014905905
-0.0013849481 -0.001222846 0.0006851125 0.0004381394 -0.00029582213 -0.00031354412 4.1794166e-05 0.00037611445
0.0018064535 0.0013307204 0.0024871072 0.0017195789 0.0024743215 0.0012843496 -0.00021143898 -0.0013518125
-0.0015719758 -0.0016306464 -0.0021890379 -0.0014263851 -0.0011621417 -0.0014804973 -0.0022360217 -0.0029749407
-0.0025771118 -0.0020347333 -0.001099444 -0.001964458 -0.00228296 -0.0005133379 0.00044497196 0.00046849536
0.00022727849 0.0016299019 0.0019176804 0.0021237289 0.0011185526 0.00021491117 0.00059279613 0.00047534
0.0008088935 0.0012121503 0.00041149836 0.00053651765 0.00055575516 -0.001088476 -0.00027805113 0.0005248105
0.0014502718 0.0018655648 0.00039584044 -2.3113325e-05 0.0012355141 0.00025484752 3.586069e-05 0.00046895398
0.00052387646 7.942963e-05 -0.0016909722 -0.0016966241 -0.0029315061 -0.0009536139 -0.00049999 -0.0009789397
-0.00025238656 0.00021477054 0.00070520566 0.0014312104 0.0005652571 0.0016186871 0.0007817241 -0.0009798156
-0.0014017368 -0.0024805325 -0.0019183935 -0.001668065 -0.0017720312 -0.0033471645 -0.0029172567 -0.0024190578
-0.0029846763 -0.003118392 -0.0023358862 -2.607112e-05 -0.00081020145 -0.00032184704 -0.0018958986 -0.0015323828
0.0010618189 0.0008793052 0.0006114109 0.00046642337 0.0015336033 0.0027906138 0.0008549195 0.0015906156
0.0027447827 0.004345387 0.004766556 0.0043173064 0.0011628659 0.0004044823 6.4607186e-05 0.0009798347
0.00022989797 0.00030121225 0.001251708 0.0006557014 0.00015579538 -0.00014933894 -0.0008592542 0.0015488346
-0.00084453454 -0.00074374577 -0.0018013628 -0.0011784347 -0.0011823778 -0.00061854004 -0.0003482334 -0.00035016533
-0.0014212066 -0.0013874536 -0.0020705126 -0.0026266964 -0.0009593584 -0.00074230804 -0.0003079892 0.00066980644
0.0015890608 0.0017943354 0.0035048847 0.0021497302 0.0015966927 -0.00036961454 0.000619362 0.00058906345
-0.00039513118 0.00011275491 0.0007717973 0.001979909 0.0010455167 0.0009888123 0.0014304824 0.00019006143
0.000440237 -0.00035314253 0.0002876197 0.0002662311 0.0014381063 0.002180503 0.001061323 0.0006406534
0.0012615655 -0.00027416917 0.00051799964 -0.001348034 -0.00097395736 -4.1757376e-05 0.0011013752 0.00084363826

Linear_Seasonal.bias f4 [96]
00000000: 34f8 f4bb 8314 5ebb 7631 283b c391 4c3c
00000010: 3b89 64bc 4e5d 11bb 00fe afbb cf75 193c
00000020: e401 f33b c2b6 7dbc 39a0 06bb 5a62 873c
00000030: f21d 00bb 09dd 4f3b 3ba4 08bc 7f7a b33b
00000040: a07b b33b 01ee 603a 1097 27bc e2eb d1bb
00000050: 3e68 743c 3dce 5e3c 15dc ea3b 6e53 26bb
00000060: 9e83 81ba 6d39 4b3c 8be3 253c 258f 723c
00000070: a1dc 97bc 6589 68bc bc2a f5bb 04c5 cfbb
00000080: e20b d73a 073b 293b 5044 5cbb d61f c73a
00000090: ed09 13bc 7dbf 32bc 84c2 8ebb 8efe 38bc
000000a0: 0903 98bc 1ae4 113c b3dd ce39 ed01 cbb9
000000b0: 4462 06bc aa04 3dbc 93a4 f1ba 05b4 5abc
000000c0: 83ee 153c 4a3f 243c 9982 4f3c 9d1b 323c
000000d0: d55e f2ba c0e8 39bc 7be8 c6bb 6ce2 c83b
000000e0: a6ac 9db9 bbf1 71b9 2cae 73bb 374d 10bc
000000f0: 8ed2 963b 5a06 963b f7ff 08bb 4885 603a
00000100: c1d3 ccbb 4d20 27bc 409a a63a ed4b 40bb
00000110: 5f20 a6bb d6cc 93bc 59d7 ccbb b014 c53a
00000120: 72d0 e6bb b0ef 973a 295f 6cbc b690 9bbb
00000130: 206f 8137 7bdf 96bb 14d8 be3b 3c41 72bc
00000140: f7ed d6bb 37eb 5bba dd0d 953b 277e 05bc
00000150: 0fd0 963a 6fb1 87bc 914e 173a 4c87 b13b
00000160: 7abb 0bbc 8005 eaba 1229 ea3a af62 3bbc
00000170: 20e0 41bc c371 29bc 298d d2ba 7ea1 f43b
-0.007475877 -0.0033886738 0.0025664247 0.012485924 -0.013948734 -0.0022180858 -0.0053708553 0.009366467
0.007415997 -0.015485467 -0.0020542277 0.01652639 -0.0019549099 0.003171744 -0.008339937 0.005477249
0.0054773837 0.0008580387 -0.010228887 -0.0064062933 0.014917431 0.013598976 0.007167349 -0.0025379318
-0.0009881144 0.012403828 0.010125051 0.014804636 -0.018537821 -0.014192914 -0.007481901 -0.0063406248
0.001640674 0.0025822537 -0.0033610053 0.0015191983 -0.008974534 -0.010909912 -0.004356684 -0.011291159
-0.018556135 0.008904481 0.0003945656 -0.00038720612 -0.008202139 -0.0115367565 -0.0018435888 -0.013348584
0.009151104 0.010024855 0.012665414 0.010870841 -0.0018491397 -0.011346996 -0.0060701943 0.006130507
-0.00030074007 -0.00023073603 -0.0037182672 -0.008807472 0.004602737 0.004578394 -0.002090452 0.00085647823
-0.006250829 -0.010200572 0.0012710765 -0.002934213 -0.005069777 -0.01804201 -0.0062512574 0.0015036073
-0.0070438916 0.0011591818 -0.014426985 -0.0047474755 1.5429745e-05 -0.0046042777 0.0058240984 -0.014786061
-0.0065591293 -0.0008389237 0.004548772 -0.008147753 0.0011506098 -0.0165641 0.00057719 0.00541774
-0.008528585 -0.0017854422 0.0017865023 -0.011437102 -0.011833221 -0.010342064 -0.0016063798 0.0074655404

Linear_Trend.weight f4 [96, 336]
00000000: 246e 06bc 6e41 93bc f014 8cbc 9b5a 18bc
00000010: e68b e43c 7bd2 f8bb e609 cd3b 39ec c23c
00000020: 5ebc 753c 2f63 3cbb e921 a93c c4bb cabc
00000030: 6849 403c 3db5 5c3b f6a3 d93c 5125 a3ba
00000040: 63a1 a6bc 93ea 483c d43c fbba e55d 8dbc
00000050: 6de1 1639 b762 52bb 33ba 82bc 9fe7 42bc
00000060: dab9 febc 02d8 b03b 460e 3bbc 754e d73c
00000070: f80a 703c 587c d63b 9ff1 ccbb b980 e5bb
00000080: 84e5 bfbc 933e 9e3c bc0f 9b3c 3d80 0b3b
00000090: 60ef 7bbc ac04 06bc 3f4d 443c 644f aa3c
000000a0: 4767 923c 67de ac3b b3d3 ecbc 28a3 a7bb
000000b0: f70b 223c 1be7 4d3c afff 423c 66ef 02bd
000000c0: f939 2abc 2911 723c e756 72bc 27c9 5dbc
000000d0: b2cc 333c 70ce 963c 904d 1abc ade9 d7bc
000000e0: a1aa 463c 5937 debb 220f 71bc 2cbc 203b
000000f0: 305a 383c 5964 483a 9239 8b3c 0bd7 0d3c
00000100: 89f6 f6ba 9375 d0ba 796f 25bb a5f2 1d3c
00000110: ff5f 113c 1445 cbba def2 71bb 75d9 943c
00000120: 5d7c 29bb 8369 cd3b c544 c43c 09d1 033c
00000130: 262d b9bc 8214 02bd a534 2dbc 5938 e9bb
00000140: 6370 ac3c 5bc2 a1bc c302 d7bc 10f8 f3bc
00000150: 3e94 dc3a 2389 bb3c c12c ccbb 163f 163c
00000160: 7b47 903c 67a5 b03c dbe5 bf3c 0152 c53c
00000170: 131e 6a3c 7b0c cdba 31db d8bc 0337 413c
00000180: 6fbd 90bc 5449 b8bc 3093 2b3a 4e28 02bc
00000190: ef8a 10bb 0bcc e93b f0fe 4d3c 4805 0ebb
000001a0: 0b1c a9bc 7566 b4b9 e003 74bc a9d1 9a3c
000001b0: c34c 86bc 5b1d 3cbb 7bb3 b7bc 4b7d 29bc
000001c0: 91df a33c 2ae1 ba3c fe28 3b3c 067c 493c
000001d0: e699 02bc 7fc3 8f3c b5d5 d7bc 3431 b0bc
000001e0: 6120 c8bb e2b8 c13c 2bb1 6f3c d727 b53c
000001f0: aa19 fbba f515 1dba 183f 563c ce18 5d3a
00000200: 6478 79bc b5ac d3bb a531 7f3c 2f12 873b
00000210: 2666 c03b c0fc debc e543 13bd ecdd 263c
00000220: 5e79 fabb 3df2 febb fbdd dfbb 9f4d 933c
00000230: b6c8 643c 6b11 06bd fdd7 663b dd54 e7bc
00000240: 3d8d 133c f8ae ba3c 7d3f 533c 228c 133c
00000250: f44a 9d3c 6193 80ba d8dc c83c 3dd2 40bb
00000260: 93ec d73b ee04 b93c df6c fdbc aaf9 17bc
00000270: aa57 4cbc 4983 93bb 77e8 dfba aac2 31bc
00000280: b589 f9bc a179 153c b934 b53a 9228 0ebb
00000290: 2ed0 423b eaf4 cf3c 9eca 0e3b 5e4b d93b
000002a0: 61a5 2ebb 5aab cebc e9ad 21bc 6208 c83c
000002b0: 2578 4537 904b 9ebc 560f 85ba 4167 063c
000002c0: 1342 363c 2287 89bc 9d38 873c 1c8e c53c
000002d0: 4f41 403c f286 9a3c ecf4 a2bc 3c93 dbbc
000002e0: 46a6 14bc 23d7 423b 1ff6 39ba 4e7c 513c
000002f0: 7fb8 a03c 68b6 95bc 1d9c 17bc 0b9b fbbc
00000300: 1bb3 6bbb 1469 763c 8b67 d43c be7b 70bc
00000310: 784e efbb 6b27 d0bc bf11 a5bc fa28 b63c
00000320: 2609 35bc ac0c efba 5350 d83c 1e33 33bb
00000330: c393 c1bb 44d5 91bb 7bce a23b e10a cb3b
00000340: 499c ca3c f89b d93b 6df9 cf3c a1a9 023c
00000350: 7413 b23b 6d70 433c 1ee2 04bd 5f46 193c
00000360: 28c1 03bd 6c5c db3b b558 e13b c193 84bc
00000370: aa37 8e3c 0326 3439 7d73 9bbc 74f4 75bc
00000380: 532d 5e3b 50ff 52bc 3e6a b53b 80ba 803c
00000390: 3b17 28ba 4c11 cc3b 502c 983c 1fa1 4d3c
000003a0: 4989 a6bc 253f 803b 4d55 99b9 74cd af3c
000003b0: 2c1b d9bc c642 9bba 74e2 c7bc 22cb a43b
000003c0: 1323 173c 86b4 643c eda0 36bc d7d0 923c
000003d0: c2ec febb c311 163c 1fe2 42bc 0152 9cbc
000003e0: cf4b 19bc 946a f9b8 07ce 47bc b7a9 a53c
000003f0: 6955 843c 5cc2 243b 96df 943b 156b 7c3b
-0.0082049705 -0.017975535 -0.017099828 -0.009298946 0.02789874 -0.0075934506 0.0062572835 0.02379428
0.0149985235 -0.0028745641 0.020646052 -0.024747737 0.011736251 0.0033677362 0.02656744 -0.0012447034
-0.020340627 0.012262958 -0.0019167908 -0.017256686 0.00014389092 -0.0032102296 -0.015957927 -0.011896043
-0.03109448 0.005396844 -0.011416977 0.026282528 0.014651053 0.0065455846 -0.0062543894 -0.0070038703
-0.023424871 0.019316947 0.018928401 0.0021286153 -0.015376896 -0.008179825 0.0119813075 0.02078981
0.017871512 0.005275536 -0.02890954 -0.0051158853 0.009890548 0.012567307 0.01190178 -0.03196659
-0.010389798 0.014774599 -0.014791227 -0.013536728 0.010974096 0.018408984 -0.009417906 -0.026356542
0.012125642 -0.0067815003 -0.014713081 0.0024526222 0.011251971 0.00076443475 0.016995225 0.008657227
-0.0018841784 -0.001590418 -0.0025243445 0.0096403705 0.008872985 -0.0015508258 -0.0036918442 0.018170098
-0.002586148 0.0062686815 0.023958573 0.008045443 -0.022604536 -0.03175784 -0.010571633 -0.007117313
0.021049684 -0.019745996 -0.026246434 -0.029781371 0.0016828848 0.02289254 -0.006230921 0.009170314
0.01761221 0.021563245 0.023425033 0.024086954 0.014289397 -0.0015643978 -0.026471706 0.011792901
-0.017668454 -0.022495903 0.0006545065 -0.00794418 -0.0022055467 0.0071349195 0.012572989 -0.0021670628
-0.020643255 -0.00034408612 -0.014893502 0.018898802 -0.016394025 -0.002870402 -0.02242445 -0.010344814
0.020004066 0.022812445 0.0114233475 0.012297636 -0.007971263 0.017549274 -0.02634702 -0.021507837
-0.0061073755 0.02364773 0.0146296425 0.022113724 -0.0019157429 -0.00059923466 0.013076566 0.0008434177
-0.015226457 -0.0064597973 0.015575801 0.0041220407 0.005871552 -0.02722013 -0.03595342 0.010184746
-0.0076438626 -0.007780342 -0.006831882 0.017981349 0.013963869 -0.032731455 0.0035223954 -0.028238708
0.009005842 0.02278851 0.012893555 0.009005578 0.01920078 -0.0009809547 0.024519369 -0.0029422187
0.006589481 0.022585358 -0.030935703 -0.009275833 -0.012472073 -0.0045017344 -0.001708283 -0.010849634
-0.030461172 0.009123237 0.0013824917 -0.0021691662 0.0029726136 0.025385339 0.002178825 0.006631299
-0.0026648866 -0.025228191 -0.009868124 0.02441806 1.1770088e-05 -0.01932314 -0.0010151665 0.008203329
0.011124152 -0.01678807 0.016506488 0.024115615 0.011734321 0.018863175 -0.019892178 -0.026803605
-0.009072846 0.0029730282 -0.0007093865 0.012785984 0.019619225 -0.018275455 -0.009253529 -0.030713579
-0.003596491 0.015039701 0.02592828 -0.01467794 -0.0073030554 -0.025409421 -0.020150064 0.022236336
-0.011049544 -0.001823803 0.02640549 -0.00273437 -0.005907507 -0.004450472 0.004968462 0.006196365
0.024732726 0.0066409074 0.02538749 0.007975013 0.005434448 0.01192866 -0.032442205 0.009355157
-0.03216663 0.006694367 0.00687703 -0.016183736 0.017360527 0.00017180298 -0.018975968 -0.015011895
0.0033901527 -0.012878254 0.0055363467 0.01571393 -0.0006412153 0.006227648 0.018575817 0.012550621
-0.020329135 0.0039137774 -0.00029245988 0.021460272 -0.026502214 -0.0011845462 -0.024399973 0.005029098
0.009224671 0.013959056 -0.011146766 0.017921848 -0.0077796886 0.009159508 -0.011894732 -0.019082071
-0.009356453 -0.00011893097 -0.012195117 0.020222528 0.016154008 0.0025140261 0.004543255 0.0038515974

Linear_Trend.bias f4 [96]
00000000: 73ce f23b d1ed 673b 06b5 1bbb 8efd 47bc
00000010: 9285 623c e37f f73a c6d4 9c3b 23c8 1ebc
00000020: 2320 06bc e268 6d3c b3c7 993a e79f 8fbc
00000030: e011 343a 2eb9 8bbb 53df df3b eb9d e1bb
00000040: 295e e5bb b8be 2abb 7ced 033c 716d 8c3b
00000050: 9a81 8cbc 7ef3 84bc f1ca 1fbc ef24 85b9
00000060: 9bf5 00bb 89ac 7abc f8e0 56bc 7a6c 94bc
00000070: a7e1 723c 9188 253c 704f 3e3b bf8d d63a
00000080: 76bc c8bb 4440 f1bb c9d3 e7ba 073d e8bb
00000090: 3b60 5d3b e6c3 aa3b 36f4 baba 7e73 b53b
000000a0: 0d17 533c bc38 75bc cfa2 debb 4052 b8bb
000000b0: a3ac ea3a b741 a43b f856 a1bb 6ea4 e03b
000000c0: 5fdf 7fbc d54e 8abc 9736 a0bc 2eee 8ebc
000000d0: d228 9cbb f7ac 943b ef99 37ba 7110 53bc
000000e0: 9872 c6bb 3330 c6bb 55b6 52bb a77e f33a
000000f0: aaf1 3cbc fc99 3cbc ecaf b4bb 6a9c 08bc
00000100: 0875 3bba faf1 3b3b f14a 08bc 88e3 8bbb
00000110: 1bba 08bb 4427 2a3c ec02 b8ba 0dbb 1cbc
00000120: 4553 58ba f6d0 0ebc 58da e33b 25ed 22bb
00000130: 9a28 03bc 522c 5bbb 3b52 61bc 95b3 dc3b
00000140: c829 77ba 0ea8 e5bb 7c3b 51bc d156 d4b8
00000150: f33a 1cbc 79a7 0b3c bf78 0ebc d012 5cbc
00000160: b9ad 6d39 9c6f cbbb b0a7 1fbc a62f 803b
00000170: 4f1b 903b 6d8f 3e3b 72e1 bbbb 00b1 74bc
0.0074098646 0.0035389552 -0.0023759021 -0.012206448 0.013825791 0.0018882718 0.0047861068 -0.009691271
-0.008186373 0.014490338 0.0011732489 -0.017532302 0.00068691187 -0.0042640185 0.0068320422 -0.0068852804
-0.00699975 -0.0026053619 0.008052226 0.0042855074 -0.017151643 -0.016229387 -0.009752975 -0.00025395254
-0.0019677642 -0.015299925 -0.01311516 -0.018118132 0.0148243075 0.010103361 0.0029039048 0.0016369148
-0.006125982 -0.0073623974 -0.0017687018 -0.007087353 0.0033779282 0.005211341 -0.0014263454 0.0055374494
0.012883914 -0.01496714 -0.0067943106 -0.0056250393 0.0017904233 0.0050127166 -0.0049236976 0.006855539
-0.015617221 -0.016883293 -0.01955728 -0.017447557 -0.0047656083 0.0045372206 -0.0007003834 -0.012882338
-0.006056141 -0.0060482263 -0.0032152135 0.0018577174 -0.011532227 -0.011511322 -0.0055141356 -0.008338073
-0.0007150923 0.0028678165 -0.008318649 -0.004269067 -0.002086288 0.010385338 -0.0014038957 -0.009566081
-0.0008252154 -0.008716812 0.006953519 -0.0024860587 -0.008005286 -0.0033443165 -0.013752515 0.006735275
-0.0009428528 -0.007008559 -0.01277053 -0.000101251186 -0.009535539 0.008523815 -0.00869578 -0.01343222
0.00022666798 -0.0062083732 -0.00974457 0.00391193 0.0043977867 0.0029077188 -0.0057336623 -0.014934778

exp_avg f4 [96, 336]
00000000: 199f 36b7 9b61 5c38 5c34 f637 bce5 3c38
00000010: df25 c336 8659 b637 3e04 2db7 e7a0 92b6
00000020: 4635 4537 676b b0b7 751d 8ab7 3961 71b7
00000030: ec21 aab7 02f1 2137 3f1a efb5 1015 b6b7
00000040: fcac 0fb8 83d3 56b8 57d0 b5b7 4a48 38b8
00000050: 880c 0ab8 d3a4 27b8 9e97 d1b6 4a39 96b5
00000060: 1cd6 f536 9384 0fb8 63ec 1fb7 ac09 c1b7
00000070: 8177 2838 f785 8638 b50b 5e38 c0e2 0238
00000080: ab8e ae37 217a c437 d0c9 2937 7172 97b7
00000090: c774 0038 9f2a ed37 ea3c 4238 d9a6 5eb7
000000a0: 765c 4c38 511b e537 722c 7337 0f38 bb37
000000b0: 8305 9437 90d1 7cb7 697e 28b8 896a 1db8
000000c0: 9abb 26b8 1b9f 3cb8 9214 bfb8 8bcb d2b7
000000d0: 4aaf 3c37 14b7 59b6 ed7f 93b7 a3df 1eb7
000000e0: c70e 1437 8372 aa37 2457 fbb7 5a0e c8b7
000000f0: d43b 7938 304b 8237 c165 8fb8 4036 0838
00000100: 3c26 f737 aae8 d1b6 7a4f 7337 d9b8 7f38
00000110: dacc 7638 bbc4 f437 c2a9 a437 a8e8 6235
00000120: ee22 9136 7ae3 8a37 7414 81b7 7244 deb6
00000130: 05b3 3ab7 7744 b635 f459 f5b7 9cbe f1b4
00000140: 6682 8db7 95df 6438 529e ccb7 e26f 8836
00000150: 2785 7537 dfdd 1538 b0be fe37 bc87 2c37
00000160: 9e44 9537 c56b 0a38 f0f8 0838 2c13 e337
00000170: b9cf 7338 3ac8 9b37 cc83 8bb7 6d5e 5f35
00000180: 662f 0538 345c 8437 ace9 9636 e940 1938
00000190: 9492 8538 8aab 90b7 633a d9b7 4ed1 70b7
000001a0: a970 85b8 f8d9 9cb8 47f0 a6b8 39a1 9eb7
000001b0: 3615 26b8 4749 9736 56dd 12b8 ae17 54b8
000001c0: f497 1cb8 5e34 8c36 d6e1 7137 bd19 8535
000001d0: 4075 9cb7 e40e b337 4c0d 0f38 f9c7 4938
000001e0: 0740 0638 6508 1338 0822 9f35 5797 69b7
000001f0: f80d 89b6 f939 e8b7 7f2f 3bb7 0fdb 3337
00000200: 8f91 93b7 13cc 26b8 e323 5437 684f 7eb7
00000210: 8fc5 3bb7 12f8 fb34 307e c1b6 0094 d937
00000220: 8b76 1838 c868 4036 24c6 2c38 1443 adb7
00000230: ecb1 6db7 616c a033 c65e 36b8 4b4e 17b8
00000240: 957b 0bb8 98f0 fcb7 56f3 59b8 a1ec f1b7
00000250: 9be8 1cb8 7192 01b7 cb80 5eb7 0545 b3b5
00000260: 4ec8 acb6 202b fdb7 15ad e337 30a2 6638
00000270: cfc2 ee37 d70d 5537 9dbc 7f37 fa27 fb35
00000280: f3ea 1db7 812b 98b7 ead7 adb7 84a7 a7b6
00000290: c513 97b2 070b 0938 a1cb 1a38 e806 30b5
000002a0: 7f87 76b7 aecf 3db8 a8f6 e936 6a9f 0937
000002b0: 0130 8037 9143 5437 5c3f 44b8 f326 0737
000002c0: c2a1 cf37 4c65 0d38 beef 3237 1f08 45b4
000002d0: bb20 6cb7 e96d 36b7 69cf e9b7 7bad 3f36
000002e0: b330 98b6 7df8 d3b7 efee 00b8 5a53 1cb8
000002f0: 969b 15b8 1aba 1237 d3ac 56b6 f9d7 3738
00000300: 92b0 7e37 8cfb a9b7 54ca b636 706b 8a37
00000310: 9d82 5738 5444 6838 6728 7038 fc5e 0138
00000320: ac9e 6ab7 3182 d0b7 9431 cbb7 3792 0bb8
00000330: a122 9cb6 bf82 6bb7 cb35 72b6 a1c2 74b7
00000340: 56ee 90b7 3d81 1437 043e 57b7 4c88 8d37
00000350: 8b97 edb6 6b4f 28b7 8ff3 bfb7 385f cbb6
00000360: b2dd 1236 8cd6 d436 f235 ee37 4c1e ca37
00000370: d177 0cb7 8875 6437 37be b9b7 7aa3 cc35
00000380: 846d 2937 35c5 f737 1316 6c38 46f1 a9b6
00000390: 8f74 a536 c3f6 1638 0de1 4f38 e005 b438
000003a0: 3ff4 8638 3e07 8838 d9ee 1138 c62a 05b8
000003b0: e323 6d36 a31d 1737 02ac f736 6a86 e637
000003c0: d11e 83b6 4b8f c1b7 3312 bc37 c767 8c36
000003d0: ea2e 18b8 80d2 16b8 e0c4 1cb8 9340 5bb7
000003e0: c34d 19b8 6fd9 51b8 0319 16b7 d210 76b7
000003f0: 105f 06b8 43e8 0bb8 5b63 98b7 4b40 f5b7
-1.0885088e-05 5.254299e-05 2.9349867e-05 4.503665e-05 5.8158616e-06 2.1737778e-05 -1.0312591e-05 -4.3698706e-06
1.1754519e-05 -2.1030848e-05 -1.6464599e-05 -1.4387356e-05 -2.0281375e-05 9.652462e-06 -1.7814526e-06 -2.1705899e-05
-3.425496e-05 -5.121856e-05 -2.1673897e-05 -4.3936343e-05 -3.2913435e-05 -3.9969407e-05 -6.246336e-06 -1.1192544e-06
7.3264946e-06 -3.4217326e-05 -9.532177e-06 -2.3011897e-05 4.0165618e-05 6.414571e-05 5.2939828e-05 3.1205593e-05
2.0808851e-05 2.3421891e-05 1.0120173e-05 -1.8053894e-05 3.0626336e-05 2.8272449e-05 4.6309935e-05 -1.3271078e-05
4.87235e-05 2.7311648e-05 1.4494277e-05 2.2318241e-05 1.7645541e-05 -1.5069163e-05 -4.017205e-05 -3.7530936e-05
-3.97522e-05 -4.497087e-05 -9.111421e-05 -2.5128733e-05 1.1246486e-05 -3.2442085e-06 -1.7583336e-05 -9.469603e-06
8.824928e-06 2.0318903e-05 -2.996211e-05 -2.384854e-05 5.9421945e-05 1.553222e-05 -6.8377245e-05 3.247545e-05
2.9462499e-05 -6.255771e-06 1.4502433e-05 6.096889e-05 5.8841753e-05 2.9178676e-05 1.9629373e-05 8.453012e-07
4.325403e-06 1.6556809e-05 -1.5387523e-05 -6.6240837e-06 -1.1128145e-05 1.3579983e-06 -2.9248164e-05 -4.5028435e-07
-1.6869231e-05 5.4567663e-05 -2.4392419e-05 4.0661407e-06 1.463414e-05 3.5731002e-05 3.0367955e-05 1.0283602e-05
1.7794137e-05 3.3002132e-05 3.2656768e-05 2.7069436e-05 5.812917e-05 1.8570678e-05 -1.6631464e-05 8.321138e-07
3.1753814e-05 1.5778562e-05 4.4975513e-06 3.6538495e-05 6.3692365e-05 -1.7246017e-05 -2.5895604e-05 -1.4353847e-05
-6.362919e-05 -7.4792595e-05 -7.960252e-05 -1.8910143e-05 -3.959724e-05 4.5086813e-06 -3.5015248e-05 -5.0566792e-05
-3.7334816e-05 4.1784215e-06 1.4417301e-05 9.916763e-07 -1.8651248e-05 2.1345397e-05 3.410624e-05 4.8108373e-05
3.200772e-05 3.505535e-05 1.1856328e-06 -1.3923119e-05 -4.0845443e-06 -2.768355e-05 -1.1157127e-05 1.0720235e-05
-1.7591547e-05 -3.9767543e-05 1.264454e-05 -1.5158068e-05 -1.1192066e-05 4.6932888e-07 -5.7665384e-06 2.5937334e-05
3.6350026e-05 2.867122e-06 4.119253e-05 -2.0654443e-05 -1.41677265e-05 7.4702946e-08 -4.3480446e-05 -3.607412e-05
-3.3255277e-05 -3.0152776e-05 -5.1963456e-05 -2.8839628e-05 -3.740993e-05 -7.723095e-06 -1.3262218e-05 -1.3356627e-06
-5.149318e-06 -3.0180032e-05 2.7141106e-05 5.4987322e-05 2.8462526e-05 1.2699012e-05 1.5243099e-05 1.8712592e-06
-9.412633e-06 -1.814007e-05 -2.072375e-05 -4.996489e-06 -1.7587704e-08 3.2673615e-05 3.6906105e-05 -6.557516e-07
-1.469429e-05 -4.525453e-05 6.9726557e-06 8.202953e-06 1.5281143e-05 1.2651916e-05 -4.678905e-05 8.055696e-06
2.4751647e-05 3.371136e-05 1.0665446e-05 -1.8350009e-07 -1.4074317e-05 -1.0873636e-05 -2.7872347e-05 2.8562197e-06
-4.5356223e-06 -2.5268871e-05 -3.0740102e-05 -3.7270926e-05 -3.566927e-05 8.745608e-06 -3.1989082e-06 4.383174e-05
1.5180691e-05 -2.0263506e-05 5.4475768e-06 1.6500911e-05 5.1381638e-05 5.5376746e-05 5.7258087e-05 3.0844458e-05
-1.3984431e-05 -2.4856157e-05 -2.4222572e-05 -3.3276356e-05 -4.6531936e-06 -1.4037533e-05 -3.6092122e-06 -1.4588849e-05
-1.7277122e-05 8.851578e-06 -1.2829438e-05 1.6871978e-05 -7.0807923e-06 -1.0032071e-05 -2.288239e-05 -6.0609564e-06
2.188474e-06 6.343069e-06 2.8396931e-05 2.4094385e-05 -8.372547e-06 1.3617224e-05 -2.2142294e-05 1.5246762e-06
1.0098684e-05 2.9536526e-05 5.6287343e-05 -5.0646804e-06 4.9309524e-06 3.59926e-05 4.956224e-05 8.584163e-05
6.435112e-05 6.486334e-05 3.479314e-05 -3.1749507e-05 3.533664e-06 9.007202e-06 7.381198e-06 2.7480728e-05
-3.9076917e-06 -2.3074119e-05 2.2419821e-05 4.1844064e-06 -3.6283316e-05 -3.595883e-05 -3.7376652e-05 -1.3068452e-05
-3.6550464e-05 -5.0031984e-05 -8.94652e-06 -1.4666659e-05 -3.2036623e-05 -3.3356493e-05 -1.8166078e-05 -2.9236215e-05

exp_avg_sq f4 [96, 336]
00000000: 1be1 f831 b97d 7932 a2e6 8432 9699 8d32
00000010: e000 9532 130b 9232 c238 8e32 74bd 8a32
00000020: ed7c 8a32 0e05 8b32 44f1 8e32 08ed 8b32
00000030: 0617 9032 7f3c 8832 fecf 9032 dd7f 8232
00000040: 4b36 8632 4845 8932 c591 8432 cde4 9332
00000050: 8f7e 8c32 da43 8832 6bee 8232 90bc 8c32
00000060: de4f 9232 c658 8d32 51d1 8932 674a 8f32
00000070: ddec 9532 1d6b 9232 db46 9c32 0202 8e32
00000080: 176e 9432 38a6 8432 2122 8932 6cc6 8932
00000090: 4624 8832 cbff 8332 bd57 8632 a0bf 8732
000000a0: 2bb7 8932 153f 8932 6d27 8a32 7e3f 7f32
000000b0: b5d8 8932 c1a6 8632 e55a 8532 6dee 8932
000000c0: 437e 8632 f4bb 8932 dec0 9332 eda8 8e32
000000d0: 8a9c 9832 2417 9432 457f 8232 5aaa 8b32
000000e0: 1ab7 8b32 a386 8f32 a536 8c32 7472 8a32
000000f0: 02ee 8b32 36c8 8832 9626 9332 7ff4 8b32
00000100: 4d41 9232 8ae4 9232 65c4 9332 1761 9532
00000110: 7b17 8d32 771e 8c32 4435 8932 ea2c 8832
00000120: 70d9 8532 865a 8632 d950 8a32 02fc 9332
00000130: 13ac 9332 34ad 9032 09de 8632 31e4 9032
00000140: 7186 9132 b586 8632 b560 9332 ed8a 8d32
00000150: bdb1 8532 2e48 8532 6db8 8f32 7a41 8d32
00000160: e8a6 9332 f2e9 8732 f3a3 8f32 7933 8c32
00000170: f155 9632 e6ab 8e32 7141 8832 0489 8932
00000180: 6b14 9032 3c99 8a32 b74c 8832 828d 8432
00000190: 8a37 8a32 d4d9 8a32 e8dc 8832 c498 8c32
000001a0: 00d6 8932 2131 9632 c166 8e32 6814 8c32
000001b0: 489b 8d32 fd66 9932 c05a 9032 f73b 8232
000001c0: 60c8 8732 b5f9 8732 6052 8732 a3c9 9932
000001d0: ac5c 9132 b032 9732 f95b 9532 3d49 8a32
000001e0: 2bd0 8a32 da6f 8c32 e073 9132 9deb 8732
000001f0: 0a6c 8432 728c 8b32 18f4 8f32 3afb 9332
00000200: 5d59 9132 86c4 8532 ba9e 9732 6606 9732
00000210: 9d75 8a32 56a3 8d32 ff32 9332 1274 9c32
00000220: 6155 8b32 8e9a 9232 935e 8a32 eb7d 9032
00000230: 8847 8832 1b64 8732 c563 7932 7cfc 8332
00000240: 7588 8432 4a55 8832 eaf1 8d32 525c 8a32
00000250: 5526 8832 3049 8332 1a02 8432 3bea 8732
00000260: 74de 8732 016e 8632 4d37 8032 925a 7f32
00000270: e58e 8732 4026 9532 328d 8132 638d 8032
00000280: 4a07 8532 d9bd 8532 ba12 8632 a98c 8332
00000290: 216e 8532 6c0d 8932 1ce2 8732 aede 8c32
000002a0: 9e27 9b32 ae50 8c32 b36a 9232 b3d3 8732
000002b0: bd09 8c32 7962 8332 1b4c 8632 8253 8d32
000002c0: 6b30 8f32 bcd9 8e32 919e 8832 58a4 8232
000002d0: 7d22 8532 faaf 8432 99df 8932 4e47 9032
000002e0: 7808 8b32 c912 8232 f6f5 8432 53cd 8b32
000002f0: e36c 7932 5fdf 8832 8a9e 9032 f78e 9732
00000300: bf9f 9232 3f28 9032 4410 9232 d854 9032
00000310: 616b 8a32 b08c 9632 e23b a732 f98f 8932
00000320: 6fa1 8c32 973b 8332 b8fa 8632 ab94 9032
00000330: 878b 9132 bedf 8332 a3eb 8e32 a79d 9132
00000340: 15f3 8a32 a17f 9032 9399 8432 3b12 9432
00000350: f22b 8c32 478e 9032 65d0 8532 3d92 8a32
00000360: d603 9032 3f8c 8432 c74b 7f32 bacb 7832
00000370: 54dc 8832 4ab1 8c32 1b7b 8132 b682 9332
00000380: 19cc 8b32 57c2 8932 a6da 8a32 3215 8f32
00000390: 6c6b 8a32 55ec 8d32 0fae 8b32 0419 9332
000003a0: c69c 9532 1ff5 8732 c58e 8b32 7037 9332
000003b0: 3d00 9032 ed4e 8432 f29c 8d32 c0d6 8b32
000003c0: 5611 8432 a6c8 8d32 abf5 8e32 cb1a 9332
000003d0: 96dc 8832 775d ae32 8b65 9a32 71e9 9132
000003e0: aa79 9832 897c 8c32 7a93 8b32 8387 9032
000003f0: 7233 9032 8ea3 9032 246b 8c32 62a6 8e32
7.2433415e-09 1.4522294e-08 1.5471702e-08 1.6484403e-08 1.734628e-08 1.7001673e-08 1.6556786e-08 1.6151468e-08
1.6122124e-08 1.6184028e-08 1.664069e-08 1.6289519e-08 1.6774276e-08 1.5859994e-08 1.685839e-08 1.5192137e-08
1.5624343e-08 1.5980405e-08 1.543311e-08 1.7217099e-08 1.6355697e-08 1.5863339e-08 1.5242412e-08 1.6383893e-08
1.7032956e-08 1.645493e-08 1.6044085e-08 1.6681225e-08 1.7453596e-08 1.7045346e-08 1.8193012e-08 1.6531889e-08
1.727953e-08 1.544241e-08 1.596442e-08 1.6039131e-08 1.5848979e-08 1.5366728e-08 1.5639552e-08 1.580321e-08
1.6032194e-08 1.5977585e-08 1.6083243e-08 1.485739e-08 1.6047446e-08 1.5675484e-08 1.5524572e-08 1.6057323e-08
1.565707e-08 1.603437e-08 1.7200758e-08 1.6607794e-08 1.7766315e-08 1.723999e-08 1.5191867e-08 1.6259197e-08
1.6264995e-08 1.6708617e-08 1.6322995e-08 1.6117362e-08 1.6289963e-08 1.592353e-08 1.71306e-08 1.6292914e-08
1.7026332e-08 1.7100565e-08 1.7202362e-08 1.7390034e-08 1.6425238e-08 1.6311999e-08 1.5973121e-08 1.5852908e-08
1.5582117e-08 1.5640818e-08 1.610208e-08 1.7227652e-08 1.7191303e-08 1.684257e-08 1.5700623e-08 1.6867576e-08
1.6941359e-08 1.566091e-08 1.715703e-08 1.6477737e-08 1.5564064e-08 1.5516061e-08 1.6731258e-08 1.6444336e-08
1.7188952e-08 1.5822454e-08 1.6721946e-08 1.6321552e-08 1.750138e-08 1.6609146e-08 1.5862243e-08 1.6011207e-08
1.6773091e-08 1.6134997e-08 1.586737e-08 1.5431173e-08 1.609057e-08 1.6164371e-08 1.593294e-08 1.6367615e-08
1.6046215e-08 1.748464e-08 1.6577703e-08 1.6307425e-08 1.6485174e-08 1.7858378e-08 1.6805075e-08 1.516126e-08
1.5807188e-08 1.5829622e-08 1.5753528e-08 1.7903238e-08 1.6922364e-08 1.7601764e-08 1.7387707e-08 1.609862e-08
1.6159978e-08 1.634901e-08 1.6932916e-08 1.5823213e-08 1.5415953e-08 1.6245597e-08 1.6758392e-08 1.7227297e-08
1.692086e-08 1.5572606e-08 1.7650894e-08 1.7581623e-08 1.6118799e-08 1.6488837e-08 1.7136243e-08 1.8213573e-08
1.6220556e-08 1.706692e-08 1.6108322e-08 1.6821067e-08 1.5865012e-08 1.5761591e-08 1.45163925e-08 1.5365224e-08
1.5428876e-08 1.5871269e-08 1.652457e-08 1.6107297e-08 1.5849915e-08 1.5283689e-08 1.5367778e-08 1.5822584e-08
1.5817228e-08 1.5649677e-08 1.4926309e-08 1.4863547e-08 1.578105e-08 1.7363277e-08 1.5081785e-08 1.4965456e-08
1.5486552e-08 1.556957e-08 1.5608169e-08 1.5314372e-08 1.5533319e-08 1.5955003e-08 1.5818891e-08 1.6399408e-08
1.806239e-08 1.6334834e-08 1.7045158e-08 1.5812338e-08 1.6302574e-08 1.5295187e-08 1.5634262e-08 1.6452535e-08
1.6669409e-08 1.662999e-08 1.5904591e-08 1.5208727e-08 1.5498921e-08 1.5446847e-08 1.605058e-08 1.6796232e-08
1.618558e-08 1.5142534e-08 1.5478673e-08 1.62751e-08 1.45184655e-08 1.5934061e-08 1.6835902e-08 1.7643726e-08
1.7069281e-08 1.6782108e-08 1.7004034e-08 1.6802389e-08 1.6114145e-08 1.7526276e-08 1.946859e-08 1.601437e-08
1.6371557e-08 1.5277505e-08 1.5713667e-08 1.6831413e-08 1.6943671e-08 1.5352153e-08 1.663813e-08 1.6951914e-08
1.6175855e-08 1.6821845e-08 1.543666e-08 1.7237758e-08 1.6318129e-08 1.6828507e-08 1.5578005e-08 1.6131816e-08
1.676555e-08 1.5430599e-08 1.4860183e-08 1.4481822e-08 1.5932677e-08 1.6378767e-08 1.5073558e-08 1.7172493e-08
1.6274543e-08 1.6037275e-08 1.6164744e-08 1.665703e-08 1.6114164e-08 1.6522032e-08 1.6260882e-08 1.7124428e-08
1.7417175e-08 1.5827537e-08 1.6246654e-08 1.7138262e-08 1.6763915e-08 1.5402714e-08 1.648593e-08 1.6279387e-08
1.5374706e-08 1.6505805e-08 1.6642693e-08 1.7125236e-08 1.5932795e-08 2.0298769e-08 1.7974136e-08 1.6986379e-08
1.7750455e-08 1.6354777e-08 1.6248794e-08 1.682543e-08 1.6787201e-08 1.6838182e-08 1.6346867e-08 1.6606638e-08

exp_avg f4 [96]
00000000: 72aa 3639 79c7 0039 5a84 8c39 baaf f138
00000010: 5217 2139 f338 d238 b097 3639 aca2 4a39
00000020: d50a 9938 6a8b e338 125a 4339 46b3 8838
00000030: 2bd6 a537 e385 7e38 6ece 9938 497f ef37
00000040: 2137 2c37 d714 efb7 959f c937 5ec9 1c38
00000050: 4aea 3cb8 48f7 7938 7195 cd38 a2af 5338
00000060: 72da 6338 424c 2939 58a8 d838 a433 0d39
00000070: c981 2039 8e8e 0939 c948 8a38 5bcb 1a39
00000080: 9029 2d39 3c1c 4a37 b028 1f39 5b0f a038
00000090: 0838 3338 2653 9438 0928 9b38 3970 9438
000000a0: a768 a038 b064 1a39 4b9e 3439 0dce 3339
000000b0: 5b75 2739 c27b 3c39 3394 1639 beb7 4539
000000c0: 0b22 1239 124d 3539 ba36 3c39 3d9e 2039
000000d0: 3bfe ec38 0dc4 8f37 f1fd 3337 a5c6 ea37
000000e0: 301b ab37 d6f4 3fb8 5779 50b7 9f65 68b8
000000f0: 405a adb6 c742 1eb4 b73a c536 26f7 b336
00000100: 7287 67b7 5d8e 4db7 cfa4 1db7 f6eb aab8
00000110: e01c 7cb8 fce0 ebb5 5445 cc36 2d32 ceb8
00000120: c83b 02b9 bb4e e4b8 d691 19b9 4796 1fb9
00000130: cd25 35b9 33a1 21b9 96e8 a5b8 5693 3ab9
00000140: 3164 64b9 f75d 80b9 04c7 77b9 ea01 38b9
00000150: cd74 58b9 8fe5 52b9 f924 5bb9 77d3 81b9
00000160: 3807 69b9 c9e9 a5b9 25cd acb9 61c4 4eb9
00000170: d9ca 93b9 46de 75b9 f9a0 43b9 4878 52b9
0.00017420368 0.0001228134 0.0002680149 0.00011524507 0.00015362844 0.00010024188 0.0001741338 0.00019324821
7.297626e-05 0.000108501714 0.00018630203 6.5183776e-05 1.9769263e-05 6.068301e-05 7.334059e-05 2.8550292e-05
1.0264835e-05 -2.8500725e-05 2.4035378e-05 3.7380836e-05 -4.504089e-05 5.9596525e-05 9.8029974e-05 5.046989e-05
5.432446e-05 0.00016145504 0.00010331039 0.00013466045 0.00015307138 0.00013118444 6.59391e-05 0.0001476234
0.00016514049 1.2046712e-05 0.00015178579 7.632255e-05 4.272911e-05 7.0726775e-05 7.398433e-05 7.078093e-05
7.6488875e-05 0.00014724093 0.00017225106 0.0001714753 0.0001597008 0.0001797518 0.00014360323 0.00018855833
0.00013936327 0.00017290216 0.00017949464 0.00015317737 0.00011300711 1.7138222e-05 1.0728357e-05 2.7987475e-05
2.0397449e-05 -4.576597e-05 -1.2426018e-05 -5.5407752e-05 -5.1663083e-06 -1.473919e-07 5.877893e-06 5.3633876e-06
-1.3800209e-05 -1.2252099e-05 -9.396302e-06 -8.150183e-05 -6.0108374e-05 -1.7574343e-06 6.0877446e-06 -9.8321914e-05
-0.00012420036 -0.00010886552 -0.00014645545 -0.00015219404 -0.00017275587 -0.00015414208 -7.9111356e-05 -0.00017793229
-0.00021781099 -0.00024484072 -0.00023629895 -0.0001754832 -0.00020642877 -0.00020112678 -0.00020899241 -0.0002476235
-0.00022223301 -0.00031645436 -0.0003295924 -0.00019718848 -0.00028189158 -0.00023447824 -0.00018656616 -0.00020071969

exp_avg_sq f4 [96]
00000000: d2bc 0c35 de1d fe34 8481 f134 0aba e634
00000010: b2ba de34 6fe9 d634 4ee4 d234 3921 c534
00000020: 2390 c434 eda5 c634 2793 c134 169d b634
00000030: 3998 ae34 8845 ad34 6e60 a934 f482 9e34
00000040: 0050 9f34 c63f a034 edd4 9a34 b11d 9834
00000050: d4c7 9434 a047 9634 ca72 9634 d6c4 9134
00000060: bfac 9534 c088 9234 ff7a 9534 50e6 9334
00000070: dade 9334 b027 9334 350c 8e34 768d 9134
00000080: 5539 9034 774e 8e34 9a95 8a34 74b3 8634
00000090: 3317 8634 ecd3 8734 f5c7 8534 4d24 8534
000000a0: 2b80 8634 28eb 8434 49bb 8234 dbf4 8634
000000b0: fa28 8734 fde4 8434 bc74 8134 9089 8134
000000c0: bbc7 8234 e538 8034 3418 8034 f787 8234
000000d0: 656a 8134 f36f 8034 3043 8234 65b2 8334
000000e0: 4846 7f34 820b 8234 1643 8334 03bd 8134
000000f0: 493a 7f34 f243 7d34 3855 7d34 ed11 7e34
00000100: 17a6 7334 81e1 7a34 586f 7234 f569 7534
00000110: ba2d 7534 09b7 7b34 fb80 7f34 6b8f 8134
00000120: 52ff 7f34 e321 8034 9fea 7e34 e952 8134
00000130: fd48 8034 06b6 8034 d00c 8034 2673 8134
00000140: 4944 8334 8c4c 8334 94c7 8534 02d8 8334
00000150: 9aac 8834 4ef5 8834 a503 8734 4c6b 8834
00000160: dd16 8834 6c80 8934 d78e 8a34 9e53 8834
00000170: 464e 8934 96ed 8534 0dd0 8534 d69e 8334
5.2428834e-07 4.7332918e-07 4.4983983e-07 4.29762e-07 4.148656e-07 4.0030451e-07 3.9281662e-07 3.6718282e-07
3.6612718e-07 3.70011e-07 3.605612e-07 3.4014437e-07 3.2520782e-07 3.2274352e-07 3.1548865e-07 2.9525074e-07
2.9674266e-07 2.9848724e-07 2.883966e-07 2.833381e-07 2.7712542e-07 2.799179e-07 2.8023197e-07 2.7151572e-07
2.7879102e-07 2.7294118e-07 2.7842904e-07 2.7548458e-07 2.754303e-07 2.740976e-07 2.6458443e-07 2.711128e-07
2.6863805e-07 2.6506652e-07 2.5813353e-07 2.5090014e-07 2.4976325e-07 2.5299903e-07 2.4918668e-07 2.4799593e-07
2.50527e-07 2.4758015e-07 2.4350655e-07 2.51376e-07 2.5175524e-07 2.4753527e-07 2.4113058e-07 2.4128212e-07
2.435971e-07 2.3883254e-07 2.3859468e-07 2.4313314e-07 2.4105535e-07 2.3923312e-07 2.4263272e-07 2.453045e-07
2.3774294e-07 2.422276e-07 2.4449463e-07 2.4165647e-07 2.376993e-07 2.358718e-07 2.3593464e-07 2.3662115e-07
2.2691562e-07 2.3365102e-07 2.2578513e-07 2.285595e-07 2.2834038e-07 2.3442784e-07 2.3795648e-07 2.4132473e-07
2.384161e-07 2.3866514e-07 2.3740948e-07 2.4088448e-07 2.3894964e-07 2.3974297e-07 2.385118e-07 2.4111904e-07
2.4450335e-07 2.4456347e-07 2.4918393e-07 2.4557818e-07 2.5457558e-07 2.5510457e-07 2.514836e-07 2.5410043e-07
2.534861e-07 2.5611678e-07 2.5808433e-07 2.5392814e-07 2.557519e-07 2.4946047e-07 2.4924557e-07 2.451622e-07

exp_avg f4 [96, 336]
00000000: 6b07 0eb9 dc7c 0db9 c546 0cb9 ff1b 0bb9
00000010: be3c 07b9 856e 0bb9 71fa 08b9 b3d0 06b9
00000020: a1b6 06b9 76a1 07b9 c285 02b9 4337 04b9
00000030: 5a5b f9b8 c196 f6b8 110d f0b8 201c f3b8
00000040: 48b7 efb8 4984 dbb8 d5c3 d2b8 0ef1 c8b8
00000050: 460a b9b8 d54b aeb8 519d a3b8 6725 98b8
00000060: 6eae 8db8 78c1 6eb8 08b2 5ab8 468c 37b8
00000070: 0ed7 1ab8 5417 fdb7 a85d c9b7 4fa8 94b7
00000080: 374d 51b7 1ff4 55b6 0ced 6435 6dd7 f035
00000090: c314 2136 841c 9f36 cb35 0437 8fe1 3e37
000000a0: 2bb6 8337 8964 8337 f5be 4437 d19d 6f37
000000b0: b7d2 9237 6bbf a937 9d0b ac37 08fb 9037
000000c0: c71f d337 5c59 fa37 8f3a d937 88c6 ef37
000000d0: 229f 1638 3179 1d38 09c6 1c38 874f 2b38
000000e0: 00dd 4f38 078c 5838 1357 6938 c71c 8338
000000f0: 8507 9038 66a7 9938 0691 a638 624c b338
00000100: c364 b938 9559 bf38 c7b4 c338 162c ce38
00000110: 3b47 d338 fb17 da38 a058 da38 4888 e538
00000120: 9782 e738 84bd e938 d22a f038 0046 f438
00000130: f8a5 ec38 4640 ea38 0d61 f038 c9eb ef38
00000140: c23f f238 a5f2 e138 2ffb d638 8452 ce38
00000150: 6528 d038 6a50 cd38 df0b bd38 f679 ba38
00000160: 4be8 b638 2d55 ab38 e8d6 9c38 0bce 9038
00000170: 4e8a 7638 ada7 4838 4dba 0938 1cc3 f937
00000180: a74b 9637 5b43 2337 572a f335 9264 23b7
00000190: a69e 9cb7 8c09 dbb7 5ae8 0eb8 5841 3ab8
000001a0: fb3f 69b8 81ac 82b8 5ed5 92b8 bfbd 93b8
000001b0: 65a8 a5b8 bb13 afb8 659b c0b8 5a00 cbb8
000001c0: 907c d2b8 cc52 e3b8 ae59 eeb8 7ed6 f3b8
000001d0: 914b 00b9 3565 00b9 85ee 04b9 0e3f 05b9
000001e0: 47e0 06b9 ee96 05b9 7070 0ab9 4e66 0ab9
000001f0: a266 0cb9 d778 0db9 3e09 0db9 672e 12b9
00000200: 84d1 16b9 fb45 17b9 329c 19b9 b497 1fb9
00000210: b883 24b9 2e0e 2cb9 45e7 31b9 b956 2fb9
00000220: 8823 33b9 893d 34b9 9753 34b9 6400 32b9
00000230: 3071 33b9 66dd 38b9 d7f4 31b9 05c8 32b9
00000240: dde9 2bb9 acfd 27b9 4b8b 26b9 9c4a 24b9
00000250: f906 22b9 a268 23b9 6b8a 1eb9 a1f2 1fb9
00000260: a76b 1ab9 07d2 12b9 8fa7 12b9 1553 0ab9
00000270: 6f86 05b9 2bf2 00b9 afa7 f5b8 13dd e9b8
00000280: 3479 e1b8 81ea cbb8 857d c7b8 3ef6 bcb8
00000290: ad07 b0b8 335a 9eb8 194f 96b8 f14a 8eb8
000002a0: b0b8 8cb8 b182 8bb8 e32a 82b8 e010 65b8
000002b0: eb7c 5db8 fe4a 55b8 6cb7 3cb8 c2c1 27b8
000002c0: cb0b 18b8 b723 0fb8 8935 e9b7 d161 bcb7
000002d0: 4700 9db7 2ee4 66b7 ed86 39b7 ef47 e1b6
000002e0: 43f0 c235 d373 1637 70d0 7d37 3bc8 cc37
000002f0: ca14 f437 f328 ed37 7611 0538 c959 0938
00000300: 7d5e 2838 ca6c 4438 00d3 5e38 0756 6438
00000310: 7126 7838 6a2e 8338 4db0 8e38 a189 a438
00000320: f7a4 a838 a968 b538 cead c138 cd72 c438
00000330: 098e c938 2962 d238 a1c1 e138 e4f4 ec38
00000340: e015 f838 ba7b fa38 2a80 0039 11ab 0039
00000350: 2099 0339 39f8 0939 e35d 0c39 551e 1539
00000360: 02b0 1539 a38b 1e39 280c 2439 8cbe 2739
00000370: cf76 3039 319b 3339 26c3 3339 1530 3439
00000380: c5fd 3539 00ec 3439 2d00 3739 a2f0 3839
00000390: 4594 3539 87f5 3239 c313 3239 87ee 2c39
000003a0: eeca 2239 5278 1f39 f194 1739 da8e 1439
000003b0: 971b 0839 c92e 0239 d29b ef38 0eb2 e238
000003c0: 918f d338 883a c338 b82b ab38 0af7 9b38
000003d0: 2723 8238 a8f6 6838 513f 3738 d5e6 1638
000003e0: 1b17 0d38 fcee ef37 acfb b437 bdd0 9e37
000003f0: ebc8 4b37 e3ac a936 b3c2 4f35 e720 e3b6
-0.00013544939 -0.00013493322 -0.00013377804 -0.00013266502 -0.00012897231 -0.00013297245 -0.00013063267 -0.00012856982
-0.0001284727 -0.00012934752 -0.00012447595 -0.00012609088 -0.00011890261 -0.00011758274 -0.000114465256 -0.000115923816
-0.00011430547 -0.00010467374 -0.00010050057 -9.581643e-05 -8.823401e-05 -8.3110914e-05 -7.801748e-05 -7.2548915e-05
-6.755894e-05 -5.6923804e-05 -5.2141055e-05 -4.376124e-05 -3.6916746e-05 -3.0170813e-05 -2.400468e-05 -1.772135e-05
-1.2475349e-05 -3.188157e-06 8.528157e-07 1.7944091e-06 2.4002954e-06 4.741889e-06 7.880338e-06 1.13773995e-05
1.5701246e-05 1.5663232e-05 1.1726971e-05 1.4282255e-05 1.7502678e-05 2.0235506e-05 2.0509406e-05 1.7283033e-05
2.5167958e-05 2.9843934e-05 2.5895684e-05 2.8583469e-05 3.591099e-05 3.7544585e-05 3.7377733e-05 4.0843643e-05
4.9558468e-05 5.1628824e-05 5.5632623e-05 6.251927e-05 6.867856e-05 7.326789e-05 7.9425095e-05 8.5496125e-05
8.840256e-05 9.124276e-05 9.331997e-05 9.831057e-05 0.00010074532 0.00010399517 0.00010411558 0.00010944955
0.000110392626 0.00011145606 0.00011452068 0.00011647865 0.00011284271 0.00011169961 0.00011462169 0.000114403265
0.00011551335 0.00010774032 0.00010251102 9.838215e-05 9.925737e-05 9.79014e-05 9.0144335e-05 8.891888e-05
8.721704e-05 8.1697806e-05 7.478689e-05 6.9048336e-05 5.8779777e-05 4.7839876e-05 3.283685e-05 2.9773968e-05
1.7916622e-05 9.7312395e-06 1.8117233e-06 -9.738973e-06 -1.8670526e-05 -2.611128e-05 -3.4071832e-05 -4.4406712e-05
-5.5611115e-05 -6.2310144e-05 -7.001565e-05 -7.044849e-05 -7.899179e-05 -8.348325e-05 -9.184218e-05 -9.67986e-05
-0.00010036782 -0.000108396256 -0.000113654285 -0.00011627095 -0.00012235182 -0.00012244734 -0.00012677356 -0.00012707358
-0.00012862786 -0.00012740094 -0.00013202592 -0.00013198817 -0.00013389674 -0.00013491824 -0.00013450251 -0.00013940931
-0.00014383165 -0.00014426552 -0.00014649404 -0.00015219935 -0.00015689328 -0.0001640848 -0.0001696619 -0.00016721607
-0.00017084007 -0.00017189061 -0.00017197277 -0.00016975548 -0.00017112936 -0.00017630085 -0.00016971245 -0.00017049916
-0.00016394952 -0.00016020861 -0.00015882884 -0.00015668053 -0.00015452121 -0.0001558387 -0.00015119619 -0.00015253808
-0.00014726688 -0.00014001886 -0.00013986065 -0.00013191656 -0.00012733949 -0.00012297246 -0.00011713744 -0.00011151484
-0.00010751412 -9.723474e-05 -9.512439e-05 -9.010405e-05 -8.393764e-05 -7.550828e-05 -7.1672905e-05 -6.7850466e-05
-6.710121e-05 -6.65238e-05 -6.206871e-05 -5.461357e-05 -5.2806845e-05 -5.0853e-05 -4.4993518e-05 -3.9996354e-05
-3.6250607e-05 -3.412712e-05 -2.7800694e-05 -2.2456896e-05 -1.8715988e-05 -1.37621955e-05 -1.1058274e-05 -6.7138967e-06
1.4524052e-06 8.967664e-06 1.5128506e-05 2.4411935e-05 2.9096747e-05 2.827167e-05 3.1725933e-05 3.2746964e-05
4.014232e-05 4.683136e-05 5.3125434e-05 5.4439555e-05 5.916361e-05 6.255212e-05 6.803926e-05 7.845765e-05
8.041591e-05 8.650247e-05 9.235331e-05 9.3673916e-05 9.610883e-05 0.00010031864 0.00010764902 0.000112989714
0.00011829636 0.00011943975 0.00012254776 0.00012270758 0.00012550177 0.00013157808 0.00013386416 0.00014221047
0.00014275315 0.00015120073 0.00015644787 0.00015997345 0.00016828928 0.00017128584 0.00017143469 0.0001718405
0.00017356042 0.00017254055 0.00017452305 0.0001763725 0.0001731674 0.00017066869 0.00016982765 0.00016492057
0.00015525121 0.00015208244 0.00014455967 0.00014167596 0.00012980249 0.00012415195 0.00011425432 0.00010809685
0.000100880054 9.309227e-05 8.162059e-05 7.4369906e-05 6.205431e-05 5.5542827e-05 4.3689568e-05 3.5977766e-05
3.363854e-05 2.8602306e-05 2.1574866e-05 1.8932269e-05 1.2146523e-05 5.056719e-06 7.7396834e-07 -6.7689575e-06
