checkpoints/DLinear/Weather_100_336_96/498fa29ee618e3bf43213071a03c141a/DLinear_best_val_MAE.pt (torch, 782442 bytes, 12 tensors)

Linear_Seasonal.weight f4 [96, 336]
0	0x3bf37665	0.007429885
1	0xbacadfbf	-0.0015478058
2	0xbb2fbd55	-0.0026815732
3	0xbb4e05d1	-0.0031436572
4	0xbaeacb14	-0.0017913305
5	0xbb27c520	-0.0025599673
6	0xbb46f7a0	-0.0030359998
7	0xbab05459	-0.0013452872
8	0xbae385d4	-0.001735861
9	0xbaf615d0	-0.0018774811
10	0xb95a39f6	-0.00020811692
11	0xb890cb1e	-6.9042886e-05
12	0x3b20ba78	0.0024525207
13	0x3aa2b257	0.0012412769
14	0x3a5cc55c	0.0008421743
15	0xbb19714e	-0.0023413482
16	0xbb4146ae	-0.0029491591
17	0xbb059f3e	-0.0020389105
18	0xbb1a3976	-0.0023532785
19	0xbae4054d	-0.0017396599
20	0x3a6eacfa	0.0009104755
21	0x3a80bddd	0.0009822209
22	0xba1cd2f1	-0.00059823605
23	0x3a216731	0.00061570393
24	0xb90e2cbc	-0.0001355884
25	0x3a849d16	0.0010117616
26	0x394bd9e2	0.00019440756
27	0x399c569a	0.00029819162
28	0xba0991f5	-0.00052478845
29	0xbb15e6ca	-0.0022873157
30	0xb9c3b4c6	-0.00037327985
31	0xb981bef0	-0.00024747057
32	0xbb09c203	-0.002102018
33	0xbb1e26d6	-0.0024132035
34	0xbb4b3891	-0.0031009058
35	0xbb07621d	-0.0020657845
36	0xbacc6ab2	-0.0015595763
37	0xbbb0214f	-0.0053750644
38	0xbb881f44	-0.004154118
39	0xbb68d2d1	-0.0035526047
40	0xbb57e3f1	-0.003294226
41	0xbae2b431	-0.0017296133
42	0xbad5af74	-0.00163029
43	0xb96ade5a	-0.00022398811
44	0xbab2bd7c	-0.0013636793
45	0xbb0a3e94	-0.0021094428
46	0x39e4bde6	0.00043629034
47	0x3ab06b2c	0.0013459674
48	0x3a9345f0	0.0011236053
49	0x3a99fd2a	0.0011748422
50	0x39d5c5e7	0.00040773975
51	0xb86cd53b	-5.646537e-05
52	0x3b245de0	0.0025080368
53	0x3b381892	0.0028090817
54	0x3b897898	0.004195284
55	0x3b244491	0.0025065283
56	0x3ab1a968	0.0013554515
57	0x3b4d9a39	0.0031372441
58	0x3b8a50a6	0.00422104
59	0x3b7c9ee1	0.0038546848
60	0x3b4b7efe	0.0031051035
61	0x39aa5890	0.0003249091
62	0x3a0a443a	0.0005274449
63	0xbabbaba5	-0.0014318122
64	0xb99e90cf	-0.00030244
65	0x3b383390	0.0028106906
66	0x3b966e6c	0.0045908
67	0x3b5a12c3	0.0033275343
68	0x39fa2c37	0.00047716658
69	0x3b278040	0.002555862
70	0x3b4bdfa6	0.0031108647
71	0x3b71897d	0.003685563
72	0x3b7d92d4	0.0038692253
73	0x3b4f37b2	0.003161889
74	0x3b559c3d	0.0032594346
75	0x3b9840e7	0.004646409
76	0x3b850c72	0.0040603215
77	0x3b22d49b	0.002484596
78	0x3a355b01	0.00069181627
79	0xba18c2ed	-0.0005827386
80	0xba166c88	-0.00057382183
81	0xb8d00b79	-9.92035e-05
82	0x3a28f362	0.0006444958
83	0x387495c0	5.83136e-05
84	0x3acb5c00	0.0015515089
85	0x3b0f3ebe	0.0021857466
86	0x3b321956	0.0027175746
87	0x3b98a510	0.004658349
88	0x3b99830d	0.004684812
89	0x3b5758fe	0.003285944
90	0x397d25fb	0.00024142109
91	0xba6513a3	-0.0008738583
92	0x3a24153c	0.00062592677
93	0x3ac3aa21	0.0014928022
94	0x3af3dd93	0.0018605463
95	0xb97fac53	-0.00024382891
96	0xbaad7c29	-0.0013235855
97	0xbabf49e8	-0.0014594169
98	0x3a2da824	0.0006624481
99	0x3a3deee0	0.0007245373
100	0x38f0a0f7	0.00011474074
101	0xba208872	-0.00061238476
102	0xb9dcf6fc	-0.00042145688
103	0x39853402	0.00025406486
104	0x3ad18969	0.0015986386
105	0x3a736dc2	0.00092860695
106	0x3b0d8ed3	0.0021600022
107	0x3adad070	0.0016694199
108	0x3b0fa7fb	0.0021920193
109	0xb89895ac	-7.2758034e-05
110	0xbb25a136	-0.002527309
111	0xbb86b0d6	-0.004110436
112	0xbb89a8ec	-0.0042010453
113	0xbba12e58	-0.0049188547
114	0xbb9ec7cd	-0.0048455955
115	0xbb92cafe	-0.004479765
116	0xbb601687	-0.0034193115
117	0xbb927be4	-0.0044703353
118	0xbba7d440	-0.0051217377
119	0xbbd4cc63	-0.0064940914
120	0xbbb7ffbf	-0.005615204
121	0xbbb5a89c	-0.0055437814
122	0xbb61381d	-0.0034365722
123	0xbb9dfd6f	-0.0048214714
124	0xbba330ba	-0.004980174
125	0xbb51ca71	-0.0032011534
126	0xbaaadc56	-0.0013035636
127	0xbaceddca	-0.0015782651
128	0xba93cafc	-0.0011275704
129	0x39cd6b39	0.00039180534
130	0x3aca76b4	0.0015446753
131	0x3aa42b55	0.0012525121
132	0x39a92779	0.000322636
133	0xb9f423c2	-0.00046565948
134	0xb81256e3	-3.4890032e-05
135	0x3a0a5dcf	0.0005278261
136	0x3a63b0ea	0.0008685725
137	0x3a9a3fe7	0.0011768312
138	0xb82bdf38	-4.0977466e-05
139	0x3a66fac5	0.0008811171
140	0x3a54b79e	0.00081145193
141	0xbaa7c6f4	-0.0012800382
142	0xb9abae4a	-0.00032745517
143	0x3a6b4b7e	0.0008975788
144	0x3abb78a0	0.0014302917
145	0x3aff0e26	0.0019459173
146	0x3a4cec5a	0.00078172015
147	0xbac7e397	-0.0015250322
148	0x3a7f5ee7	0.00097416196
149	0xb92703b1	-0.00015927736
150	0xb994553b	-0.0002829226
151	0xba96edd6	-0.0011514972
152	0xb9edeec0	-0.00045382045
153	0xba9d6407	-0.001200796
154	0xbb31aa69	-0.002710963
155	0xbb68c21a	-0.0035516084
156	0xbbb21994	-0.005435178
157	0xbb525d5b	-0.0032099101
158	0xbb0334a6	-0.0020020395
159	0xbb1d89c8	-0.0024038423
160	0xbb286942	-0.0025697504
161	0xb9cd7efe	-0.00039195264
162	0xba4206e1	-0.0007401538
163	0xba6ae125	-0.0008959941
164	0xbaaeab21	-0.0013326147
165	0xb92d6e1b	-0.00016539583
166	0x39b4d96e	0.00034494273
167	0xbb1aae1b	-0.002360231
168	0xbb899ca0	-0.0041995794
169	0xbba81838	-0.00512984
170	0xbb8f90a6	-0.004381257
171	0xbb5b4bd0	-0.0033461936
172	0xbb66dfd3	-0.0035228624
173	0xbbb10df6	-0.0054032756
174	0xbb927d1c	-0.0044704806
175	0xbbab4f56	-0.0052279634
176	0xbbcf2e7b	-0.0063226796
177	0xbbad62cf	-0.00529132
178	0xbb20ac26	-0.002451667
179	0xba2e37fd	-0.0006645916
180	0xba804617	-0.0009786513
181	0xb9c84825	-0.00038200725
182	0xbb213c38	-0.0024602544
183	0xbad1e3ee	-0.0016013363
184	0x3abc5df5	0.0014371263
185	0x3b303944	0.0026889602
186	0x3b353a7b	0.0027653265
187	0x3abf2236	0.0014582339
188	0x3b49423b	0.0030709642
189	0x3b79c5eb	0.0038112353
190	0x3acd12a6	0.0015645816
191	0x3b37114a	0.002793389
192	0x3ba732b6	0.0051024808
193	0x3bca799b	0.0061790473
194	0x3bd5676e	0.006512574
195	0x3bde5c3f	0.006785899
196	0x3b564f13	0.003270094
197	0x3ac7794b	0.0015218643
198	0x3a780c94	0.00094623235
199	0x39e26bd8	0.0004318643
200	0x3a9c1a0c	0.0011909618
201	0x3af4db4d	0.0018681079
202	0x3aef9fa8	0.0018281834
203	0x3b08c737	0.0020870694
204	0x3a42d79b	0.00074326404
205	0x38972247	7.206626e-05
206	0xba96d155	-0.0011506478
207	0x3ae5956c	0.0017515845
208	0xba7442ab	-0.00093177956
209	0xba009ee4	-0.0004906489
210	0xbb302e3d	-0.002688303
211	0xbb001300	-0.0019542575
212	0xbb0178c9	-0.0019755831
213	0xba49ed1e	-0.0007702875
214	0xbae80934	-0.0017702938
215	0xba7cf774	-0.00096499105
216	0xba483fb0	-0.00076388847
217	0xbb06f941	-0.0020595344
218	0xbb098060	-0.0020981058
219	0xbb39d0c7	-0.00283532
220	0xba87d0a5	-0.0010361864
221	0x38d04d2b	9.9325865e-05
222	0x3a95a64b	0.0011417357
223	0x3ad8c12e	0.0016537064
224	0x3b45739c	0.0030128723
225	0x3b78abb6	0.0037944145
226	0x3bb63ed2	0.005561688
227	0x3ba4b5f1	0.005026572
228	0x3b8d2f46	0.004308614
229	0x3b0fc891	0.0021939615
230	0x3b530fa5	0.003220537
231	0x3b352844	0.0027642408
232	0x3b1f97eb	0.0024352025
233	0x3b4ec9e7	0.0031553449
234	0x3b6d24e4	0.0036185319
235	0x3b6cbef4	0.003612456
236	0x3b463f27	0.0030250044
237	0x3b3ce27b	0.0028821516
238	0x3b1f9bf5	0.0024354432
239	0x3a975bbc	0.0011547725
240	0x3a3dbf55	0.00072382885
241	0x3950b04c	0.00019902101
242	0xb911a164	-0.000138884
243	0x3a308171	0.00067331555
244	0x3a4ea3c9	0.0007882682
245	0x3ab39e6d	0.0013703831
246	0x39778ec8	0.00023608946
247	0xbaa50ed7	-0.0012592924
248	0xba9c076f	-0.0011904071
249	0xbb63b44f	-0.0034744923
250	0xbb689fcb	-0.0035495635
251	0xbbbeefad	-0.0058269114
252	0xbbbc2568	-0.005741764
253	0xbbb42201	-0.0054972176
254	0xbb8be58b	-0.004269307
255	0xbb84d4a3	-0.0040536686

Linear_Seasonal.bias f4 [96]
0	0xbc38306f	-0.011242016
1	0xbbb15ecd	-0.0054129125
2	0x3b8025e0	0.003910765
3	0x3c9f7257	0.019463701
4	0xbcb4f805	-0.022090921
5	0xbb57f2a5	-0.0032951024
6	0xbc07707f	-0.008266567
7	0x3c8014ba	0.015634883
8	0x3c4fd841	0.012685836
9	0xbccc0fec	-0.024909936
10	0xbb4ca1c2	-0.0031224345
11	0x3ce66c88	0.028127924
12	0xbb320bfb	-0.0027167785
13	0x3bbb2ab6	0.0057118786
14	0xbc60b91b	-0.013716008
15	0x3c2065c9	0.0097898925
16	0x3c1d7b76	0.009611955
17	0x3adad77d	0.0016696301
18	0xbc8b4afb	-0.017003527
19	0xbc2ca74b	-0.010537933
20	0x3cd967dc	0.026538782
21	0x3cc8a5a3	0.024493044
22	0x3c578262	0.013153644
23	0xbb73c0cd	-0.0037193776
24	0xba93b9d6	-0.0011270593
25	0x3cb75e7b	0.022383919
26	0x3c97b265	0.018517682
27	0x3cdcfdc9	0.026976483
28	0xbd03c515	-0.032170374
29	0xbcc556f3	-0.024089312
30	0xbc41ebb1	-0.011835978
31	0xbc2159fb	-0.009848113
32	0x3b8e47f3	0.004342073
33	0x3bcda1f1	0.0062754084
34	0xbb87409c	-0.004127575
35	0x3b9da0e7	0.004810441
36	0xbc67c3a5	-0.014145766
37	0xbc905606	-0.017619144
38	0xbbbff594	-0.0058581326
39	0xbc986ee7	-0.01860757
40	0xbd02d00c	-0.03193669
41	0x3c98ed09	0.018667715
42	0x3b607b5d	0.0034253218
43	0x3adf6549	0.0017043735
44	0xbc4696b5	-0.012120892
45	0xbc9594c0	-0.018259406
46	0xba1dd3aa	-0.0006020615
47	0xbcb42696	-0.021991055
48	0x3c9ed27b	0.019387474
49	0x3cad55bd	0.021159047
50	0x3cd4d97b	0.025982609
51	0x3cb79320	0.022409022
52	0xba944f3a	-0.0011315115
53	0xbc975449	-0.018472807
54	0xbc12d1d3	-0.008961159
55	0x3c5edd7a	0.013602609
56	0x3aa8a58b	0.0012866718
57	0x3aae1a2e	0.0013282949
58	0xbb8da3e5	-0.0043225163
59	0xbc61e5f5	-0.013787736
60	0x3c34405e	0.011001674
61	0x3c35e66e	0.011102302
62	0xba472666	-0.00075969694
63	0x3b9592c1	0.0045646136
64	0xbc107e80	-0.008819222
65	0xbc827339	-0.015924083
66	0x3baa048d	0.005188531
67	0xbb29c54d	-0.0025904954
68	0xbbd64b1a	-0.0065397145
69	0xbcf4e2ab	-0.02989324
70	0xbc08db8b	-0.008353124
71	0x3bc6964b	0.006060397
72	0xbc214dd1	-0.009845213
73	0x3ba2cba5	0.004968124
74	0xbcc19b22	-0.023633543
75	0xbbca3b93	-0.0061716526
76	0x3b577ec7	0.0032881962
77	0xbbad5235	-0.005289341
78	0x3c63594b	0.01387627
79	0xbcc3b27e	-0.023888823
80	0xbc1818c0	-0.009283245
81	0x3aedfff4	0.0018157945
82	0x3c44b02e	0.012004895
83	0xbc3a6972	-0.011377679
84	0x3bbd83bd	0.0057835267
85	0xbcdf10dc	-0.027229719
86	0x3b92e080	0.004482329
87	0x3c5a5390	0.013325587
88	0xbc479329	-0.012181082
89	0xb86b8f40	-5.6161778e-05
90	0x3bd6e098	0.0065575354
91	0xbc94aab3	-0.018147802
92	0xbc9c5cee	-0.019087281
93	0xbc84a17f	-0.016190289
94	0xb9775a72	-0.00023589449
95	0x3c89211f	0.016739426

Linear_Trend.weight f4 [96, 336]
0	0xbc4b9ffd	-0.012428281
1	0xbcd62f0c	-0.02614548
2	0xbccb9a6b	-0.024853906
3	0xbc61702b	-0.013759653
4	0x3d1f264d	0.038854886
5	0xbc36d87a	-0.0111600105
6	0x3c0b40f2	0.008499371
7	0x3d0899e2	0.03334988
8	0x3cabcf1f	0.020972786
9	0xbb8a6376	-0.0042232824
10	0x3cee4390	0.02908495
11	0xbd0f5c8c	-0.03500037
12	0x3c881e18	0.016615912
13	0x3b9f0ab5	0.0048535713
14	0x3d1a2e6e	0.037641935
15	0xbad994e2	-0.0016600157
16	0xbcea8eb2	-0.028632496
17	0x3c8ee8aa	0.017444927
18	0xbb2a0ab8	-0.002594633
19	0xbcc6dc84	-0.024275072
20	0x39a0e98b	0.0003069158
21	0xbb90aef2	-0.0044153864
22	0xbcb74880	-0.022373438
23	0xbc881c3f	-0.016615031
24	0xbd32ddd6	-0.04366859
25	0x3c018cb6	0.007907083
26	0xbc811f28	-0.015761927
27	0x3d198a3e	0.037485354
28	0x3caccbe2	0.021093313
29	0x3c1e38e3	0.009657118
30	0xbc099f57	-0.008399806
31	0xbc1b4945	-0.009477918
32	0xbd05a1c7	-0.032624986
33	0x3ce3050f	0.027712373
34	0x3cde99c0	0.027172923
35	0x3b626c40	0.0034549385
36	0xbcae07de	-0.021243986
37	0xbc35ba33	-0.011091757
38	0x3c8e3335	0.017358402
39	0x3cf3ea06	0.029774677
40	0x3cd20754	0.02563826
41	0x3c0017c8	0.00781817
42	0xbd25ced7	-0.04048046
43	0xbbe3ae09	-0.006948237
44	0x3c68bcbb	0.014205153
45	0x3c92d8fb	0.01792573
46	0x3c8a8ef0	0.016913861
47	0xbd389704	-0.045065895
48	0xbc70858d	-0.0146802785
49	0x3caa2b8f	0.020772723
50	0xbcac303c	-0.021019094
51	0xbc9e134a	-0.019296307
52	0x3c79b502	0.0152409095
53	0x3cd23c9e	0.02566367
54	0xbc602f12	-0.013683097
55	0xbd1a36cb	-0.03764991
56	0x3c888f88	0.016670004
57	0xbc24d8fb	-0.010061498
58	0xbcaea0c3	-0.021316892
59	0x3b3d7406	0.0028908267
60	0x3c7ab45c	0.01530179
61	0x3a01e72e	0.0004955408
62	0x3cbfa85d	0.023395712
63	0x3c3ddb74	0.011587966
64	0xbb5995d2	-0.0033200872
65	0xbb3dbe0e	-0.0028952393
66	0xbb8894ed	-0.004168144
67	0x3c563954	0.0130751915
68	0x3c455a48	0.0120454505
69	0xbb2cbf71	-0.0026359225
70	0xbbb86aef	-0.005627982
71	0x3ccf437c	0.025300734
72	0xbb81f5cf	-0.0039660702
73	0x3c0c06e2	0.008546563
74	0x3d094cea	0.033520617
75	0x3c34c8e7	0.011034227
76	0xbd0433dd	-0.032276023
77	0xbd39227b	-0.0451989
78	0xbc79efc9	-0.015254923
79	0xbc2931bb	-0.010326798
80	0x3cf14d44	0.029455788
81	0xbce66e99	-0.028128909
82	0xbd18be3c	-0.037290797
83	0xbd2ceff3	-0.04222102
84	0x3b1049be	0.002201661
85	0x3d03aad3	0.032145333
86	0xbc120a80	-0.008913636
87	0x3c51a38c	0.01279534
88	0x3cca73d5	0.024713436
89	0x3cf84c1f	0.030309735
90	0x3d06ea4e	0.032938294
91	0x3d0aac38	0.033855647
92	0x3ca3ee06	0.02001096
93	0xbb186289	-0.002325209
94	0xbd191f26	-0.03738322
95	0x3c861c17	0.016370816
96	0xbccd32ec	-0.025048696
97	0xbd024a8a	-0.031809367
98	0x3a3aaf2f	0.00071214413
99	0xbc38e8c2	-0.011285963
100	0xbb4eda58	-0.0031563248
101	0x3c241752	0.010015326
102	0x3c90eca9	0.017690973
103	0xbb3e2886	-0.0029015853
104	0xbceb1966	-0.028698634
105	0xb9911186	-0.0002766961
106	0xbca80b9c	-0.020513348
107	0x3cdb1091	0.026741298
108	0xbcb7eafd	-0.022450918
109	0xbb68a562	-0.0035498966
110	0xbcfc01df	-0.030762611
111	0xbc62fea5	-0.013854657
112	0x3ce911d3	0.028450882
113	0x3d049011	0.032363955
114	0x3c873987	0.016506923
115	0x3c910a07	0.017704977
116	0xbc2b723c	-0.010464247
117	0x3ccc93a7	0.02497275
118	0xbd136b3e	-0.035990946
119	0xbcefddc1	-0.029280545
120	0xbc01c2b2	-0.007919954
121	0x3d08a640	0.033361673
122	0x3caa8d11	0.020819219
123	0x3cff141d	0.03113752
124	0xbb144ee2	-0.0022630026
125	0xba0ac6f6	-0.000529393
126	0x3c96420c	0.01834204
127	0x3aa97e68	0.0012931349
128	0xbcac8690	-0.021060258
129	0xbc12dbe2	-0.008963557
130	0x3cb02561	0.021502199
131	0x3bb56655	0.0055358806
132	0x3c00a51f	0.007851868
133	0xbd1c333b	-0.038134795
134	0xbd4e22a3	-0.050326
135	0x3c5ed607	0.013600833
136	0xbc37a3fd	-0.011208531
137	0xbc3bdb3b	-0.011465843
138	0xbc26cf18	-0.010181211
139	0x3cc69381	0.024240257
140	0x3c98d1f3	0.0186548
141	0xbd3d275e	-0.04618012
142	0x3b89d618	0.00420643
143	0xbd2346cb	-0.039862435
144	0x3c441c6b	0.011969666
145	0x3cff71c8	0.031182185
146	0x3c8f1003	0.01746369
147	0x3c469436	0.012120297
148	0x3cd7f284	0.026360758
149	0xbad9aa96	-0.0016606625
150	0x3d0ac64e	0.033880524
151	0xbb8d24b5	-0.0043073543
152	0x3c13cbd5	0.009020765
153	0x3d006596	0.03134688
154	0xbd30db35	-0.043177802
155	0xbc53e166	-0.012932157
156	0xbc8dbc7d	-0.017301792
157	0xbbc72179	-0.0060769883
158	0xbb079948	-0.0020690728
159	0xbc717576	-0.0147374775
160	0xbd2c289b	-0.042030912
161	0x3c59b669	0.013288119
162	0x3b288675	0.0025714908
163	0xbb180be0	-0.0023200437
164	0x3ba1d329	0.0049385023
165	0x3d14b968	0.03630963
166	0x3b81e91d	0.003964557
167	0x3c26aee1	0.01017353
168	0xbb385dc8	-0.002813207
169	0xbd0ccd26	-0.034375332
170	0xbc53978b	-0.012914549
171	0x3d0f59cc	0.034997746
172	0x3a5d5911	0.0008443753
173	0xbcd6efd4	-0.026237406
174	0xba34f438	-0.00069028465
175	0x3c4749d8	0.012163602
176	0x3c84b740	0.016200662
177	0xbcbbd860	-0.022930324
178	0x3cc14a80	0.023595095
179	0x3d0bf896	0.034172617
180	0x3c89038a	0.01672532
181	0x3cd99e10	0.026564628
182	0xbce457fd	-0.027873987
183	0xbd1a73fb	-0.037708264
184	0xbc54b0b9	-0.012981587
185	0x3b7956d3	0.0038046136
186	0xbabd9edc	-0.00144669
187	0x3c8e67c2	0.01738346
188	0x3cdc51ce	0.026894476
189	0xbcd76ea6	-0.026297878
190	0xbc60e530	-0.013726518
191	0xbd33b359	-0.04387221
192	0xbbbf949c	-0.005846573
193	0x3ca64427	0.02029617
194	0x3d11cc21	0.035595063
195	0xbcaf64b5	-0.021410326
196	0xbc34e0d2	-0.011039929
197	0xbd151a17	-0.036401834
198	0xbced11a0	-0.028939068
199	0x3cfb2115	0.030655423
200	0xbc831fd2	-0.016006384
201	0xbb41e151	-0.0029583762
202	0x3d16bcfb	0.03680132
203	0xbb84dbe7	-0.0040545347
204	0xbc09e106	-0.008415466
205	0xbbcd21d0	-0.0062601343
206	0x3be952ee	0.0071204817
207	0x3c138dba	0.009005958
208	0x3d102548	0.035191804
209	0x3c20deae	0.009818716
210	0x3d146e5a	0.036238052
211	0x3c40a11e	0.011757163
212	0x3c05cdd8	0.008166753
213	0x3c8d89d3	0.017277634
214	0xbd39618c	-0.045259044
215	0x3c5df538	0.013547234
216	0xbd383beb	-0.044979017
217	0x3c1f3bde	0.009718863
218	0x3c2277fc	0.009916302
219	0xbcb978b4	-0.022640564
220	0x3cc97714	0.024592914
221	0x39958dc6	0.00028525124
222	0xbcdb99c7	-0.026806725
223	0xbcaee3cb	-0.021348855
224	0x3b928483	0.004471363
225	0xbc98287b	-0.01857399
226	0x3bee5d1e	0.007274284
227	0x3cb06934	0.02153454
228	0xbad0a7d1	-0.0015919154
229	0x3c03559d	0.008016017
230	0x3ccf9c81	0.025343182
231	0x3c8956ed	0.016765082
232	0xbcf2fd4f	-0.029661803
233	0x3b9010b0	0.0043965206
234	0xbacf4cad	-0.0015815698
235	0x3ced992a	0.029003698
236	0xbd1dc719	-0.038519952
237	0xbb3abd71	-0.0028494264
238	0xbd113d40	-0.035458803
239	0x3bc61aa9	0.0060456586
240	0x3c4534ab	0.012036483
241	0x3c99c0bf	0.018768666
242	0xbc86d6b8	-0.016459808
243	0x3cc80fe4	0.02442164
244	0xbc3dca9d	-0.011583951
245	0x3c491f9b	0.012275602
246	0xbc8c6906	-0.017139923
247	0xbcdda1a8	-0.027054623
248	0xbc58bc91	-0.0132285515
249	0xb8c371b7	-9.3195056e-05
250	0xbc897f6d	-0.016784394
251	0x3cec0821	0.02881247
252	0x3cbecf37	0.023292167
253	0x3b8fd0e5	0.004388916
254	0x3bf1c5ff	0.0073783393
255	0x3bd7939f	0.006578877

Linear_Trend.bias f4 [96]
0	0x3c379535	0.011205007
1	0x3bac3d69	0.005256344
2	0xbb7b1efd	-0.003831803
3	0xbca03515	-0.019556561
4	0x3cb61cc8	0.02223052
5	0x3b593352	0.0033142162
6	0x3c06bae9	0.008223274
7	0xbc7e4f6e	-0.015521867
8	0xbc551e8e	-0.013007773
9	0x3cc9cbe2	0.024633352
10	0x3b130542	0.0022433554
11	0xbceca029	-0.028884964
12	0x3ae25a7a	0.0017269396
13	0xbbe01b0c	-0.0068391617
14	0x3c44a519	0.012002253
15	0xbc38cb9b	-0.011279012
16	0xbc406df1	-0.011744962
17	0xbb8c5b7d	-0.004283367
18	0x3c6e6a87	0.014551765
19	0x3c048866	0.008089161
20	0xbcf18c92	-0.029485974
21	0xbce33f43	-0.027740126
22	0xbc875032	-0.016517732
23	0x399e8c0d	0.00030240454
24	0xbb3b4efb	-0.0028581012
25	0xbcdb1710	-0.026744395
26	0xbcbaab82	-0.02278686
27	0xbd01c430	-0.03168124
28	0x3ce0b1a2	0.027428452
29	0x3c9eee01	0.019400598
30	0x3be0909c	0.0068531763
31	0x3b9421c8	0.0045206286
32	0xbc1e5079	-0.009662741
33	0xbc3f3b70	-0.011671886
34	0xbaa46281	-0.0012541563
35	0xbc300ed4	-0.010745723
36	0x3c06f8cf	0.0082380315
37	0x3c3f7040	0.011684477
38	0xba0c932a	-0.00053625053
39	0x3c443b69	0.011977055
40	0x3ccf2ae4	0.025289007
41	0xbccc1384	-0.02491165
42	0xbc1f200a	-0.009712229
43	0xbc013060	-0.007885069
44	0x3bc99905	0.0061522746
45	0x3c475c90	0.012168065
46	0xbbcd49a9	-0.0062648845
47	0x3c78036b	0.015137534
48	0xbcd66177	-0.026169522
49	0xbce82e35	-0.028342346
50	0xbd086281	-0.033297066
51	0xbcf36ae5	-0.029714057
52	0xbbd4fcc2	-0.0064998576
53	0x3c2fe65f	0.010736077
54	0x3a78a040	0.00094843283
55	0xbcafef29	-0.021476345
56	0xbc18da8c	-0.009329449
57	0xbc1a3ac1	-0.009413422
58	0xbb5e5c68	-0.003392959
59	0x3bc28d50	0.005937256
60	0xbc9aa0d6	-0.01887552
61	0xbc994818	-0.018711135
62	0xbbe8d991	-0.007106014
63	0xbc4c41c0	-0.012466848
64	0x3abbe32b	0.0014334669
65	0x3c0788f3	0.008272397
66	0xbc4d9f35	-0.012550165
67	0xbba5d7c3	-0.005061121
68	0xba8747d8	-0.0010321094
69	0x3cb80cc8	0.022467032
70	0x3a149f33	0.00056694745
71	0xbc6a19a1	-0.014288337
72	0x3ad2786a	0.0016057615
73	0xbc57e95b	-0.013178195
74	0x3c807e17	0.015685124
75	0xbb03f5a2	-0.0020135422
76	0xbc3b73c4	-0.011441175
77	0xbb42e3c7	-0.0029737817
78	0xbcb4691b	-0.022022774
79	0x3c7ebb96	0.015547654
80	0x3a86201b	0.0010232957
81	0xbc1bb7fc	-0.0095043145
82	0xbca2084b	-0.019779345
83	0x3b5f24c6	0.0034049018
84	0xbc62aa64	-0.01383457
85	0x3c9ad10d	0.018898511
86	0xbc4e0c56	-0.012576183
87	0xbcaec39e	-0.021333512
88	0x3b801960	0.003909275
89	0xbc0611d7	-0.008182964
90	0xbc6fe149	-0.0146411145
91	0x3c246921	0.01003483
92	0x3c2f8a98	0.010714196
93	0x3c05d633	0.008168745
94	0xbc00429e	-0.007828383
95	0xbcc83dcf	-0.024443535

exp_avg f4 [96, 336]
0	0xb758b89b	-1.2917585e-05
1	0xb7df4f92	-2.6620724e-05
2	0x36ec4b21	7.0420942e-06
3	0xb7bb7f69	-2.2351467e-05
4	0x34e43120	4.2504053e-07
5	0xb7a61ff2	-1.9803618e-05
6	0x367021e8	3.5782523e-06
7	0x36cc1c96	6.0830016e-06
8	0xb6c82c1b	-5.965599e-06
9	0x38675d2a	5.5161458e-05
10	0xb725ef21	-9.890443e-06
11	0x36d2ccc9	6.282328e-06
12	0x3857fae1	5.1493644e-05
13	0x37f41c7b	2.9100329e-05
14	0xb786998e	-1.604555e-05
15	0xb73f87ec	-1.1416134e-05
16	0xb70f54b9	-8.54319e-06
17	0xb73efa56	-1.1383168e-05
18	0xb7d20414	-2.503585e-05
19	0xb624a9c7	-2.4536728e-06
20	0xb6db9d4c	-6.5450204e-06
21	0x359b16f7	1.1555084e-06
22	0x37096cfa	8.191209e-06
23	0x37429e41	1.1600147e-05
24	0x365aed0f	3.2622518e-06
25	0x3521e4a2	6.030988e-07
26	0xb71ffc9d	-9.535955e-06
27	0x376d8fdb	1.4159795e-05
28	0x379da2b8	1.879163e-05
29	0x37676e0d	1.3794296e-05
30	0x37ac3db5	2.0532732e-05
31	0x3733312f	1.0680683e-05
32	0x37c47e63	2.3423874e-05
33	0xb7620402	-1.3471583e-05
34	0xb68dc4b9	-4.225029e-06
35	0x36bf8be8	5.708531e-06
36	0xb5f68634	-1.8367487e-06
37	0xb73924a8	-1.1035394e-05
38	0xb811d64f	-3.4770284e-05
39	0xb815ee29	-3.5746172e-05
40	0x37730af2	1.4486477e-05
41	0xb804af1c	-3.1634336e-05
42	0xb6910fc9	-4.3231744e-06
43	0x37dd573b	2.6385873e-05
44	0xb939d19e	-0.00017721063
45	0x388eadc1	6.803452e-05
46	0x37ccb8d4	2.4404762e-05
47	0x38081b60	3.245042e-05
48	0xb6ecbc68	-7.0552815e-06
49	0x37b2906d	2.1286507e-05
50	0x3807169e	3.2207572e-05
51	0x36b14351	5.2828477e-06
52	0x38162d42	3.5804936e-05
53	0xb763a7f8	-1.3569363e-05
54	0x367d3c34	3.773498e-06
55	0x3820b911	3.831933e-05
56	0xb6b839d5	-5.49036e-06
57	0xb7ffd9a2	-3.0499712e-05
58	0xb803b27e	-3.1399068e-05
59	0xb70ae4c7	-8.278707e-06
60	0xb8541e3b	-5.0572893e-05
61	0xb823097a	-3.8871054e-05
62	0xb783d663	-1.5716249e-05
63	0x3886a2cb	6.4199405e-05
64	0xb7ea997e	-2.796645e-05
65	0x3842f5fd	4.64823e-05
66	0x377669d2	1.4687381e-05
67	0x3783c06e	1.5706024e-05
68	0x36b91a51	5.5164933e-06
69	0x38dabd14	0.000104302686
70	0x34a7f21a	3.1282326e-07
71	0x377f9acc	1.5235226e-05
72	0x37a297aa	1.9382529e-05
73	0x3886d5bd	6.42943e-05
74	0x383d9a6b	4.5204924e-05
75	0x36e599ae	6.8426225e-06
76	0x380d69a8	3.371542e-05
77	0xb7b81c3b	-2.1947655e-05
78	0xb748f887	-1.1978794e-05
79	0x35c791b4	1.4869061e-06
80	0xb7a3b70e	-1.9516356e-05
81	0xb782c341	-1.558813e-05
82	0x37105975	8.603897e-06
83	0xb7957fa0	-1.7821614e-05
84	0xb8077120	-3.2291864e-05
85	0xb80a4a95	-3.2971224e-05
86	0xb7e60468	-2.7420188e-05
87	0xb896b301	-7.1858994e-05
88	0xb7639083	-1.3563901e-05
89	0xb7cf3052	-2.4698824e-05
90	0x3501342a	4.8132154e-07
91	0x372fec4a	1.0485828e-05
92	0x381c08f6	3.7201644e-05
93	0x36c446f7	5.8495166e-06
94	0x37ef004e	2.8491162e-05
95	0xb760c0df	-1.3396347e-05
96	0x36a81252	5.008923e-06
97	0x375e7982	1.3260522e-05
98	0x3755c770	1.27422245e-05
99	0x37a89704	2.0097483e-05
100	0x37bd79da	2.2587297e-05
101	0xb7846077	-1.5780546e-05
102	0x36634840	3.386769e-06
103	0xb7452e9b	-1.1752966e-05
104	0xb7971449	-1.8010049e-05
105	0x36ea1007	6.9756093e-06
106	0xb8028ea3	-3.1127256e-05
107	0xb8068f09	-3.20813e-05
108	0xb7ffe10c	-3.0503164e-05
109	0xb6993124	-4.565476e-06
110	0x37e79661	2.7607372e-05
111	0x3801f0c4	3.0980227e-05
112	0x380083d4	3.0640353e-05
113	0x37d57f38	2.545082e-05
114	0x3803bb1b	3.140709e-05
115	0x36bba783	5.592535e-06
116	0x375f61c4	1.3314599e-05
117	0xb7f46300	-2.9133167e-05
118	0xb7817ed5	-1.543706e-05
119	0xb7cd0ded	-2.4444389e-05
120	0xb884cf30	-6.332842e-05
121	0xb7a83e9f	-2.005632e-05
122	0xb7f703c2	-2.9446444e-05
123	0xb7d4697b	-2.5321488e-05
124	0xb82b855a	-4.089377e-05
125	0x35d4d3d7	1.5856884e-06
126	0x367267f1	3.6121312e-06
127	0x3800c70d	3.070296e-05
128	0xb8352fd1	-4.3198295e-05
129	0xb79e1383	-1.8844154e-05
130	0xb8467a77	-4.7320933e-05
131	0xb78171b4	-1.5430945e-05
132	0xb7cc99a4	-2.439024e-05
133	0x374b2579	1.2108468e-05
134	0xb7f67db5	-2.9384022e-05
135	0xb72e0a29	-1.0373574e-05
136	0x3788e44e	1.6318776e-05
137	0xb779a2b7	-1.4879442e-05
138	0xb6cf6338	-6.1806313e-06
139	0xb79887c8	-1.818304e-05
140	0xb6e93954	-6.950615e-06
141	0x3696ea65	4.4976355e-06
142	0xb7de63c8	-2.6510927e-05
143	0x3786bbec	1.6061553e-05
144	0x37114658	8.659052e-06
145	0xb54a0bf8	-7.526828e-07
146	0x37e25a25	2.6983276e-05
147	0x375ff44d	1.33487165e-05
148	0x37940bfb	1.7648554e-05
149	0x380be7d1	3.335608e-05
150	0x3794b489	1.7727043e-05
151	0x38622560	5.3917407e-05
152	0xb7214123	-9.611514e-06
153	0x36a74724	4.9852697e-06
154	0x371465d1	8.845193e-06
155	0x36b863ef	5.495261e-06
156	0xb69c37dd	-4.6556656e-06
157	0xb608074f	-2.0269833e-06
158	0x357e2195	9.467124e-07
159	0xb6f3a0fe	-7.2607063e-06
160	0xb8af11bb	-8.347953e-05
161	0xb899d301	-7.334911e-05
162	0xb66a6442	-3.4927075e-06
163	0x375e3f55	1.3246977e-05
164	0x37161be5	8.947191e-06
165	0xb773c876	-1.4530602e-05
166	0xb69dbf18	-4.701211e-06
167	0x3836999e	4.353525e-05
168	0x37df820e	2.6644233e-05
169	0x37e01e80	2.6717084e-05
170	0x36d4f23c	6.346292e-06
171	0x38447cf4	4.6846413e-05
172	0x37e0090c	2.6707094e-05
173	0x37e24635	2.6973992e-05
174	0x382bdf6a	4.0977648e-05
175	0x359c862b	1.1661954e-06
176	0x37b01421	2.0990208e-05
177	0x388c9f4f	6.705394e-05
178	0x38a21b67	7.729866e-05
179	0x3885ede7	6.386247e-05
180	0x3846c876	4.7393572e-05
181	0x37d09359	2.4864146e-05
182	0x36d1cd96	6.2526187e-06
183	0xb808389c	-3.247765e-05
184	0xb84c5512	-4.8716618e-05
185	0xb877fde1	-5.9125832e-05
186	0xb853f841	-5.0537525e-05
187	0xb7e5723b	-2.735212e-05
188	0xb7172daf	-9.010938e-06
189	0xb564f950	-8.5299416e-07
190	0x3698b238	4.5507004e-06
191	0x37fa0603	2.9805122e-05
192	0x381fd844	3.8109967e-05
193	0xb71b4d00	-9.256648e-06
194	0xb758736f	-1.290148e-05
195	0xb6fbed92	-7.5080397e-06
196	0x380569a6	3.1808064e-05
197	0x363ce096	2.814491e-06
198	0xb78e77f1	-1.6983571e-05
199	0xb805cd48	-3.1900854e-05
200	0xb8005430	-3.0595984e-05
201	0x36eb5a79	7.014078e-06
202	0x37279dc1	9.990706e-06
203	0x36e8cda7	6.93808e-06
204	0xb853b609	-5.0475854e-05
205	0xb7ddb7c8	-2.6430833e-05
206	0xb78c645c	-1.6736034e-05
207	0xb6ff161d	-7.6021665e-06
208	0xb7e76072	-2.7582257e-05
209	0xb827629a	-3.9907733e-05
210	0x36892e6f	4.0883237e-06
211	0x383aaec0	4.4508604e-05
212	0x37a31364	1.9440144e-05
213	0x3733aae7	1.0709023e-05
214	0xb7931c80	-1.7537037e-05
215	0xb7977be3	-1.8058292e-05
216	0x36867102	4.006667e-06
217	0x36dcd85b	6.581698e-06
218	0x370641b0	8.0023165e-06
219	0x37a05c90	1.911659e-05
220	0x37cc0f59	2.4325842e-05
221	0x378fabab	1.7126868e-05
222	0xb5dda339	-1.6513287e-06
223	0xb4844fee	-2.4645072e-07
224	0x36ad6789	5.167855e-06
225	0x37af824a	2.0922296e-05
226	0x375d5f25	1.3194779e-05
227	0x376960dc	1.3910434e-05
228	0xb71618f7	-8.946509e-06
229	0x3784a798	1.5813668e-05
230	0x383bef83	4.4807337e-05
231	0xb5b35e24	-1.3363938e-06
232	0xb797b9e5	-1.8087167e-05
233	0x380e46b2	3.392128e-05
234	0x36522faa	3.1320183e-06
235	0x37704cdb	1.4323009e-05
236	0xb7c41d3b	-2.3378632e-05
237	0xb7cdee28	-2.4548805e-05
238	0xb6f22167	-7.2160506e-06
239	0x357612e8	9.1669654e-07
240	0xb72a36da	-1.0145561e-05
241	0xb7c5c60b	-2.3576451e-05
242	0xb80c14ce	-3.3397977e-05
243	0xb742986e	-1.1598791e-05
244	0xb7930257	-1.7524855e-05
245	0xb7e6edfa	-2.7528953e-05
246	0xb83bb161	-4.474947e-05
247	0x36984888	4.5383968e-06
248	0xb73b6672	-1.1169921e-05
249	0xb50ac142	-5.1690233e-07
250	0x37805099	1.529632e-05
251	0x380d994b	3.3759785e-05
252	0x381c3d07	3.7250134e-05
253	0x384bfce7	4.8634505e-05
254	0x36837e27	3.9187903e-06
255	0xb72f8965	-1.04628025e-05

exp_avg_sq f4 [96, 336]
0	0x31f4b0c9	7.1214328e-09
1	0x327b3d42	1.4624051e-08
2	0x3298d31e	1.7791134e-08
3	0x329094df	1.6831505e-08
4	0x32918af0	1.6943403e-08
5	0x32991851	1.7822602e-08
6	0x328716f4	1.5726506e-08
7	0x32833ff9	1.5279499e-08
8	0x3293c62c	1.720317e-08
9	0x328a66ca	1.6112057e-08
10	0x328f7e1f	1.6704744e-08
11	0x3284832b	1.542647e-08
12	0x328c1889	1.6309302e-08
13	0x32788e46	1.4467849e-08
14	0x328b8559	1.624237e-08
15	0x32901d51	1.6777138e-08
16	0x328cb72f	1.6381447e-08
17	0x32883e66	1.586086e-08
18	0x329272bf	1.7048817e-08
19	0x328b0b9a	1.6187006e-08
20	0x328a1b0e	1.6077617e-08
21	0x32808ae0	1.4964314e-08
22	0x3274b188	1.4243035e-08
23	0x32939b4a	1.718367e-08
24	0x328ce1e2	1.6400865e-08
25	0x328534e7	1.5507295e-08
26	0x328ff12f	1.6757069e-08
27	0x328d3176	1.6437053e-08
28	0x32870ae3	1.572102e-08
29	0x328ef87a	1.664397e-08
30	0x328ce605	1.6402746e-08
31	0x328d2982	1.6433436e-08
32	0x328fbf1e	1.6734301e-08
33	0x32858c60	1.5547073e-08
34	0x3281c749	1.5108201e-08
35	0x32829b9b	1.5204753e-08
36	0x328676b1	1.5653628e-08
37	0x328b0e7c	1.6188316e-08
38	0x32820c0e	1.5139474e-08
39	0x32826bcb	1.518301e-08
40	0x32884d70	1.5867698e-08
41	0x32911b84	1.6892734e-08
42	0x32855d7b	1.5525748e-08
43	0x327a3d4d	1.4565853e-08
44	0x32a257aa	1.8899147e-08
45	0x32848836	1.5428764e-08
46	0x3283090a	1.5254518e-08
47	0x328ccb30	1.6390544e-08
48	0x328f252b	1.6664293e-08
49	0x3288a33e	1.5906718e-08
50	0x328b0607	1.618447e-08
51	0x3289ef30	1.6057669e-08
52	0x328b5745	1.6221415e-08
53	0x3287cd99	1.5809563e-08
54	0x3288602d	1.587622e-08
55	0x328b1b78	1.6194221e-08
56	0x32937a78	1.7168745e-08
57	0x32917e16	1.6937559e-08
58	0x328cad32	1.6376905e-08
59	0x3287d470	1.5812674e-08
60	0x32857308	1.5535548e-08
61	0x328ac94f	1.6156859e-08
62	0x32939de1	1.7184847e-08
63	0x32900cf7	1.6769702e-08
64	0x328eba38	1.6615658e-08
65	0x328cb264	1.6379268e-08
66	0x328cfedb	1.641404e-08
67	0x3283a7a4	1.5326641e-08
68	0x3281e9c0	1.5123874e-08
69	0x328e9f19	1.6603325e-08
70	0x328e4485	1.6562135e-08
71	0x3290d0b1	1.6858708e-08
72	0x3297ead2	1.7685498e-08
73	0x32833886	1.5276111e-08
74	0x3289130a	1.5957557e-08
75	0x32853d02	1.5510981e-08
76	0x3286a1a9	1.5673168e-08
77	0x328f9226	1.6713852e-08
78	0x3293e033	1.7215006e-08
79	0x3293b82e	1.7196808e-08
80	0x329498a7	1.7298886e-08
81	0x328a69eb	1.611348e-08
82	0x328d5379	1.645252e-08
83	0x32853ae3	1.5510016e-08
84	0x328a46e2	1.6097548e-08
85	0x328eef2f	1.6639744e-08
86	0x329028f8	1.6782437e-08
87	0x329029c8	1.6782806e-08
88	0x3286b067	1.5679872e-08
89	0x3283cb39	1.5342822e-08
90	0x3282c16a	1.5221946e-08
91	0x328deac8	1.6521327e-08
92	0x328557b4	1.552312e-08
93	0x3289987e	1.6018245e-08
94	0x32875145	1.5753026e-08
95	0x32898a83	1.6011887e-08
96	0x32862a90	1.5619008e-08
97	0x328e0860	1.6534784e-08
98	0x328bfa9c	1.6295694e-08
99	0x32873bc2	1.5743243e-08
100	0x32862f6a	1.5621215e-08
101	0x32897e67	1.600638e-08
102	0x328ebf02	1.6617836e-08
103	0x32950401	1.7347704e-08
104	0x328f3ef0	1.6676012e-08
105	0x32877ec7	1.577372e-08
106	0x3284e13e	1.546925e-08
107	0x328f64dd	1.6693258e-08
108	0x328e3ac5	1.6557701e-08
109	0x328aadf1	1.6144414e-08
110	0x328c3243	1.6321001e-08
111	0x3284d4d0	1.5463598e-08
112	0x3287db35	1.5815752e-08
113	0x328180c9	1.5076141e-08
114	0x328ad841	1.6163655e-08
115	0x328f67a9	1.669453e-08
116	0x329190f9	1.6946148e-08
117	0x32981165	1.7703039e-08
118	0x3290f2b8	1.6874182e-08
119	0x328c37bf	1.6323495e-08
120	0x32869fdf	1.5672354e-08
121	0x32874ca6	1.5750924e-08
122	0x329d2ed8	1.8298508e-08
123	0x329541d5	1.737582e-08
124	0x328ef250	1.6641167e-08
125	0x32898f72	1.601413e-08
126	0x3290ca62	1.685584e-08
127	0x328a5d96	1.6107872e-08
128	0x32848feb	1.5432269e-08
129	0x32859453	1.5550688e-08
130	0x328a9e7f	1.613739e-08
131	0x328d3c7f	1.644207e-08
132	0x328bde6d	1.6282877e-08
133	0x3295890a	1.7408201e-08
134	0x328790e8	1.5781964e-08
135	0x328d717c	1.6466167e-08
136	0x328b7d1d	1.6238625e-08
137	0x3289a0ac	1.6021964e-08
138	0x32876bb3	1.5765044e-08
139	0x328c2b75	1.6317907e-08
140	0x328d0d12	1.6420504e-08
141	0x328e2c3d	1.6551093e-08
142	0x3294e481	1.733338e-08
143	0x328955d1	1.5987924e-08
144	0x3285fbf8	1.559782e-08
145	0x328f6070	1.6691246e-08
146	0x32987ab3	1.7750926e-08
147	0x3284a814	1.5443256e-08
148	0x3285f40d	1.559422e-08
149	0x3286e08e	1.5701769e-08
150	0x3288625e	1.5877216e-08
151	0x32856248	1.5527931e-08
152	0x328b922f	1.6248206e-08
153	0x3288a4ed	1.5907483e-08
154	0x327bd3fd	1.4658323e-08
155	0x327f0721	1.48445745e-08
156	0x328d9f01	1.6486867e-08
157	0x328989a5	1.6011493e-08
158	0x3284d7fb	1.5465039e-08
159	0x32885ec3	1.5875576e-08
160	0x3288357b	1.5856804e-08
161	0x32904947	1.6797129e-08
162	0x3291f5b4	1.6991955e-08
163	0x328860d7	1.5876521e-08
164	0x328ab43a	1.6147272e-08
165	0x328b201d	1.6196333e-08
166	0x328dac1b	1.6492825e-08
167	0x3288cd1b	1.5925755e-08
168	0x328c91ca	1.6364442e-08
169	0x328efe54	1.664663e-08
170	0x3290eafc	1.6870665e-08
171	0x328da99c	1.649169e-08
172	0x328e4612	1.656284e-08
173	0x32868a17	1.566245e-08
174	0x328859b9	1.5873285e-08
175	0x328e9bcc	1.6601824e-08
176	0x3287c1c1	1.5804178e-08
177	0x328fb040	1.672754e-08
178	0x3289c6b6	1.6039262e-08
179	0x328e4ece	1.6566812e-08
180	0x3284721a	1.541871e-08
181	0x327dfd9f	1.4784205e-08
182	0x3284c66f	1.545706e-08
183	0x328ab447	1.6147295e-08
184	0x32869faa	1.567226e-08
185	0x32815ea0	1.5060607e-08
186	0x3289368b	1.5973702e-08
187	0x32916867	1.6927698e-08
188	0x3285cf07	1.5577383e-08
189	0x328d1969	1.6426116e-08
190	0x328413e7	1.5375873e-08
191	0x3295611f	1.7390049e-08
192	0x327c87fe	1.4699252e-08
193	0x328eac60	1.6609363e-08
194	0x3288f46c	1.5943634e-08
195	0x32971edb	1.7592745e-08
196	0x328e1466	1.6540252e-08
197	0x329dcbc0	1.836986e-08
198	0x328c7542	1.6351468e-08
199	0x328f6d95	1.6697223e-08
200	0x329b3d48	1.8072242e-08
201	0x328fc2f4	1.6736045e-08
202	0x328c9595	1.6366167e-08
203	0x32890968	1.5953177e-08
204	0x329707e7	1.7582307e-08
205	0x32891042	1.5956292e-08
206	0x328b6fac	1.6232512e-08
207	0x328f0bce	1.665276e-08
208	0x328d0a28	1.6419179e-08
209	0x328b326f	1.6204664e-08
210	0x328da64a	1.649018e-08
211	0x328ed30c	1.6626949e-08
212	0x3283e6f1	1.5355427e-08
213	0x328e83d3	1.6590922e-08
214	0x3291d8f5	1.6978882e-08
215	0x32946012	1.7273155e-08
216	0x32914cf5	1.6915218e-08
217	0x3292d3d0	1.7092958e-08
218	0x328ce989	1.6404345e-08
219	0x32926b53	1.7045442e-08
220	0x328644c4	1.5630924e-08
221	0x328e1fa9	1.6545373e-08
222	0x32918f9b	1.6945526e-08
223	0x32815131	1.5054498e-08
224	0x3285d660	1.5580724e-08
225	0x328363c0	1.5295768e-08
226	0x328f3f69	1.6676227e-08
227	0x32852ee7	1.5504567e-08
228	0x32901857	1.6774875e-08
229	0x329747db	1.761139e-08
230	0x3289f3b1	1.6059717e-08
231	0x3291b1f3	1.6961144e-08
232	0x32949bf4	1.7300387e-08
233	0x3286f9c3	1.5713232e-08
234	0x3286bfb2	1.5686826e-08
235	0x328cf42e	1.6409185e-08
236	0x3287eff2	1.5825183e-08
237	0x32953cde	1.7373562e-08
238	0x32892cfb	1.5969354e-08
239	0x3287a226	1.5789805e-08
240	0x329425a3	1.7246583e-08
241	0x32882fc8	1.5854212e-08
242	0x3285597f	1.5523936e-08
243	0x329e32bb	1.841669e-08
244	0x328da863	1.6491134e-08
245	0x329442d9	1.7259866e-08
246	0x32970bdd	1.7584108e-08
247	0x328b7c98	1.6238388e-08
248	0x3293ff6c	1.7229205e-08
249	0x32882797	1.5850487e-08
250	0x3289c708	1.6039408e-08
251	0x328b7d39	1.6238674e-08
252	0x329646dd	1.7494523e-08
253	0x328e8df4	1.6595529e-08
254	0x3294767c	1.7283348e-08
255	0x32978e08	1.7643302e-08

exp_avg f4 [96]
0	0xb99f31d2	-0.00030363962
1	0xb8d15198	-9.9810946e-05
2	0x3843af66	4.6654975e-05
3	0xb9457d24	-0.00018834003
4	0xb985bc82	-0.00025508186
5	0xb88600bc	-6.389755e-05
6	0x379b02ee	1.8478804e-05
7	0xb85005c8	-4.959645e-05
8	0xb7b60bef	-2.1701648e-05
9	0xb49e69c1	-2.950674e-07
10	0xb8792d89	-5.9408634e-05
11	0xb8de1cca	-0.00010591147
12	0xb8630bfb	-5.4132175e-05
13	0xb8324df6	-4.2511114e-05
14	0xb7a3fb05	-1.9548004e-05
15	0xb86f4833	-5.704928e-05
16	0x37bb054a	2.22946e-05
17	0x3829393e	4.034605e-05
18	0xb7fd24c9	-3.017708e-05
19	0xb6ea4252	-6.981464e-06
20	0xb8aa7637	-8.128251e-05
21	0xb9083492	-0.00012989555
22	0xb8a1d8b6	-7.717444e-05
23	0xb85d343f	-5.2739164e-05
24	0xb7d62ecf	-2.5532585e-05
25	0xb8eab018	-0.000111907895
26	0xb8aa9b02	-8.135104e-05
27	0xb7342280	-1.0736869e-05
28	0xb77276ac	-1.44519545e-05
29	0xb8883cb5	-6.496293e-05
30	0xb8304245	-4.202339e-05
31	0x38018717	3.088181e-05
32	0xb7d198cd	-2.4985895e-05
33	0xb85fa24f	-5.3318505e-05
34	0x37294807	1.0089955e-05
35	0xb7b52b42	-2.1597025e-05
36	0xb833c87d	-4.2863645e-05
37	0xb870ce0b	-5.741235e-05
38	0xb8b6f93c	-8.72486e-05
39	0xb8488dd3	-4.78158e-05
40	0xb909ffb7	-0.000131606
41	0xb8d52383	-0.00010163246
42	0xb8e4973d	-0.000109000575
43	0xb6d4c7d2	-6.3413545e-06
44	0x38b6ff8e	8.726037e-05
45	0x358d4677	1.0525827e-06
46	0xb858f85f	-5.1729727e-05
47	0xb7500aa3	-1.2400243e-05
48	0x375aab37	1.3033677e-05
49	0x37974455	1.8032422e-05
50	0x391afbeb	0.00014780431
51	0x38c00e57	9.1579444e-05
52	0x3922c4c8	0.0001552283
53	0x393576f8	0.00017305824
54	0x39096c66	0.0001310572
55	0x3945e74f	0.00018873553
56	0x3989f26b	0.00026311292
57	0x3966eb59	0.00022022183
58	0x394a6512	0.00019301873
59	0x396e69e6	0.00022736899
60	0x397d9485	0.00024183288
61	0x3993f647	0.00028221516
62	0x395de020	0.00021159695
63	0x395be3d5	0.00020970342
64	0x3980d529	0.0002457288
65	0x39809ff3	0.00024533234
66	0x39b3a29c	0.00034262694
67	0x39bf3a7e	0.0003647394
68	0x3985633f	0.0002544168
69	0x39a01d86	0.00030539575
70	0x39904b12	0.00027521752
71	0x3999ddee	0.00029347785
72	0x395f81ba	0.00021315264
73	0x3960fe7a	0.00021457105
74	0x39822fe0	0.00024831202
75	0x3982f602	0.00024978822
76	0x3996ecaf	0.00028786573
77	0x3999e338	0.00029351725
78	0x39a868ff	0.00032121685
79	0x39922e8e	0.00027881976
80	0x3988526f	0.0002600136
81	0x398d04ef	0.00026897292
82	0x39802764	0.0002444341
83	0x398efb8b	0.00027271765
84	0x39ae1560	0.00033203792
85	0x39b47edd	0.00034426796
86	0x39b53802	0.0003456474
87	0x39c33126	0.00037229917
88	0x39939d66	0.00028155296
89	0x39dc5d50	0.00042031193
90	0x39aabf5e	0.00032567506
91	0x39b8cfcc	0.00035250036
92	0x39aaaa9c	0.0003255204
93	0x39a49186	0.0003138894
94	0x39b2a8be	0.00034076528
95	0x39ac0636	0.00032811024

exp_avg_sq f4 [96]
0	0x3514c292	5.5417433e-07
1	0x34fe343e	4.7349198e-07
2	0x34ecf26d	4.4134813e-07
3	0x34eff10a	4.4692598e-07
4	0x34f03648	4.4742978e-07
5	0x34e0ee42	4.1896607e-07
6	0x34d9221d	4.044422e-07
7	0x34d501ba	3.9675598e-07
8	0x34c54e27	3.6750973e-07
9	0x34c43b0d	3.655081e-07
10	0x34c2ab34	3.6259883e-07
11	0x34b4cb28	3.3675428e-07
12	0x34ab28fd	3.1881055e-07
13	0x34a82760	3.1321088e-07
14	0x349fb6a4	2.9748946e-07
15	0x349a3f4b	2.8730787e-07
16	0x34a11565	3.0004153e-07
17	0x349aeca4	2.8856914e-07
18	0x34964edc	2.7997055e-07
19	0x3494aeb5	2.7694264e-07
20	0x3495014c	2.7754356e-07
21	0x34927efb	2.728701e-07
22	0x3491170b	2.702512e-07
23	0x348fd71c	2.6792338e-07
24	0x348d3728	2.6303428e-07
25	0x3491ecf8	2.7180772e-07
26	0x3492c16f	2.733536e-07
27	0x348e8884	2.654889e-07
28	0x348d6c74	2.6342207e-07
29	0x3490d4c8	2.697691e-07
30	0x3491d0ec	2.7160365e-07
31	0x3492f4ce	2.7372738e-07
32	0x3493c441	2.7523677e-07
33	0x34903bbd	2.6865555e-07
34	0x348e2e75	2.6483363e-07
35	0x348c8cf6	2.6179595e-07
36	0x348c2107	2.6101063e-07
37	0x348b5a9f	2.5956703e-07
38	0x3489d8c3	2.5675953e-07
39	0x3483bf99	2.4540057e-07
40	0x3486f242	2.513571e-07
41	0x3486c9b7	2.5106212e-07
42	0x34881f6c	2.5354836e-07
43	0x348868c2	2.5408195e-07
44	0x348569d7	2.485019e-07
45	0x348106af	2.4032985e-07
46	0x34846f25	2.4667784e-07
47	0x34834d6e	2.445699e-07
48	0x3485117c	2.4785902e-07
49	0x3484786a	2.467453e-07
50	0x34853fc2	2.481957e-07
51	0x3482d64e	2.4370314e-07
52	0x348299e3	2.4326354e-07
53	0x3482904f	2.4319385e-07
54	0x34826796	2.4289756e-07
55	0x3481f6ec	2.4207782e-07
56	0x3484ed01	2.475936e-07
57	0x3480d5bc	2.399737e-07
58	0x34819d96	2.414278e-07
59	0x347d474c	2.3588399e-07
60	0x347d7ff8	2.3609016e-07
61	0x347613ba	2.2917712e-07
62	0x3478c66f	2.316899e-07
63	0x3479d00c	2.3265619e-07
64	0x347bd81e	2.345482e-07
65	0x347787e9	2.3053111e-07
66	0x347fe4cb	2.383196e-07
67	0x3481ca8e	2.41755e-07
68	0x34832b2f	2.4432072e-07
69	0x34836894	2.4476742e-07
70	0x3484cad5	2.4734496e-07
71	0x3486aeb5	2.508656e-07
72	0x34874630	2.5196778e-07
73	0x34874cef	2.5201686e-07
74	0x3486304f	2.4994594e-07
75	0x348741b3	2.5193512e-07
76	0x3487ef2a	2.5319724e-07
77	0x34867a20	2.5048303e-07
78	0x34846c6e	2.466581e-07
79	0x348322f5	2.4426086e-07
80	0x3480e573	2.4008804e-07
81	0x3483a121	2.4517888e-07
82	0x348288c8	2.4313908e-07
83	0x3480f89c	2.4022745e-07
84	0x347d3d99	2.358487e-07
85	0x347d3c9a	2.3584508e-07
86	0x347f043f	2.375027e-07
87	0x3475d7ba	2.2895884e-07
88	0x347c608a	2.350445e-07
89	0x347d681a	2.3600333e-07
90	0x347d6108	2.3597761e-07
91	0x347fa9b1	2.3810459e-07
92	0x348311df	2.4413654e-07
93	0x3480f8f3	2.4022992e-07
94	0x34835228	2.4460428e-07
95	0x3483d70b	2.4557116e-07

exp_avg f4 [96, 336]
0	0x38d1c42a	0.00010002435
1	0x38d47ef8	0.000101325975
2	0x38d6c3c7	0.000102407816
3	0x38dba49d	0.000104733954
4	0x38e9bac0	0.00011145091
5	0x38e233a0	0.00010786136
6	0x38e86385	0.00011081159
7	0x38f1b117	0.00011524761
8	0x38f2f7ce	0.000115856164
9	0x38f2453c	0.00011552355
10	0x38fe56fb	0.00012127865
11	0x38f6664c	0.000117492484
12	0x39030ae7	0.00012497195
13	0x39040e87	0.00012593913
14	0x3909ad59	0.00013129915
15	0x39074749	0.00012901159
16	0x3907a16d	0.00012934739
17	0x390e6c1a	0.00013582446
18	0x390f61e3	0.00013674008
19	0x390ed8af	0.00013622896
20	0x391341cf	0.00014043528
21	0x39139f54	0.00014078367
22	0x3910657b	0.00013770715
23	0x3912c4fb	0.00013997026
24	0x39109628	0.00013788848
25	0x39145957	0.00014147662
26	0x391024fa	0.00013746685
27	0x3915d4ae	0.00014288977
28	0x39161f0d	0.00014316682
29	0x3914bad6	0.00014183982
30	0x3913dd2c	0.00014101405
31	0x39169711	0.00014361391
32	0x390d7914	0.00013491913
33	0x39177ec5	0.00014447708
34	0x3918f938	0.00014588691
35	0x39182a72	0.00014511662
36	0x39155c1b	0.0001424406
37	0x3917b9bd	0.00014469675
38	0x391cb743	0.0001494559
39	0x391f9ebc	0.00015222555
40	0x39212347	0.00015367298
41	0x391efb1b	0.00015161598
42	0x391ab136	0.000147526
43	0x39203609	0.00015278919
44	0x3922e8a0	0.00015536183
45	0x3922f55b	0.00015540926
46	0x3923cb07	0.00015620525
47	0x391ec5bd	0.00015141717
48	0x39213145	0.00015372511
49	0x39251e10	0.00015746825
50	0x392249fb	0.00015477084
51	0x3928447b	0.0001604724
52	0x392dd4f9	0.00016577904
53	0x3931ac82	0.000169443
54	0x3930e04d	0.00016868227
55	0x393083a2	0.00016833705
56	0x39366e94	0.00017398066
57	0x39406b73	0.00018350575
58	0x393d5d51	0.00018059208
59	0x394060ed	0.00018346655
60	0x3941c9fb	0.00018481158
61	0x3943d55d	0.00018676133
62	0x3947b91b	0.00019047076
63	0x394599a9	0.00018844627
64	0x3944e67e	0.00018777882
65	0x3941fbfa	0.00018499783
66	0x39410bff	0.00018410383
67	0x39419a60	0.00018463423
68	0x393db1ec	0.00018090726
69	0x393a2eb8	0.00017755746
70	0x393929b1	0.00017658506
71	0x393a8569	0.00017788041
72	0x3933c690	0.0001714474
73	0x3932f7e3	0.00017067748
74	0x3932ccca	0.00017051693
75	0x392a8d0a	0.00016265005
76	0x391f1d98	0.00015174446
77	0x391a0481	0.00014688262
78	0x391766c6	0.00014438768
79	0x3913d460	0.00014098128
80	0x3914de71	0.00014197246
81	0x390adc9b	0.00013242888
82	0x3902abc5	0.00012461755
83	0x38fabfd8	0.00011956663
84	0x38faacce	0.00011953116
85	0x38f80f07	0.000118283606
86	0x38e2dae9	0.00010817295
87	0x38dd3a51	0.000105489635
88	0x38d99554	0.00010375181
89	0x38cf9bd3	9.899554e-05
90	0x38cb8edb	9.706403e-05
91	0x38c54d92	9.4081406e-05
92	0x38ba6a1f	8.888938e-05
93	0x38b1730e	8.461448e-05
94	0x38a257fd	7.741151e-05
95	0x38a3fed4	7.819911e-05
96	0x389414d6	7.061071e-05
97	0x388f0302	6.8193316e-05
98	0x38950ac0	7.106876e-05
99	0x3891d135	6.953107e-05
100	0x38969b8b	7.1815295e-05
101	0x3897301b	7.2092014e-05
102	0x38986dc6	7.268372e-05
103	0x388f98d0	6.847235e-05
104	0x388584f3	6.366698e-05
105	0x3881462a	6.1642684e-05
106	0x386d1cbb	5.653196e-05
107	0x386f6706	5.707799e-05
108	0x384a8d97	4.829242e-05
109	0x38476739	4.754143e-05
110	0x382e3ab5	4.1539508e-05
111	0x38287845	4.016633e-05
112	0x3829d03e	4.048668e-05
113	0x3821961e	3.85252e-05
114	0x38183eaa	3.6297984e-05
115	0x3817a2cd	3.6152825e-05
116	0x3801b822	3.0927484e-05
117	0x380c9977	3.3521526e-05
118	0x37cf3801	2.4702402e-05
119	0x37d89e49	2.5822914e-05
120	0x37ef3492	2.85155e-05
121	0x38131d88	3.5075034e-05
122	0x380e66ae	3.3951066e-05
123	0x3812dcd1	3.5014764e-05
124	0x380ab39d	3.3069042e-05
125	0x380e4d88	3.3927645e-05
126	0x381d07fc	3.7439153e-05
127	0x381b4171	3.7015827e-05
128	0x381e70fb	3.7775357e-05
129	0x3832b33f	4.2605443e-05
130	0x385221bc	5.009932e-05
131	0x3864fc1e	5.459424e-05
132	0x3880833a	6.1279585e-05
133	0x38878c92	6.463485e-05
134	0x3894c753	7.094317e-05
135	0x38b25a30	8.5045e-05
136	0x38bdae6d	9.0447116e-05
137	0x38d0ffca	9.965857e-05
138	0x38e0610c	0.00010699229
139	0x38fa216c	0.00011927154
140	0x39023a49	0.00012419479
141	0x39050d24	0.00012688764
142	0x39133ca3	0.00014041601
143	0x3918ccbf	0.00014572123
144	0x3926b56a	0.00015898576
145	0x3931b498	0.00016947312
146	0x3937c7bf	0.00017526651
147	0x39401b18	0.0001832064
148	0x39466f55	0.00018924226
149	0x39478d87	0.00019030842
150	0x39536f5e	0.00020164016
151	0x3957cecb	0.00020581034
152	0x3961b0c7	0.00021523527
153	0x396b24ef	0.00022425105
154	0x396a46ba	0.00022342327
155	0x3977a28b	0.00023616308
156	0x397eb0c7	0.00024289182
157	0x3983c4b9	0.00025132837
158	0x39877674	0.0002583746
159	0x398a6950	0.00026399875
160	0x398c4643	0.0002675523
161	0x399257b1	0.00027912625
162	0x3994dca4	0.0002839315
163	0x399700ae	0.0002880147
164	0x39993fa1	0.0002922984
165	0x399ede23	0.00030301613
166	0x39a0e65b	0.00030689206
167	0x39a470dc	0.00031364604
168	0x39a671d3	0.00031746793
169	0x39a6f8f3	0.0003184747
170	0x39a997a1	0.00032347164
171	0x39ac80ee	0.00032902457
172	0x39aab461	0.0003255932
173	0x39aa6c9f	0.00032505856
174	0x39aca1ba	0.00032926892
175	0x39aceea7	0.00032984206
176	0x39ac98d2	0.00032920256
177	0x39aa16a7	0.00032441804
178	0x39ac64a8	0.0003288139
179	0x39acd73a	0.00032966753
180	0x39aaa880	0.0003255047
181	0x39a900d6	0.00032234815
182	0x39a3b078	0.00031221262
183	0x39a11a2e	0.00030727818
184	0x39a038cd	0.00030559898
185	0x399eaca7	0.00030264744
186	0x399b7ba6	0.0002965603
187	0x3998ed7c	0.0002916864
188	0x3996bc08	0.00028750324
189	0x39919ab9	0.00027771833
190	0x398ef8d9	0.00027269757
191	0x3989c359	0.00026276222
192	0x3987267d	0.00025777883
193	0x3984c0b1	0.00025320568
194	0x398289e5	0.00024898272
195	0x397a694e	0.00023881087
196	0x3977c8fb	0.00023630627
197	0x3971b2fd	0.0002305023
198	0x39718154	0.0002303173
199	0x39785683	0.00023683351
200	0x39724d2a	0.00023107664
201	0x3971a595	0.00023045235
202	0x39726bde	0.00023119102
203	0x396ab41a	0.00022383072
204	0x3966e6dc	0.00022020511
205	0x3963fe28	0.00021743088
206	0x3964af5c	0.00021809101
207	0x3965028f	0.00021840095
208	0x3967fab3	0.0002212327
209	0x3963c14a	0.00021720413
210	0x3965833c	0.0002188803
211	0x3962cb4c	0.00021628774
212	0x3962e3a5	0.00021637844
213	0x3964cdc8	0.00021820434
214	0x395d40b9	0.00021100313
215	0x396266d4	0.00021591346
216	0x395a78a8	0.00020835048
217	0x3961da90	0.00021539093
218	0x3963accb	0.00021712777
219	0x395f98b2	0.0002132382
220	0x3962a090	0.00021612854
221	0x3960f1af	0.00021452339
222	0x395e069c	0.00021174032
223	0x395d0e58	0.00021081546
224	0x395ace51	0.00020866959
225	0x395447ab	0.00020244594
226	0x3953d045	0.00020200115
227	0x39539e34	0.00020181463
228	0x394f0836	0.00019744117
229	0x394c7340	0.0001949789
230	0x3949f618	0.00019260531
231	0x39455724	0.00018819846
232	0x393becbb	0.00017921899
233	0x393a538b	0.00017769464
234	0x3933f030	0.00017160247
235	0x3934212b	0.00017178494
236	0x3929437a	0.00016142233
237	0x39299e40	0.00016176049
238	0x3922f981	0.00015542471
239	0x3925518a	0.00015766002
240	0x39241a43	0.00015650042
241	0x39247037	0.00015682062
242	0x391d93a6	0.0001502769
243	0x391d0490	0.00014974386
244	0x3915e547	0.0001429516
245	0x3916b66d	0.00014373074
246	0x390ff8a7	0.00013730173
247	0x390bdb6a	0.00013337811
248	0x390a7015	0.0001320246
249	0x390af474	0.00013251771
250	0x3908fccc	0.00013064145
251	0x390d1702	0.00013455379
252	0x390c1500	0.00013359264
253	0x390903d3	0.00013066763
254	0x3909028f	0.00013066291
255	0x390807ef	0.00012972926
