checkpoints/DLinear/ExchangeRate_100_336_96/e53a03290cbf34787a0f5da37e77e1d5/DLinear_100.pt (torch, 782262 bytes, 12 tensors)

Linear_Seasonal.weight f4 [96, 336]
0.012664869 -0.0030581958 -0.001813011 -0.007943122 -0.0052661644 -0.015586254 -0.0052135275 0.0014102348
0.000479102 -0.013808898 -0.00042735093 -0.0016037199 -0.011789174 -0.00904043 -0.015713891 -0.005339542
-0.012735935 -0.007756148 -0.010658045 -0.004981378 -0.0052802614 -0.011784001 -0.003133301 -0.008241552
-0.012661906 -0.004178981 -0.008216279 -0.00787101 -0.0038130155 0.0014541355 -0.005888349 -0.0063754814
-0.002763473 0.012911942 0.0049804356 -4.2353135e-05 0.0027398907 0.010951873 0.013005023 0.01153255
0.00045161363 0.0146492 0.016000954 0.018102745 0.010402612 0.017879913 0.009890428 0.010966523
0.0034137715 0.015067286 0.010705886 0.010803996 0.012138787 0.0065487777 0.011092847 0.01108266
0.008000381 0.003998888 0.0007335351 -0.006346643 0.007355769 0.001709477 0.0011734286 0.0062066973
0.003224612 0.00042007648 -0.00070828164 -0.004568456 -0.002774638 0.00020414252 -0.0012283553 -0.0009989911
0.00580022 0.013923474 0.0027156407 0.0011336504 0.0030502188 -0.0044194013 -0.0014468463 -0.0015979772
-0.000726355 0.0030680664 -0.0030445708 0.0036044256 -0.005638858 -0.004542599 -0.009004145 -0.005775074
-0.008376784 -0.0029158795 -0.01720742 -0.013757772 -0.0116831325 -0.014283086 -0.011900658 -0.020717798
-0.018616563 -0.020510912 -0.018938698 -0.015947914 -0.015401021 -0.010512707 -0.013234721 -0.014976123
-0.0067479857 -0.0042783334 -0.0081514055 -0.0023243455 -0.0027140568 0.00053391216 0.005912257 -0.0049663186
0.004676598 0.006963893 0.0037910922 0.008391334 0.008801916 0.008634687 0.0059075356 0.006064237
0.0133952405 0.01141809 0.0057231872 0.014139541 0.009358585 0.011458607 0.009472093 0.012714281
0.008364769 0.0121784685 0.0055229245 0.009761607 0.0019527097 0.01140471 0.007586958 0.0032522096
0.0046677478 0.004805557 -0.006748076 -0.0003794196 0.0023177403 0.006221203 8.389991e-05 0.0065089613
0.00391224 -0.0018795686 0.012078644 0.005866176 0.000109086825 0.0078171985 -0.0011353415 0.008501268
0.008172651 -0.007857416 0.003720783 0.0024983396 -0.0094099175 -0.004295995 -0.010473098 -0.010043574
-0.010481003 -0.01696513 -0.00394671 -0.007348005 -0.016784655 -0.018106777 -0.012090854 -0.013763295
-0.01161344 -0.0048775114 -0.013532938 -0.013972384 0.002952969 -0.0038165206 -0.011359485 -0.0007017268
-0.009663952 -0.0036295485 0.0034526053 -0.0035931938 -0.0015964949 -0.00444976 0.011854858 0.015212678
0.011099289 0.0050854315 0.011983896 0.012335164 0.012131499 0.017549332 0.020271903 0.015686588
0.0074550733 0.012853605 0.0055021076 0.01057489 0.001745597 0.020729028 0.0064126393 0.008240108
0.011399477 0.0042577363 0.0030441633 0.002538375 -0.0023675815 0.006563094 -0.008615849 0.0037094343
0.0027189474 -0.00042877186 0.00052025955 -0.016439022 -0.004459959 0.0032196317 -0.008779565 -0.001045249
-0.0069930186 -0.0020725233 -0.007156249 0.0036494506 -0.00598835 -0.009025482 -0.0016227494 -0.013041814
-0.005510916 -0.004153217 -0.0075844442 -0.013622105 -0.0070074047 -0.005685394 -0.0070963586 -0.017858103
-0.013788508 -0.006731401 -0.005868358 -0.011268957 -0.0133062415 -0.018114436 -0.002889942 -0.007806964
-0.008795266 -0.010772077 0.00233613 -0.012192487 -0.00812066 0.0007116418 0.0062188455 -0.002741513
0.0022105952 0.00030348418 0.0031479243 0.006140482 -0.003003905 0.015539802 0.00773671 0.014748186
00000000: 5080 4f3c 036c 48bb 8ea2 edba de23 02bc
00000010: ca8f acbb 7d5d 7fbc 3dd6 aabb a1d7 b83a
00000020: fb2f fb39 b73e 62bc 120e e0b9 e933 d2ba
00000030: 6127 41bc 501e 14bc 6bba 80bc 53f7 aebb
00000040: 62aa 50bc 4927 febb 159f 2ebc d43a a3bb
00000050: 0b06 adbb af11 41bc 1158 4dbb 9307 07bc
00000060: e273 4fbc d5ef 88bb 929d 06bc 69f5 00bc
00000070: c9e3 79bb b198 be3a 0df3 c0bb 6ae9 d0bb
00000080: 621b 35bb 9c8c 533c ec32 a33b 55a4 31b8
00000090: bd8f 333b 7c6f 333c 0513 553c 05f3 3c3c
000000a0: 8ec6 ec39 3303 703c 6f14 833c 354c 943c
000000b0: b86f 2a3c e578 923c 760b 223c eeac 333c
000000c0: 95b9 5f3b c7dc 763c be67 2f3c 3e03 313c
000000d0: c3e1 463c 2197 d63b c6be 353c 0c94 353c
000000e0: 0814 033c 1b09 833b b54a 403a 80f7 cfbb
000000f0: aa08 f13b 8810 e03a bbcd 993a 8d61 cb3b
00000100: 0354 533b b63d dc39 faab 39ba fdb2 95bb
00000110: b3d6 35bb 170f 5639 c400 a1ba 94f0 82ba
00000120: c60f be3b 481f 643c e4f8 313b ff96 943a
00000130: 2ee6 473b a0d0 90bb 1ba4 bdba 3873 d1ba
00000140: dc68 3eba 9d11 493b 6c87 47bb 3a38 6c3b
00000150: 2bc6 b8bb 15da 94bb 1f86 13bc d53c bdbb
00000160: c73e 09bc 5718 3fbb 93f6 8cbc 4768 61bc
00000170: 9c6a 3fbc 9b03 6abc fafa 42bc 5fb8 a9bc
00000180: c381 98bc 8006 a8bc 5425 9bbc 33a5 82bc
00000190: 9054 7cbc 7d3d 2cbc 71d6 58bc 6a5e 75bc
000001a0: 351e ddbb 4331 8cbb 798d 05bc 0c54 18bb
000001b0: 51de 31bb 3df6 0b3a 9bbb c13b 80bc a2bb
000001c0: 263e 993b 5e31 e43b f973 783b ce7b 093c
000001d0: e935 103c 8178 0d3c 0094 c13b 82b6 c63b
000001e0: b677 5b3c f112 3b3c 9389 bb3b 89a9 673c
000001f0: c054 193c e2bc 3b3c d630 1b3c 8f4f 503c
00000200: 620c 093c 3388 473c a6f9 b43b 26ef 1f3c
00000210: 11f2 ff3a d2da 3a3c 049c f83b 0623 553b
00000220: e8f3 983b ef77 9d3b f71e ddbb d6ec c6b9
00000230: 3be5 173b 3cdb cb3b 6cf3 af38 2049 d53b
00000240: 3f32 803b db5b f6ba 81e5 453c 0d39 c03b
00000250: 8bc5 e438 b513 003c bdcf 94ba e748 0b3c
00000260: 95e6 053c 64bc 00bc 61d8 733b 2fbb 233b
00000270: 0e2c 1abc 6bc5 8cbb 5b97 2bbc cd8d 24bc
00000280: 83b8 2bbc 75fa 8abc 6753 81bb 89c7 f0bb
00000290: f97f 89bc aa54 94bc b818 46bc 717f 61bc
000002a0: 4c46 3ebc 88d3 9fbb 42b9 5dbc 6dec 64bc
000002b0: 9986 413b 971e 7abb 221d 3abc 17f4 37ba
000002c0: 8d55 1ebc b8dd 6dbb 1b45 623b ca7b 6bbb
000002d0: 7b41 d1ba 4bcf 91bb e13a 423c 993e 793c
000002e0: cbd9 353c b1a3 a63b 1a58 443c 6d19 4a3c
000002f0: 32c3 463c 9ec3 8f3c 4311 a63c 2981 803c
00000300: b049 f43b ed97 523c 064b b43b 4e42 2d3c
00000310: 84cc e43a eccf a93c 1e21 d23b 8501 073c
00000320: dfc4 3a3c 7b84 8b3b 9680 473b de5a 263b
00000330: 6d29 1bbb 390f d73b 7d29 0dbc fb19 733b
00000340: 5e30 323b c9cc e0b9 0762 083a 21ab 86bc
00000350: d924 92bb 7500 533b 2ad8 0fbc bd00 89ba
00000360: b125 e5bb 2cd3 07bb f87e eabb 9f2b 6f3b
00000370: ec39 c4bb 9edf 13bc 6fb2 d4ba 55ad 55bc
00000380: ea94 b4bb b617 88bb ee86 f8bb 402f 5fbc
00000390: 5f9e e5bb 8b4c babb 9288 e8bb 284b 92bc
000003a0: 32e9 61bc 1693 dcbb 5b4b c0bb 6ea1 38bc
000003b0: 6c02 5abc ba64 94bc 2e65 3dbb 90d1 ffbb
000003c0: 051a 10bc 5e7d 30bc c219 193b ffc2 47bc
000003d0: 840c 05bc 798d 3a3a 75c7 cb3b f5aa 33bb
000003e0: a2df 103b f51c 9f39 684d 4e3b 1936 c93b
000003f0: 2add 44bb a79a 7e3c 3a84 fd3b 60a2 713c

Linear_Seasonal.bias f4 [96]
-0.019921653 0.010290377 -0.020409131 0.024244342 -0.0031068593 0.03229521 -0.02352727 -0.0034614739
0.015526447 0.0061689885 -0.022520175 0.01833779 -0.009754369 -0.020309439 -0.007545492 -0.015250493
-0.00064654485 -0.038914796 0.001532816 0.0076719406 -0.00646952 -0.011215831 0.01138778 0.013109794
-0.026714819 0.0032159437 -0.025870899 0.0075649032 -0.023412269 -0.0037479145 0.027375828 0.03436443
0.03459688 -0.01790148 -0.03142695 0.004913924 0.018708417 0.02401951 0.03555808 -0.007232593
0.011792169 0.0042892317 0.0009837102 0.036646266 0.0058785398 0.02159854 0.010547006 -0.008037474
-0.014534491 0.004995509 0.02765203 0.030859824 0.0034726437 0.009659388 -0.008295729 0.00040058015
-0.019263126 -0.005436531 0.0007043629 -0.015185229 0.014139834 -0.019078348 0.015377208 -0.007977373
0.0076395622 0.00682293 -0.040017832 -0.01697945 0.019429017 -0.014151022 0.016866997 0.010403598
0.042040113 -0.022611089 0.009500045 0.018772747 0.012168602 0.0020930066 -0.026524171 0.012213382
0.0025451086 0.007403945 -0.0245823 -0.02117475 -0.015668537 -0.040190063 -0.010539561 -0.016262144
-0.01935486 -0.021298181 0.013181739 0.0063166465 0.008590442 -0.04545768 0.03524486 -0.010312542
00000000: bc32 a3bc f898 283c 0d31 a7bc 129c c63c
00000010: 739c 4bbb fb47 043d 43bc c0bc e5d9 62bb
00000020: a462 7e3c 3a25 ca3b 3b7c b8bc 2239 963c
00000030: cad0 1fbc fb5f a6bc 2d40 f7bb 34dd 79bc
00000040: e47c 29ba 1f65 1fbd c5e8 c83a e764 fb3b
00000050: 44fe d3bb 9bc2 37bc d093 3a3c 76ca 563c
00000060: 09d9 dabc 95c2 523b 35ef d3bc 02e3 f73b
00000070: 16cb bfbc 929f 75bb 4643 e03c b7c1 0c3d
00000080: 75b5 0d3d 20a6 92bc 8cb9 00bd fb04 a13b
00000090: 6542 993c 90c4 c43c 59a5 113d 63ff ecbb
000000a0: f133 413c af8c 8c3b d6ef 803a 651a 163d
000000b0: c4a0 c03b 6cef b03c 59cd 2c3c 9caf 03bc
000000c0: 1322 6ebc 5eb1 a33b 8386 e23c becd fc3c
000000d0: 4b95 633b 6942 1e3c cfea 07bc f504 d239
000000e0: b4cd 9dbc ed24 b2bb fea4 383a 77cb 78bc
000000f0: c3aa 673c 324a 9cbc aff0 7b3c 87b3 02bc
00000100: 4b55 fa3b e392 df3b bde9 23bd 7d18 8bbc
00000110: 9a29 9f3c b0d9 67bc a82c 8a3c da73 2a3c
00000120: 4132 2c3d e43a b9bc 14a6 1b3c 4ec9 993c
00000130: d15e 473c d32a 093b 3849 d9bc a31a 483c
00000140: d6cb 263b cb9c f23b d260 c9bc ab76 adbc
00000150: 4e5b 80bc 569e 24bd 1fae 2cbc 3038 85bc
00000160: 158e 9ebc 8679 aebc 38f8 573c dffb ce3b
00000170: edbe 0c3c d531 3abd ea5c 103d f0f5 28bc

Linear_Trend.weight f4 [96, 336]
-0.019523757 -0.031211039 -0.025359923 0.023129134 -0.022333397 0.014116547 0.037525035 0.025660997
-0.035841405 0.008401912 -0.017235253 0.02701674 -0.021931615 0.03319201 0.05309928 -0.030963352
0.028958622 0.008990969 0.0025304104 -0.03449785 -0.01639525 -0.029491069 -0.013748422 0.053619675
-0.016111707 0.039605998 -0.041214194 0.036421306 -0.009091836 -0.02714483 0.0030560899 -0.030272838
0.051717754 -0.028346643 0.0039757183 0.03853237 0.031776678 0.016243367 0.0030722993 -0.042733252
0.017619636 0.000118840806 0.05366858 -0.030255742 -0.026056021 -0.032325327 -0.03660389 -0.015880093
0.0022446928 -0.024538774 -0.016840674 0.009497393 -0.011286398 -0.03635153 -0.018830692 -0.03342407
0.05611688 0.042494982 0.024817817 -0.0012419551 0.050957922 -0.02553009 0.03780119 -0.026418531
-0.004771245 0.038311254 0.019804498 -0.0067835064 0.009105393 -0.032175094 0.03435224 0.033485122
-0.033994175 0.01766472 -0.033856317 -0.03936468 -0.033494737 -0.02673832 -0.004874043 0.020922597
-0.019486453 -0.009343361 -0.024262251 -0.045082252 0.017438779 0.008402444 0.033763345 0.036934894
0.022263156 0.02168323 -0.038578052 0.032919347 0.037467174 -0.053421978 0.024278667 0.040418476
0.026967393 -0.030291932 -0.041166585 -0.018253554 -0.026671536 0.019252077 0.029465059 0.00960858
0.031015519 0.012496313 -0.018152582 0.024053691 0.027436355 -0.014137779 -0.04327079 0.0460381
-0.0002528329 -0.009465201 0.012020775 -0.015851155 -0.037592493 -0.044705555 0.003912431 0.026800543
0.021782577 -0.036309175 -0.04270271 -0.011626513 0.0039342693 -0.006470662 -0.03370404 0.029544676
0.00072952465 0.026605314 -0.007652683 0.02991931 0.028782886 -0.0036522693 -0.023501 -0.009769417
-0.014216623 0.05286645 -0.0034432674 0.015032923 -0.044136804 0.042186737 -0.043867067 -0.029018292
0.02465353 -0.015274297 0.030994568 -0.013188122 0.02326882 0.046346974 -0.050448406 0.017126083
-0.0019615586 0.043212097 -0.048368495 -0.050640192 -0.02809902 -0.017819729 -0.022009986 0.043173764
-0.020429118 -0.012579439 -0.013275774 0.025688963 -0.03605979 0.028978761 0.033893097 0.009708707
0.040886343 0.022474969 0.040344425 0.026379017 0.0151684 0.046002835 -0.012788575 0.0140035935
0.0042237607 -0.008323261 -0.04660358 -0.033241846 -0.03728549 -0.05162389 0.011825719 -0.01641757
0.037009925 -0.02390086 0.0261865 -0.024638819 -0.010081904 0.0138793485 -0.022416985 0.01645871
0.04113087 0.031208558 -0.04290306 -0.04216016 0.028877532 -0.013975426 -0.022196926 -0.038257737
0.042692814 -0.034151994 0.031416316 0.038874015 -0.04845795 0.003560739 0.021185685 -0.03756799
0.017861186 0.023750532 -0.003883513 -0.045993097 0.037883747 -0.031887185 0.038462758 0.02010183
0.020419447 0.041574687 -0.039428715 0.018188559 -0.0017619967 -0.033330787 -0.01841756 -0.001455006
0.009873932 0.0098026935 -0.0035904446 -0.027447432 0.019919269 -0.03196173 -0.010976318 -0.027328303
0.033489123 -0.033715103 0.013527701 0.017027456 0.020077065 0.019176027 0.038009495 0.014793645
-0.053184364 0.04300397 0.041573774 0.0046189013 0.044810623 -0.04608978 -0.029848084 0.045932926
-0.02629041 -0.035635963 0.023657374 -0.02599776 0.045065004 -0.042108927 -0.03081456 0.03466331
00000000: 49f0 9fbc 4bae ffbc 9dbf cfbc 4f79 bd3c
00000010: 87f4 b6bc 1749 673c dab3 193d 0337 d23c
00000020: 70ce 12bd 2ca8 093c f230 8dbc 3652 dd3c
00000030: eea9 b3bc 58f4 073d a17e 593d dba6 fdbc
00000040: a23a ed3c db4e 133c 3ed5 253b 9e4d 0dbd
00000050: 554f 86bc 4197 f1bc 1041 61bc 4ea0 5b3d
00000060: b3fc 83bc e639 223d 37d0 28bd 822e 153d
00000070: edf5 14bc d65e debc ae48 483b befe f7bc
00000080: ffd5 533d 3837 e8bc be46 823b 1ed4 1d3d
00000090: 4328 023d cf10 853c a158 493b 1009 2fbd
000000a0: 0e57 903c 2c3a f938 96d3 5b3d e4da f7bc
000000b0: 7073 d5bc 9067 04bd f6ed 15bd f816 82bc
000000c0: b21b 133b 8a05 c9bc 74f5 89bc f49a 1b3c
000000d0: 96ea 38bc 58e5 14bd d342 9abc ade7 08bd
000000e0: d0da 653d 380f 2e3d bc4e cb3c 19c9 a2ba
000000f0: 41b9 503d 7b24 d1bc 6cd5 1a3d ad6b d8bc
00000100: 1b58 9cbb 43ec 1c3d 0b3d a23c 2d48 debb
00000110: c92e 153c 08ca 03bd efb4 0c3d b227 093d
00000120: 7a3d 0bbd 9ab5 903c ecac 0abd dc3c 21bd
00000130: c731 09bd 520a dbbc 70b6 9fbb de65 ab3c
00000140: 0ea2 9fbc e514 19bc a1c1 c6bc 2ba8 38bd
00000150: c5db 8e3c 68aa 093c 6f4b 0a3d 0b49 173d
00000160: 3961 b63c 07a1 b13c 0504 1ebd 70d6 063d
00000170: 2e77 193d 01d1 5abd 0ee4 c63c d88d 253d
00000180: b9ea dc3c c926 f8bc 4b9e 28bd 7a88 95bc
00000190: 447e dabc 88b6 9d3c b560 f13c 4e6d 1d3c
000001a0: 4214 fe3c 56bd 4c3c b9b4 94bc 3f0c c53c
000001b0: 35c2 e03c 25a2 67bc b63c 31bd 7292 3c3d
000001c0: a88e 84b9 ee13 1bbc c9f2 443c 48da 81bc
000001d0: 96fa 19bd 2c1d 37bd da33 803b d08c db3c
000001e0: 6071 b23c eeb8 14bd 09e9 2ebd 217d 3ebc
000001f0: 0beb 803b d907 d4bb 3f0d 0abd ad07 f23c
00000200: 923d 3f3a 63f3 d93c 5cc3 fabb 5719 f53c
00000210: 16ca eb3c e95a 6fbb 2b85 c0bc e80f 20bc
00000220: d7ec 68bc 7e8a 583d 71a8 61bb a64c 763c
00000230: cbc8 34bd 00cc 2c3d f4ad 33bd c5b7 edbc
00000240: 33f6 c93c 0c41 7abc 52e8 fd3c fe12 58bc
00000250: 419e be3c 53d6 3d3d fda2 4ebd 004c 8c3c
00000260: 7e8d 00bb 2bff 303d 0b1e 46bd 176c 4fbd
00000270: ea2f e6bc aefa 91bc 494e b4bc f9d6 303d
00000280: f75a a7bc fe19 4ebc a282 59bc a971 d23c
00000290: 6eb3 13bd de64 ed3c 7dd3 0a3d 4511 1f3c
000002a0: 7078 273d 6d1d b83c 3240 253d cf18 d83c
000002b0: e184 783c 786d 3c3d 2c87 51bc 546f 653c
000002c0: 7967 8a3b 495e 08bc 65e3 3ebd 9a28 08bd
000002d0: acb8 18bd 9273 53bd a9c0 413c 247e 86bc
000002e0: b897 173d bdcb c3bc 1285 d63c 59d7 c9bc
000002f0: 922e 25bc 3566 633c d3a3 b7bc 6bd4 863c
00000300: d878 283d 17a9 ff3c 1ebb 2fbd 22b0 2cbd
00000310: 9390 ec3c 2ff9 64bc 54d6 b5bc 25b4 1cbd
00000320: a9de 2e3d f6e2 0bbd 65ae 003d 5c3a 1f3d
00000330: d87b 46bd 4a5b 693b 9a8d ad3c e5e0 19bd
00000340: 9f51 923c 7a90 c23c 8982 7ebb 4263 3cbd
00000350: fd2b 1b3d 239c 02bd 208b 1d3d 98ac a43c
00000360: af46 a73c 384a 2a3d 0180 21bd 2c00 953c
00000370: ccf2 e6ba dd85 08bd 6ce0 96bc e6b5 beba
00000380: 46c6 213c 7a9b 203c aa4d 6bbb 70d9 e0bc
00000390: bc2d a33c 4eea 02bd 04d6 33bc 9bdf dfbc
000003a0: e42b 093d d918 0abd 4aa3 5d3c 2a7d 8b3c
000003b0: a878 a43c 0b17 9d3c d8af 1b3d 0b61 723c
000003c0: d9d7 59bd ee24 303d 4349 2a3d 275a 973b
000003d0: 588b 373d a3c8 3cbd f883 f4bc 2a24 3c3d
000003e0: fc5e d7bc 04f7 11bd 1ccd c13c 41f9 d4bc
000003f0: 1596 383d 697a 2cbd d16e fcbc 1dfb 0d3d

Linear_Trend.bias f4 [96]
0.02031314 -0.010231807 0.02044656 -0.024157679 0.0032307098 -0.031992644 0.02421553 0.0039055317
-0.014965197 -0.0054072337 0.023396332 -0.01724441 0.010850934 0.02099935 0.008527845 0.01608052
0.0016950446 0.039675735 -0.001066589 -0.0073016095 0.0068156556 0.011394468 -0.011337747 -0.01314622
0.027249383 -0.002983023 0.026336588 -0.007102229 0.023795767 0.004262059 -0.027085712 -0.033675294
-0.0342983 0.01851465 0.032005657 -0.004123617 -0.017804258 -0.023238195 -0.03470996 0.008440461
-0.010300728 -0.0030252442 -5.248834e-05 -0.03575171 -0.0051082615 -0.020315565 -0.009744343 0.009170697
0.015400713 -0.0036107274 -0.02662025 -0.029847931 -0.0023647686 -0.007840624 0.009683893 0.001585014
0.021701701 0.0075679542 0.0015335266 0.017894559 -0.010759243 0.022728559 -0.011937582 0.010982358
-0.0045802547 -0.0038020269 0.04340526 0.020798218 -0.014897058 0.019151516 -0.012117606 -0.0054149404
-0.037337914 0.027430128 -0.0041769817 -0.012808182 -0.006591849 0.0032627669 0.032085706 -0.00687539
0.0033733777 -0.0015506924 0.030568745 0.027002107 0.020837603 0.04497856 0.015075857 0.020374663
0.023616776 0.025029771 -0.009916349 -0.003920954 -0.005709669 0.04763261 -0.032427397 0.012932976
00000000: be67 a63c 4fa3 27bc 8b7f a73c 53e6 c5bc
00000010: 51ba 533b b80a 03bd a65f c63c f3f3 7f3b
00000020: 9630 75bc 2a2f b1bb aaa9 bf3c 2644 8dbc
00000030: 1ec8 313c d406 ac3c 60b8 0b3c 4bbb 833c
00000040: 422c de3a 0683 223d cacc 8bba 5742 efbb
00000050: dd55 df3b ddaf 3a3c f5c1 39bc 3e63 57bc
00000060: 193a df3c d27e 43bb d4bf d73c d1b9 e8bb
00000070: 57ef c23c bea8 8b3b dbe2 ddbc 1bef 09bd
00000080: 607c 0cbd 09ac 973c 5d18 033d 681f 87bb
00000090: 3cda 91bc 075e bebc 082c 0ebd dc49 0a3c
000000a0: 62c4 28bc 2d43 46bb ed26 5cb8 6370 12bd
000000b0: 3463 a7bb d46c a6bc bda6 1fbc b140 163c
000000c0: 4653 7c3c f4a1 6cbb b612 dabc a683 f4bc
000000d0: 3cfa 1abb f675 00bc 31a9 1e3c 3fc0 cf3a
000000e0: c4c7 b13c 9afc f73b 9d00 c93a 9c97 923c
000000f0: 8947 30bc 3e31 ba3c d995 43bc 59ef 333c
00000100: f615 96bb 6d2b 79bb b7c9 313d 0661 aa3c
00000110: ca12 74bc a4e3 9c3c ec88 46bc d06f b1bb
00000120: a4ef 18bd 26b5 e03c 10df 88bb 69d9 51bc
00000130: 7000 d8bb 25d4 553b 4d6c 033d f44a e1bb
00000140: e313 5d3b 9a40 cbba 4e6b fa3c 8633 dd3c
00000150: 9fb3 aa3c 703b 383d ba00 773c c4e8 a63c
00000160: f877 c13c 3c0b cd3c 2f78 22bc 597b 80bb
00000170: 2d18 bbbb 691a 433d 97d2 04bd d5e4 533c

exp_avg f4 [96, 336]
-5.551273e-06 -5.1718143e-06 -4.1183384e-06 8.72893e-06 4.7953213e-06 1.3334641e-05 1.7101393e-05 1.2017762e-05
6.7831957e-06 1.7065051e-05 1.340699e-05 1.678388e-05 1.3664449e-05 1.9293728e-05 8.892287e-06 1.2440614e-05
1.3739245e-05 1.0112648e-05 -2.7430127e-07 -5.4879165e-06 -2.4477254e-06 -7.23768e-06 -1.516129e-05 -6.055616e-06
-2.3474282e-05 -2.4792174e-05 -2.550701e-05 -2.1690983e-05 -2.2392338e-05 -1.0049715e-05 -8.128551e-06 -3.4001714e-06
5.237043e-06 8.744362e-06 6.589653e-06 4.2476695e-06 9.15972e-07 -2.6160014e-06 -2.3354805e-06 -1.0390844e-05
-1.0322576e-05 -8.458311e-06 7.0162776e-07 2.303944e-06 1.6275924e-05 9.708164e-06 -8.479352e-07 6.0994444e-06
1.2947107e-05 1.8817647e-05 9.700734e-06 1.911688e-06 3.8690437e-06 5.05904e-06 -7.0552613e-07 5.4841155e-07
-1.7644881e-05 -8.1854005e-06 -2.8199647e-06 -1.3240955e-05 -1.31022e-05 -4.5390825e-06 5.974278e-07 -6.4197884e-06
6.148839e-07 -2.0136868e-06 -1.0028529e-05 -5.108786e-06 -5.2988315e-07 9.90264e-07 -2.3497944e-07 4.5159377e-06
2.9596617e-06 4.5454694e-06 4.501954e-06 1.6203356e-06 3.877643e-06 1.1963301e-05 1.1399437e-05 1.3192462e-05
6.9559633e-06 1.1311928e-06 -1.3115991e-05 -1.2378058e-05 -1.2122146e-05 3.5350895e-06 1.1107758e-06 -6.1143637e-06
-3.797734e-06 1.8739476e-07 1.1858127e-05 2.0336354e-06 2.0072268e-06 -1.1269496e-05 -8.680828e-06 -8.943312e-06
-5.934587e-06 -5.6250847e-06 -5.809359e-06 -4.304839e-06 -4.5469665e-06 -7.605165e-06 -5.1589996e-06 5.3396906e-07
-5.232164e-06 2.5396703e-06 5.514696e-06 -6.4910466e-07 -3.8114256e-06 9.329598e-07 -9.844855e-06 -1.5848933e-05
-5.925053e-06 -1.340754e-05 -2.7865046e-05 -1.9690619e-05 -9.977811e-06 -1.1790726e-05 -9.6642e-07 1.0013522e-05
1.2197994e-05 4.1008852e-06 -3.6123902e-06 -5.9374793e-06 3.3867216e-06 4.143109e-06 -1.2932989e-06 3.560592e-06
2.4370468e-06 9.30936e-06 7.9802085e-06 5.3414456e-06 6.261217e-06 2.2633387e-06 -1.1593664e-06 6.8787574e-07
-6.3582243e-06 6.7764995e-06 1.1692169e-05 1.5367992e-05 1.13287815e-05 1.607825e-05 7.4885e-06 1.4043274e-05
3.1646094e-05 1.6479113e-05 1.5731935e-05 9.765988e-06 -5.4136067e-06 -1.778623e-05 7.3110624e-07 5.240051e-06
-4.371941e-06 -9.0546855e-06 -1.0723159e-05 -1.3818717e-05 -8.889572e-06 -1.1227843e-05 -8.700818e-06 -1.0734559e-05
-2.5287773e-06 2.039007e-06 -7.4945524e-07 3.7238951e-06 4.8644965e-06 6.9501966e-06 5.960026e-06 3.6578278e-06
2.1820197e-06 6.7931237e-06 1.7386477e-05 1.9657851e-05 1.6122221e-05 1.6473863e-05 1.3854446e-05 8.160768e-06
3.9673105e-06 1.5007444e-05 1.51421655e-05 1.3524001e-05 4.5288953e-06 8.045325e-06 1.378667e-06 -8.414652e-06
-1.6375348e-05 -2.029214e-05 -2.5507601e-05 -1.6697615e-05 -1.0332584e-05 -1.388806e-05 -1.3515865e-05 -1.1529611e-05
-1.3100662e-05 -9.347772e-06 2.99805e-06 3.199583e-07 -2.4719195e-06 -3.534584e-06 -4.3974765e-06 -4.006785e-06
-7.372575e-07 1.9296363e-06 1.342716e-05 2.0870044e-05 1.6423397e-05 1.9489858e-05 2.0223346e-05 6.239831e-06
2.8944496e-06 -2.4167352e-06 2.4847998e-06 -6.3563757e-06 -2.1582107e-05 -1.2533494e-05 -1.7636592e-05 -7.879106e-06
1.2944502e-06 -8.781885e-07 -5.1252227e-06 2.7661004e-08 -8.423381e-06 -1.0265048e-05 -8.375006e-06 -1.6357404e-06
-6.0239663e-06 -7.5124763e-06 2.0234838e-06 -4.6520877e-06 -1.0187608e-05 -7.21237e-06 -1.1719732e-06 -5.2517626e-06
-4.3460878e-07 1.28305965e-05 6.3958114e-06 6.1144397e-06 -3.6225874e-06 1.0942103e-05 8.175124e-06 7.2270223e-06
4.0620475e-06 3.7023922e-06 1.2292725e-06 6.735833e-07 1.4019586e-06 -1.2918617e-05 -1.5149907e-05 -6.964585e-06
-7.595188e-06 -1.360703e-05 -4.710326e-06 -5.3147432e-06 -2.2096267e-06 1.124706e-05 2.3329092e-05 2.992522e-05
00000000: 1245 bab6 8c89 adb6 4230 8ab6 7872 1237
00000010: 7fe7 a036 d9b7 5f37 f674 8f37 e59f 4937
00000020: 359b e336 eb26 8f37 95ee 6037 1ccb 8c37
00000030: 5d40 6537 f7d8 a137 1530 1537 08b8 5037
00000040: 9c81 6637 7ea9 2937 ae43 93b4 d824 b8b6
00000050: 9a43 24b6 33db f2b6 3f5d 7eb7 5831 cbb6
00000060: a3ea c4b7 caf8 cfb7 e3f7 d5b7 08f5 b5b7
00000070: 2ed7 bbb7 329b 28b7 dc5f 08b7 802e 64b6
00000080: dbb9 af36 c0b4 1237 b01c dd36 3487 8e36
00000090: 1ee1 7535 908e 2fb6 40bb 1cb6 5654 2eb7
000000a0: 202f 2db7 2be8 0db7 7e57 3c35 759d 1a36
000000b0: 4888 8837 3fe0 2237 aa9d 63b5 d4a9 cc36
000000c0: 6737 5937 97da 9d37 56c0 2237 8d4a 0036
000000d0: d5d2 8136 d3c0 a936 6363 3db5 8e36 1335
000000e0: 1804 94b7 0754 09b7 a03e 3db6 7825 5eb7
000000f0: 85d1 5bb7 6c4e 98b6 ed5e 2035 9069 d7b6
00000100: 800e 2535 e022 07b6 3440 28b7 236c abb6
00000110: 4b3d 0eb5 36e9 8435 a84e 7cb4 9c87 9736
00000120: 9a9e 4636 4985 9836 7e0f 9736 4f7a d935
00000130: b31c 8236 fdb5 4837 3640 3f37 3155 5d37
00000140: 4567 e936 7dd3 9735 c10c 5cb7 5bab 4fb7
00000150: 3860 4bb7 603c 6d36 f715 9535 fc29 cdb6
00000160: 93dc 7eb6 ae36 4934 45f2 4637 9779 0836
00000170: e5b3 0636 1e12 3db7 dfa3 11b7 3c0b 16b7
00000180: b721 c7b6 1cbf bcb6 04ee c2b6 4972 90b6
00000190: 2592 98b6 df2f ffb6 781b adb6 1356 0f35
000001a0: f28f afb6 346f 2a36 e10a b936 223e 2eb5
000001b0: cbc7 7fb6 8270 7a35 552b 25b7 53f3 84b7
000001c0: d1cf c6b6 f2f0 60b7 bbbf e9b7 482d a5b7
000001d0: 5f66 27b7 c8d0 45b7 f0b5 81b5 c0ff 2737
000001e0: fca5 4c37 569a 8936 646c 72b6 8f3a c7b6
000001f0: 6f47 6336 0905 8b36 6995 adb5 81f2 6e36
00000200: 258c 2336 662f 1c37 bce2 0537 ab3a b336
00000210: 7217 d236 dde3 1736 879b 9bb5 76a6 3835
00000220: bb58 d5b6 b061 e336 7c29 4437 83ea 8037
00000230: bf10 3e37 c7df 8637 ba45 fb36 679b 6b37
00000240: bcbb 0438 a03c 8a37 13f8 8337 99d8 2337
00000250: 87a6 b5b6 a333 95b7 3d41 4435 b2d3 af36
00000260: b0b2 92b6 94e9 17b7 9ee7 33b7 f0d6 67b7
00000270: 6c24 15b7 385f 3cb7 bbf9 11b7 9418 34b7
00000280: 10b4 29b6 e0d5 0836 2c2e 49b5 08e8 7936
00000290: b539 a336 bc35 e936 3cfc c736 0179 7536
000002a0: d06e 1236 7df0 e336 2dd9 9137 eae6 a437
000002b0: 353e 8737 5a31 8a37 6470 6837 3bea 0837
000002c0: f01e 8536 7bc8 7b37 1b0b 7e37 24e5 6237
000002d0: eaf6 9736 68fa 0637 a30a b935 a82c 0db7
000002e0: cb5d 89b7 0a39 aab7 28f9 d5b7 db11 8cb7
000002f0: 1c5a 2db7 c300 69b7 33c2 62b7 4d6f 41b7
00000300: eaca 5bb7 60d4 1cb7 1b32 4936 bcc6 ab34
00000310: 41e3 25b6 b133 6db6 098e 93b6 0572 86b6
00000320: f3e7 45b5 e67e 0136 3745 6137 1412 af37
00000330: fac4 8937 277e a337 4ea5 a937 bd5f d136
00000340: 443e 4236 322f 22b6 89c0 2636 da48 d5b6
00000350: 390b b5b7 f246 52b7 4bf2 93b7 8130 04b7
00000360: f8bc ad35 a7bc 6bb5 54f9 abb6 319b ed32
00000370: 2552 0db7 0c38 2cb7 6082 0cb7 9d8b dbb5
00000380: 7a21 cab6 ae13 fcb6 30cb 0736 2119 9cb6
00000390: 71eb 2ab7 c901 f2b6 b14c 9db5 4c38 b0b6
000003a0: 2d54 e9b4 fe42 5737 9a9b d636 a32a cd36
000003b0: 941b 73b6 f993 3737 e427 0937 a67f f236
000003c0: b94c 8836 9d76 7836 7bfd a435 4bd0 3435
000003d0: ee2a bc35 0abd 58b7 5b2c 7eb7 54b1 e9b6
000003e0: 2bda feb6 c049 64b7 640d 9eb6 4c55 b2b6
000003f0: 1949 14b6 c1b1 3c37 d8b2 c337 ec07 fb37

exp_avg_sq f4 [96, 336]
9.359521e-10 1.3356127e-09 1.2956929e-09 1.6150435e-09 1.6293031e-09 1.60463e-09 1.6277161e-09 1.869899e-09
1.6618357e-09 1.7156468e-09 1.8336078e-09 1.7281092e-09 1.7009427e-09 1.9447333e-09 1.8645356e-09 1.8726924e-09
1.8482532e-09 1.78396e-09 1.8892827e-09 2.046577e-09 1.9314566e-09 1.7915067e-09 1.7984199e-09 1.7152954e-09
1.820144e-09 1.8590454e-09 1.9371222e-09 2.0687114e-09 1.8416565e-09 1.8321381e-09 1.9061126e-09 1.805372e-09
2.0366124e-09 1.7719662e-09 1.767358e-09 1.8472126e-09 1.6697571e-09 1.6686375e-09 1.7620705e-09 1.865227e-09
1.987963e-09 1.9012594e-09 1.8456529e-09 1.940429e-09 1.9815694e-09 1.7775933e-09 1.9615791e-09 1.7661798e-09
1.8680546e-09 1.7825499e-09 1.947677e-09 1.8630926e-09 1.7879369e-09 1.8019881e-09 1.7808175e-09 1.805387e-09
1.9174744e-09 2.30435e-09 1.9278341e-09 1.7383478e-09 1.8309587e-09 1.894685e-09 1.8390971e-09 1.99851e-09
1.9964324e-09 1.9504403e-09 1.7994111e-09 1.8969857e-09 1.8983874e-09 1.9296016e-09 1.867908e-09 1.85223e-09
1.9025153e-09 1.7888507e-09 2.0175368e-09 1.9495876e-09 1.8261929e-09 1.8987227e-09 1.7213316e-09 1.837172e-09
1.8455532e-09 1.8564696e-09 1.7875715e-09 1.8843578e-09 1.7203405e-09 1.8886162e-09 1.8802413e-09 1.8244957e-09
1.7882643e-09 1.890494e-09 1.808737e-09 1.9783242e-09 2.1373088e-09 2.0259312e-09 1.9934354e-09 1.837731e-09
1.784536e-09 1.8505245e-09 1.8317436e-09 1.9206925e-09 1.8549301e-09 1.9962503e-09 2.0275777e-09 1.865724e-09
2.0048019e-09 2.0049151e-09 1.8866126e-09 1.8535403e-09 1.8533628e-09 2.0015325e-09 1.938804e-09 1.9138686e-09
2.0644135e-09 1.8351893e-09 1.9600062e-09 2.0642157e-09 1.7986564e-09 2.0419388e-09 1.7569979e-09 1.7621028e-09
1.9464417e-09 2.016459e-09 1.983822e-09 2.008453e-09 1.980882e-09 1.7317608e-09 1.8579712e-09 1.7963632e-09
1.8742876e-09 1.8220347e-09 1.8225043e-09 1.9581285e-09 2.1904543e-09 2.068558e-09 2.0158777e-09 2.221051e-09
2.0791202e-09 2.1183768e-09 2.115054e-09 2.1171778e-09 2.0527238e-09 1.8798254e-09 1.8938848e-09 2.0529791e-09
1.9405182e-09 2.011639e-09 2.2126803e-09 2.055865e-09 2.2598616e-09 2.1096056e-09 1.9009447e-09 2.0803819e-09
1.909567e-09 2.0841777e-09 1.9753292e-09 2.0080515e-09 1.9528208e-09 1.9400752e-09 1.8590753e-09 2.0448194e-09
2.1575917e-09 2.0780162e-09 2.0087827e-09 2.1268274e-09 1.7918045e-09 1.9102473e-09 1.8739406e-09 1.8268196e-09
1.9314377e-09 1.9454351e-09 1.9955826e-09 2.0698223e-09 1.9084205e-09 1.960817e-09 1.8207507e-09 1.9329103e-09
2.0294775e-09 1.9426358e-09 2.0269024e-09 2.0046005e-09 2.0183577e-09 2.0100392e-09 1.9416129e-09 1.9771391e-09
1.9364033e-09 2.0083244e-09 2.0129027e-09 1.9938513e-09 1.9451694e-09 2.0735835e-09 2.071284e-09 2.0055064e-09
2.0588469e-09 1.9642665e-09 1.9775483e-09 1.9266801e-09 1.9060564e-09 2.049814e-09 1.8779944e-09 1.9599073e-09
1.9943713e-09 1.9925122e-09 1.7648036e-09 1.9279707e-09 1.9312116e-09 1.9405095e-09 2.0110276e-09 1.9548818e-09
2.1681363e-09 1.9659647e-09 1.997131e-09 2.0597255e-09 2.2485893e-09 2.106062e-09 2.1826947e-09 1.9725674e-09
1.898243e-09 1.9364002e-09 1.855957e-09 2.032612e-09 2.0861364e-09 1.9317747e-09 2.1700666e-09 2.1213686e-09
2.13838e-09 2.1404736e-09 2.2004873e-09 2.041987e-09 1.9511037e-09 1.9131563e-09 1.9056154e-09 2.044093e-09
2.130866e-09 2.0300401e-09 2.1449913e-09 2.0276303e-09 2.014709e-09 2.0935902e-09 1.9997655e-09 2.0503803e-09
1.9668203e-09 1.96352e-09 2.0516018e-09 2.0822934e-09 1.8881612e-09 1.9478974e-09 2.0039295e-09 2.130258e-09
1.9950301e-09 2.1862963e-09 2.0825317e-09 2.1063669e-09 2.1362476e-09 2.078847e-09 1.917158e-09 1.994881e-09
00000000: e3a2 8030 b290 b730 2414 b230 4bf8 dd30
00000010: 02ee df30 e689 dc30 2bb6 df30 9c7f 0031
00000020: a566 e430 f5cb eb30 5702 fc30 7082 ed30
00000030: 9ac6 e930 1ca4 0531 4221 0031 c1b0 0031
00000040: a105 fe30 832f f530 9dd4 0131 c3a3 0c31
00000050: 8bba 0431 0a39 f630 462c f730 97bf eb30
00000060: a028 fa30 5881 ff30 371e 0531 2829 0e31
00000070: 871d fd30 a1ce fb30 b0fc 0231 e120 f830
00000080: 77f4 0b31 8589 f330 62e7 f230 04e1 fd30
00000090: 5b7d e530 f655 e530 582d f230 6c2d 0031
000000a0: 9d9c 0831 4fa7 0231 23aa fd30 6358 0531
000000b0: 232c 0831 814f f430 77cc 0631 edbd f230
000000c0: 2a5f 0031 e6fd f430 e5d7 0531 df07 0031
000000d0: 70bb f530 d2a9 f730 f2c0 f430 6821 f830
000000e0: 91c4 0331 8e5a 1e31 d17a 0431 adea ee30
000000f0: 22a5 fb30 a733 0231 7ac3 fc30 2956 0931
00000100: 9c31 0931 8208 0631 264f f730 205c 0231
00000110: c974 0231 e999 0431 965c 0031 8d91 fe30
00000120: 67bd 0231 97db f530 e2a4 0a31 82f9 0531
00000130: 73fd fa30 af7a 0231 f993 ec30 be7f fc30
00000140: a1a6 fd30 b826 ff30 95ae f530 f97d 0131
00000150: 1a71 ec30 e3c8 0131 8e35 0131 bcc1 fa30
00000160: f5c6 f530 ece9 0131 4797 f830 0cf3 0731
00000170: efdf 1231 8f38 0b31 e3fc 0831 6993 fc30
00000180: c743 f530 8b55 fe30 c0c0 fb30 2efd 0331
00000190: 8df0 fe30 682e 0931 8655 0b31 2a36 0031
000001a0: d9c4 0931 d7c6 0931 a4a5 0131 a7bf fe30
000001b0: 68b9 fe30 558b 0931 cd3b 0531 2285 0331
000001c0: 8cdd 0d31 fc39 fc30 cbb0 0631 11da 0d31
000001d0: 9934 f730 2b52 0c31 de7a f130 7b2e f230
000001e0: 2ac2 0531 ec91 0a31 c453 0831 1405 0a31
000001f0: 0b20 0831 eb02 ee30 8d5b ff30 e9e3 f630
00000200: d1cc 0031 266b fa30 ab7b fa30 c38f 0631
00000210: e186 1631 7526 0e31 b287 0a31 24a1 1831
00000220: 45e0 0e31 e192 1131 6c58 1131 c97d 1131
00000230: e60f 0d31 3d2e 0131 9325 0231 6414 0d31
00000240: f559 0531 213d 0a31 e20d 1831 2947 0d31
00000250: e84b 1b31 93f8 1031 c6a1 0231 77f6 0e31
00000260: 7539 0331 3e39 0f31 5cbe 0731 04fe 0931
00000270: 6332 0631 2a52 0531 6682 ff30 d884 0c31
00000280: c144 1431 d9cc 0e31 e10a 0a31 8b27 1231
00000290: 8443 f630 6d45 0331 b6c6 0031 8013 fb30
000002a0: 36ba 0431 75b0 0531 a922 0931 b33c 0e31
000002b0: 4a25 0331 0fbf 0631 f83d fa30 1ed4 0431
000002c0: f276 0b31 367f 0531 a549 0b31 4ec1 0931
000002d0: 53b3 0a31 fc20 0a31 376d 0531 33de 0731
000002e0: 9111 0531 d102 0a31 5c53 0a31 3404 0931
000002f0: c8ab 0531 de7e 0e31 6a56 0e31 3ed1 0931
00000300: 9e7b 0d31 befb 0631 66e5 0731 8466 0431
00000310: b3fb 0231 b6dc 0c31 070e 0131 0eaf 0631
00000320: 5a0d 0931 a5ec 0831 828d f230 387d 0431
00000330: 3cb6 0431 ce59 0531 5f32 0a31 a556 0631
00000340: 42fe 1431 9e19 0731 e63d 0931 138b 0d31
00000350: 9a85 1a31 3cba 1031 5ffe 1531 c68d 0731
00000360: 3e72 0231 8311 0531 af14 ff30 17ae 0b31
00000370: b35b 0f31 24c0 0431 3720 1531 83c7 1131
00000380: c7f2 1231 9c17 1331 6237 1731 0453 0c31
00000390: 2e14 0631 9a78 0331 f1f3 0231 1078 0c31
000003a0: 976e 1231 d880 0b31 1667 1331 7356 0b31
000003b0: 2373 0a31 d4de 0f31 3f6c 0931 ace6 0c31
000003c0: ab28 0731 9cee 0631 29fc 0c31 1818 0f31
000003d0: e2c0 0131 c6db 0531 80b5 0931 e563 1231
000003e0: f118 0931 bb3d 1631 491c 0f31 99bf 1031
000003f0: 44cd 1231 77db 0e31 00bf 0331 5116 0931

exp_avg f4 [96]
0.00016666255 -0.0001369814 0.00018459615 0.00014699991 -0.000101370926 0.000100190744 4.9071405e-05 0.00010204706
7.587128e-05 9.7436896e-05 3.254059e-05 5.8392015e-05 -4.3083874e-05 -0.00031417664 -0.0002773694 -0.00020905068
-0.00024277918 -0.00020136683 -0.00025202305 -0.00017184793 -0.00014233464 -0.00026994545 -0.00024336994 -0.00026528718
-0.00025510948 -0.00026297956 -0.0002001613 -0.00021356031 -0.00015777974 -0.00021634095 -0.00022363247 -0.000117897136
-0.0001403519 -0.00016112787 -0.00015037855 -0.00028054134 -0.00031923258 -0.0002891 -0.000274701 -0.00022522654
-0.00026005978 -0.00034088924 -0.00037078274 -0.00036048805 -0.00038713665 -0.00030026896 -0.00035222646 -0.00027183603
-0.00034763105 -0.00024937393 -0.00031098098 -0.0002208485 -0.00019534078 -0.00011805408 -0.00016612731 -0.00017129326
-0.00012520669 -8.781996e-05 -9.7851116e-05 -1.1514695e-05 -0.00011549404 -0.000116871444 -6.799208e-05 -5.669625e-05
-7.5670346e-06 -1.208926e-05 -6.969465e-05 0.0001021668 0.00012088118 0.00014568925 0.00015982632 0.00013585904
0.00012621799 0.00016519357 6.52364e-05 0.00010050887 0.00020186784 0.00014484888 0.0001535422 8.746126e-05
0.00014210111 0.00012603276 0.000114224415 0.0002038187 7.364312e-05 8.443899e-05 5.725918e-05 -8.069861e-06
-3.2030595e-05 -2.4862122e-05 1.6157946e-06 -1.7281041e-05 -2.7249356e-05 -4.714585e-05 -6.260411e-05 -5.525107e-05
00000000: 23c2 2e39 aaa2 0fb9 2790 4139 fd23 1a39
00000010: 1a97 d4b8 7f1d d238 05d2 4d38 1902 d638
00000020: 151d 9f38 0957 cc38 317c 0838 f3e9 7438
00000030: f5b4 34b8 13b8 a4b9 e46b 91b9 9d34 5bb9
00000040: 8a92 7eb9 ff25 53b9 f621 84b9 1432 34b9
00000050: aa3f 15b9 7787 8db9 1f31 7fb9 3e16 8bb9
00000060: 37c0 85b9 85e0 89b9 64e2 51b9 29ef 5fb9
00000070: ad71 25b9 95d9 62b9 e27e 6ab9 8b3f f7b8
00000080: 6d2b 13b9 6ff4 28b9 efae 1db9 9f15 93b9
00000090: ac5e a7b9 5892 97b9 be05 90b9 ca2a 6cb9
000000a0: a258 88b9 61b9 b2b9 9e65 c2b9 e3ff bcb9
000000b0: 9af8 cab9 6b6d 9db9 09ab b8b9 3785 8eb9
000000c0: 4042 b6b9 67be 82b9 290b a3b9 9193 67b9
000000d0: 64d4 4cb9 cd93 f7b8 7632 2eb9 2f9d 33b9
000000e0: ea49 03b9 fb2b b8b8 6b35 cdb8 3d2f 41b7
000000f0: 6435 f2b8 e118 f5b8 f896 8eb8 23cd 6db8
00000100: 55e8 fdb6 fad2 4ab7 0829 92b8 6242 d638
00000110: 9781 fd38 29c4 1839 0d97 2739 6275 0e39
00000120: 6259 0439 d037 2d39 87cf 8838 4ac8 d238
00000130: 7cac 5339 93e2 1739 2c00 2139 686b b738
00000140: fa00 1539 a927 0439 c48b ef38 2ab8 5539
00000150: d970 9a38 d614 b138 9429 7038 ca63 07b7
00000160: 9758 06b8 008f d0b7 48de d835 c1f6 90b7
00000170: 8c95 e4b7 79be 45b8 534a 83b8 62bd 67b8

exp_avg_sq f4 [96]
7.426449e-07 7.428043e-07 7.9833944e-07 7.394227e-07 7.640581e-07 7.781651e-07 7.8352895e-07 8.0554753e-07
7.506652e-07 7.5174086e-07 7.4594067e-07 7.128293e-07 7.09456e-07 7.019787e-07 6.814085e-07 7.035403e-07
6.912335e-07 6.9684427e-07 6.8111217e-07 6.6416777e-07 6.8645824e-07 7.041246e-07 6.9197523e-07 6.8098586e-07
6.822144e-07 6.875948e-07 6.7941346e-07 6.6708174e-07 6.5288884e-07 6.5036056e-07 6.6032015e-07 6.519008e-07
6.738339e-07 6.8060797e-07 6.8670056e-07 6.8851523e-07 6.9888694e-07 7.0140686e-07 6.867101e-07 6.938189e-07
7.014667e-07 7.020873e-07 7.0345214e-07 7.1268033e-07 7.0954405e-07 6.9084405e-07 6.932262e-07 6.707551e-07
6.816585e-07 6.701966e-07 6.70682e-07 6.6452975e-07 6.633815e-07 6.6557607e-07 6.6503924e-07 6.595933e-07
6.552427e-07 6.58875e-07 6.6436655e-07 6.592447e-07 6.6431045e-07 6.5938707e-07 6.577113e-07 6.418087e-07
6.4795825e-07 6.4200754e-07 6.3890917e-07 6.4819284e-07 6.4112646e-07 6.4852844e-07 6.4921846e-07 6.5097174e-07
6.346741e-07 6.3766987e-07 6.46406e-07 6.5010045e-07 6.4203294e-07 6.4973403e-07 6.4069025e-07 6.43639e-07
6.44254e-07 6.3879617e-07 6.360855e-07 6.3674815e-07 6.413613e-07 6.4041996e-07 6.471017e-07 6.425032e-07
6.498103e-07 6.469925e-07 6.351735e-07 6.367461e-07 6.2558127e-07 6.3645086e-07 6.366728e-07 6.3953416e-07
00000000: 2b5a 4735 1f65 4735 784d 5635 be7c 4635
00000010: ac19 4d35 19e3 5035 b353 5235 ce3c 5835
00000020: 5281 4935 3dcb 4935 a73c 4835 4259 3f35
00000030: 7271 3e35 9c6f 3c35 09ea 3635 ecda 3c35
00000040: 348d 3935 c60e 3b35 acd5 3635 4349 3235
00000050: 0d45 3835 1303 3d35 2dc0 3935 fecc 3635
00000060: 6b21 3735 2893 3835 f060 3635 8211 3335
00000070: 2e42 2f35 7094 2e35 db40 3135 48fe 2e35
00000080: 83e1 3435 06b3 3635 b455 3835 68d2 3835
00000090: 259b 3b35 5048 3c35 5c56 3835 df3e 3a35
000000a0: 6d4c 3c35 1277 3c35 ddd4 3c35 054f 3f35
000000b0: 7f77 3e35 7172 3935 2416 3a35 f10d 3435
000000c0: 37fb 3635 8fe7 3335 eb08 3435 2362 3235
000000d0: 3b13 3235 0aaa 3235 2685 3235 e80e 3135
000000e0: efe3 2f35 8cdd 3035 ec56 3235 f3f6 3035
000000f0: 1153 3235 bc00 3135 948d 3035 c248 2c35
00000100: 5aef 2d35 6c56 2c35 8181 2b35 79ff 2d35
00000110: e019 2c35 8916 2e35 f445 2e35 70be 2e35
00000120: 795e 2a35 572c 2b35 af84 2d35 9082 2e35
00000130: 2b58 2c35 6269 2e35 e6fb 2b35 89c6 2c35
00000140: ccf0 2c35 bd79 2b35 76bf 2a35 00ed 2a35
00000150: 032a 2c35 53e9 2b35 7db4 2d35 7c78 2c35
00000160: a06e 2e35 fcac 2d35 ca80 2a35 dcec 2a35
00000170: 9eed 2735 92d8 2a35 d2e7 2a35 74ac 2b35

exp_avg f4 [96, 336]
3.8565864e-05 3.7948175e-05 3.85798e-05 4.3460197e-05 3.8882987e-05 4.2210842e-05 4.3695174e-05 4.1287774e-05
3.392949e-05 3.6883528e-05 3.2380394e-05 3.5141806e-05 2.77856e-05 3.0633557e-05 2.9727325e-05 1.8424305e-05
2.082922e-05 1.5782623e-05 1.1745683e-05 4.7139147e-06 3.7882762e-06 4.5245994e-08 -1.3127235e-06 2.6892376e-06
-7.2433913e-06 -4.5895918e-06 -1.5667334e-05 -1.0690334e-05 -1.7944321e-05 -2.2340886e-05 -2.1257729e-05 -2.592544e-05
-1.8133393e-05 -2.6876867e-05 -2.452475e-05 -2.1235097e-05 -2.207412e-05 -2.2811339e-05 -2.3447325e-05 -2.7531325e-05
-2.0945934e-05 -2.1908947e-05 -1.6382346e-05 -2.4585188e-05 -2.4824081e-05 -2.6045178e-05 -2.6890593e-05 -2.5512607e-05
-2.4354666e-05 -2.7170006e-05 -2.619043e-05 -2.3670824e-05 -2.5250172e-05 -2.7384354e-05 -2.5590938e-05 -2.7115537e-05
-1.8075532e-05 -1.9809551e-05 -2.1655405e-05 -2.373178e-05 -1.828738e-05 -2.590305e-05 -1.9635983e-05 -2.5874144e-05
-2.3089193e-05 -1.78696e-05 -1.8875508e-05 -2.032089e-05 -1.7779557e-05 -2.0481524e-05 -1.3314602e-05 -1.3093121e-05
-1.9104244e-05 -1.2518141e-05 -1.667785e-05 -1.672482e-05 -1.5213102e-05 -1.3777257e-05 -1.024369e-05 -6.426213e-06
-9.497713e-06 -8.22155e-06 -9.418181e-06 -1.1096213e-05 -4.4678845e-06 -4.844313e-06 -1.8502869e-06 -1.07843e-06
-1.9516287e-06 -1.6253391e-06 -7.5127077e-06 1.9013505e-08 5.351823e-07 -7.9082e-06 9.956412e-07 4.141596e-06
4.325587e-06 3.7250283e-07 8.57195e-08 3.1667528e-06 3.9019897e-06 9.789273e-06 1.154447e-05 1.0240919e-05
1.4009535e-05 1.3915663e-05 1.3734513e-05 2.1319125e-05 2.5190411e-05 2.4273286e-05 2.4410267e-05 3.645792e-05
3.546541e-05 3.8365364e-05 4.445139e-05 4.590612e-05 4.7925576e-05 5.209599e-05 6.1657505e-05 6.847567e-05
7.291542e-05 7.2011295e-05 7.603224e-05 8.440178e-05 9.116121e-05 9.545981e-05 9.861323e-05 0.00011149096
0.000114626724 0.00012295581 0.00012491058 0.000133725 0.00013884247 0.00014005553 0.00014263258 0.00014852159
0.00015199778 0.0001615908 0.00015944504 0.00016494843 0.00016190886 0.00017313812 0.00016657 0.00016983581
0.00017718648 0.00017479812 0.00018122686 0.00017852112 0.00018398892 0.00018852857 0.00018035891 0.00018847236
0.00018775371 0.00019365347 0.00018557915 0.00018662991 0.000189813 0.00019115156 0.00019202643 0.00019992457
0.00019484451 0.0001974023 0.00019938359 0.00020415448 0.0001984544 0.00020610254 0.00020769275 0.00020631927
0.00021009544 0.00020870248 0.00021064133 0.0002087242 0.00020671287 0.00020830306 0.00020032763 0.00020126483
0.00019851193 0.00019516979 0.00018908299 0.00018825449 0.00018567637 0.00018223848 0.00018692946 0.00018185336
0.00018480595 0.00017646741 0.0001793051 0.00017225515 0.00017220342 0.00017343833 0.0001687891 0.0001720976
0.00017399095 0.00017300388 0.00016564285 0.00016556967 0.00017289922 0.00016904816 0.0001690943 0.00016842625
0.00017655567 0.00016906283 0.00017590215 0.00017733683 0.00016959936 0.00017574786 0.00017818979 0.00017263695
0.00017837675 0.00017923582 0.00017695739 0.00017355227 0.00018255624 0.00017612326 0.00018405022 0.00018248917
0.00018230625 0.00018451261 0.00017670108 0.00018260337 0.0001816058 0.00018014583 0.00018333478 0.00018661215
0.00018926883 0.0001920877 0.00019313206 0.00019329455 0.00020016177 0.00019681556 0.00020082181 0.00020137927
0.00020960678 0.00020476637 0.0002112979 0.00021377041 0.00021583539 0.00021747529 0.00022141589 0.00022064883
0.00021572078 0.00022784286 0.00023055023 0.00022962941 0.00023635077 0.0002293489 0.00023207879 0.00024131517
0.0002356023 0.00023612291 0.00024283997 0.00023846421 0.00024592687 0.00023735028 0.00023899907 0.00024584617
00000000: c8c1 2138 8b2a 1f38 bfd0 2138 0849 3638
00000010: 4a16 2338 8c0b 3138 5645 3738 692c 2d38
00000020: 834f 0e38 63b3 1a38 2fd0 0738 3a65 1338
00000030: 1f15 e937 887c 0038 f25e f937 e58d 9a37
00000040: 69ba ae37 ed64 8437 530f 4537 382c 9e36
00000050: 173a 7e36 7f54 4233 d630 b0b5 c078 3436
00000060: 420c f3b6 4b00 9ab6 586d 83b7 a35a 33b7
00000070: 2387 96b7 b068 bbb7 a052 b2b7 757a d9b7
00000080: 2a1d 98b7 a275 e1b7 80ba cdb7 0622 b2b7
00000090: d02b b9b7 fa5a bfb7 bfb0 c4b7 12f3 e6b7
000000a0: 0db5 afb7 1bc9 b7b7 d26c 89b7 4a3c ceb7
000000b0: 4f3d d0b7 987b dab7 1c93 e1b7 e803 d6b7
000000c0: 3f4d ccb7 25eb e3b7 85b3 dbb7 b590 c6b7
000000d0: 55d0 d3b7 74b7 e5b7 1fac d6b7 2c76 e3b7
000000e0: e9a0 97b7 b02c a6b7 a1a8 b5b7 9c13 c7b7
000000f0: d967 99b7 604a d9b7 f4b7 a4b7 4d0c d9b7
00000100: aaaf c1b7 ace6 95b7 d856 9eb7 c776 aab7
00000110: 4f25 95b7 bdcf abb7 c861 5fb7 87aa 5bb7
00000120: 0d42 a0b7 0205 52b7 69e7 8bb7 474c 8cb7
00000130: c73b 7fb7 de24 67b7 50dc 2bb7 c0a0 d7b6
00000140: 5e58 1fb7 4aef 09b7 c802 1eb7 df29 3ab7
00000150: d6ea 95b6 558c a2b6 6057 f8b5 93be 90b5
00000160: baf8 02b6 3a26 dab5 ab15 fcb6 2453 a332
00000170: 73a9 0f35 76ad 04b7 f9a1 8535 0af8 8a36
00000180: 8224 9136 66fc c734 cb14 b833 6684 5436
00000190: d6ed 8236 9b3c 2437 1faf 4137 6ad0 2b37
000001a0: 7f0a 6b37 5177 6937 496d 6637 79d6 b237
000001b0: ff4f d337 7c9e cb37 a6c4 cc37 65ea 1838
000001c0: b2c0 1438 7fea 2038 5171 3a38 528b 4038
000001d0: b203 4938 a581 5a38 1f4e 8138 989a 8f38
000001e0: 2bea 9838 c504 9738 7f73 9f38 dc00 b138
000001f0: cd2d bf38 9831 c838 93ce ce38 41d0 e938
00000200: c163 f038 b3ed 0039 6efa 0239 8838 0c39
00000210: 3e96 1139 dfdb 1239 a48f 1539 76bc 1b39
00000220: 9861 1f39 b370 2939 b430 2739 02f6 2c39
00000230: 14c6 2939 698c 3539 4ba9 2e39 f415 3239
00000240: 22cb 3939 034a 3739 b707 3e39 6631 3b39
00000250: 26ed 4039 c1af 4539 ba1e 3d39 aaa0 4539
00000260: c1df 4439 750f 4b39 0698 4239 16b2 4339
00000270: 8a08 4739 db6f 4839 b45a 4939 d8a2 5139
00000280: 2d4f 4c39 c7fd 4e39 a011 5139 4d12 5639
00000290: 3318 5039 3b1d 5839 19c8 5939 6857 5839
000002a0: 114d 5c39 25d7 5a39 9adf 5c39 fadc 5a39
000002b0: 10c1 5839 ed6b 5a39 0a0f 5239 9e0a 5339
000002c0: a427 5039 7ea6 4c39 9444 4639 2e66 4539
000002d0: 1fb2 4239 4517 3f39 7f02 4439 e4af 3e39
000002e0: 78c8 4139 1c0a 3939 d903 3c39 649f 3439
000002f0: 8191 3439 ffdc 3539 fbfc 3039 1975 3439
00000300: 5771 3639 6068 3539 6ab0 2d39 c59c 2d39
00000310: 484c 3539 8542 3139 e84e 3139 949b 3039
00000320: cd21 3939 7546 3139 6072 3839 7ef3 3939
00000330: 7bd6 3139 f548 3839 75d8 3a39 e105 3539
00000340: a50a 3b39 40f1 3b39 a38d 3939 95fb 3539
00000350: 916c 3f39 baad 3839 9bfd 4039 905a 3f39
00000360: 7629 3f39 ba79 4139 d648 3939 3879 3f39
00000370: 706d 3e39 87e5 3c39 8e3d 4039 51ad 4339
00000380: 7776 4639 266b 4939 7e83 4a39 1caf 4a39
00000390: 84e2 5139 4660 4e39 b293 5239 5629 5339
000003a0: e4c9 5b39 8eb6 5639 d98f 5d39 8f27 6039
000003b0: df51 6239 140a 6439 e02b 6839 f85d 6739
000003c0: 1b33 6239 1ae9 6e39 dbbf 7139 adc8 7039
000003d0: edd4 7739 607d 7039 2d5a 7339 8c09 7d39
000003e0: 030c 7739 c397 7739 dca2 7e39 400c 7a39
000003f0: bfef 8039 3be1 7839 d39b 7a39 eae4 8039

exp_avg_sq f4 [96, 336]
1.6514203e-06 1.6514688e-06 1.651518e-06 1.6515233e-06 1.6515496e-06 1.6516084e-06 1.6516658e-06 1.6517495e-06
1.6518758e-06 1.6520137e-06 1.6522545e-06 1.6526096e-06 1.6529692e-06 1.6535143e-06 1.653927e-06 1.6543573e-06
1.6549903e-06 1.6556015e-06 1.6560905e-06 1.6568125e-06 1.6574318e-06 1.6581533e-06 1.6589041e-06 1.659732e-06
1.6605112e-06 1.6614387e-06 1.6623303e-06 1.6633402e-06 1.6644627e-06 1.6654719e-06 1.6665805e-06 1.6678536e-06
1.6692594e-06 1.6706064e-06 1.6719326e-06 1.6732807e-06 1.6744871e-06 1.6756654e-06 1.6767241e-06 1.6777419e-06
1.6787791e-06 1.6797105e-06 1.6806063e-06 1.6813989e-06 1.6822441e-06 1.683091e-06 1.6838203e-06 1.6845178e-06
1.6852857e-06 1.6859797e-06 1.686669e-06 1.6874436e-06 1.6880025e-06 1.6884331e-06 1.6889877e-06 1.6894588e-06
1.6897903e-06 1.6899851e-06 1.690215e-06 1.6904132e-06 1.6906387e-06 1.6908954e-06 1.691319e-06 1.691851e-06
1.6924848e-06 1.6927899e-06 1.6932393e-06 1.6935363e-06 1.6939097e-06 1.6940512e-06 1.6942295e-06 1.6944477e-06
1.6947504e-06 1.6948559e-06 1.6950422e-06 1.6952413e-06 1.6955665e-06 1.6959294e-06 1.6964207e-06 1.6968376e-06
1.6971366e-06 1.6971778e-06 1.6971741e-06 1.6972215e-06 1.6972974e-06 1.6972652e-06 1.6972567e-06 1.6970954e-06
1.6969714e-06 1.696744e-06 1.6968625e-06 1.6969283e-06 1.6969924e-06 1.6969719e-06 1.6971295e-06 1.6972156e-06
1.6972007e-06 1.6969485e-06 1.6969443e-06 1.6968116e-06 1.6965046e-06 1.6959569e-06 1.695371e-06 1.6945937e-06
1.6940302e-06 1.6934574e-06 1.6931953e-06 1.6930071e-06 1.6927495e-06 1.6923744e-06 1.6920484e-06 1.6919195e-06
1.69165e-06 1.6913464e-06 1.691009e-06 1.6906498e-06 1.6902221e-06 1.6897723e-06 1.689355e-06 1.6888029e-06
1.688124e-06 1.6874048e-06 1.6867981e-06 1.6859834e-06 1.6853436e-06 1.6848438e-06 1.6844215e-06 1.6840053e-06
1.6837239e-06 1.683318e-06 1.6830477e-06 1.6825859e-06 1.6821926e-06 1.6817926e-06 1.6815395e-06 1.681114e-06
1.6806539e-06 1.6802492e-06 1.679662e-06 1.6791719e-06 1.6785458e-06 1.6780135e-06 1.6775729e-06 1.6770839e-06
1.67677e-06 1.6765512e-06 1.6765565e-06 1.676574e-06 1.6767178e-06 1.6766967e-06 1.6763979e-06 1.6762502e-06
1.6759928e-06 1.675858e-06 1.6756986e-06 1.6754658e-06 1.6753702e-06 1.6752307e-06 1.6750669e-06 1.6750643e-06
1.6752102e-06 1.6752397e-06 1.6754419e-06 1.6757664e-06 1.6758772e-06 1.6760641e-06 1.6763518e-06 1.6765968e-06
1.6767184e-06 1.6767249e-06 1.6768269e-06 1.6768876e-06 1.6769336e-06 1.6770215e-06 1.6771132e-06 1.6775343e-06
1.677674e-06 1.6778619e-06 1.6779707e-06 1.6781146e-06 1.6782643e-06 1.678356e-06 1.6784556e-06 1.6783731e-06
1.6780654e-06 1.6774039e-06 1.6768462e-06 1.6761658e-06 1.675466e-06 1.6750618e-06 1.6746524e-06 1.6740177e-06
1.6733367e-06 1.6727107e-06 1.6721167e-06 1.6713939e-06 1.6704862e-06 1.6693755e-06 1.6682503e-06 1.6671437e-06
1.6658838e-06 1.6647858e-06 1.6638527e-06 1.6628611e-06 1.66158e-06 1.6603193e-06 1.6591514e-06 1.657803e-06
1.6567246e-06 1.6557323e-06 1.6550448e-06 1.6544476e-06 1.6538684e-06 1.6531449e-06 1.6524435e-06 1.6518887e-06
1.651257e-06 1.6507012e-06 1.650122e-06 1.6496708e-06 1.6494141e-06 1.6492455e-06 1.6492158e-06 1.6491394e-06
1.6491285e-06 1.64909e-06 1.6489157e-06 1.6485129e-06 1.6482843e-06 1.6481264e-06 1.6479831e-06 1.6476582e-06
1.6474596e-06 1.6470609e-06 1.6468305e-06 1.6464327e-06 1.6461285e-06 1.6457722e-06 1.6454827e-06 1.6451532e-06
1.6446515e-06 1.6444955e-06 1.6441463e-06 1.6437674e-06 1.6434662e-06 1.6428055e-06 1.6420944e-06 1.6414509e-06
1.6406416e-06 1.6397572e-06 1.6390893e-06 1.6384618e-06 1.6379508e-06 1.6374402e-06 1.6369181e-06 1.636447e-06
00000000: 5fa6 dd35 09a8 dd35 baa9 dd35 e9a9 dd35
00000010: d0aa dd35 d5ac dd35 ceae dd35 aeb1 dd35
00000020: 05b6 dd35 c2ba dd35 08c3 dd35 3ccf dd35
00000030: 97db dd35 52ee dd35 80fc dd35 490b de35
00000040: 0921 de35 0936 de35 d646 de35 a55f de35
00000050: ec74 de35 b78d de35 83a7 de35 f5c3 de35
00000060: bbde de35 99fe de35 3c1d df35 ef3f df35
00000070: 8166 df35 2e89 df35 45af df35 03db df35
00000080: 510b e035 9939 e035 2b67 e035 7d95 e035
00000090: f0be e035 6de7 e035 cd0b e135 c62e e135
000000a0: 6952 e135 6a72 e135 3191 e135 6dac e135
000000b0: 78c9 e135 91e6 e135 a0ff e135 9717 e235
000000c0: fa31 e235 d249 e235 8161 e235 1f7c e235
000000d0: 538f e235 1f9e e235 2db1 e235 5dc1 e235
000000e0: c1cc e235 72d3 e235 58db e235 28e2 e235
000000f0: e7e9 e235 b9f2 e235 4701 e335 8f13 e335
00000100: 5629 e335 d133 e335 4243 e335 774d e335
00000110: 4b5a e335 285f e335 4865 e335 c86c e335
00000120: 2e77 e335 ce7a e335 3581 e335 0c88 e335
00000130: 3993 e335 b19f e335 92b0 e335 e5be e335
00000140: 2bc9 e335 96ca e335 75ca e335 16cc e335
00000150: b2ce e335 97cd e335 4ccd e335 c1c7 e335
00000160: 7ec3 e335 aebb e335 c0bf e335 03c2 e335
00000170: 37c4 e335 83c3 e335 edc8 e335 e2cb e335
00000180: 5fcb e335 b5c2 e335 90c2 e335 01be e335
00000190: 74b3 e335 a3a0 e335 818c e335 cc71 e335
000001a0: 6f5e e335 c14a e335 bf41 e335 483b e335
000001b0: 6e32 e335 8b25 e335 571a e335 e915 e335
000001c0: a70c e335 3802 e335 a0f6 e235 49ea e235
000001d0: 97db e235 22cc e235 ccbd e235 d3aa e235
000001e0: 8093 e235 ca7a e235 f165 e235 f349 e235
000001f0: f733 e235 cb22 e235 4814 e235 fb05 e235
00000200: 50fc e135 5eee e135 14e5 e135 36d5 e135
00000210: b3c7 e135 f4b9 e135 42b1 e135 a3a2 e135
00000220: d492 e135 ec84 e135 bf70 e135 e85f e135
00000230: 654a e135 1b38 e135 f728 e135 2a18 e135
00000240: 610d e135 dc05 e135 0b06 e135 a506 e135
00000250: 960b e135 dc0a e135 9800 e135 85fb e035
00000260: adf2 e035 0bee e035 91e8 e035 91e0 e035
00000270: 48dd e035 7dd8 e035 dcd2 e035 c5d2 e035
00000280: c9d7 e035 ccd8 e035 bfdf e035 e5ea e035
00000290: b4ee e035 20f5 e035 02ff e035 6d07 e135
000002a0: 9b0b e135 d40b e135 550f e135 6b11 e135
000002b0: 0013 e135 0516 e135 2c19 e135 a427 e135
000002c0: 712c e135 e532 e135 a236 e135 943b e135
000002d0: b940 e135 e043 e135 4c47 e135 7644 e135
000002e0: e339 e135 2923 e135 ff0f e135 9ef8 e035
000002f0: 93e0 e035 afd2 e035 9ec4 e035 cfae e035
00000300: 6997 e035 e781 e035 7e6d e035 a854 e035
00000310: 7835 e035 4e0f e035 a5e8 df35 9fc2 df35
00000320: 5597 df35 9b71 df35 8b51 df35 792f df35
00000330: 7403 df35 23d8 de35 02b0 de35 ad81 de35
00000340: a05c de35 873a de35 e822 de35 630e de35
00000350: 7cfa dd35 a0e1 dd35 87c9 dd35 77b6 dd35
00000360: c2a0 dd35 a98d dd35 c379 dd35 426a dd35
00000370: 7061 dd35 a55b dd35 a05a dd35 0058 dd35
00000380: a057 dd35 4d56 dd35 5050 dd35 7942 dd35
00000390: 9e3a dd35 3135 dd35 4530 dd35 1b25 dd35
000003a0: 481e dd35 9510 dd35 aa08 dd35 fffa dc35
000003b0: 8bf0 dc35 4de4 dc35 5bda dc35 09cf dc35
000003c0: ccbd dc35 6fb8 dc35 70ac dc35 6b9f dc35
000003d0: 1295 dc35 5e7e dc35 ef65 dc35 d34f dc35
000003e0: 0434 dc35 a115 dc35 aefe db35 1ee9 db35
000003f0: 90d7 db35 04c6 db35 14b4 db35 e4a3 db35
