checkpoints/DLinear/ExchangeRate_100_336_96/e53a03290cbf34787a0f5da37e77e1d5/DLinear_best_val_MAE.pt (torch, 782442 bytes, 12 tensors)

Linear_Seasonal.weight f4 [96, 336]
000000 b8 20 d7 3b 3c ce b3 bb 83 fc f4 ba 7a dc 1b bc
       0.0065651797 -0.0054872315 -0.0018690977 -0.009513015
000010 ca 33 01 bc 93 88 8f bc 78 82 a8 bb 9b fe 60 ba
       -0.007885883 -0.017521178 -0.005142506 -0.0008582861
000020 b5 34 1e bb 61 32 51 bc d4 a2 6c bb c2 39 72 bb
       -0.0024140303 -0.012768359 -0.0036107795 -0.0036960696
000030 f7 d9 2f bc 03 12 4b bc 2a 8d 6f bc 9c ea 1f bc
       -0.010733119 -0.012394431 -0.0146210585 -0.009760525
000040 f3 b2 41 bc 98 ab 34 bc 10 ae 48 bc d2 09 98 bb
       -0.01182245 -0.011027239 -0.012248531 -0.0046398425
000050 d7 c6 8a bb 52 45 4a bc c4 3b 6c bb b3 eb 10 bc
       -0.0042351293 -0.012345629 -0.0036046365 -0.008845258
000060 06 66 58 bc ca b9 ac bb 46 96 12 bc 4b 2a cf bb
       -0.013207918 -0.005271171 -0.008946961 -0.0063221804
000070 0a bf 08 bb 68 ce 3b 3b 16 3f 00 bc 08 af 15 bb
       -0.0020865821 0.0028656963 -0.007827541 -0.0022839922
000080 1c 73 62 b9 32 9a 5c 3c 45 75 11 3c d6 ee 6e 3a
       -0.00021595921 0.013464497 0.008878057 0.0009114569
000090 29 43 9f 3b b6 5e 66 3c d6 84 8d 3c 1e 8f 80 3c
       0.004860301 0.014060667 0.017275255 0.015693244
0000a0 79 98 30 3b 56 df 9e 3c bb 22 a9 3c cb 5a aa 3c
       0.002694635 0.019393604 0.020646444 0.020795247
0000b0 f5 4f 80 3c 0f 98 ba 3c 86 d7 80 3c 80 cc 56 3c
       0.015663126 0.022777585 0.01572777 0.01311028
0000c0 b7 b8 26 3c 56 45 94 3c 7b d4 73 3c 2c 4c 87 3c
       0.010175875 0.018099468 0.014882202 0.016515814
0000d0 1d 89 8d 3c a7 5a 0b 3c f9 c2 85 3c 93 82 84 3c
       0.017277295 0.0085055 0.016328322 0.016175544
0000e0 e4 47 25 3c 84 ed ea 3b 16 e8 80 3b 91 a4 57 bb
       0.010087941 0.0071694274 0.003933917 -0.0032904486
0000f0 e1 3e 38 3c 2f 93 06 3b 5f 09 c8 3b 1a 7c af 3b
       0.01124546 0.0020534506 0.0061046327 0.00535537
000100 37 94 ff 3b 21 49 2b 3b a3 dd 85 b9 37 30 3e bb
       0.007799651 0.0026136118 -0.0002553287 -0.0029020438
000110 b2 f7 9b ba 40 4d 4c ba 65 b5 1e ba 0e 5f ae 3a
       -0.001189938 -0.00077934936 -0.00060542516 0.0013303475
000120 14 32 36 3b 08 50 61 3c 7d 0b 2d 3b 32 e8 ca 3a
       0.0027800845 0.013751991 0.0026404553 0.0015480577
000130 bf c0 a7 3a a9 52 0c bc 95 f2 9f ba e0 00 b3 bb
       0.0012798532 -0.00856463 -0.0012203032 -0.005462751
000140 64 13 41 bb 56 cc 49 3b 83 9a 6b bb 8f 16 3e ba
       -0.002946102 0.003079196 -0.003595025 -0.00072512863
000150 59 a8 1c bc b5 e2 17 bc 53 74 44 bc 48 1c 11 bc
       -0.009561622 -0.00927036 -0.0119906245 -0.00885684
000160 37 37 40 bc 63 d6 c1 bb bf ef b4 bc d8 6b 9f bc
       -0.011731914 -0.0059154495 -0.022086976 -0.019460604
000170 55 cd 91 bc b4 a5 87 bc 07 1a 8c bc 46 44 d0 bc
       -0.017798105 -0.016558506 -0.017102255 -0.02542318
000180 bf 2d bf bc f8 19 d6 bc 2f 7e c4 bc f0 68 a1 bc
       -0.023337243 -0.02613543 -0.02398595 -0.019703358
000190 1c 5f 94 bc b5 e9 7b bc 2c db 94 bc cd a7 76 bc
       -0.018111758 -0.015375544 -0.018170916 -0.015054655
0001a0 7f 24 4d bc 1a 54 f1 bb 73 84 fe bb 97 fa b7 bb
       -0.012520908 -0.007364762 -0.007767254 -0.0056145894
0001b0 77 d9 a8 bb e2 5d f2 39 7f 2a 1b 3b 89 dc 05 bb
       -0.005152877 0.00046227785 0.0023676453 -0.0020425639
0001c0 72 5f 1f 3b f7 06 a8 3b 4d b8 c9 3b c3 8c 07 3c
       0.0024318364 0.0051277834 0.0061560036 0.008273306
0001d0 74 8f 20 3c 46 26 13 3c 0f b4 a1 3b 47 4e 1a 3c
       0.009799827 0.008981293 0.0049347947 0.009418077
0001e0 d9 63 7e 3c fd f6 66 3c ad bc 26 3c 89 0a 6f 3c
       0.015526735 0.0140969725 0.01017682 0.014589914
0001f0 90 cf 5b 3c bc 2b 3a 3c 47 7b 39 3c 5b 5a 81 3c
       0.013416186 0.011362966 0.0113208955 0.015790155
000200 8a 29 4b 3c f2 f0 80 3c 56 60 ec 3b 9d 20 48 3c
       0.01240004 0.015739892 0.0072136326 0.012214807
000210 25 b5 60 3b 74 b1 92 3c ed 19 06 3c 72 db 05 3c
       0.0034287658 0.017906882 0.008184892 0.008169996
000220 0a 27 03 3c 59 88 fa 3b b4 ef af bb 93 3e 38 3b
       0.008004913 0.0076456484 -0.005369151 0.002811347
000230 34 bb d9 3b ff e4 da 3b 14 5e 07 3b 3d 6c 0c 3c
       0.006644631 0.0066801305 0.002065544 0.008570728
000240 1d 2d 99 3b 45 c9 cf 3a 6a 0b 2b 3c bb fa 01 3c
       0.0046745674 0.001585283 0.010439733 0.007933314
000250 69 84 48 3b bc d9 dd 3b dc ca 7c ba f4 55 11 3c
       0.00305965 0.0067703407 -0.00096432655 0.0088705905
000260 3f 37 cd 3b 35 53 fe bb b4 46 ad 3b 93 3d f6 3a
       0.0062626894 -0.007761384 0.0052879695 0.0018786661
000270 e5 39 33 bc 52 7b c3 bb ff dd 46 bc 50 ae 38 bc
       -0.010939096 -0.0059656287 -0.012137889 -0.011272028
000280 3b 13 3c bc c4 ea 9a bc ed 78 b0 bb 89 3a ea bb
       -0.011479194 -0.018910773 -0.005385509 -0.007148091
000290 22 fa 95 bc b4 11 a3 bc 9e 4b 4e bc c9 68 6d bc
       -0.01830775 -0.019905902 -0.012591271 -0.014490315
0002a0 4c ff 69 bc 82 44 a6 bb f2 bc 85 bc 59 ad 4b bc
       -0.014282059 -0.0050740847 -0.016325448 -0.012431466
0002b0 41 79 20 3b f6 b3 cb bb 3d d9 57 bc ed 8a a5 3a
       0.0024486335 -0.0062165214 -0.013174352 0.0012629904
0002c0 56 10 1d bc b9 c8 63 bb ee 61 b8 3b 23 1c 9c bb
       -0.009586414 -0.0034757091 0.0056269085 -0.0047640963
0002d0 26 1c a8 bb 11 4f 4c 3a 45 7b 31 3c 9f 17 8f 3c
       -0.0051303087 0.0007793764 0.010832612 0.017467318
0002e0 98 8c 72 3c 3d 0a 8a 3b 7c b3 62 3c 04 fa 63 3c
       0.014804028 0.0042126463 0.013836738 0.013914589
0002f0 6b 12 5c 3c 79 ff a4 3c 34 f8 b4 3c 43 ee 75 3c
       0.013432126 0.02014135 0.022091009 0.015010419
000300 e8 b8 3c 3c 3b 45 82 3c 1f 32 fe 3b fb ba 30 3c
       0.011518694 0.015902152 0.0077574397 0.010786767
000310 9c c6 71 3b 60 e5 ba 3c 6d b2 cd 3b a8 5c 2d 3c
       0.0036892062 0.022814453 0.0062773735 0.010581173
000320 2c 0a 6d 3c 11 fe 9b 3b 7c 8e 71 3a 97 54 c8 3b
       0.014467757 0.0047605117 0.0009214652 0.0061135995
000330 96 b5 79 bb 66 1b 11 3c 09 83 0e bc fd 68 7a 3b
       -0.0038102618 0.00885663 -0.008698233 0.003820955
000340 98 b9 c5 ba e0 db 7b 3b 95 5f 75 bb 33 c6 8f bc
       -0.0015085218 0.0038430616 -0.0037441005 -0.017550563
000350 d8 5d 75 bb b9 30 7e 3a e4 57 18 bc 9e 88 09 bb
       -0.0037439968 0.00096965913 -0.0092982985 -0.0020985971
000360 e1 6a 50 bc bf de 63 bb c4 73 e0 bb 26 fd 8f b6
       -0.012720794 -0.0034770218 -0.006849738 -4.2912025e-06
000370 84 e7 12 bc 44 0e 35 bc cc 7b 95 bb 27 32 6a bc
       -0.00896633 -0.0110507645 -0.004561877 -0.014294184
000380 dd ab 1a bc cd f6 f2 bb 40 64 3a bc 01 6e 60 bc
       -0.009440389 -0.007414675 -0.0113764405 -0.013698102
000390 fd 1f 16 bc dc 1a 26 bc 19 99 00 bc 9b e6 bc bc
       -0.0091629 -0.01013824 -0.007849001 -0.02305918
0003a0 11 1f 73 bc c9 37 01 bc dd 2b f4 bb 4d b8 61 bc
       -0.01483895 -0.007886835 -0.007451518 -0.013776851
0003b0 55 27 7e bc 9d 04 90 bc 5a 0e 07 ba 11 44 c7 bb
       -0.015512307 -0.017580325 -0.000515198 -0.006081112
0003c0 44 1e 0d bc 5a c6 1c bc b3 0e 4d 3b a1 6b 0c bc
       -0.008613173 -0.009568775 0.003128928 -0.008570583
0003d0 ff 8b f4 bb f3 c8 7e 3b f9 ee 31 3c 89 df 49 3a
       -0.007462978 0.00388771 0.010860198 0.0007700851
0003e0 b8 f7 fb 3b 54 fc c3 3b fd 4e 2f 3c 65 e4 f1 3b
       0.0076894425 0.0059810076 0.010699985 0.007381963
0003f0 d3 40 9c 3b 29 41 ae 3c 73 d1 93 3c 6f 91 a5 3c
       0.00476847 0.021271305 0.01804421 0.02021095

Linear_Seasonal.bias f4 [96]
000000 9d 29 a9 bc 00 ce 2f 3c e3 a9 ad bc e8 7c cd 3c
       -0.020649726 0.010730267 -0.021199172 0.025083974
000010 b2 42 48 bb 6a fc 08 3d 65 97 c6 bc ef 88 5f bb
       -0.0030557332 0.033443846 -0.024242112 -0.0034108718
000020 6f 68 84 3c 8a f5 d2 3b 5b fa c0 bc dd 7f 97 3c
       0.016163079 0.006437962 -0.023556879 0.018493587
000030 5d 81 2f bc d8 ae b0 bc 6b 61 07 bc d1 43 85 bc
       -0.010711995 -0.021567747 -0.008262972 -0.016267689
000040 02 03 a4 ba ec 0f 26 bd 67 b0 ba 3a 83 6b fc 3b
       -0.0012513103 -0.040542528 0.0014243246 0.007703246
000050 93 b7 e2 bb db 31 40 bc e3 f1 3c 3c 4f 30 5d 3c
       -0.0069188564 -0.0117306365 0.01153228 0.013500287
000060 61 07 e4 bc 10 ed 5c 3b a6 a1 db bc 4c 00 00 3c
       -0.02783555 0.0033710636 -0.026810478 0.007812571
000070 74 bf c4 bc 0a c1 72 bb 89 55 e9 3c 5a 65 11 3d
       -0.024017073 -0.003704133 0.02848317 0.035497047
000080 3e eb 13 3d a4 90 98 bc 78 13 06 bd 98 b6 9e 3b
       0.036113016 -0.018623658 -0.03273341 0.004843544
000090 7e d8 9d 3c 54 63 cb 3c c9 b4 16 3d 5e ad f2 bb
       0.01926827 0.024827637 0.036793504 -0.007405921
0000a0 d6 4d 44 3c e2 a4 8c 3b 8c 54 7e 3a 18 c7 1b 3d
       0.011981448 0.0042921165 0.00097019295 0.038031667
0000b0 fe 33 d0 3b a6 21 b8 3c fb cd 34 3c 9e 19 09 bc
       0.006353854 0.022476982 0.011035438 -0.008367924
0000c0 4a 03 74 bc 91 d6 a9 3b fc 3d ec 3c f6 d8 03 3d
       -0.014893362 0.005183049 0.02883815 0.032189332
0000d0 b6 c8 78 3b df bb 25 3c a6 93 0b bc 74 fe c2 39
       0.003796143 0.010115593 -0.008519089 0.00037192146
0000e0 7b 22 a4 bc 18 f8 bf bb 72 e8 50 3a 07 d8 7d bc
       -0.020035973 -0.0058584325 0.00079692074 -0.015493399
0000f0 95 0f 6f 3c bc e5 a4 bc 61 b9 80 3c 1a 6f 09 bc
       0.014591117 -0.020129077 0.015713396 -0.008388305
000100 ff b6 fe 3b 30 5d e6 3b 55 45 2a bd db 00 90 bc
       0.0077732797 0.007030152 -0.041570026 -0.017578533
000110 c0 09 a2 3c 52 34 74 bc b0 e8 8c 3c ce 20 29 3c
       0.01978004 -0.014905052 0.017200798 0.010322763
000120 7b f6 30 3d 0e 7d c2 bc 78 20 1d 3c 36 27 9a 3c
       0.043203812 -0.023741271 0.009590261 0.018817525
000130 09 01 4b 3c fa 10 01 3b 92 b8 e2 bc 8f 31 4e 3c
       0.0123903835 0.0019693957 -0.0276759 0.012585058
000140 77 21 1e 3b 82 d8 f3 3b d0 05 d4 bc d4 ca b4 bc
       0.0024128833 0.007441581 -0.025881678 -0.022069372
000150 5d 54 85 bc 6e 93 2a bd 15 d8 32 bc 87 32 8a bc
       -0.01627558 -0.041644506 -0.010915776 -0.016869796
000160 2d 18 a4 bc 58 2f b5 bc 0d 26 5f 3c e0 99 de 3b
       -0.02003106 -0.022117302 0.013619912 0.0067932457
000170 07 30 12 3c c8 cb 40 bd 6a 52 15 3d 3f 50 2e bc
       0.008922583 -0.04706934 0.03645555 -0.010639249

Linear_Trend.weight f4 [96, 336]
000000 85 c3 a5 bc f1 9a 03 bd 0c d1 d5 bc 14 38 c0 3c
       -0.020234833 -0.032130186 -0.026100658 0.02346424
000010 71 bf bb bc 9f 2b 6b 3c bc ea 1c 3d bc ee d6 3c
       -0.022918435 0.014353662 0.038309798 0.026236884
000020 bf a3 15 bd 8a 9b 0e 3c 97 dd 8e bc 99 c0 e3 3c
       -0.036533114 0.008704076 -0.017439647 0.027801799
000030 e6 66 b5 bc 08 0f 0c 3d f7 6e 5f 3d a2 24 00 bd
       -0.022143792 0.034194022 0.054549184 -0.031284936
000040 5d 25 f5 3c 82 3f 1c 3c 0c 41 40 3b 66 dc 0e bd
       0.029925043 0.009536626 0.0029335646 -0.034878157
000050 74 3c 86 bc ff ed f3 bc 08 de 60 bc f5 89 61 3d
       -0.016386248 -0.029776571 -0.013724811 0.055063207
000060 3a 76 84 bc 61 ab 26 3d e5 8e 2b bd 59 fc 18 3d
       -0.016169656 0.040690783 -0.04188432 0.037350032
000070 8b 13 16 bc ad 81 e2 bc 61 1c 4e 3b 67 87 fd bc
       -0.009159933 -0.027649725 0.003145002 -0.030948354
000080 05 01 58 3d 80 3e ee bc 05 f0 7d 3b b8 38 20 3d
       0.052735347 -0.029082537 0.00387478 0.03911659
000090 fc cb 03 3d a0 2c 85 3c ec 1f 35 3b f3 72 34 bd
       0.032176957 0.01625663 0.0027637435 -0.044054937
0000a0 fc 9d 8f 3c cb 0e c6 b9 7a 4f 5e 3d 98 d9 00 bd
       0.017531388 -0.00037776525 0.054275014 -0.031457514
0000b0 77 d9 de bc 02 bd 09 bd 34 a3 1b bd 7f ec 89 bc
       -0.027203305 -0.033627518 -0.03799744 -0.016836403
0000c0 01 cf d9 3a ca 7d d2 bc 82 05 92 bc bc a4 14 3c
       0.0016617478 -0.025694747 -0.017824892 0.009072479
0000d0 47 e2 46 bc 11 87 1a bd 50 54 a2 bc 0d 17 0e bd
       -0.01213891 -0.037726466 -0.019815594 -0.03468995
0000e0 b0 8f 68 3d ba ab 2f 3d 12 bd cb 3c f1 6f e0 ba
       0.056777656 0.04288838 0.02487043 -0.0017123205
0000f0 0c 69 53 3d 62 ef d8 bc c1 90 1c 3d 16 cd df bc
       0.051613852 -0.026481334 0.038223986 -0.027319472
000100 e7 e4 a9 bb 9e 1b 1f 3d 26 b8 a3 3c e6 93 e9 bb
       -0.005184758 0.038844697 0.01998527 -0.0071282266
000110 aa a5 15 3c a2 17 07 bd 46 50 0f 3d 01 cb 0b 3d
       0.009133736 -0.032981522 0.034988664 0.034129146
000120 27 52 0e bd a7 cc 93 3c c1 66 0d bd f1 49 24 bd
       -0.034746315 0.018041922 -0.034521822 -0.04010958
000130 cc 89 0b bd 0c 42 de bc d1 f1 9b bb 13 25 b1 3c
       -0.03406696 -0.027131103 -0.0047590514 0.021624124
000140 5a 97 a0 bc 15 d2 16 bc 0f e0 c7 bc 85 d6 3a bd
       -0.01960342 -0.009205361 -0.024398832 -0.045614738
000150 d8 9e 95 3c ff dd 14 3c f5 7c 0f 3d 3a e7 1c 3d
       0.01826422 0.009086131 0.035031278 0.038306452
000160 a0 57 bf 3c b9 b2 ba 3c e0 99 1e bd 6b 83 0c 3d
       0.023357213 0.0227903 -0.038720965 0.034305017
000170 88 91 1f 3d fb 8a 5c bd b1 ec d0 3c fe ed 2b 3d
       0.03895715 -0.05384348 0.025503488 0.041975014
000180 e7 53 e7 3c 44 c0 f7 bc 6d 76 29 bd 1d 70 93 bc
       0.02823825 -0.030243047 -0.041372705 -0.017997796
000190 37 23 da bc e9 a4 a5 3c 1c c9 fa 3c dd 7e 28 3c
       -0.02662812 0.020220237 0.030613475 0.010284153
0001a0 af 6f 03 3d 27 10 57 3c 0c 55 95 bc 59 43 cb 3c
       0.03208893 0.01312641 -0.01822903 0.024812387
0001b0 d0 fc e6 3c da 9f 6a bc 18 c0 34 bd 6c 78 40 3d
       0.028196722 -0.014320338 -0.044128507 0.046989843
0001c0 53 d2 b1 b9 b4 ca 20 bc 21 ba 45 3c 96 c0 86 bc
       -0.00033916775 -0.009813953 0.012068302 -0.016449254
0001d0 cd 8a 1e bd 36 7b 3c bd 11 fc 6a 3b ff 6e dc 3c
       -0.03870659 -0.04601594 0.003585581 0.026908396
0001e0 06 36 b2 3c 35 fa 19 bd 3d d7 34 bd 7c a6 4b bc
       0.021754276 -0.03759213 -0.04415058 -0.01242983
0001f0 05 12 61 3b 32 e1 eb bb c1 5c 0f bd 35 53 f2 3c
       0.0034343016 -0.007198476 -0.035000566 0.029580692
000200 c1 eb 2d 39 cd d5 d9 3c 08 38 09 bc 21 c5 f5 3c
       0.00016586391 0.026591206 -0.008375175 0.030001225
000210 b1 5d ec 3c 02 d1 8a bb ef a0 c8 bc 21 36 2b bc
       0.02885327 -0.0042363415 -0.024490802 -0.010449917
000220 47 f8 74 bc ca 6c 5b 3d f2 c0 7e bb 83 e8 75 3c
       -0.014951772 0.053570546 -0.0038872329 0.015009048
000230 f3 de 39 bd 85 5b 2f 3d ef 64 38 bd 24 45 f4 bc
       -0.045378637 0.04281189 -0.045018133 -0.029818125
000240 6f 1c cd 3c eb 8d 80 bc e8 71 01 3d fc 88 5c bc
       0.025037972 -0.015692672 0.03160277 -0.013460394
000250 cf 12 c3 3c 7c 46 42 3d 90 68 52 bd 26 c3 90 3c
       0.02381268 0.0474305 -0.05136925 0.017671179
000260 55 99 e8 ba fa dd 35 3d 81 fc 48 bd 62 52 52 bd
       -0.0017745892 0.044401146 -0.04906893 -0.051348098
000270 ca c2 e7 bc ab 81 91 bc 3e 58 b4 bc 5e a7 36 3d
       -0.028291125 -0.017762026 -0.022014733 0.044593208
000280 cf a2 a6 bc 96 cb 49 bc db 14 55 bc bd 73 db 3c
       -0.020341305 -0.012316605 -0.013005461 0.026788587
000290 99 7e 14 bd 6a 23 f7 3c b3 0c 10 3d 68 60 2b 3c
       -0.036253545 0.030168254 0.03516836 0.010459997
0002a0 88 2c 2d 3d 2d 29 c0 3c 3e a9 2a 3d 65 1a e0 3c
       0.042278796 0.023457134 0.04166531 0.027356336
0002b0 87 ef 81 3c 8b bc 41 3d 3f aa 51 bc 05 be 6d 3c
       0.015861286 0.04729895 -0.0127969375 0.014510636
0002c0 bc 52 92 3b 05 e5 09 bc b9 e5 42 bd cb 4a 0b bd
       0.004465429 -0.008416419 -0.04758236 -0.034006875
0002d0 34 72 1c bd e3 aa 58 bd a4 17 42 3c 22 b6 8b bc
       -0.03819485 -0.052897345 0.011846457 -0.017054621
0002e0 0e 69 19 3d a8 23 cb bc 79 8d d7 3c d6 fc d1 bc
       0.037453704 -0.024797276 0.026312577 -0.025633257
0002f0 51 fe 30 bc 87 60 5f 3c a1 2a c0 bc 6f fc 84 3c
       -0.010802821 0.013633854 -0.023457827 0.016233651
000300 2c a9 29 3d a7 24 00 3d 45 dd 35 bd b8 b3 32 bd
       0.0414211 0.031284954 -0.044400472 -0.043628424
000310 72 03 ed 3c bd 92 72 bc 77 e8 bd bc 85 f4 21 bd
       0.028932307 -0.014805493 -0.023182137 -0.039539833
000320 9e d6 30 3d cd 78 10 bd 29 07 02 3d 95 71 21 3d
       0.043173425 -0.035271455 0.03174511 0.03941496
000330 82 a8 4b bd d7 18 62 3b 1b 36 b0 3c aa 80 1d bd
       -0.04972125 0.003449967 0.021510174 -0.03845278
000340 be 38 95 3c 07 f0 c6 3c 3b fb 7d bb 74 c2 3f bd
       0.018215533 0.024284376 -0.0038754481 -0.046816304
000350 07 58 1f 3d e3 4c 04 bd 02 37 22 3d 9f 55 ab 3c
       0.03890231 -0.032299887 0.03960324 0.02091485
000360 47 61 ae 3c e5 dd 2f 3d e4 c9 22 bd b1 d3 9c 3c
       0.02128662 0.042936224 -0.03974332 0.019143911
000370 07 a9 9a ba 3b b4 08 bd 4c 64 94 bc d0 7d 44 ba
       -0.0011799642 -0.033375006 -0.018114232 -0.0007495554
000380 43 9f 31 3c 90 f3 30 3c 0c e4 3a bb 62 d9 de bc
       0.010841194 0.010800257 -0.0028517274 -0.027203266
000390 07 94 ad 3c 8b 31 02 bd ec a9 29 bc ba a1 dd bc
       0.021188749 -0.03178553 -0.010355454 -0.027054656
0003a0 de 9d 0f 3d c4 96 09 bd 72 b5 6f 3c 12 fa 94 3c
       0.035062663 -0.033591047 0.014630662 0.018185649
0003b0 2b 2c ae 3c bd 5d a6 3c 25 d0 21 3d 34 ef 80 3c
       0.021261295 0.02030837 0.039505143 0.015739061
0003c0 50 22 5c bd 6c f9 35 3d 04 bf 2f 3d 07 92 a6 3b
       -0.05374366 0.04442732 0.042906776 0.005083326
0003d0 70 9f 3c 3d fb 04 40 bd f5 d4 f8 bc ad 3f 40 3d
       0.04605049 -0.04687975 -0.030374983 0.046935726
0003e0 28 91 dc bc c6 e3 15 bd a7 8c c3 3c e4 c6 dc bc
       -0.026924685 -0.036594175 0.02387078 -0.026950307
0003f0 27 80 3a 3d e4 a9 32 bd a6 dd 03 bd a4 ac 0d 3d
       0.04553237 -0.04361905 -0.032193802 0.03458847

Linear_Trend.bias f4 [96]
000000 92 40 ab 3c 6c 61 2b bc f7 ba ab 3c 5f f8 cb bc
       0.020904813 -0.010460239 0.020963175 -0.024898706
000010 31 91 64 3b 35 cf 06 bd 60 3e cd 3c 9d 6d 89 3b
       0.003487658 -0.03291245 0.025054157 0.004193975
000020 9f 1c 7b bc d4 bf b4 bb 71 87 c3 3c 99 b1 95 bc
       -0.015326648 -0.0055160318 0.023868294 -0.018273162
000030 69 55 2d 3c 82 09 ad 3c 90 e8 08 3c ee 12 84 3c
       0.010579445 0.021122698 0.0083562285 0.016122308
000040 aa 45 99 3a c2 a6 26 3d 74 82 a5 ba 8d df fe bb
       0.0011693735 0.040686376 -0.0012627379 -0.007778114
000050 ae 5e df 3b 73 a4 3e 3c 82 f2 43 bc 7b b2 5f bc
       0.0068167066 0.011635887 -0.011959674 -0.013653393
000060 b2 3d e5 3c 6f 38 47 bb 13 d9 de 3c 9b 41 f1 bb
       0.02798352 -0.0030398627 0.027203118 -0.007362557
000070 4c 77 cb 3c fc 35 96 3b b0 4f e4 bc 3f 10 0f bd
       0.024837159 0.004584072 -0.02787003 -0.034927603
000080 a0 28 10 bd c3 27 9c 3c b2 c5 06 3d 6e c1 93 bb
       -0.035194993 0.019061929 0.03290338 -0.0045091426
000090 b5 9d 97 bc ac 13 c5 bc 90 1b 13 bd 6d 64 10 3c
       -0.018507818 -0.024057232 -0.035914958 0.008813006
0000a0 46 2d 32 bc 79 b2 56 bb 37 10 d6 b8 98 14 17 bd
       -0.010875052 -0.0032760187 -0.000102073354 -0.036884874
0000b0 08 51 a4 bb 2f 3e ab bc b1 3f 23 bc 40 b8 1a 3c
       -0.0050145425 -0.020903675 -0.009963916 0.009443343
0000c0 e0 ca 83 3c 32 0d 74 bb 0b ee df bc 4e 18 fb bc
       0.01608795 -0.003723931 -0.027335187 -0.030651238
0000d0 d0 37 13 bb 1d 1d 03 bc 66 6b 25 3c 29 7a d1 3a
       -0.0022463687 -0.008002547 0.010096407 0.0015981841
0000e0 0c 56 b7 3c 89 4a f9 3b 87 ff d8 3a 63 af 99 3c
       0.022379898 0.0076077622 0.0016555645 0.018760389
0000f0 e5 5c 37 bc 67 bc bd 3c 48 f3 4d bc 35 44 38 3c
       -0.011191581 0.023161126 -0.01257021 0.011246731
000100 fb 00 a0 bb 1d 40 82 bb 8b a0 37 3d 0d 7e b0 3c
       -0.0048829294 -0.003974928 0.04483084 0.02154448
000110 82 33 81 bc 93 7a a0 3c 33 0d 52 bc 12 84 c6 bb
       -0.015771631 0.019589698 -0.01282053 -0.0060582245
000120 31 d1 1f bd 4c 20 e6 3c 34 f4 95 bb 4c 93 63 bc
       -0.03901786 0.028091572 -0.0045762304 -0.013890099
000130 38 a6 e6 bb 6d 76 50 3b 7f 46 07 3d 0b 71 eb bb
       -0.007038858 0.0031808869 0.033026215 -0.0071851066
000140 4e 5a 56 3b 5c 44 f0 ba af ea ff 3c 63 fc e3 3c
       0.0032707634 -0.001833092 0.031239836 0.027830308
000150 e2 64 b0 3c 34 c4 3e 3d db ca 7f 3c e6 9c ac 3c
       0.02153248 0.046573833 0.015612329 0.021070909
000160 e6 73 c8 3c 15 d4 d3 3c b7 c8 28 bc be 9f 79 bb
       0.024469327 0.025857965 -0.01030176 -0.0038089599
000170 00 db c0 bb a5 03 4a 3d 13 ac 09 bd 93 0e 5c 3c
       -0.005885482 0.049319882 -0.03361137 0.013431209

exp_avg f4 [96, 336]
000000 d0 7b bf 36 a7 b0 06 36 eb a2 c5 36 2b 2f 3a 34
       5.7066572e-06 2.0070381e-06 5.8900237e-06 1.733976e-07
000010 27 23 3a 35 5d 85 22 37 c7 86 46 37 f7 a5 5e 37
       6.9341553e-07 9.6870035e-06 1.18331e-05 1.3270873e-05
000020 9f ab 92 37 7a 22 86 37 83 0e a4 36 d5 8c 2d 36
       1.7484474e-05 1.59901e-05 4.8892703e-06 2.5860984e-06
000030 8e 3f 6b 36 e5 4e 16 36 49 ed 8a b5 7b 38 ab b7
       3.5054723e-06 2.2397664e-06 -1.035086e-06 -2.041109e-05
000040 04 b7 be b7 35 f9 cd b7 c4 a6 7a b7 2e 27 a2 b7
       -2.2734988e-05 -2.455395e-05 -1.4939989e-05 -1.933015e-05
000050 aa 75 bb 36 9f 13 18 b7 f2 9c 04 b7 53 49 94 b7
       5.586732e-06 -9.064474e-06 -7.904355e-06 -1.767712e-05
000060 07 72 4b b7 b5 e4 64 b6 89 f8 43 b7 b8 ed 90 36
       -1.2126292e-05 -3.4107773e-06 -1.1680772e-05 4.3192085e-06
000070 52 65 ad b5 ba 0b 18 35 24 68 51 35 e2 88 c0 36
       -1.2918993e-06 5.6641477e-07 7.801011e-07 5.737981e-06
000080 14 68 cf 36 b6 99 67 37 74 29 ab 37 d6 56 e3 37
       6.181197e-06 1.3804462e-05 2.0404092e-05 2.7100945e-05
000090 f1 ab ae 37 8d 8c 8a 37 3e d3 b8 36 7e 4e 19 37
       2.0822483e-05 1.6516331e-05 5.508219e-06 9.137786e-06
0000a0 cb 64 54 37 19 04 26 37 2e 61 46 37 2f 7c bc 35
       1.2659652e-05 9.895325e-06 1.1824346e-05 1.4043234e-06
0000b0 36 30 57 37 95 d5 7b 36 de 4c 7d b6 bd d9 09 b7
       1.2826224e-05 3.7526236e-06 -3.774468e-06 -8.2165325e-06
0000c0 66 84 f5 b5 7f 8f 50 36 f4 ad 2d b5 ce 6c 05 b7
       -1.8292455e-06 3.107794e-06 -6.470066e-07 -7.952751e-06
0000d0 63 78 6a 35 f6 22 0d b7 1d f7 5b 36 08 e4 1c b6
       8.734698e-07 -8.412395e-06 3.2777382e-06 -2.3378543e-06
0000e0 84 72 02 b4 41 24 fe b5 6c a5 d6 36 ec 0c 77 37
       -1.2148854e-07 -1.8935026e-06 6.3969546e-06 1.4725356e-05
0000f0 6e 0e 03 b7 12 32 27 36 94 6d 6e 36 44 59 7a b6
       -7.811568e-06 2.4914084e-06 3.5528547e-06 -3.7304862e-06
000100 70 00 d2 36 7a 2e 39 36 20 a2 1a 37 30 59 83 36
       6.2585386e-06 2.75942e-06 9.216863e-06 3.914487e-06
000110 09 fa bf b6 87 f2 e3 b6 47 8f 0c b7 ea 2a 09 35
       -5.7213515e-06 -6.793361e-06 -8.37801e-06 5.1098925e-07
000120 72 eb a3 b7 da be c1 b7 bc c4 19 b8 32 e8 89 b7
       -1.9540752e-05 -2.3096265e-05 -3.6661266e-05 -1.6439797e-05
000130 ef 7e df b6 0c a3 af b6 69 ff be 36 f4 6e bc b6
       -6.660695e-06 -5.2343876e-06 5.692175e-06 -5.6157533e-06
000140 69 11 cf 36 59 43 5a 36 7d fe c4 b5 5d 4e 1b 35
       6.1711075e-06 3.2523733e-06 -1.4677204e-06 5.7856033e-07
000150 03 09 d0 b6 09 c2 f9 b6 e9 a3 72 b6 06 4c 19 b7
       -6.199932e-06 -7.443367e-06 -3.6156218e-06 -9.137211e-06
000160 3a 0a e0 b6 db 7f 78 b6 36 a1 a9 b7 00 08 bb b7
       -6.6769107e-06 -3.7029301e-06 -2.022144e-05 -2.2295862e-05
000170 9f 7c 26 b7 f4 17 d4 b6 15 4b cb 36 71 3e 13 37
       -9.923387e-06 -6.320881e-06 6.058612e-06 8.776421e-06
000180 91 24 bc 37 05 62 e5 37 c6 26 bd 37 37 c0 ee 37
       2.2428374e-05 2.7344571e-05 2.2548611e-05 2.8461318e-05
000190 a1 5c 3c 37 51 cb a7 b6 aa 4b 1d b7 1a 0d 3f b7
       1.122724e-05 -5.000657e-06 -9.375546e-06 -1.1387538e-05
0001a0 80 df 86 b7 79 dc 67 b7 20 0a dd b7 5c 68 30 b7
       -1.607812e-05 -1.3820006e-05 -2.6349968e-05 -1.05147155e-05
0001b0 f0 40 0c b6 e4 07 e9 36 c6 e2 84 37 a1 37 e2 37
       -2.0899424e-06 6.9448597e-06 1.5841226e-05 2.6967204e-05
0001c0 54 b0 30 37 7c 05 1b 37 ca 0b 12 37 a4 bd 22 37
       1.0531472e-05 9.239997e-06 8.705023e-06 9.700107e-06
0001d0 67 eb 76 37 31 73 ee b6 2a 14 bb b6 6a da 05 b5
       1.47175515e-05 -7.106363e-06 -5.5753817e-06 -4.9864195e-07
0001e0 7c 35 6e 36 79 70 04 37 20 34 36 37 04 bb 4a 36
       3.5495896e-06 7.894e-06 1.0860182e-05 3.0209203e-06
0001f0 87 3d c8 35 2e d8 9e 36 18 b6 0f 35 5e 8a 47 36
       1.4919068e-06 4.7339336e-06 5.353663e-07 2.973385e-06
000200 a6 ed 92 36 97 bc d4 b3 db d1 e1 b5 b3 04 41 b7
       4.378805e-06 -9.9063236e-08 -1.6824882e-06 -1.1504791e-05
000210 58 6d 74 b7 29 e7 5f b6 7a e3 19 b6 2e 52 7f b6
       -1.4568992e-05 -3.3364142e-06 -2.2931185e-06 -3.8045796e-06
000220 8f 1f 08 b7 f5 ae 72 b7 5b a4 b1 b6 11 fa 32 37
       -8.1135795e-06 -1.4465059e-05 -5.2941446e-06 1.066785e-05
000230 02 8d 5a 37 42 ad c4 36 90 19 a7 36 06 0a bd 36
       1.30266435e-05 5.861425e-06 4.9799637e-06 5.633806e-06
000240 1e 84 0f 37 9a 05 2a 37 c2 e1 41 36 a5 80 83 37
       8.554225e-06 1.0134094e-05 2.889065e-06 1.5676322e-05
000250 f9 89 09 37 57 29 86 b6 31 bd 23 b7 00 eb b5 b7
       8.197961e-06 -3.998324e-06 -9.759607e-06 -2.1686312e-05
000260 f3 89 79 b7 ee 07 67 b6 21 31 f7 b6 bb dd 8e b7
       -1.4873675e-05 -3.4426298e-06 -7.366893e-06 -1.703097e-05
000270 4a 09 27 b7 30 d3 31 b7 45 4f c2 34 f5 df 57 37
       -9.9561385e-06 -1.0599193e-05 3.6192992e-07 1.2867143e-05
000280 6f d6 36 b6 81 73 62 37 dc 5a fd 35 60 44 fd 35
       -2.724493e-06 1.3497543e-05 1.8876412e-06 1.8869869e-06
000290 cd d5 5a b6 1f cf 14 b7 6e ce 92 b7 6a 25 d3 b7
       -3.260898e-06 -8.869712e-06 -1.7500683e-05 -2.5170582e-05
0002a0 b6 b4 dc b7 d8 27 96 b7 7d 4e 94 b6 20 e4 be b5
       -2.6310194e-05 -1.7899947e-05 -4.419881e-06 -1.4222496e-06
0002b0 8b 4d dd 35 ab 4d bb 36 a9 db 61 b6 62 a3 27 37
       1.6488351e-06 5.582076e-06 -3.3655472e-06 9.992016e-06
0002c0 36 ad be 36 19 1c 34 36 07 e5 a5 b6 89 a3 8f b7
       5.6826057e-06 2.6838445e-06 -4.9440455e-06 -1.712308e-05
0002d0 cc 3b 8f b7 8f c7 e1 b6 c5 f5 10 36 8c 90 23 35
       -1.7074773e-05 -6.728754e-06 2.1600729e-06 6.0932575e-07
0002e0 0f 97 94 35 7b dd 17 37 14 f0 fe 36 9c 32 40 37
       1.1070823e-06 9.051869e-06 7.5977387e-06 1.1455875e-05
0002f0 90 ff 44 37 be d6 83 37 b7 a1 4d 37 30 d2 d3 35
       1.1742013e-05 1.5716414e-05 1.2256604e-05 1.5781898e-06
000300 85 1d 6c 37 93 44 b8 b6 f1 73 12 b7 55 8e 93 b7
       1.4073569e-05 -5.4916104e-06 -8.729273e-06 -1.7590044e-05
000310 2c a8 ba b7 10 2a 69 b7 5f fd 37 b7 ca d1 ba 35
       -2.2251239e-05 -1.3897676e-05 -1.0966643e-05 1.3919137e-06
000320 05 8e 5f b7 83 25 8c b7 ea 5a 16 b7 2d 73 18 37
       -1.3324902e-05 -1.6706768e-05 -8.961864e-06 9.0867225e-06
000330 16 89 40 37 b7 1d 8e 37 09 be 96 37 82 73 40 37
       1.147601e-05 1.6941556e-05 1.7969885e-05 1.1470986e-05
000340 1b c2 87 36 25 9b e6 36 c7 0b 75 36 ea c0 c2 35
       4.0459104e-06 6.8725953e-06 3.65147e-06 1.4510272e-06
000350 5c 6a 06 35 fa 7c 02 b5 71 4b de b4 d9 9c 7d 36
       5.0073663e-07 -4.861064e-07 -4.1405613e-07 3.7791235e-06
000360 fe b0 6c b5 03 59 d9 b5 00 dd 17 b6 e1 5c 59 b7
       -8.817441e-07 -1.6193666e-06 -2.2629392e-06 -1.2955833e-05
000370 bd 3d 94 b6 c2 a8 29 b7 ff 3c ba 36 4e 03 15 37
       -4.417931e-06 -1.0112477e-05 5.550333e-06 8.8818615e-06
000380 8f b8 05 37 2a a2 f5 36 4d bb 8a b2 d1 64 21 b6
       7.970389e-06 7.3204474e-06 -1.6150489e-08 -2.4049552e-06
000390 95 20 10 b7 a0 d2 88 b7 c4 60 c5 b7 1d a9 85 b7
       -8.590655e-06 -1.6310543e-05 -2.352929e-05 -1.5933585e-05
0003a0 57 c0 7f b7 a3 8d 56 b7 f9 85 4f b7 d4 55 08 37
       -1.5243967e-05 -1.2788371e-05 -1.2369354e-05 8.126215e-06
0003b0 53 e6 4b 36 d0 80 fe 36 3f 6f 5e 37 59 58 bc 37
       3.0383424e-06 7.5847856e-06 1.3258133e-05 2.2452487e-05
0003c0 55 03 8d 37 46 fc 37 37 da 0a 3e 37 2d c8 a2 37
       1.6810061e-05 1.0966387e-05 1.1327409e-05 1.9405119e-05
0003d0 8c 8b 69 37 ca dd 39 36 ac 04 2e 37 82 d4 66 36
       1.3920373e-05 2.7696246e-06 1.0372296e-05 3.4396367e-06
0003e0 5c d1 46 b5 1b 21 28 b7 d3 11 2b b6 b6 ac 95 36
       -7.4065406e-07 -1.0021288e-05 -2.549136e-06 4.4606522e-06
0003f0 ac 3a 46 37 6e 08 9c 37 ae 36 86 37 83 f4 9e 36
       1.181538e-05 1.8600575e-05 1.5999507e-05 4.737232e-06

exp_avg_sq f4 [96, 336]
000000 d8 7a 77 30 ae a1 b1 30 97 99 ab 30 eb ee dd 30
       9.003265e-10 1.2924397e-09 1.248554e-09 1.6147771e-09
000010 a2 50 d6 30 08 cb e2 30 31 8b ec 30 fd ba f9 30
       1.5593467e-09 1.6501369e-09 1.721082e-09 1.817028e-09
000020 a1 f0 ea 30 a2 51 ef 30 05 ae f5 30 95 e8 f4 30
       1.7094132e-09 1.741274e-09 1.7875555e-09 1.781944e-09
000030 6f da 00 31 03 26 06 31 32 e9 ff 30 ca 1f fb 30
       1.8750617e-09 1.9521174e-09 1.861997e-09 1.8271689e-09
000040 a3 2a 05 31 6d 71 f4 30 69 9a fb 30 0f 62 00 31
       1.9378283e-09 1.7785574e-09 1.830654e-09 1.8682191e-09
000050 73 0a fc 30 32 32 f1 30 c1 db 00 31 b8 be 03 31
       1.8338383e-09 1.7549324e-09 1.8751367e-09 1.917142e-09
000060 66 2f 0c 31 cc 85 0a 31 21 75 0a 31 90 dc 0a 31
       2.0399624e-09 2.0157698e-09 2.0148223e-09 2.0207018e-09
000070 1d 0b 00 31 bb 65 f5 30 18 bd f3 30 c9 1b e9 30
       1.8632769e-09 1.785501e-09 1.7734321e-09 1.6960878e-09
000080 2e 91 f6 30 5d e2 f3 30 bc 4a f9 30 6f ca 0b 31
       1.7940118e-09 1.7744913e-09 1.8138375e-09 2.0342232e-09
000090 29 07 05 31 96 d9 01 31 a2 6d fe 30 b8 81 f8 30
       1.9358117e-09 1.8895654e-09 1.8512092e-09 1.8081243e-09
0000a0 22 26 03 31 d0 c9 fb 30 2f 3a f3 30 67 30 f3 30
       1.9084685e-09 1.8320012e-09 1.7697114e-09 1.7694334e-09
0000b0 c7 c5 ff 30 8b f9 f1 30 57 de 06 31 37 4b fb 30
       1.8609904e-09 1.7605982e-09 1.9625952e-09 1.8284031e-09
0000c0 4f f3 02 31 27 04 ea 30 53 65 04 31 3e ca 09 31
       1.9055795e-09 1.7026921e-09 1.9266124e-09 2.0051085e-09
0000d0 15 67 f1 30 5f c7 f1 30 be 29 f3 30 5d a1 f3 30
       1.7564356e-09 1.7591723e-09 1.7692441e-09 1.7726439e-09
0000e0 e4 a8 f4 30 37 b9 08 31 2e 96 07 31 d9 e9 ed 30
       1.7801338e-09 1.9895887e-09 1.9730453e-09 1.7310483e-09
0000f0 25 5c f7 30 7d 0d 03 31 2e 0c 0d 31 c8 a9 0c 31
       1.7997804e-09 1.9070676e-09 2.0525124e-09 2.046919e-09
000100 aa 73 0a 31 df ef 06 31 84 1b f0 30 92 5f 02 31
       2.014739e-09 1.9635917e-09 1.7470119e-09 1.8971815e-09
000110 c0 12 00 31 af 8f 00 31 f1 e8 f4 30 6a 41 fe 30
       1.863711e-09 1.8708126e-09 1.7819543e-09 1.8499524e-09
000120 50 22 0a 31 dd 9f 03 31 a7 6c 11 31 41 7a 01 31
       2.0101147e-09 1.915388e-09 2.1162039e-09 1.8841464e-09
000130 e1 5e 00 31 c0 a6 fc 30 51 fc e7 30 33 25 f7 30
       1.8680384e-09 1.8382806e-09 1.6879175e-09 1.7982188e-09
000140 10 01 05 31 24 da 02 31 a2 e9 fb 30 da 3b 02 31
       1.9354651e-09 1.9041488e-09 1.8329056e-09 1.8951511e-09
000150 4a c9 f8 30 18 59 01 31 81 4c 00 31 11 e0 07 31
       1.8101585e-09 1.8822615e-09 1.866994e-09 1.9772453e-09
000160 6d ed 02 31 1a 54 0f 31 7e 59 04 31 66 e6 0a 31
       1.905245e-09 2.0857045e-09 1.9259399e-09 2.021261e-09
000170 f7 01 0c 31 d4 40 00 31 2e bd fc 30 f9 7e f3 30
       2.0373798e-09 1.8663302e-09 1.8389181e-09 1.7716665e-09
000180 35 7e f2 30 76 47 06 31 0a 13 fc 30 3f de 07 31
       1.7643688e-09 1.9540187e-09 1.8340824e-09 1.9771418e-09
000190 bc b9 fe 30 7c 04 09 31 2b 8c 0b 31 20 4b f3 30
       1.8533721e-09 1.9938673e-09 2.0306838e-09 1.7701929e-09
0001a0 c1 cf 0d 31 2e 50 0f 31 77 ae 09 31 47 3d 01 31
       2.0636295e-09 2.0854816e-09 2.0035296e-09 1.8806803e-09
0001b0 b0 ca 02 31 63 15 08 31 4f 80 01 31 cd 75 ff 30
       1.9032704e-09 1.9802762e-09 1.8844906e-09 1.8587173e-09
0001c0 c6 6e 02 31 a0 b9 0a 31 e5 f6 19 31 9b b1 11 31
       1.8980457e-09 2.0187159e-09 2.2404774e-09 2.1201234e-09
0001d0 f9 5a 03 31 5d 94 05 31 51 3b 00 31 4f 42 fe 30
       1.911472e-09 1.9438382e-09 1.866017e-09 1.8499778e-09
0001e0 bd b9 06 31 1b 0d 0f 31 bd 3b 08 31 7c b1 08 31
       1.9605146e-09 2.0816688e-09 1.9824562e-09 1.9891493e-09
0001f0 81 fe 0d 31 20 31 05 31 82 d7 08 31 81 a9 01 31
       2.066287e-09 1.9381972e-09 1.9913107e-09 1.8868322e-09
000200 3f 1f 01 31 06 98 f9 30 69 1d f0 30 2b 57 fa 30
       1.8789732e-09 1.8160342e-09 1.7470657e-09 1.8214669e-09
000210 43 4b 0d 31 61 f6 0c 31 42 71 0a 31 99 cd 0a 31
       2.0560982e-09 2.0512732e-09 2.0146023e-09 2.0198512e-09
000220 ba 83 17 31 07 08 09 31 3e 9e 0e 31 cc b0 07 31
       2.204827e-09 1.9940687e-09 2.075367e-09 1.9745583e-09
000230 5f 73 07 31 78 31 fb 30 80 92 01 31 db a3 04 31
       1.9710666e-09 1.8276713e-09 1.8855246e-09 1.930167e-09
000240 b8 05 f7 30 19 34 0a 31 3f 03 10 31 ff 5a 00 31
       1.7973241e-09 2.0111257e-09 2.0956603e-09 1.8678177e-09
000250 13 4b 0c 31 dc c2 ff 30 06 17 00 31 38 81 05 31
       2.0415356e-09 1.8609074e-09 1.8639539e-09 1.94275e-09
000260 fe 55 03 31 e9 dc 0b 31 26 ee 04 31 35 ee 08 31
       1.911189e-09 2.0352735e-09 1.93439e-09 1.992601e-09
000270 67 59 fb 30 60 eb f5 30 76 8e f6 30 17 35 03 31
       1.8288063e-09 1.7892994e-09 1.7939346e-09 1.9093187e-09
000280 b9 3a 08 31 c0 04 08 31 25 5d 0a 31 74 61 0e 31
       1.9823985e-09 1.9793305e-09 2.013459e-09 2.0719115e-09
000290 37 d9 04 31 a6 33 fc 30 7a 39 06 31 0f 24 03 31
       1.9332e-09 1.8350093e-09 1.9532238e-09 1.9083506e-09
0002a0 cb 76 06 31 c7 0f 02 31 ed 4b fe 30 e5 f6 05 31
       1.9567092e-09 1.8926458e-09 1.8502512e-09 1.949439e-09
0002b0 a8 65 02 31 cb d9 0a 31 0c c9 00 31 a8 ba 0b 31
       1.8975275e-09 2.0205444e-09 1.8740733e-09 2.0333264e-09
0002c0 ae 5a 10 31 a6 fd 04 31 8f 28 06 31 73 f4 01 31
       2.1006303e-09 1.935271e-09 1.9522621e-09 1.8910924e-09
0002d0 81 c2 03 31 49 c8 0f 31 06 6d 0b 31 c6 fb 08 31
       1.9173572e-09 2.0923088e-09 2.0289135e-09 1.9933721e-09
0002e0 0a f0 01 31 d9 df 12 31 d5 80 07 31 4b 67 06 31
       1.8908417e-09 2.137304e-09 1.9718318e-09 1.9558282e-09
0002f0 82 1d 0c 31 c4 89 13 31 d8 4e 11 31 bb 1f 02 31
       2.0389455e-09 2.1469626e-09 2.1145095e-09 1.8935526e-09
000300 ea a9 08 31 1e 37 11 31 f7 4d 0d 31 79 c9 04 31
       1.988719e-09 2.1131608e-09 2.0562518e-09 1.9323052e-09
000310 88 b3 0f 31 37 b5 0e 31 69 d3 03 31 20 1b 09 31
       2.091129e-09 2.0766728e-09 1.9183182e-09 1.9951543e-09
000320 cd df 06 31 ae 4b 0b 31 21 0e fc 30 87 1d 00 31
       1.9626782e-09 2.027018e-09 1.8339429e-09 1.8643236e-09
000330 85 ee 04 31 c6 74 06 31 5c 63 09 31 3a bc 0c 31
       1.934411e-09 1.9565944e-09 1.9992603e-09 2.0479676e-09
000340 d3 c0 11 31 7a 62 0e 31 27 18 0d 31 e5 7d 0a 31
       2.1209885e-09 2.0719697e-09 2.053193e-09 2.0153206e-09
000350 97 71 16 31 1c e1 0e 31 76 16 11 31 aa 27 06 31
       2.1892441e-09 2.079168e-09 2.1113045e-09 1.9522113e-09
000360 05 67 02 31 3e 63 03 31 8e 8e f9 30 45 18 05 31
       1.897605e-09 1.9119422e-09 1.8157651e-09 1.9367843e-09
000370 0a ae 00 31 62 64 08 31 ea a2 17 31 8d f0 14 31
       1.8725381e-09 1.9847666e-09 2.2065998e-09 2.1673572e-09
000380 7f b9 06 31 c9 47 0e 31 ee 8f 10 31 13 46 12 31
       1.9605009e-09 2.0704525e-09 2.1036572e-09 2.1285629e-09
000390 57 e2 12 31 32 e0 05 31 20 5e 04 31 05 94 0b 31
       2.1374456e-09 1.9481488e-09 1.9262032e-09 2.0311302e-09
0003a0 b5 1a 10 31 19 6d 07 31 33 78 0f 31 e0 45 0e 31
       2.096994e-09 1.97071e-09 2.0877564e-09 2.070344e-09
0003b0 43 f6 0a 31 ec bc 05 31 68 a4 01 31 3f da 00 31
       2.0221627e-09 1.9461437e-09 1.8865425e-09 1.875051e-09
0003c0 bc e2 fb 30 b0 1c 04 31 ee 47 09 31 82 be 11 31
       1.8327095e-09 1.9224835e-09 1.9977011e-09 2.1208568e-09
0003d0 be 5f 07 31 84 fa 06 31 ce 59 fa 30 75 b2 07 31
       1.9699509e-09 1.9641968e-09 1.8215418e-09 1.9746527e-09
0003e0 a2 16 01 31 3e 3b 0e 31 ea f6 0d 31 f3 b9 04 31
       1.8784836e-09 2.0697395e-09 2.0658555e-09 1.9314228e-09
0003f0 8e 2c 09 31 a7 b1 15 31 66 dc 01 31 f7 15 08 31
       1.996145e-09 2.1783337e-09 1.8897253e-09 1.980309e-09

exp_avg f4 [96]
000000 e0 b9 da b9 be a1 1e b9 b2 58 b0 b9 4c ca d5 b9
       -0.00041718688 -0.00015128308 -0.0003363542 -0.0004077725
000010 b5 87 88 b9 bf 17 a4 b9 b8 50 e1 36 5d 36 7d b9
       -0.0002604105 -0.0003129821 6.7149194e-06 -0.00024148212
000020 1a 66 ae b9 15 ea 05 b8 cf 35 68 b9 84 b1 81 b9
       -0.00033263938 -3.1927677e-05 -0.0002214529 -0.00024737057
000030 d9 12 a5 b9 49 8c 9a b9 79 48 93 b9 a3 7d f4 b9
       -0.00031485295 -0.0002947769 -0.0002809202 -0.00046632913
000040 2a ba 17 ba 3c 97 0f ba 4e 03 16 b9 4c 81 5f b9
       -0.00057879335 -0.0005477553 -0.00014306346 -0.00021315104
000050 b9 ed 6a b9 c8 9f b3 b9 75 f0 b3 b9 d6 b5 ba b9
       -0.00022404538 -0.00034260587 -0.00034320695 -0.00035612163
000060 f2 85 91 b9 5e 57 20 b9 5a e7 46 b9 f2 a4 55 b8
       -0.00027756352 -0.00015291336 -0.00018968937 -5.0936775e-05
000070 a0 2d 14 b9 53 76 40 b9 18 65 cc 37 62 c6 a2 b8
       -0.00014131377 -0.00018354626 2.436577e-05 -7.761714e-05
000080 47 74 1c b9 11 65 10 b9 fc 70 df b8 b4 eb e1 b8
       -0.00014920636 -0.0001377056 -0.000106545136 -0.00010772739
000090 57 a7 7f b9 a7 26 0f b9 0e d1 9e b8 8c 5a 34 b9
       -0.00024381034 -0.00013651942 -7.5729666e-05 -0.00017199869
0000a0 61 f5 3b b9 eb a4 00 b9 a1 1e 3f b9 75 0b 54 b9
       -0.0001792512 -0.00012268468 -0.0001822659 -0.00020222164
0000b0 cb 5c 58 b9 05 cd 75 b9 f3 d1 6f b9 85 ab 77 b9
       -0.00020633933 -0.00023441396 -0.00022871028 -0.00023619652
0000c0 94 0b a1 b9 a2 48 81 b9 a1 c8 b7 b9 10 13 7f b9
       -0.0003071694 -0.00024658913 -0.0003505396 -0.00024325796
0000d0 91 55 78 b9 c3 35 24 b9 43 07 86 b9 cf 39 43 b9
       -0.00023682999 -0.00015660287 -0.00025563882 -0.00018618185
0000e0 00 10 36 b9 39 85 39 b9 a1 7d 34 b9 7e 05 35 b9
       -0.00017362833 -0.00017692604 -0.00017212938 -0.00017263551
0000f0 c2 3b 67 b9 71 f2 70 b9 98 d5 8d b9 2e e4 6d b9
       -0.00022052138 -0.000229785 -0.00027052755 -0.00022687085
000100 89 97 22 b9 6e b7 24 b9 f3 94 7d b9 ac 67 39 b9
       -0.00015505975 -0.00015708592 -0.00024183448 -0.00017681596
000110 57 46 6a b9 74 d3 49 b9 d2 7d 86 b9 c4 9c a6 b9
       -0.00022342183 -0.00019247626 -0.00025652215 -0.00031778787
000120 8c 69 91 b9 68 c3 5f b9 86 9a 3f b9 49 19 fe b8
       -0.00027735194 -0.00021339732 -0.00018272744 -0.000121163735
000130 06 38 3c b9 0e 36 dd b8 8d 87 fc b8 02 46 1e b9
       -0.00017949948 -0.0001054817 -0.00012041545 -0.00015094134
000140 79 95 14 b9 e0 c8 41 b9 f1 9a 7e b8 72 07 3a b9
       -0.00014170063 -0.00018480746 -6.070262e-05 -0.00017741116
000150 41 d1 57 b9 7d 50 c0 b8 66 2d dd b8 ac 75 57 b9
       -0.00020581951 -9.1702655e-05 -0.00010546557 -0.00020547834
000160 bb e7 28 b9 73 50 36 b9 7a 29 04 b9 be 97 c1 b8
       -0.00016108055 -0.00017386842 -0.00012603952 -9.231221e-05
000170 99 cb 1c b9 a1 96 6c b9 bd 44 40 b9 00 74 31 b9
       -0.00014953165 -0.00022562828 -0.00018336154 -0.00016923249

exp_avg_sq f4 [96]
000000 3c ee 51 35 83 06 54 35 10 36 51 35 25 d4 4c 35
       7.8205244e-07 7.898563e-07 7.793724e-07 7.6304633e-07
000010 42 1f 49 35 ca 5c 4c 35 8a 74 41 35 d8 d6 4a 35
       7.492382e-07 7.613095e-07 7.206769e-07 7.55635e-07
000020 74 3b 48 35 76 2d 45 35 b8 5f 46 35 83 88 43 35
       7.459232e-07 7.3454373e-07 7.3900037e-07 7.284181e-07
000030 5e 73 40 35 b0 e4 3c 35 ab c4 39 35 89 12 34 35
       7.1693455e-07 7.036824e-07 6.920406e-07 6.70822e-07
000040 ca af 38 35 36 62 3b 35 1b a9 3d 35 69 66 3a 35
       6.880115e-07 6.9805844e-07 7.065407e-07 6.9439426e-07
000050 77 82 37 35 8d c2 3d 35 67 f1 3c 35 f0 a6 39 35
       6.8362664e-07 7.0691095e-07 7.0386744e-07 6.9160797e-07
000060 a2 6b 3a 35 93 47 3f 35 e8 b2 3e 35 f5 c3 3d 35
       6.9447026e-07 7.12572e-07 7.104086e-07 7.069314e-07
000070 65 a7 39 35 4e ce 3b 35 56 32 39 35 73 cc 33 35
       6.916146e-07 6.996314e-07 6.899112e-07 6.698021e-07
000080 50 e1 33 35 7a 07 34 35 8d d3 31 35 b8 86 30 35
       6.701057e-07 6.7066105e-07 6.6245485e-07 6.576115e-07
000090 7a 6a 32 35 a5 ae 35 35 e5 99 32 35 53 23 34 35
       6.646511e-07 6.7681896e-07 6.6534113e-07 6.710663e-07
0000a0 2f 73 32 35 0b 8a 31 35 f3 d1 33 35 d8 aa 31 35
       6.647778e-07 6.613852e-07 6.698821e-07 6.618625e-07
0000b0 75 0f 32 35 0f 4a 31 35 5c 8c 31 35 17 25 2f 35
       6.633266e-07 6.604541e-07 6.614189e-07 6.5246553e-07
0000c0 57 c8 2f 35 b4 cf 2d 35 5d 23 2f 35 26 2a 2d 35
       6.5484113e-07 6.474977e-07 6.524404e-07 6.4508856e-07
0000d0 e1 08 2d 35 1c 86 2e 35 97 37 2d 35 99 69 2b 35
       6.446044e-07 6.5015206e-07 6.4528416e-07 6.385613e-07
0000e0 50 e1 29 35 3b 10 2a 35 ad 17 27 35 24 57 27 35
       6.328528e-07 6.3353554e-07 6.22468e-07 6.2339154e-07
0000f0 10 eb 29 35 fd 61 2b 35 c9 13 2c 35 8f 89 29 35
       6.3299467e-07 6.3845056e-07 6.4103784e-07 6.315758e-07
000100 02 0c 28 35 9b 5a 26 35 94 6f 26 35 46 68 25 35
       6.260235e-07 6.197167e-07 6.2002186e-07 6.161903e-07
000110 10 37 25 35 d4 98 23 35 cc 77 21 35 7a 42 25 35
       6.1547416e-07 6.0944626e-07 6.01515e-07 6.1564026e-07
000120 24 84 22 35 68 3b 24 35 65 a4 22 35 94 58 20 35
       6.054199e-07 6.118121e-07 6.058893e-07 5.9733543e-07
000130 0a d6 23 35 62 da 20 35 80 6b 1e 35 69 7f 1e 35
       6.10337e-07 5.9922434e-07 5.901602e-07 5.9044993e-07
000140 ce cc 1e 35 da 15 22 35 78 24 20 35 44 c4 23 35
       5.9157617e-07 6.03815e-07 5.9657714e-07 6.1007836e-07
000150 cd 40 22 35 84 81 22 35 e6 42 24 35 23 7e 26 35
       6.0444e-07 6.0538173e-07 6.119211e-07 6.202337e-07
000160 23 55 23 35 aa f6 23 35 3d a7 24 35 e5 8f 27 35
       6.084612e-07 6.1081175e-07 6.1338125e-07 6.242174e-07
000170 65 ea 26 35 b6 61 26 35 b6 02 28 35 97 38 27 35
       6.218091e-07 6.1982007e-07 6.258882e-07 6.2294697e-07

exp_avg f4 [96, 336]
000000 9f 5d f8 39 1d 1a f7 39 65 a9 f6 39 c2 0b f8 39
       0.00047372 0.00047130967 0.00047046985 0.00047311006
000010 5d 50 f4 39 d7 e3 f4 39 8e ed f4 39 c8 ed f2 39
       0.00046599182 0.0004670906 0.000467163 0.00046334998
000020 0c c1 ee 39 2a ea ef 39 c2 4e ed 39 4a 3c ee 39
       0.0004553873 0.00045760098 0.00045262842 0.00045439816
000030 f4 47 ea 39 0a 0b ec 39 c5 cc eb 39 14 40 e6 39
       0.00044685567 0.00045021652 0.00044975258 0.0004391676
000040 78 6e e8 39 28 66 e6 39 e3 f4 e4 39 c1 f9 e1 39
       0.00044332794 0.0004394513 0.00043670004 0.00043101425
000050 63 f9 e1 39 7d 55 e0 39 d1 67 e0 39 39 a8 e3 39
       0.00043101152 0.00042788303 0.0004280196 0.0004342215
000060 d0 7f df 39 b9 ed e1 39 3b d4 dc 39 0e 5b e0 39
       0.00042629102 0.0004309246 0.00042119794 0.0004279245
000070 5c c9 dd 39 87 9c dc 39 d8 12 de 39 c4 ae db 39
       0.0004230243 0.00042078292 0.0004235718 0.00041901146
000080 10 ca df 39 1b 73 da 39 37 3b db 39 28 fd db 39
       0.00042684423 0.0004166596 0.00041815054 0.0004195955
000090 f8 c5 da 39 c0 f7 d8 39 71 fa d6 39 ff 2f d3 39
       0.00041727698 0.0004138332 0.00041003854 0.00040280816
0000a0 a5 de d4 39 16 3e d2 39 8a 8a d3 39 5a 3f cd 39
       0.00040601674 0.0004010058 0.00040348276 0.00039147848
0000b0 1a 92 cb 39 db 34 c9 39 4f f2 c6 39 08 06 c6 39
       0.0003882803 0.00038377088 0.00037946037 0.00037769997
0000c0 fe 3f c4 39 35 61 c0 39 ac 67 be 39 5c 79 bd 39
       0.0003743171 0.0003669352 0.00036316866 0.0003613931
0000d0 e0 1f ba 39 b1 5d b6 39 3a 21 b5 39 4d 04 b2 39
       0.00035500433 0.0003478355 0.00034547766 0.0003395401
0000e0 23 81 b4 39 28 35 b1 39 ce e2 ad 39 72 75 aa 39
       0.0003442849 0.00033799675 0.00033166114 0.0003251243
0000f0 18 e5 aa 39 9f 43 a4 39 5b d2 a4 39 a9 18 9f 39
       0.00032595615 0.000313309 0.00031437245 0.00030345217
000100 b5 63 9e 39 ec bf 9e 39 18 41 9c 39 0a e8 98 39
       0.00030210396 0.000302791 0.00029803137 0.00029164582
000110 7f 40 98 39 d9 79 94 39 93 83 96 39 e3 e4 94 39
       0.00029039753 0.00028319543 0.0002870826 0.00028399294
000120 86 7b 8f 39 25 0d 91 39 e9 14 8d 39 77 9a 8b 39
       0.00027367118 0.0002766635 0.00026909195 0.0002662723
000130 73 0e 8b 39 4c 7a 8a 39 5a 88 8a 39 d4 a7 8a 39
       0.00026522912 0.0002641253 0.00026423 0.00026446453
000140 ff aa 87 39 af b6 87 39 aa be 86 39 14 a0 85 39
       0.0002587661 0.00025885316 0.00025700527 0.00025487004
000150 6f 21 89 39 ac 6b 89 39 e8 9b 8b 39 66 0d 8d 39
       0.00026155586 0.00026210898 0.00026628305 0.00026903598
000160 56 cd 8c 39 db c9 8c 39 d6 79 89 39 be 01 8d 39
       0.00026855868 0.00026853275 0.0002622145 0.00026894914
000170 cb 23 8d 39 2f f9 87 39 3b a5 8b 39 bc 69 8c 39
       0.00026920284 0.00025934863 0.00026635252 0.0002678166
000180 e2 b4 8b 39 f0 e8 88 39 3f bb 88 39 9e 6f 8a 39
       0.00026646914 0.00026113493 0.0002607945 0.00026404572
000190 f9 1e 8a 39 fa 8e 8c 39 b1 fb 8c 39 77 18 8c 39
       0.00026344488 0.00026809407 0.00026890406 0.0002672111
0001a0 23 8c 8d 39 64 1e 8c 39 30 fb 89 39 df 8f 8b 39
       0.00026998026 0.00026725524 0.00026317826 0.00026619338
0001b0 cc 02 8b 39 a9 cf 87 39 0f 2b 85 39 36 b6 88 39
       0.0002651423 0.00025903925 0.00025399818 0.000260757
0001c0 16 c0 84 39 c7 21 83 39 32 5a 83 39 cf 02 81 39
       0.00025320117 0.00025011433 0.00025053468 0.0002460689
0001d0 46 0c 7e 39 15 7f 7b 39 d3 c0 7e 39 97 49 7f 39
       0.000242279 0.00023984567 0.0002429516 0.0002434611
0001e0 3a 0b 7c 39 2a 22 73 39 d7 71 6f 39 38 53 6f 39
       0.00024036775 0.00023187013 0.00022835225 0.00022823818
0001f0 e0 e0 6c 39 0e 1a 68 39 cd fe 61 39 59 2d 66 39
       0.00022590486 0.0002213495 0.00021552593 0.00021951403
000200 6d 7e 60 39 b3 1e 60 39 b6 2a 5a 39 7a c7 5b 39
       0.00021409402 0.00021373741 0.00020806011 0.00020959778
000210 6d 2d 59 39 23 2e 53 39 ee 05 4e 39 b5 ec 4c 39
       0.00020711655 0.00020139715 0.000196479 0.00019543136
000220 17 fd 49 39 2e 5c 4e 39 60 42 45 39 20 dc 43 39
       0.00019263137 0.0001968003 0.0001881211 0.00018678652
000230 f2 5e 3a 39 a7 ee 40 39 9b 0b 35 39 4f 96 33 39
       0.00017773712 0.00018399452 0.00017265829 0.00017126765
000240 ae 10 37 39 42 92 30 39 99 6b 33 39 a5 19 2d 39
       0.00017458454 0.00016839153 0.00017110854 0.00016508119
000250 a8 de 2e 39 42 2a 30 39 7e 6f 24 39 4a 02 2a 39
       0.00016676879 0.0001680041 0.00015681793 0.00016213316
000260 e8 aa 25 39 6f 0b 28 39 51 c9 1b 39 80 e4 18 39
       0.00015799294 0.00016025988 0.00014856948 0.00014580972
000270 ae be 18 39 4c 93 17 39 db 86 15 39 16 79 1b 39
       0.00014566883 0.00014455355 0.00014259985 0.0001482706
000280 f7 38 13 39 ec 42 13 39 12 a5 12 39 a9 19 17 39
       0.00014040234 0.00014043943 0.00013985139 0.00014410041
000290 63 4f 11 39 71 d1 18 39 c7 2b 19 39 6e 58 16 39
       0.00013857851 0.00014573873 0.00014607525 0.00014338057
0002a0 5f 13 1a 39 a9 c1 18 39 ae e0 1b 39 0c 20 1b 39
       0.00014693801 0.00014567994 0.00014865652 0.0001479389
0002b0 69 43 1a 39 d4 0b 1f 39 76 81 19 39 13 f3 1d 39
       0.00014711697 0.00015167828 0.00014639445 0.00015063239
0002c0 2a 85 1e 39 40 1e 1f 39 6d 15 1d 39 38 ad 20 39
       0.00015117662 0.0001517469 0.00014980668 0.00015323318
0002d0 aa 68 23 39 c5 60 24 39 25 5f 2d 39 c1 9b 2b 39
       0.00015583882 0.00015676308 0.0001653401 0.00016365854
0002e0 23 64 32 39 d7 3a 2d 39 19 fb 33 39 10 d7 30 39
       0.00017012707 0.00016520485 0.00017164311 0.00016864785
0002f0 3c 98 33 39 83 6a 37 39 ea 49 35 39 c2 53 3c 39
       0.00017127482 0.00017491919 0.0001728904 0.0001796028
000300 cb 7a 42 39 fe 0e 45 39 44 7c 40 39 23 48 43 39
       0.00018547026 0.00018792969 0.0001835684 0.00018623522
000310 02 7c 4d 39 5c a2 4b 39 3f 17 4d 39 3f db 4d 39
       0.0001959652 0.00019420072 0.00019558983 0.00019631999
000320 b1 c5 58 39 73 cd 52 39 1f 13 5c 39 9d 77 5f 39
       0.00020673011 0.00020103696 0.00020987958 0.00021311497
000330 a0 ef 58 39 db a2 60 39 af 5f 65 39 50 78 61 39
       0.00020688633 0.00021422973 0.00021874787 0.00021502492
000340 72 88 6a 39 79 33 6e 39 2d 9b 6e 39 61 78 6d 39
       0.00022366809 0.00022716624 0.00022755256 0.00022646926
000350 e3 45 79 39 46 3e 75 39 ba 07 80 39 be 7e 80 39
       0.00023772525 0.0002338822 0.0002441982 0.00024508493
000360 9d 75 81 39 4c 4f 83 39 b1 ec 7e 39 6f 2e 83 39
       0.00024692426 0.00025045348 0.00024311502 0.00025020863
000370 c3 ee 82 39 48 3c 82 39 b4 fd 83 39 a6 54 86 39
       0.00024973424 0.00024840445 0.0002517529 0.0002562154
000380 23 40 88 39 32 ae 89 39 1c 79 8a 39 59 dc 8a 39
       0.00025987727 0.00026260462 0.00026411645 0.00026485583
000390 21 dd 8e 39 5e 85 8d 39 b8 1e 90 39 b4 f2 90 39
       0.00027249104 0.00026992982 0.00027488708 0.00027646648
0003a0 ca 09 96 39 72 d1 93 39 f4 f8 97 39 04 52 99 39
       0.00028617523 0.00028194074 0.0002898645 0.0002924354
0003b0 ee 63 9a 39 8f 07 9b 39 11 d1 9c 39 5a 92 9c 39
       0.00029447622 0.00029569535 0.00029910405 0.0002986368
0003c0 da 0d 9a 39 cd 7f a0 39 22 c2 a1 39 20 f5 a0 39
       0.0002938349 0.00030612797 0.00030852953 0.0003070021
0003d0 a9 f2 a3 39 f6 ed 9f 39 60 73 a1 39 43 d4 a5 39
       0.0003127058 0.00030504138 0.00030794274 0.000316294
0003e0 4a df a1 39 3c 3a a1 39 7f 00 a4 39 da df a0 39
       0.00030874676 0.000307517 0.00031280887 0.0003068436
0003f0 90 54 a4 39 96 43 9f 39 89 83 9f 39 f5 b1 a2 39
       0.00031343522 0.000303772 0.00030424845 0.00031031636
