checkpoints/DLinear/ETTm2_100_336_96/255cceb5366209961313efebfdebde4e/DLinear_best_val_MAE.pt (torch, 782442 bytes, 12 tensors)

Linear_Seasonal.weight f4 [96, 336]
00000000: 524e d23b bf0f afba 27cd 9a3b 239f 8dbb
00000010: af81 4c3b 0aa8 9c3a 0cf4 803b 2032 14bb
00000020: 71ed a2bb 87b7 11bb 5982 73bb 3c75 bdb9
00000030: ae51 253a a97a 8cbb 87c0 85bb 1156 4abb
00000040: a93b 24bb 9ce0 c5ba f8d3 79bb 1d4f d3ba
00000050: efbf 77bb 4bbd e2bb 1839 1bbb 343f f7bb
00000060: a66d 79ba 08cb 08bc 7ab3 5bb8 36cb 5ebb
00000070: a6b9 d8bb fd91 333a 6e85 91bb f819 c8ba
00000080: fae0 5fba 53f2 8eb9 174c 2d3b 9739 8b3a
00000090: d2fa 30bb 150c ea3a bb15 8c3b 8725 823b
000000a0: 4249 2d39 8827 5d3b 0c5e ac3b 188a 483b
000000b0: 23fa 7939 38e3 eebb 57c8 13bc 4d56 a53a
000000c0: 3603 933c 7e4d ca3c 1c9a 3e3c e9bd ad3b
000000d0: 53a4 58ba 5d95 abba 1d02 81bb f33e 5ebb
000000e0: 6c17 27bb e6a4 9fbb d5a8 4eba aed2 a4bb
000000f0: e7ff b63b 553a d7bb 4b1f 6bbb faa0 22bc
00000100: e301 dbbb 9847 63bb be6e 6bbb f2cf febb
00000110: 05ff bdbb 58f5 18ba 214d daba 6cea b7ba
00000120: 0b61 6d3a b34c 373b 0200 513b 3c56 44bb
00000130: 77c4 58ba 67ab 373b 206a 5e3b a34d 593b
00000140: 9ac9 313b 2eb1 ca3a cc5d 9eb8 ad55 bc3a
00000150: 1666 a6ba 09ff 2eb8 b863 b439 37cd 023b
00000160: af98 223b 01de 33b8 ef21 80bb d906 43bb
00000170: 08e0 1fbc 6347 61ba 140a d63b 21d5 cdb9
00000180: c177 87bb a389 83bb 6bef b435 1b24 373b
00000190: c2ea 79ba 3a0b 19bb 65c6 b2bb a6dd a839
000001a0: 073e 893b 16ef 003b 3428 083b c08e b13b
000001b0: 03c6 413b 11bb 693b ba3c b23b 2c65 703b
000001c0: 153f 3e3b 60ed ac3a 8b57 633b 3871 8a3b
000001d0: 238a 9d3b e2a7 53ba 0d41 453b 765d bcb9
000001e0: 3b78 f9ba 73e3 273a 412d daba c102 e0ba
000001f0: 857b 1abb 6594 4b3a 2f53 89bb 6acc 343b
00000200: 1f29 d3bb f27a 42bb 492d d4bb 90e0 ecbb
00000210: 2990 c5bb 8ec0 9bbb 11ff d8ba 53a4 f2bb
00000220: 3d83 a63a d19d 463b 79dd 1fbb d045 a6bb
00000230: 73fe 0bbc e08a 41bc 1a96 d2bb 96ef 2fbb
00000240: 1288 953c e5e2 c33c 18e0 623c b949 b93b
00000250: 6a92 e33b 9dfe 6b3b fb78 823a 0b84 a23b
00000260: 9b58 9d3b 7fc8 c33b e69f 003b 84b5 653b
00000270: 2869 923b adb1 bb3a 12cc 813a e8a1 113b
00000280: e26a 303b c7e6 c63a a569 b5b9 61ad c6b9
00000290: df45 c0bb bf4d 59bb 2094 aebb 3875 3abc
000002a0: 2280 86bb 457d 9dbb 9b8f b4bb af3e cdbb
000002b0: 9faf 8fbb caea 83bb 7c28 d2bb 4ba9 dcbb
000002c0: 09a9 cdbb 1cd8 5dbb 7290 95bb f20a 0abb
000002d0: 84eb 8eba 1472 7a3b 0dd8 2c3a 78bf 92ba
000002e0: bb2e 4e3b 26c8 2dba 2a81 65bb 60db 99bb
000002f0: 6e9e 35ba 0953 9f3b 7317 8b3b 5256 b23b
00000300: 9890 12ba a1b0 413b 4f6a b13b d50f 483b
00000310: d8fe bb39 20b6 be3b 0719 483b a6f2 5eba
00000320: 0f2e 393b 04bf f83b c148 a5ba c4a9 76bb
00000330: be27 b33a 4434 c238 d943 eeba ce3f 743a
00000340: c478 acb9 e48b 323a 74bf beba b96f b43a
00000350: 21ce e73a 3520 0dbc 368c b9b9 5e52 8abb
00000360: ba9e c63a 5c9d 633b 99b7 303b ee39 833a
00000370: 1818 a7bb 590e 9439 92ad 4eba 31ea 6ebb
00000380: 5815 843b cf52 1dba 588e 8c3a 8810 a6bb
00000390: 009a 903a e614 d6ba f79b 673b 1b13 dd3a
000003a0: 0be2 0c3b 3fca 9b3b a7d3 63bb 7ec8 14bc
000003b0: cd2c 39bc fb60 73bc a1ba e8bb b7e3 f637
000003c0: 21fb c53c f093 ab3c 695d 773c 40a0 a83b
000003d0: 7540 11bb b792 623b 025d 5bbb 66c0 a8bb
000003e0: 31c7 a039 8629 3c3a 54c0 27bb ce6a 47bb
000003f0: 86d4 9b3a f31d 9bba 64ee 0abb 0f29 68bb
0.006418028 -0.0013356133 0.004724163 -0.004321949 0.0031205227 0.0011951935 0.0039353427 -0.0022612885
-0.004972153 -0.0022234635 -0.003715655 -0.00036136236 0.0006306422 -0.004287083 -0.004081789 -0.0030874053
-0.0025059974 -0.0015096846 -0.0038120728 -0.00161216 -0.003780361 -0.006919538 -0.0023685154 -0.007545376
-0.0009514935 -0.008349188 -5.238082e-05 -0.0033995635 -0.006613928 0.0006850062 -0.004440955 -0.0015266528
-0.0008540299 -0.00027264896 0.0026443058 0.0010622022 -0.002700497 0.0017856384 0.0042750514 0.0039717588
0.00016525856 0.0033745486 0.0052602347 0.0030599888 0.00023839674 -0.00729027 -0.009019933 0.0012614221
0.017945867 0.024695154 0.011633422 0.00530218 -0.00082642323 -0.0013090778 -0.0039370195 -0.0033912032
-0.0025496138 -0.0048719523 -0.00078834343 -0.005029998 0.005584705 -0.006568233 -0.0035876806 -0.009926075
-0.0066835745 -0.0034680124 -0.0035924162 -0.007776254 -0.005798223 -0.0005834899 -0.0016655066 -0.0014031655
0.0009055293 0.00279693 0.0031890874 -0.0029958626 -0.00082690216 0.0028025748 0.0033937767 0.0033157847
0.002712822 0.0015464181 -7.551498e-05 0.0014368795 -0.0012695219 -4.1722353e-05 0.00034406572 0.0019958743
0.0024810245 -4.2883683e-05 -0.003910295 -0.002975872 -0.009758003 -0.00085937063 0.006531963 -0.0003925944
-0.004134149 -0.0040142103 1.3480725e-06 0.0027945105 -0.0009533578 -0.0023352639 -0.0054557794 0.00032208598
0.0041883024 0.0019673756 0.0020775916 0.0054186285 0.0029567487 0.0035664479 0.005439368 0.0036681397
0.00290293 0.0013193302 0.003468963 0.0042249225 0.004807727 -0.0008074028 0.0030098588 -0.00035927788
-0.0019033024 0.0006404437 -0.0016645567 -0.0017090664 -0.0023572159 0.0007765948 -0.0041908245 0.002758766
-0.006444111 -0.0029675332 -0.006475125 -0.0072289184 -0.006029148 -0.004753179 -0.0016555508 -0.007404843
0.0012703907 0.0030306468 -0.0024393483 -0.0050742403 -0.008544552 -0.011812896 -0.006426585 -0.0026845685
0.01825336 0.023911903 0.013847373 0.0056545404 0.006944944 0.0036009916 0.0009954268 0.0049595884
0.0048018224 0.0059748287 0.0019626557 0.0035050819 0.004468102 0.0014319919 0.0009902737 0.0022221748
0.0026919176 0.0015174978 -0.00034601722 -0.0003789468 -0.0058677043 -0.0033157913 -0.0053277165 -0.011380486
-0.00410463 -0.004806193 -0.005510283 -0.006263576 -0.0043849493 -0.004025792 -0.0064135175 -0.0067340485
-0.006276254 -0.0033850735 -0.0045643384 -0.0021063653 -0.0010903929 0.0038214969 0.00065934734 -0.0011195978
0.003146096 -0.0006629251 -0.0035019615 -0.004695341 -0.000692821 0.0048621935 0.0042447387 0.005442419
-0.0005591004 0.0029554742 0.0054142843 0.0030527015 0.00035857293 0.005820051 0.0030532496 -0.00085047854
0.0028256213 0.00759113 -0.0012610183 -0.003763781 0.001366846 9.260376e-05 -0.0018178179 0.0009317369
-0.00032896374 0.00068110065 -0.0014552907 0.0013766206 0.0017685333 -0.008613636 -0.00035390415 -0.0042212447
0.0015153505 0.0034731245 0.0026964901 0.0010011771 -0.0050993077 0.0002823945 -0.00078841404 -0.0036455507
0.0040308647 -0.0006001414 0.0010723574 -0.0050678886 0.0011032224 -0.0016333133 0.0035340765 0.0016866656
0.0021497037 0.004754334 -0.0034763606 -0.009081004 -0.011302185 -0.014854665 -0.007102326 2.9431523e-05
0.0241676 0.020944566 0.015097954 0.0051460564 -0.0022163664 0.0034572312 -0.0033472185 -0.005149889
0.00030665987 0.00071778183 -0.0025596814 -0.003042865 0.0011888898 -0.0011834487 -0.002119922 -0.0035424863

Linear_Seasonal.bias f4 [96]
00000000: 7e93 7d3c 444c 1ebb a563 46bb 214c 82bc
00000010: 6ff4 9dbc 2846 ae39 6db0 833a ec54 1cbc
00000020: 0599 5ebb fabc ab3b 89d0 d3ba c706 243c
00000030: b8fa 163a 7356 b23b b125 09bc ab18 5b3c
00000040: 9f0f bcbc ae45 84bc 1a9d 2bbc cf63 21bc
00000050: 8ca9 e53b 56a4 a4bb 02d0 b639 7f79 683a
00000060: c85f 153c 6558 a23b a94e 7b3c e895 6fbc
00000070: 3247 263c 8226 22bc 84b5 403c bc30 3d3c
00000080: 9b66 2bbb c4ec 41bc 140a 97bb 192a d4bb
00000090: 33eb a43b 06f8 f8ba e79b 2eba 80b9 dcbb
000000a0: 5cbc 48ba f6ef f8ba 24ee a2bc 708c 953c
000000b0: d6a9 7e3c 78ca 0dba 02e5 123c f5f5 80bb
000000c0: 8ef3 9f3b 9cab ee3b 08e4 9dbb 51fc 8bbb
000000d0: da6d e83b 724b 0fbb 3d9b 9a3c 2fc5 95bb
000000e0: 57d0 343c e03d e4ba d407 933c 53fa fa3b
000000f0: a23c 79bb 0b75 6b3c d132 35bc 2937 a1bb
00000100: 6ccf 79bb a011 f53a 9883 a1bc c0e3 6f3c
00000110: f9dc 79bc 7540 b1bc f2fb af3b 0d67 d7bb
00000120: 56f5 1bbc 3d00 53bc ee0b 5f3c 87fa b0bb
00000130: 177b 8d3b d874 533b 547c 8a3b 7044 58bc
00000140: c801 a73b bf73 4f3c 27a2 7e3c 940d 593c
00000150: ed6a 7abc 9bd6 11bc e887 903c dc39 bd3c
00000160: 9a72 3ebc 76d9 05bc 0b7b 1fbc 1796 6f3c
00000170: d222 863c 8516 a1bb 9e37 983b 2c06 fc3b
0.015477059 -0.0024154345 -0.0030271795 -0.015905442 -0.019281594 0.00033240137 0.0010047086 -0.009541731
-0.0033965718 0.0052410336 -0.0016160171 0.0100113815 0.0005759406 0.0054424345 -0.008370803 0.0133725805
-0.022956667 -0.016146507 -0.010474468 -0.009850456 0.007008737 -0.005024473 0.00034868723 0.0008868202
0.009117074 0.004954385 0.015338578 -0.014623143 0.01014881 -0.009896876 0.011762027 0.011547264
-0.0026153687 -0.0118362345 -0.0046093557 -0.006474745 0.0050329207 -0.0018994815 -0.00066608045 -0.0067359805
-0.0007657462 -0.0018992412 -0.019888945 0.018255442 0.015543422 -0.00054088933 0.0089657325 -0.0039355704
0.004881329 0.007283641 -0.004818443 -0.004272022 0.0070931735 -0.0021865037 0.018872852 -0.0045706253
0.011036 -0.001741346 0.017948069 0.0076592355 -0.0038030525 0.014371167 -0.011059479 -0.0049199057
-0.0038118018 0.0018697269 -0.01971607 0.014641702 -0.015250438 -0.02163718 0.0053706104 -0.006573564
-0.009518942 -0.012878475 0.013613684 -0.005400959 0.004317652 0.003226569 0.004226247 -0.0131999105
0.005096648 0.012661873 0.01554159 0.013247866 -0.015284282 -0.008901264 0.01764293 0.023098879
-0.011624003 -0.0081695225 -0.009733926 0.014623187 0.016374025 -0.0049160146 0.004645302 0.0076911654

Linear_Trend.weight f4 [96, 336]
00000000: 3eb6 96bb 6a5a 31bc 754d 7cbc 9fe4 103d
00000010: 2c2c 163b ed3f 6a3c 9400 aebc d8a4 6abc
00000020: 6e2e 69bc 715d 77bc a532 2a3d c9ea 153d
00000030: 1c99 57bc 1d62 97bc cb04 c7bc feba ac3c
00000040: 210f e0bc 5982 74bc 4557 bd3b 1d5d 81bc
00000050: 0431 013d b241 103d def7 263a dfd3 a23b
00000060: 27da 243c 0227 2f3c 4c18 06bd c6a3 64bc
00000070: 0d17 1ebd b47a 133d 1114 c13c de8c c13c
00000080: 4b5b c9bc 49f6 f53c 5f1c 83bc 9eb5 07bc
00000090: e714 073d 85c9 503c 9348 bfbc 1fd0 ebbc
000000a0: 9df3 a73c 680e 3ebc 6fe4 dcbc e152 0ebd
000000b0: 9bb9 293c 2fad a6bc a00e 853c fc7c 8c3c
000000c0: 134f a9ba a603 c2bc 6620 9abc b68f c7bb
000000d0: 2855 773c e2e3 6abb 6091 9ebc d036 d53b
000000e0: 7dae e53c ca8e c53c 41d2 d73c d2b4 28bd
000000f0: eab7 923b d420 47bb 1e2c 9a3c bab6 0dbc
00000100: ef67 a93c 6e89 c53c 6c48 ea3b c0ae 483c
00000110: 7329 a93c 1d90 81bc 44e4 c93c 31c6 48bd
00000120: aea3 07bd 6ee3 223c cc10 bc3c 03f1 e73b
00000130: 852e 893c 6f17 3ebd d7b2 8a3c dc96 d63c
00000140: 9907 22bd f967 84bc 3d39 e3b9 4087 0dbd
00000150: 3d7e 46bd cb13 97ba c14a 3d3c a4e1 f03c
00000160: 9eba 26bc c731 a83b 7764 c03c 9a3e 63ba
00000170: e852 b63c 816e 513c b8ef 873c 7a4b 543b
00000180: 2463 aa3c 6639 043c c050 83bc a39f 023c
00000190: 827b 0fbd f492 e83c 9c37 d53a 7278 e53c
000001a0: 4b13 a6bc 9160 a9bc 3080 cabc 2f1d 96bc
000001b0: 67ae 953c 8e2d 25bc 88f9 ecbc 12b9 1b3d
000001c0: ce9a aabc be2a c9bb 3cba 7c3c 21e5 bfbc
000001d0: b326 cdbc f5a4 bcbb 5518 223d 05e3 913c
000001e0: 059c 12bc 7a05 db3b 65aa 0cbd e218 c13c
000001f0: 8db7 233d ca86 e5bc abb8 50ba af1e 0eb9
00000200: f697 233d e4e7 26ba 6e30 85bc 769b 2cbc
00000210: 9428 b03b de79 a6bc 5ac9 253c 245a 4eba
00000220: cbc3 acbc 6cf3 abbc 8f5b e63b 094e 963c
00000230: effb ad3c 8a49 b5bc 9e21 85bc 8653 333d
00000240: 8d66 c7bc 8729 2f3d 62e9 f0bb f962 673b
00000250: 40c6 e0bc 61c0 103d e3dc ba3c 211a 7bbc
00000260: dccb 51bb 741f babc cae9 06bd 3e60 f8bc
00000270: 009e 2ebc bc4a 06bc a899 96bc c954 ef3c
00000280: b23b 95bb a39a efbc 45a1 143d 1e26 0e3d
00000290: 9b58 a23b dd96 92bc a40f 8f3c d622 ae3b
000002a0: afed 013d d5f7 10bd e9ff 813c 5548 823c
000002b0: c437 a2bc eae2 b5bb 3c85 343c fa97 bd3c
000002c0: 32ef d03c b5e0 823a d090 ac3c 2cf4 3a3c
000002d0: 63f6 1dbd 4347 2dbd bff4 30bd 2d77 973c
000002e0: dafd e93c 966d 853b 3e84 663c 8661 bd3c
000002f0: 21fb 03bd 1f0c 32bd 63ac 35bc 3d86 633c
00000300: 002d f6bc 985b 743b 5a5a b13c e575 f03b
00000310: 0984 043d 821f b8ba b384 393c ce19 17bd
00000320: 1083 a53b 9ebc 77bc 8eca 2b3c 25cc 033d
00000330: a86c 133d b910 97bc 74dd 26bc cd12 fabc
00000340: 696d 1b3b 8ea6 0abd 9d31 e83a 3a38 bb3c
00000350: fe09 1cbd 7f85 e53c e4f4 543c 574c 1f3d
00000360: bfd1 d3bc 4f3a 153d df84 9dbc 8b66 46bc
00000370: 16d6 d5bc 059f bdbc b492 5abc 29f2 db3c
00000380: d397 2a3d b41d 193d 7297 7d3c 54d9 a9bc
00000390: 8d7a 0abd 068e acbc 9b50 28bc de7f ad3b
000003a0: ff38 ad3c 2feb 513b ac63 10bd b70c 003d
000003b0: a783 0fbd f362 cabc b97a 23bc 6c63 933c
000003c0: b0c7 a2bc 37fd a23c 3bb6 943c a131 b7bb
000003d0: 6594 3fbc ec97 123d d3c6 8b3c 757e a4bc
000003e0: 8c17 d0bc a551 dbbc e7ef 053d 3456 4f3c
000003f0: 2697 0e3d b96d f5bc ca2f 60bb 82b0 fc3b
-0.0045993617 -0.010824779 -0.015399327 0.03537428 0.0022914512 0.014297468 -0.02124051 -0.014321528
-0.014232261 -0.015097962 0.041552205 0.03660086 -0.013159063 -0.018479401 -0.024294278 0.021085259
-0.027350964 -0.014923655 0.0057782256 -0.01579147 0.031540886 0.035218902 0.00063693326 0.0049691047
0.010061777 0.0106904525 -0.032738015 -0.013955062 -0.0385962 0.03600569 0.023569139 0.023626741
-0.024579665 0.030024664 -0.01600474 -0.008283047 0.03297892 0.0127433585 -0.023350036 -0.028785763
0.020501906 -0.011600114 -0.026964394 -0.03474701 0.010359193 -0.020346252 0.016242325 0.017149441
-0.0012917243 -0.02368338 -0.018814277 -0.0060901297 0.015095986 -0.0035841395 -0.01935643 0.0065067783
0.028037304 0.024115939 0.026345374 -0.04118807 0.0044774907 -0.0030384557 0.018819865 -0.008649522
0.020679442 0.024113383 0.0071497466 0.012248695 0.020649647 -0.015815789 0.024644978 -0.049017135
-0.03311508 0.009941919 0.022957228 0.0070782914 0.016745815 -0.046409067 0.01693098 0.026194982
-0.039558027 -0.01616286 -0.0004333946 -0.034552813 -0.048460234 -0.0011526285 0.011553467 0.029404469
-0.010176329 0.005132887 0.023485405 -0.0008668691 0.02225633 0.012782694 0.016593799 0.003239362
0.020799227 0.0080703255 -0.016029716 0.007972631 -0.035029896 0.028390385 0.0016267183 0.028011534
-0.020272871 -0.02067593 -0.024719328 -0.018324463 0.018271638 -0.010081662 -0.02892758 0.038018294
-0.02082577 -0.0061391285 0.015425261 -0.023424687 -0.025042867 -0.005756969 0.039573986 0.017808447
-0.008948331 0.0066840025 -0.03434219 0.023571435 0.03996997 -0.028018374 -0.0007962088 -0.00013553606
0.039939843 -0.0006366952 -0.016258445 -0.010535112 0.005375931 -0.020321783 0.010118807 -0.00078717084
-0.021089455 -0.020990096 0.0070299576 0.018347757 0.021238295 -0.022129793 -0.016251381 0.043780826
-0.024340892 0.042764213 -0.00735204 0.0035306795 -0.027438283 0.035339717 0.022810405 -0.015326054
-0.0032012379 -0.022720076 -0.032937802 -0.03031933 -0.010657787 -0.008196529 -0.018383816 0.029215233
-0.0045542354 -0.029248541 0.03628661 0.03470432 0.0049544103 -0.017894203 0.017463513 0.0053142114
0.031720813 -0.0353926 0.015869098 0.015903631 -0.019801982 -0.005550732 0.011018094 0.023143757
0.025504682 0.0009985181 0.021065146 0.011410754 -0.03856505 -0.04230429 -0.043202158 0.018489445
0.028563429 0.0040719016 0.014069615 0.023117792 -0.032221917 -0.04346859 -0.0110884635 0.013886985
-0.030050755 0.003728604 0.021649528 0.007338273 0.03235248 -0.0014047476 0.011323142 -0.036889844
0.0050510243 -0.015120653 0.0104853045 0.03217711 0.035992295 -0.018440591 -0.0101846345 -0.030526543
0.0023716337 -0.033850245 0.0017714981 0.02285396 -0.038095467 0.028017757 0.01299784 0.038891163
-0.02585685 0.03643256 -0.019228397 -0.012109409 -0.02610306 -0.023147115 -0.013340641 0.02684887
0.041648697 0.037381843 0.015478002 -0.020733513 -0.03380828 -0.021063816 -0.010273124 0.005294784
0.021145342 0.003203105 -0.035251305 0.031262126 -0.035037663 -0.024705386 -0.00997799 0.017991744
-0.019870609 0.019896133 0.0181533 -0.005590633 -0.011693095 0.035789415 0.01706258 -0.02007983
-0.025401853 -0.02677233 0.03269949 0.01265483 0.034812115 -0.029959546 -0.0034208172 0.007711471

Linear_Trend.bias f4 [96]
00000000: 4715 7bbc 786f 673b 7db2 6c3b a31d 843c
00000010: 260d a13c 0655 d7b9 a89a 6eba e95d 173c
00000020: 1b1e 713b 1dc6 afbb 9ae4 063b 94e9 23bc
00000030: b811 87ba a95d cdbb 6c8c 023c 9a41 66bc
00000040: 4e60 be3c a6ad 853c 7fc0 2f3c 82e3 293c
00000050: ed0a cbbb 9f5d ae3b 18bc 403a d5b8 c239
00000060: a6ab 05bc a659 97bb 36c2 65bc 2832 7d3c
00000070: 629b 13bc 1289 353c afcd 2fbc 679a 29bc
00000080: 9d24 823b f00b 513c 5f95 e43b 684c 043c
00000090: 501c 48bb 5a0a 5c3b bdf6 0f3b 2908 143c
000000a0: b5c5 823b 7a0c 7e3b dd88 c03c 12c9 72bc
000000b0: 9ab3 4abc d84b 6a3b 8c98 b1bb 7c14 dd3b
000000c0: 9425 8fba 6016 87bb 4394 1a3c 688f 023c
000000d0: 936e 71bb e134 c73b 5eab 71bc 39ea 023c
000000e0: 72d9 cdbb e32f ba3b 7e27 5abc 0243 3bbb
000000f0: deb4 fa3b c014 12bc 3c12 7d3c 0e58 303c
00000100: 3c07 093c c7a5 2a3b 653c c23c fc36 1abc
00000110: 2f87 a83c 726a d83c c7f1 eab9 ce5f 3e3c
00000120: a069 793c 93c6 923c 962d 00bc 61bc 2f3c
00000130: 24be 653a 1f0e 003b aac8 453a ecc1 9d3c
00000140: e6cd 523a 1a13 d0bb 0b63 1ebc e15f dbbb
00000150: 41b6 b23c d2e9 7a3c dc18 35bc eb6c 8fbc
00000160: 55ed 8c3c 57f9 5c3c debe 803c ff46 22bc
00000170: d701 30bc 6d50 1b3c efc7 ba39 d093 3bbb
-0.015324897 0.0035314243 0.003611713 0.016127413 0.01965959 -0.00041071343 -0.0009102025 0.0092386985
0.0036791626 -0.005364193 0.0020583034 -0.01000442 -0.0010304963 -0.0062672687 0.0079680495 -0.014053727
0.023239281 0.016318154 0.010727047 0.0103691835 -0.006196371 0.005321219 0.0007352247 0.00037140274
-0.0081586 -0.004618841 -0.014023354 0.015453853 -0.009009214 0.011080043 -0.010730191 -0.010351754
0.00397165 0.012759194 0.0069758142 0.008074857 -0.0030534454 0.0033575506 0.0021967136 0.009035149
0.0039908537 0.003876476 0.023502761 -0.014818447 -0.012371922 0.0035750773 -0.0054197963 0.0067468267
-0.0010921233 -0.0041225404 0.009434762 0.007968761 -0.003683959 0.0060793017 -0.01475033 0.007990413
-0.006282025 0.005681978 -0.01331508 -0.0028573875 0.0076509556 -0.00891608 0.015446242 0.010763181
0.008363541 0.0026038752 0.023710439 -0.009412523 0.020572273 0.026417945 -0.00044812096 0.011619521
0.015222937 0.017916953 -0.007823369 0.010726065 0.000876399 0.0019539667 0.0007544855 0.019257508
0.00080415455 -0.0063499333 -0.009667168 -0.0066947793 0.021815421 0.015314536 -0.01105329 -0.01750799
0.017203012 0.013487182 0.015716013 -0.009904622 -0.010742626 0.009479624 0.00035625647 -0.0028622039

exp_avg f4 [96, 336]
00000000: 3c85 9137 03d6 8bb7 88b1 6f36 8ee6 52b8
00000010: 406d 3ab8 cf68 1bb8 783e a5b7 b4e6 a7b7
00000020: a55f 7437 c195 cc37 f850 efb6 116e 7eb6
00000030: 5ecf cb36 a5d2 52b7 e2bd fa37 85a3 29b5
00000040: 51e0 afb5 b164 49b8 fa0a 2db8 c422 feb6
00000050: 2a8a 4b35 b43f 8cb4 4f12 1db8 1711 5537
00000060: c489 55b8 9ea4 65b7 3e24 a9b7 d440 b7b7
00000070: 66c8 2138 1a23 8938 7f5e 0b38 b90e 35b8
00000080: 7a54 16b8 9d5b 5fb8 318a 21b8 6322 44b4
00000090: 1804 2138 6f5d 8438 65dc 6338 ed78 b838
000000a0: 5af6 0538 1e35 1038 524d 7d38 5086 0737
000000b0: 6ddb 4bb8 350b 6936 f024 82b7 73b1 30b8
000000c0: 7305 85b8 9bd4 88b8 0c58 77b8 b4f2 42b8
000000d0: b099 33b7 9c20 6936 7eeb 8a37 ddb1 c6b7
000000e0: 110b e436 a574 bc37 368b c3b7 5d0e 1c37
000000f0: 397f b937 e046 ab37 d45b 90b6 3820 8237
00000100: a3f2 8f37 5cba 1b38 1936 ff37 df1a 5c38
00000110: 100c a2b7 98fd 90b7 a6a0 06b8 4c12 0838
00000120: 0246 f0b7 d0cb b237 dca9 d037 b9df 4738
00000130: 2268 9eb5 bd65 f0b6 2b98 5bb8 0d22 9db6
00000140: 87e6 a2b7 4cd2 13b8 220a 1137 e13a 1c37
00000150: 7e5f 8a38 1a9d 4438 408f 2338 ba0b d938
00000160: 1bed a038 9b0b df37 44c2 9c36 c1a9 88b7
00000170: d396 28b7 b3e2 49b8 6815 2738 7414 9537
00000180: f3fd 6d36 251f 3d37 db5f 67b8 9439 09b7
00000190: 1525 3eb7 ea1d c236 8db8 3b38 4f82 b338
000001a0: e0c8 9237 9fef afb6 93b4 9bb8 6812 89b8
000001b0: 842e f3b7 8c9a a8b7 9b16 68b7 84d6 84b7
000001c0: 96d2 72b7 fd2a a037 7db7 08b7 54a2 8437
000001d0: 27f4 56b8 6c6e 9bb7 73da e1b7 629e 0bb6
000001e0: 6348 3437 66d3 aa37 a763 e7b7 5e27 d8b7
000001f0: ba71 2db8 2e01 c1b7 dbe6 d3b5 75eb de35
00000200: 0749 cdb7 30c7 37b8 01f0 12b6 fba9 0db4
00000210: 10ff 62b5 3c94 1237 5421 87b6 db94 c935
00000220: 86ad b236 e1ef cc36 a564 94b7 c59f e4b7
00000230: 72d0 4db7 dc1d 3337 7bc4 5538 cd6c a337
00000240: 0975 9c38 18f4 f237 64bd 0fb8 98dd 9537
00000250: ba11 d2b7 cc83 7fb7 c4e3 2238 d174 8d38
00000260: 0a25 0238 2a82 da37 a148 99b6 ae84 8037
00000270: adcb afb7 9263 19b8 50ea 95b8 44c9 31b8
00000280: 1d42 2237 a55e 8b37 1fd3 95b7 a499 9fb5
00000290: ca44 72b6 e399 64b7 c0d5 98b6 5232 16b8
000002a0: d79e 50b8 c21b 5cb8 05a9 f0b6 ea00 58b7
000002b0: 8cd2 09b8 0490 bd35 27b6 9237 ade5 2738
000002c0: 3ee0 4138 418c 8938 41bf 9937 db7c 6c38
000002d0: 5c94 b638 c2f2 7838 7466 4b38 21fa b037
000002e0: 29a0 0437 82ee 82b8 8175 10b8 f7df 00b9
000002f0: 8cd2 4fb8 cc4a c337 2ba8 a637 c694 6f38
00000300: 1695 6738 413d 0238 87c6 14b8 6f36 6ab8
00000310: 95f1 91b7 33d8 66b7 5f34 cab7 bc2d 9937
00000320: 0ed0 0a38 fca1 c337 fdb4 b5b6 8c6b beb7
00000330: 7bee da37 a365 a437 65b1 9338 c950 a538
00000340: 5fc5 2738 ceeb 1b37 1d27 e237 8086 f2b7
00000350: e75a acb8 5da0 a5b8 0b0c 86b8 8355 27b8
00000360: 995d bfb8 79fc 4fb8 fe63 84b8 c1ee c5b6
00000370: 3798 9237 b3f6 23b7 3e1f b136 54eb 15b8
00000380: 673d 55b8 de69 cab4 a81f 83b7 1cc9 1d38
00000390: 9b76 3738 6158 7638 5c06 5f38 70b4 9b37
000003a0: fdc5 acb7 1d96 6cb7 bd99 9f36 757b ac37
000003b0: fe3e 12b7 d7c6 94b7 cc5c 0838 48a1 8238
000003c0: b694 6238 c075 8238 fab2 9e38 0de1 9a38
000003d0: 33a2 9a38 0931 7638 516d 7438 4135 17b8
000003e0: 05b5 98b8 8701 afb8 11b2 6eb8 1925 21b8
000003f0: 4d6a e5b8 57e4 c6b8 36ee d2b7 ceae 3a38
1.7347389e-05 -1.6669748e-05 3.5717112e-06 -5.0282622e-05 -4.4447603e-05 -3.705249e-05 -1.9698622e-05 -2.001538e-05
1.4565802e-05 2.438843e-05 -7.132181e-06 -3.7913017e-06 6.074012e-06 -1.256602e-05 2.9890743e-05 -6.319536e-07
-1.3103801e-06 -4.801591e-05 -4.1256637e-05 -7.573837e-06 7.582445e-07 -2.6123382e-07 -3.7448768e-05 1.2699768e-05
-5.091146e-05 -1.3687792e-05 -2.0163247e-05 -2.1845488e-05 3.8572027e-05 6.539207e-05 3.322819e-05 -4.3167474e-05
-3.584146e-05 -5.3252665e-05 -3.8514092e-05 -1.8266432e-07 3.8389204e-05 6.311654e-05 5.4326276e-05 8.796328e-05
3.1939104e-05 3.4381745e-05 6.039191e-05 8.077899e-06 -4.8603328e-05 3.472623e-06 -1.5514408e-05 -4.2126932e-05
-6.342949e-05 -6.524586e-05 -5.897139e-05 -4.647924e-05 -1.0705015e-05 3.4738687e-06 1.6560542e-05 -2.3686263e-05
6.796218e-06 2.2465663e-05 -2.3310637e-05 9.301669e-06 2.2112961e-05 2.0417792e-05 -4.3022246e-06 1.551221e-05
1.7159915e-05 3.712844e-05 3.042356e-05 5.2477113e-05 -1.9317522e-05 -1.7284226e-05 -3.2097705e-05 3.2441967e-05
-2.864283e-05 2.1314161e-05 2.487463e-05 4.7653655e-05 -1.1802224e-06 -7.1644013e-06 -5.2355386e-05 -4.6829286e-06
-1.9419253e-05 -3.5243385e-05 8.645033e-06 9.312033e-06 6.5981396e-05 4.6876354e-05 3.899564e-05 0.000103495506
7.673559e-05 2.6589076e-05 4.671778e-06 -1.6291511e-05 -1.0048697e-05 -4.8133264e-05 3.983584e-05 1.7771708e-05
3.546357e-06 1.1272529e-05 -5.5163964e-05 -8.179242e-06 -1.1333516e-05 5.785133e-06 4.475615e-05 8.559657e-05
1.7498096e-05 -5.243302e-06 -7.4246105e-05 -6.5360975e-05 -2.8989518e-05 -2.0099127e-05 -1.3833541e-05 -1.5835518e-05
-1.4473355e-05 1.9093504e-05 -8.148953e-06 1.5811216e-05 -5.124896e-05 -1.8528859e-05 -2.6923813e-05 -2.0804805e-06
1.074569e-05 2.036402e-05 -2.758375e-05 -2.5767538e-05 -4.135233e-05 -2.3007942e-05 -1.5787913e-06 1.6608816e-06
-2.447191e-05 -4.3816108e-05 -2.1895396e-06 -1.3193487e-07 -8.4562726e-07 8.736792e-06 -4.0271934e-06 1.501899e-06
5.325014e-06 6.1075993e-06 -1.7689841e-05 -2.7254117e-05 -1.2267485e-05 1.0676184e-05 5.0966144e-05 1.9481779e-05
7.460459e-05 2.8962313e-05 -3.427024e-05 1.7865372e-05 -2.5042205e-05 -1.5229871e-05 3.8835933e-05 6.745163e-05
3.102891e-05 2.6048237e-05 -4.5682104e-06 1.5320573e-05 -2.095647e-05 -3.6570775e-05 -7.148518e-05 -4.238753e-05
9.671346e-06 1.6614164e-05 -1.7860495e-05 -1.1891138e-06 -3.610085e-06 -1.3625689e-05 -4.554837e-06 -3.580965e-05
-4.9738996e-05 -5.247794e-05 -7.172234e-06 -1.2874816e-05 -3.2859432e-05 1.4123511e-06 1.7489378e-05 4.0029805e-05
4.6223628e-05 6.5587934e-05 1.832808e-05 5.6383065e-05 8.7060704e-05 5.9353893e-05 4.849439e-05 2.109731e-05
7.905103e-06 -6.2433086e-05 -3.444171e-05 -0.00012290465 -4.9548733e-05 2.3280641e-05 1.9867051e-05 5.7120596e-05
5.521354e-05 3.1051462e-05 -3.5470843e-05 -5.5840643e-05 -1.7397842e-05 -1.3759406e-05 -2.4104664e-05 1.8260318e-05
3.309553e-05 2.3321241e-05 -5.41529e-06 -2.2699845e-05 2.6098676e-05 1.9597652e-05 7.0425485e-05 7.8828605e-05
3.999972e-05 9.2936225e-06 2.6959513e-05 -2.891128e-05 -8.218531e-05 -7.897683e-05 -6.391861e-05 -3.989554e-05
-9.125024e-05 -4.958778e-05 -6.3128755e-05 -5.898852e-06 1.7475437e-05 -9.772996e-06 5.278648e-06 -3.5743535e-05
-5.0840343e-05 -3.770246e-07 -1.5631158e-05 3.7619015e-05 4.374106e-05 5.873328e-05 5.3173266e-05 1.8561463e-05
-2.0596193e-05 -1.4101647e-05 4.7564668e-06 2.0561487e-05 -8.716945e-06 -1.7735567e-05 3.251135e-05 6.228924e-05
5.4021097e-05 6.220816e-05 7.567364e-05 7.385211e-05 7.373504e-05 5.8696638e-05 5.8275942e-05 -3.6050802e-05
-7.281642e-05 -8.344935e-05 -5.690946e-05 -3.841994e-05 -0.00010939371 -9.483907e-05 -2.5144876e-05 4.4508655e-05

exp_avg_sq f4 [96, 336]
00000000: c6e2 0432 ec73 7832 4750 a032 df18 ac32
00000010: 841e be32 a7ff c932 5e99 ca32 b319 c232
00000020: c7e7 c532 13b7 bb32 c913 b232 1dd7 b232
00000030: d22c b632 a433 b332 3208 b832 c599 b632
00000040: f9d4 ba32 a7fd be32 9a61 bf32 c34d c732
00000050: db38 bb32 2dd1 ba32 d449 bc32 a2e0 bd32
00000060: 6d18 c032 18ac b532 4526 be32 25b0 b932
00000070: 087d c832 536f bd32 d7cb b432 b27e b232
00000080: 1c26 be32 20a7 bf32 c784 c332 155b b332
00000090: ae9f b932 1b19 b932 d615 c032 73ad bf32
000000a0: 9a1a bd32 b3f5 b632 bd63 b532 6239 bd32
000000b0: 4475 b432 9284 b932 41c3 b132 22d5 b932
000000c0: 23be bf32 c694 ca32 3580 c532 2a5d b632
000000d0: cc80 ba32 888b b732 4da2 b832 bf41 c532
000000e0: 4a29 bb32 7f87 b532 ede5 c232 5d7e b932
000000f0: 3a1d b232 b125 b632 d64e b632 c5e7 bb32
00000100: 2046 bb32 9837 bb32 f3a0 b932 5c52 bc32
00000110: 7072 b132 8e55 b232 073f bd32 2b8f bd32
00000120: 3e5c bc32 7ca0 ba32 ce9d b832 5047 c032
00000130: c94e b332 6371 b032 20b4 ab32 9b68 ae32
00000140: 70e9 b632 bb35 bd32 ca88 ba32 6daa b732
00000150: ebab b732 ddc3 b232 4e78 b432 f77f b732
00000160: 8a44 b432 5d11 b632 ebb2 b732 0698 b732
00000170: 9c0a ba32 64ff bd32 0b44 ba32 b92c b732
00000180: 60d8 bd32 30a2 be32 c6e3 c232 b532 b632
00000190: 47ea b932 f372 b932 297b b932 6888 c032
000001a0: b196 bd32 6246 b732 8006 ae32 1816 af32
000001b0: 5a68 b232 b222 ba32 0a73 ba32 6ba9 b932
000001c0: 1741 b032 2c7a af32 f0db bd32 4874 b832
000001d0: d493 ba32 91a9 bb32 f5c0 b232 51bb ac32
000001e0: 50dc b132 b466 b732 ecba bd32 a215 bd32
000001f0: 84ed bc32 8c7b ba32 4f4a bc32 00a0 bb32
00000200: c119 c132 0822 c432 79fa b532 ca1a af32
00000210: ad9e b132 17fa b832 8343 ba32 d0da ba32
00000220: e720 b832 b6d0 b732 17bb b932 c4d9 b832
00000230: 7310 b232 f9d2 bb32 6f17 b432 4597 bb32
00000240: fd25 c232 6e28 ba32 33e0 ba32 bb13 b132
00000250: 3e03 b832 7a53 c232 472d bd32 98dd c332
00000260: 6691 c632 f0ab bc32 ef4f b932 b402 ba32
00000270: 7376 b832 a5ac bd32 9d89 c032 939c c232
00000280: 70c7 c232 20b6 bd32 c82d bf32 4aca bf32
00000290: b937 b832 7594 b332 8327 ba32 e76b bd32
000002a0: 3583 bb32 7030 be32 4f8d bf32 fa1e bf32
000002b0: e248 b932 f5f4 b432 c167 b832 b636 ba32
000002c0: ce09 c132 ec49 c132 3a22 bb32 b603 bf32
000002d0: 79c4 af32 be21 b432 ab8d c032 5c71 bb32
000002e0: ee2b c232 a069 c232 b7bc b932 78bc c332
000002f0: f5c9 b532 79e1 b732 0a47 bc32 c62a bc32
00000300: 24f7 bb32 0a59 c532 130f b832 c606 bb32
00000310: 20f7 bb32 0080 b532 16b6 b132 ee26 bb32
00000320: 53b3 ba32 8860 c032 a7f2 be32 b476 be32
00000330: 9708 b232 3285 b732 796b c132 7dc0 c532
00000340: 9ebd bd32 eab8 b732 640d b732 cabe b432
00000350: 0f1c a832 13ff b532 f963 b732 6ab6 be32
00000360: 0637 bf32 5e68 be32 5ee3 bd32 fb4a bf32
00000370: f78a bb32 f0e8 bc32 879b bf32 2b61 b432
00000380: d723 c832 0405 bb32 97b1 b132 cb08 bb32
00000390: 6eb2 b732 3833 bc32 a97a bb32 9c8b bc32
000003a0: 6a69 b432 0af2 b132 b5d4 b132 46dd b732
000003b0: 6fe3 bc32 9010 ba32 ffa0 b832 b70f c232
000003c0: 9182 b932 4222 c332 78d3 c132 abde c032
000003d0: 873b c132 6728 b232 e7fd b532 efa6 ba32
000003e0: 6049 c432 1f69 cc32 ed82 c032 53ff b532
000003f0: e928 b932 2a61 b832 859b bc32 56be ba32
7.7349736e-09 1.44618575e-08 1.8662957e-08 2.0034745e-08 2.2132788e-08 2.3515737e-08 2.3585638e-08 2.2596259e-08
2.3039219e-08 2.1852918e-08 2.0730925e-08 2.081975e-08 2.120797e-08 2.0861826e-08 2.1424146e-08 2.1257515e-08
2.1750099e-08 2.2234259e-08 2.227971e-08 2.3202011e-08 2.179552e-08 2.1748372e-08 2.1919654e-08 2.2104647e-08
2.236285e-08 2.1149432e-08 2.2136314e-08 2.1616936e-08 2.3339922e-08 2.205312e-08 2.1047454e-08 2.0779542e-08
2.2136241e-08 2.2311326e-08 2.2761368e-08 2.0879762e-08 2.1609448e-08 2.1548251e-08 2.2361672e-08 2.2314202e-08
2.2014593e-08 2.129932e-08 2.1116529e-08 2.202859e-08 2.1008084e-08 2.159712e-08 2.0694303e-08 2.1633756e-08
2.232179e-08 2.358355e-08 2.299212e-08 2.1229955e-08 2.171182e-08 2.1367455e-08 2.1494225e-08 2.2963716e-08
2.1788441e-08 2.113279e-08 2.268913e-08 2.1594298e-08 2.0735218e-08 2.1204729e-08 2.1223439e-08 2.1875062e-08
2.1801554e-08 2.1794946e-08 2.1610026e-08 2.1923533e-08 2.0657552e-08 2.0760833e-08 2.2031157e-08 2.2067601e-08
2.1928027e-08 2.172623e-08 2.149218e-08 2.2384171e-08 2.087417e-08 2.0540659e-08 1.9988931e-08 2.0303835e-08
2.1293744e-08 2.202693e-08 2.1715454e-08 2.1381505e-08 2.1382183e-08 2.0810996e-08 2.1009466e-08 2.1362196e-08
2.0985926e-08 2.1195484e-08 2.1385366e-08 2.1373136e-08 2.1658074e-08 2.2118634e-08 2.1684192e-08 2.1324341e-08
2.2100892e-08 2.2192665e-08 2.2688152e-08 2.1210647e-08 2.1643372e-08 2.1589107e-08 2.1592841e-08 2.2413772e-08
2.2071022e-08 2.133601e-08 2.0259222e-08 2.0382728e-08 2.076938e-08 2.1669027e-08 2.1705564e-08 2.1613877e-08
2.0518696e-08 2.0428239e-08 2.2102512e-08 2.1473298e-08 2.1720474e-08 2.1846775e-08 2.0809674e-08 2.0108617e-08
2.0705698e-08 2.1350708e-08 2.2087498e-08 2.2012333e-08 2.199409e-08 2.1709432e-08 2.1919872e-08 2.1842425e-08
2.2479869e-08 2.2832879e-08 2.1185075e-08 2.0384864e-08 2.067767e-08 2.1534147e-08 2.168395e-08 2.1752754e-08
2.1435381e-08 2.1398915e-08 2.1621913e-08 2.1519448e-08 2.0729408e-08 2.1865604e-08 2.0965414e-08 2.1838455e-08
2.2601848e-08 2.1671635e-08 2.1755204e-08 2.0614484e-08 2.1421894e-08 2.2622533e-08 2.2023086e-08 2.2801757e-08
2.3116353e-08 2.1964269e-08 2.1573184e-08 2.1654479e-08 2.1474284e-08 2.2081005e-08 2.2414321e-08 2.2655774e-08
2.2675266e-08 2.2085317e-08 2.2256145e-08 2.2327317e-08 2.1445759e-08 2.0905853e-08 2.1671218e-08 2.2051564e-08
2.1829331e-08 2.2140938e-08 2.2299586e-08 2.2249413e-08 2.1569978e-08 2.1066151e-08 2.1467601e-08 2.167813e-08
2.2472616e-08 2.2501773e-08 2.178523e-08 2.2237014e-08 2.0462027e-08 2.0970102e-08 2.2416165e-08 2.1821215e-08
2.260455e-08 2.2632605e-08 2.1622652e-08 2.2786693e-08 2.1163013e-08 2.1406537e-08 2.1918385e-08 2.1905532e-08
2.1882052e-08 2.2974309e-08 2.1427274e-08 2.1772745e-08 2.1882045e-08 2.1129381e-08 2.0688315e-08 2.1787368e-08
2.1734797e-08 2.239564e-08 2.2229257e-08 2.2172891e-08 2.0725833e-08 2.1364574e-08 2.251703e-08 2.3021352e-08
2.2088724e-08 2.1388093e-08 2.1310093e-08 2.1041519e-08 1.9570534e-08 2.1187168e-08 2.1349466e-08 2.2201863e-08
2.2260348e-08 2.2166372e-08 2.210589e-08 2.2269424e-08 2.1832859e-08 2.1992008e-08 2.2306052e-08 2.0998945e-08
2.3299362e-08 2.1771946e-08 2.068627e-08 2.1773664e-08 2.1385144e-08 2.1909372e-08 2.1825445e-08 2.1949567e-08
2.1002695e-08 2.0715579e-08 2.070224e-08 2.1404627e-08 2.1989505e-08 2.1660782e-08 2.1493632e-08 2.2591719e-08
2.159621e-08 2.2716566e-08 2.2564322e-08 2.2453e-08 2.2495227e-08 2.07403e-08 2.1186635e-08 2.1729162e-08
2.285077e-08 2.379653e-08 2.241128e-08 2.1187281e-08 2.1555438e-08 2.1464604e-08 2.1956803e-08 2.1739805e-08

exp_avg f4 [96]
00000000: e3b2 1339 877a 23b9 cb3d 8fb8 3280 90b8
00000010: 46c4 6fb9 bfb6 beb8 e466 09b9 0324 8cb9
00000020: dd17 c538 af8b 6339 2c04 9739 0677 8039
00000030: f18b 3139 fecc 1839 eb0f 0bb9 d659 d938
00000040: 5d99 b638 69a6 8fb8 a8fd 3336 b7e0 19b8
00000050: 87a3 9eb8 e61a 9b37 5818 4338 a4b9 abb8
00000060: bb79 d8b8 25fc d436 899f 29b9 5d02 56b9
00000070: 4ece 7037 2627 ddb7 15db 99b9 d5f6 f2b9
00000080: d532 5cb9 dc48 c639 689b ae38 0e55 b137
00000090: 01fe 6438 2731 bb39 b18b a339 a52b 44b8
000000a0: c224 8b37 8e1a 9f38 d04b 1039 4e24 df38
000000b0: 2e76 4139 ba2c 92b7 81b4 5039 fcc4 8239
000000c0: 4cd5 8e39 ce08 c7b9 d00c 9938 6aed f238
000000d0: 0675 ddb8 e569 0fb9 4f3d 0f39 f456 8c38
000000e0: 852e b2b8 557e 2338 655c d938 7527 28b9
000000f0: 4386 4339 891e 60b8 19dd 9138 3641 11b9
00000100: 94cc 1b39 7cf7 6639 28e2 cc38 169a ca38
00000110: 1029 8239 fab0 8a39 56f1 9739 850c b439
00000120: 70a9 3db7 8a4a 82b8 0866 d7b8 6b48 6d38
00000130: c26b aeb9 3741 fbb8 69a8 7938 08c7 a237
00000140: 701d 5bb8 71b9 8837 cd09 6939 9ecf b339
00000150: 3876 0939 b364 3739 8894 02b7 086c 9638
00000160: 17b3 8d39 375c 2639 d389 fab8 aac0 8e39
00000170: f327 7237 f839 aeb8 b5e7 2339 c409 1a39
0.00014085653 -0.00015590536 -6.830281e-05 -6.890333e-05 -0.00022865934 -9.093945e-05 -0.00013103668 -0.00026729712
9.398137e-05 0.00021700443 0.00028804073 0.00024502742 0.00016932168 0.00014572215 -0.00013262003 0.000103640996
8.7070024e-05 -6.849768e-05 2.6820726e-06 -3.6687325e-05 -7.5644864e-05 1.8489965e-05 4.6514295e-05 -8.188494e-05
-0.00010322357 6.347446e-06 -0.00016176527 -0.00020409511 1.4353149e-05 -2.6363483e-05 -0.00029345663 -0.0004634174
-0.00020999771 0.00037819787 8.325913e-05 2.1139651e-05 5.4595996e-05 0.0003570404 0.0003119386 -4.677069e-05
1.6587208e-05 7.586657e-05 0.00013761153 0.00010640231 0.0001844994 -1.7425384e-05 0.00019903669 0.00024942297
0.0002724327 -0.00037962798 7.297995e-05 0.00011583681 -0.000105598985 -0.00013676992 0.00013660382 6.6919165e-05
-8.496366e-05 3.8979884e-05 0.00010364576 -0.00016036427 0.00018646666 -5.34342e-05 6.9553214e-05 -0.0001385257
0.00014858163 0.00022026704 9.769603e-05 9.660811e-05 0.00024826126 0.0002645327 0.00028980774 0.00034341603
-1.1304728e-05 -6.212767e-05 -0.00010271004 5.6572648e-05 -0.00033268152 -0.0001198076 5.952307e-05 1.9404586e-05
-5.2241085e-05 1.6298816e-05 0.00022224263 0.00034296227 0.00013109378 0.00017489753 -7.783186e-06 7.17268e-05
0.00027027048 0.00015865346 -0.00011946601 0.00027227896 1.4433625e-05 -8.307764e-05 0.00015631209 0.00014690222

exp_avg_sq f4 [96]
00000000: 9231 4f35 7b88 3835 7ee4 3535 511b 3f35
00000010: a88e 3735 f504 3635 8e64 3835 1929 3535
00000020: 35b8 3335 ca8e 2c35 30fd 2f35 17ca 2935
00000030: 007a 3535 2cfa 3635 67c2 3335 c650 3235
00000040: 5cdf 3535 9bf8 3a35 3e27 3235 f50c 4035
00000050: 4cab 2d35 3e37 2f35 3ecf 3335 ee01 3235
00000060: 93a7 2d35 7b40 3635 d735 2e35 4b77 2c35
00000070: 4db9 3335 87ba 2735 8454 2d35 62d4 2f35
00000080: 209d 3035 f874 3035 002a 2d35 4d43 3b35
00000090: f371 2b35 3c42 3635 4926 3935 5053 3835
000000a0: 772f 3c35 a4ff 3235 ac2e 3b35 79da 3635
000000b0: d294 3535 c56c 3935 ce17 3635 b017 3f35
000000c0: 8d46 2f35 83c8 3535 ae1b 3835 eef6 3735
000000d0: 3721 3b35 b387 3535 6342 3235 fe8a 3635
000000e0: 73a9 3935 d7e9 2f35 e272 3635 455c 3835
000000f0: 136c 3435 e92e 3d35 a9d4 3935 9bcb 3435
00000100: 3cae 3235 1e54 3235 4d41 3735 d127 3835
00000110: 5255 3635 68ce 3835 c0fc 3c35 3928 3935
00000120: f082 3e35 511c 3535 f8d5 4335 7f54 3335
00000130: db4a 3a35 52e1 3c35 330b 3835 4e88 3135
00000140: 0416 3935 9508 4135 6d03 3a35 0322 3c35
00000150: 35d5 4235 0680 3e35 2407 3f35 e0b2 4235
00000160: 21e5 4835 3f99 4135 c97b 4235 d8e0 3e35
00000170: 4161 4235 f1f7 3d35 884c 4035 3a3d 4335
7.7185643e-07 6.8743947e-07 6.7760254e-07 7.1192795e-07 6.8380405e-07 6.7807497e-07 6.869167e-07 6.748756e-07
6.6950753e-07 6.428278e-07 6.5561017e-07 6.3251485e-07 6.760529e-07 6.816433e-07 6.696559e-07 6.642771e-07
6.7752785e-07 6.965217e-07 6.636727e-07 7.154443e-07 6.469679e-07 6.527297e-07 6.6984273e-07 6.6312975e-07
6.4691375e-07 6.7894115e-07 6.48984e-07 6.424859e-07 6.6952344e-07 6.248378e-07 6.457051e-07 6.550164e-07
6.5793756e-07 6.573532e-07 6.450864e-07 6.9760864e-07 6.386828e-07 6.7896667e-07 6.897358e-07 6.8666577e-07
7.010453e-07 6.6682173e-07 6.9730845e-07 6.8118203e-07 6.7644316e-07 6.907615e-07 6.7834924e-07 7.1187515e-07
6.5295245e-07 6.771954e-07 6.858562e-07 6.853214e-07 6.971126e-07 6.762522e-07 6.640677e-07 6.8002544e-07
6.916445e-07 6.553286e-07 6.796746e-07 6.867961e-07 6.7212494e-07 7.047625e-07 6.922733e-07 6.735151e-07
6.656371e-07 6.6432574e-07 6.826784e-07 6.860328e-07 6.792444e-07 6.88457e-07 7.040326e-07 6.89764e-07
7.0971055e-07 6.746896e-07 7.2954526e-07 6.6805654e-07 6.939933e-07 7.036334e-07 6.856164e-07 6.613599e-07
6.894991e-07 7.191059e-07 6.9295385e-07 7.008495e-07 7.258089e-07 7.0966814e-07 7.1163436e-07 7.253093e-07
7.483923e-07 7.2121105e-07 7.2450763e-07 7.1107706e-07 7.2412155e-07 7.076879e-07 7.163694e-07 7.273226e-07

exp_avg f4 [96, 336]
00000000: 9d87 3db9 b6c3 3fb9 0bfa 3fb9 9e9f 3bb9
00000010: ced8 3fb9 e902 41b9 3b9f 46b9 6546 46b9
00000020: 9a2a 46b9 3926 46b9 71a0 41b9 2742 41b9
00000030: be0a 48b9 384c 48b9 1329 47b9 1043 41b9
00000040: dd25 40b9 cf7e 37b9 0a2a 2fb9 67de 2eb9
00000050: cbee 26b9 6b95 25b9 71e1 27b9 9deb 22b9
00000060: 2157 1cb9 af63 15b9 4a94 12b9 d38b 09b9
00000070: e0f7 05b9 93fe efb8 d99e e0b8 24ef d3b8
00000080: 7b9e d8b8 75bb c3b8 541c c5b8 9df9 b9b8
00000090: 3cec adb8 c6c2 a9b8 30dd abb8 e021 a6b8
000000a0: f823 92b8 882c 93b8 59d9 91b8 8cf9 8fb8
000000b0: 0761 74b8 ff89 66b8 b776 41b8 17c2 27b8
000000c0: ba81 1ab8 9e67 14b8 e060 0ab8 07f7 edb7
000000d0: 0ab8 c9b7 a47c adb7 a2d7 91b7 a4cd 27b7
000000e0: d0e2 7ab6 ea86 1036 f3d4 c336 61eb c436
000000f0: 9a06 8537 a552 c437 9b12 0f38 b3b0 2a38
00000100: 48c8 5338 0bb4 6a38 631d 6e38 2383 7f38
00000110: e3b5 8a38 67f0 8738 1149 9738 3569 9238
00000120: 6f89 a138 2944 b338 54e6 bc38 52e1 c638
00000130: 24f4 d038 3c8b c638 db8f d238 a0df d138
00000140: 9c7a bf38 09c6 c138 0bda c838 80e2 c338
00000150: 9e7f bb38 b96f c438 5f38 bb38 05af b538
00000160: a869 a038 0624 9b38 f28a 9938 edac 9538
00000170: 0969 9138 1534 8538 39ca 6d38 b050 4238
00000180: 3396 2838 6143 f337 6411 9237 67aa 3737
00000190: 7017 a1b6 7341 f9b6 3a8c 98b7 87e1 b7b7
000001a0: 080c 14b8 3fcc 33b8 368d 4fb8 45f0 6fb8
000001b0: d828 7cb8 5526 8fb8 a70b a2b8 9162 9cb8
000001c0: b281 b5b8 7765 bcb8 f2c0 c0b8 b625 d4b8
000001d0: c3a5 e4b8 7591 ebb8 588c e6b8 babb e8b8
000001e0: 1794 ebb8 d1fd e6b8 a3a8 efb8 c09d e2b8
000001f0: dd54 ddb8 3800 e9b8 e9a8 e4b8 5f8f e3b8
00000200: 0d23 dab8 9f01 d9b8 a750 d1b8 67a8 c6b8
00000210: 7c87 b7b8 5d30 b6b8 f546 afb8 3496 a8b8
00000220: c985 a7b8 84f1 9fb8 6887 8fb8 79df 81b8
00000230: 8f3c 72b8 b0ac 70b8 41f2 5cb8 aa89 37b8
00000240: 7765 4fb8 cb8c 32b8 6bd5 4eb8 7814 4ab8
00000250: 64eb 4fb8 60b2 2db8 9302 31b8 0aef 38b8
00000260: 6251 2bb8 ba6e 2fb8 8090 32b8 d71c 3cb8
00000270: 484d 3bb8 9254 4ab8 085c 4eb8 495b 2fb8
00000280: 4110 3eb8 9468 3cb8 0a32 14b8 d1f0 0db8
00000290: 4891 17b8 f1e5 14b8 7d98 00b8 f787 e8b7
000002a0: 628f a9b7 f080 b4b7 240b 32b7 71dd 9ab6
000002b0: be49 87b6 cf87 5fb6 8549 e9b5 794b 43b6
000002c0: 0c19 44b6 7384 39b6 cdeb f635 ab90 9336
000002d0: c07b 7e36 2214 eb36 edac ff36 0c05 4237
000002e0: fecb 4537 1266 1a37 0df5 0b37 28c3 0b37
000002f0: 45e0 d435 0ef0 d2b5 f7a7 2fb6 112b 6cb6
00000300: 41f8 3eb7 88cb 60b7 d87e 6eb7 316a 93b7
00000310: ff68 91b7 31c9 c6b7 dafa b7b7 0fb6 f8b7
00000320: a328 e3b7 6c98 0cb8 f72b 1eb8 2ebc 2bb8
00000330: aca8 4eb8 38ed 80b8 ccbf 8bb8 3cee 91b8
00000340: 9e37 89b8 9e5c 94b8 09f6 8eb8 aa02 8fb8
00000350: f0a0 a4b8 66ee 9bb8 f9af a3b8 64c3 9ab8
00000360: 58f9 a1b8 bfe0 8fb8 4d57 95b8 1db2 93b8
00000370: 35f6 99b8 e0b1 98b8 b940 91b8 b081 83b8
00000380: 1854 71b8 6687 5bb8 906f 45b8 6cab 32b8
00000390: 2182 1db8 8e21 eab7 45b2 a6b7 71de 39b7
000003a0: bf5d 9ab6 bf38 4cb6 78ad 2cb6 a79b 7f36
000003b0: 86d5 55b6 ac3e 31b6 733c 4bb6 99db b0b5
000003c0: 781e 48b7 b521 7bb7 1c2f acb7 9345 d7b7
000003d0: 99eb eab7 b8a5 c7b7 5ecd f5b7 1225 16b8
000003e0: 3417 26b8 a1db 39b8 173e 34b8 5ca3 5ab8
000003f0: 4fba 7bb8 21c9 9bb8 2644 a1b8 71fe a5b8
-0.00018074964 -0.00018288087 -0.00018308328 -0.00017893172 -0.00018295945 -0.00018406998 -0.0001894207 -0.00018908975
-0.00018898622 -0.0001889699 -0.00018465683 -0.00018430558 -0.00019077488 -0.0001910188 -0.0001899342 -0.00018430897
-0.00018324652 -0.0001749948 -0.00016704961 -0.00016676784 -0.00015919951 -0.00015791289 -0.00016010345 -0.00015537297
-0.00014909777 -0.00014246882 -0.00013978887 -0.00013117427 -0.00012776209 -0.00011443826 -0.0001071074 -0.000101058075
-0.00010329202 -9.333241e-05 -9.3989685e-05 -8.8679815e-05 -8.293285e-05 -8.094827e-05 -8.195115e-05 -7.9218065e-05
-6.968522e-05 -7.017801e-05 -6.954623e-05 -6.865253e-05 -5.8264497e-05 -5.4964792e-05 -4.6125348e-05 -3.9996663e-05
-3.683728e-05 -3.538245e-05 -3.2991986e-05 -2.8367633e-05 -2.4046767e-05 -2.0681247e-05 -1.7385759e-05 -1.0001855e-05
-3.7384925e-06 2.1536202e-06 5.8362434e-06 5.868657e-06 1.585791e-05 2.3403505e-05 3.4111185e-05 4.0695722e-05
5.0492847e-05 5.5957626e-05 5.677099e-05 6.091887e-05 6.614232e-05 6.48208e-05 7.213851e-05 6.981419e-05
7.702677e-05 8.548081e-05 9.0074405e-05 9.483345e-05 9.9636876e-05 9.46731e-05 0.000100403755 0.0001000755
9.1304275e-05 9.239844e-05 9.577357e-05 9.3405135e-05 8.9406254e-05 9.366818e-05 8.927355e-05 8.6633525e-05
7.6490745e-05 7.397686e-05 7.321489e-05 7.1370836e-05 6.933703e-05 6.351635e-05 5.6693538e-05 4.632835e-05
4.0194205e-05 2.8999233e-05 1.7412654e-05 1.0947325e-05 -4.8009024e-06 -7.4283976e-06 -1.818511e-05 -2.192032e-05
-3.5297155e-05 -4.2867145e-05 -4.948416e-05 -5.720581e-05 -6.011952e-05 -6.825911e-05 -7.7269324e-05 -7.457019e-05
-8.65491e-05 -8.983438e-05 -9.191212e-05 -0.00010115972 -0.00010902763 -0.00011232767 -0.00010993396 -0.00011097589
-0.00011233257 -0.000110145316 -0.00011427819 -0.00010805903 -0.00010553908 -0.000111103465 -0.00010903349 -0.000108509084
-0.00010401579 -0.00010347668 -9.980919e-05 -9.472743e-05 -8.751356e-05 -8.687445e-05 -8.357867e-05 -8.038842e-05
-7.9881e-05 -7.6266966e-05 -6.843993e-05 -6.1928244e-05 -5.7753696e-05 -5.7381287e-05 -5.2677704e-05 -4.375881e-05
-4.9447142e-05 -4.256963e-05 -4.931299e-05 -4.8179616e-05 -4.957187e-05 -4.141254e-05 -4.2202486e-05 -4.409164e-05
-4.084537e-05 -4.1826373e-05 -4.2573083e-05 -4.4849552e-05 -4.4656248e-05 -4.8239315e-05 -4.9199938e-05 -4.1808267e-05
-4.5314668e-05 -4.492009e-05 -3.5332552e-05 -3.3841297e-05 -3.613651e-05 -3.55001e-05 -3.0659594e-05 -2.7719869e-05
-2.0213138e-05 -2.1517713e-05 -1.0612221e-05 -4.615337e-06 -4.0318982e-06 -3.330864e-06 -1.738125e-06 -2.9101195e-06
-2.9220855e-06 -2.7644244e-06 1.8397055e-06 4.397783e-06 3.7920981e-06 7.0058895e-06 7.6197234e-06 1.1564476e-05
1.1789611e-05 9.20288e-06 8.342101e-06 8.330484e-06 1.5860502e-06 -1.5716084e-06 -2.61748e-06 -3.5191808e-06
-1.1382684e-05 -1.3398829e-05 -1.4215439e-05 -1.7573215e-05 -1.733424e-05 -2.3697126e-05 -2.1932112e-05 -2.9648681e-05
-2.7079432e-05 -3.3520555e-05 -3.771108e-05 -4.0944833e-05 -4.9271315e-05 -6.147701e-05 -6.6637615e-05 -6.9585134e-05
-6.5430286e-05 -7.074441e-05 -6.816915e-05 -6.8192676e-05 -7.850106e-05 -7.435381e-05 -7.805223e-05 -7.3796866e-05
-7.723522e-05 -6.8606336e-05 -7.121135e-05 -7.0426824e-05 -7.341468e-05 -7.2810566e-05 -6.926194e-05 -6.270723e-05
-5.7537196e-05 -5.233977e-05 -4.707236e-05 -4.2598156e-05 -3.755291e-05 -2.7910599e-05 -1.9871755e-05 -1.10786505e-05
-4.600471e-06 -3.04314e-06 -2.573097e-06 3.8088563e-06 -3.186376e-06 -2.6411535e-06 -3.0284543e-06 -1.3176933e-06
-1.1928023e-05 -1.4968614e-05 -2.0525935e-05 -2.5662395e-05 -2.8004682e-05 -2.3799817e-05 -2.9301907e-05 -3.579731e-05
-3.9599094e-05 -4.4311982e-05 -4.297317e-05 -5.212739e-05 -6.0016577e-05 -7.428439e-05 -7.689772e-05 -7.9152065e-05
