checkpoints/DLinear/ETTm2_100_336_96/255cceb5366209961313efebfdebde4e/DLinear_100.pt (torch, 782262 bytes, 12 tensors)

Linear_Seasonal.weight f4 [96, 336]
000000 3e d3 ca 3b 89 1d bd ba fc 7b 90 3b 86 fd 91 bb
       0.006189733 -0.0014428358 0.0044093113 -0.004455271
000010 2a 30 4a 3b 93 cb 79 3a 7f e1 76 3b ad 53 0a bb
       0.0030851462 0.0009528931 0.0037671027 -0.0021107004
000020 0f 5b a4 bb ed 2d 25 bb 1d f3 7b bb 29 e1 0a ba
       -0.005015738 -0.0025204376 -0.0038444467 -0.00052978337
000030 15 12 06 3a 73 02 78 bb e7 14 8e bb f5 4a 41 bb
       0.0005114389 -0.0037843257 -0.004335988 -0.002949414
000040 10 37 1c bb a4 c0 a3 ba b7 dc 40 bb 72 63 51 ba
       -0.002383653 -0.0012493324 -0.0029428431 -0.0007987536
000050 49 20 3d bb d2 e1 c8 bb 39 82 95 ba 44 68 db bb
       -0.0028858355 -0.0061304355 -0.0011406607 -0.006695779
000060 0a 5f 4d ba 66 34 0b bc 50 24 88 39 5f 0a 45 bb
       -0.00078342913 -0.0084963795 0.00025966996 -0.0030065996
000070 8a d9 e2 bb 0f 4a e7 b8 25 96 a8 bb eb cf 07 bb
       -0.0069229053 -0.00011028733 -0.0051448517 -0.0020723294
000080 2e 1b be ba 68 8b 58 ba 04 08 25 3b a5 e5 4f 3a
       -0.001450395 -0.0008260519 0.002518178 0.0007930643
000090 1e 30 c9 ba 26 d1 1d 3b 5a 53 a8 3b 09 c2 93 3b
       -0.0015349423 0.002408096 0.0051368894 0.004509215
0000a0 09 29 82 3a 38 d4 65 3b 36 cc a6 3b b7 48 3d 3b
       0.0009930442 0.003506912 0.005090262 0.0028882453
0000b0 72 c4 b0 b9 06 7b 05 bc 5d 25 24 bc d9 d4 c1 39
       -0.000337157 -0.008147007 -0.010018674 0.00036970412
0000c0 7c 26 90 3c 26 62 bf 3c 06 18 35 3c dc 1d 95 3b
       0.017596476 0.02336223 0.011053091 0.0045506787
0000d0 2c 9f a9 ba 3b 25 8a ba fe ab 71 bb e2 71 29 bb
       -0.0012941114 -0.001053966 -0.0036876197 -0.0025855233
0000e0 2c 99 b1 ba 25 16 40 bb e6 68 49 3a fa 2e 76 bb
       -0.0013549677 -0.0029310074 0.00076831726 -0.0037564621
0000f0 bb 1f c5 3b 58 a7 d0 bb 16 52 87 bb 9f 2e 23 bc
       0.0060157455 -0.006367605 -0.0041296585 -0.009959846
000100 77 79 ef bb e6 1e 69 bb 87 95 5f bb d9 c0 ef bb
       -0.007308181 -0.0035571395 -0.0034116225 -0.0073166904
000110 15 2b bc bb 96 e3 08 ba 36 0d fd ba 07 8b de ba
       -0.0057424405 -0.0005221901 -0.0019306305 -0.0016978689
000120 c2 ec 64 3a 8f 2c 3a 3b 14 33 4a 3b 01 8b 35 bb
       0.00087327894 0.0028407907 0.00308532 -0.002770126
000130 d3 a8 90 b9 e3 76 56 3b 5b 6d 82 3b 83 c4 83 3b
       -0.00027591604 0.003272467 0.0039803213 0.0040212288
000140 aa cc 62 3b 67 57 dc 3a 39 54 52 37 3b 92 d0 3a
       0.0034606853 0.0016810716 1.2536585e-05 0.0015912721
000150 de c4 b5 ba 13 b4 d9 b9 aa f9 e9 39 0a c3 e6 3a
       -0.0013867875 -0.0004152363 0.00044627237 0.0017605734
000160 c3 03 cc 3a 6b b4 7c ba 4a a3 a6 bb 41 e4 78 bb
       0.0015565086 -0.00096399215 -0.0050853835 -0.0037977847
000170 ab 5b 1e bc 06 c1 e2 b9 17 9d d1 3b 14 79 88 39
       -0.00966541 -0.00043249893 0.0063969004 0.00026030152
000180 dc e4 61 bb 47 4b 82 bb 97 6c 4e 3a 39 cd 21 3b
       -0.0034468686 -0.003976259 0.00078744575 0.0024688973
000190 8c f8 8d ba a8 3a 0c bb 09 2a a4 bb bf fb 5e 3a
       -0.0010831519 -0.0021397267 -0.005009894 0.0008506141
0001a0 42 f8 9b 3b 53 2e 0d 3b da 82 d7 3a 66 ce 9a 3b
       0.0047598192 0.0021542504 0.0016442195 0.0047243116
0001b0 61 6c 07 3b 02 62 6d 3b f0 ce 9b 3b a8 b2 4f 3b
       0.0020663964 0.0036221747 0.0047548935 0.003169218
0001c0 74 bd 07 3b 5b 50 c3 39 5d 5a 53 3b e5 91 72 3b
       0.0020712288 0.00037253168 0.0032249906 0.003701323
0001d0 a2 69 90 3b 80 42 1e 38 33 1f 6f 3b 88 5e 4f ba
       0.0044071237 3.773207e-05 0.0036487102 -0.00079105096
0001e0 18 4c 23 bb ab 24 66 3a 40 d0 17 bb 4f 04 d9 ba
       -0.0024917182 0.00087792677 -0.0023164898 -0.001655707
0001f0 f7 8f 08 bb 68 90 7a 3a a1 03 9c bb ad e2 2f 3b
       -0.0020837763 0.00095582614 -0.004761175 0.002683799
000200 29 c2 b1 bb 03 98 01 bb 43 52 ae bb 09 08 df bb
       -0.005424757 -0.0019774444 -0.005319865 -0.006806378
000210 f3 17 a2 bb 5d 2d 85 bb 79 42 af ba f7 36 fe bb
       -0.0049467026 -0.0040642456 -0.0013371251 -0.007758017
000220 4b 7d b9 3a 80 b5 2e 3b 85 1f 59 bb 3d 4c aa bb
       0.001415172 0.0026658475 -0.003313036 -0.0051970766
000230 66 e2 0d bc 4c bc 45 bc a4 3f ef bb f6 94 37 bb
       -0.008659935 -0.012068819 -0.0073012877 -0.0028012372
000240 4e ac 90 3c 9d 25 b6 3c c2 37 53 3c 46 b3 96 3b
       0.017660286 0.022234732 0.012891712 0.004599008
000250 96 36 c5 3b 10 99 46 3b c9 ab 85 3a a9 4a a4 3b
       0.00601847 0.0030303635 0.0010198291 0.005013783
000260 db e2 a5 3b ec d1 de 3b 60 3e 1b 3b d6 bd 6a 3b
       0.0050624437 0.006799927 0.0023688301 0.0035818717
000270 ed 38 8f 3b 5a 26 67 3a 96 1e 03 3a 8e 8e 16 3b
       0.0043707998 0.00088176655 0.0005001811 0.0022973153
000280 6f e0 11 3b ce 2f ff 3a d1 06 8d b9 22 12 cf 38
       0.0022259017 0.0019469203 -0.00026898694 9.873907e-05
000290 26 f6 ab bb 55 b5 50 bb e1 22 9c bb d9 52 2b bc
       -0.005247849 -0.0031846364 -0.0047649 -0.010456764
0002a0 5d c7 40 bb 8e aa 51 bb 2b 45 99 bb d2 8f a5 bb
       -0.0029415705 -0.0031992528 -0.004677435 -0.005052545
0002b0 63 ac 79 bb fe dd 6d bb db 1c c1 bb 46 9d d8 bb
       -0.0038097135 -0.0036295648 -0.0058933324 -0.0066105453
0002c0 5d 63 c3 bb db f6 54 bb f7 bf 91 bb 00 c0 f7 ba
       -0.0059627728 -0.003249577 -0.004447933 -0.0018901825
0002d0 00 b8 31 ba a7 63 84 3b 6f f2 7e 3a ab c2 a3 ba
       -0.00067794323 0.0040402 0.00097254565 -0.0012493929
0002e0 8a 3b 50 3b 56 cc 7d ba b8 bd 50 bb 44 19 84 bb
       0.003177377 -0.00096816325 -0.0031851362 -0.004031332
0002f0 34 9f d2 37 c0 0a a4 3b 5d 60 92 3b 75 ba b7 3b
       2.5108086e-05 0.0050061643 0.004467054 0.005606944
000300 5d b8 05 ba 03 ce 29 3b 37 a6 ab 3b d9 ca 40 3b
       -0.00051010196 0.0025910146 0.00523832 0.0029417782
000310 b6 1e 8e 39 be 4c 86 3b b4 ad 06 3b 42 44 ba ba
       0.00027107232 0.004098504 0.0020550312 -0.0014211016
000320 97 2f e7 3a 8b 55 e2 3b 49 54 ef ba e6 75 81 bb
       0.0017638084 0.00690717 -0.0018259372 -0.003950822
000330 4c b0 7c 3a 6f 32 cc 39 43 90 f0 ba d0 1f 52 3a
       0.00096393074 0.00038947488 -0.001835354 0.00080156047
000340 3d 4c c2 b9 74 e8 86 3a ce 61 d3 ba 25 94 87 3a
       -0.00037059365 0.0010292665 -0.001612717 0.0010343833
000350 a5 41 d9 3a a6 65 02 bc 7e d5 0e ba be 58 84 bb
       0.001657535 -0.007958805 -0.0005448683 -0.004038899
000360 26 20 98 3a 83 36 52 3b b5 91 43 3b 84 60 13 3a
       0.0011606261 0.0032075949 0.0029841487 0.0005621987
000370 42 5c d6 bb 27 2e 11 ba 7a 92 6a ba 0a 51 45 bb
       -0.0065417597 -0.0005538188 -0.00089482183 -0.0030108117
000380 c0 ae 9f 3b 88 d6 e6 b7 38 21 f6 3a fc 66 86 bb
       0.0048731267 -2.7518035e-05 0.001877821 -0.004101632
000390 73 62 11 3b 9d 8a 12 ba 0f c4 88 3b 5c 2c 0c 3b
       0.0022183924 -0.0005590113 0.0041737626 0.0021388745
0003a0 df ac b2 3a 24 55 89 3b bf f2 95 bb 57 61 14 bc
       0.0013631842 0.0041910578 -0.0045760567 -0.009056411
0003b0 46 db 3c bc 3b 23 72 bc 12 20 f9 bb 7b 8b 6f b9
       -0.011526888 -0.014778907 -0.0076027 -0.00022844777
0003c0 ce 21 c5 3c fb aa ad 3c 13 c4 7b 3c 3f 05 ae 3b
       0.02406397 0.021199694 0.015366572 0.005310684
0003d0 c2 55 ed ba 6a 62 46 3b a6 e7 86 bb 25 17 a2 bb
       -0.0018107223 0.0030271062 -0.00411697 -0.0049466067
0003e0 1e 46 ee 39 e2 c1 ca 39 ce f4 51 bb dc 2e 7a bb
       0.0004544714 0.00038672896 -0.0032036784 -0.0038174903
0003f0 e8 a5 03 3a 45 80 32 ba 4d 06 b9 ba 20 1b 52 bb
       0.00050219754 -0.0006809275 -0.0014116258 -0.0032059625

Linear_Seasonal.bias f4 [96]
000000 68 c0 70 3c 52 7b 29 bb 9a b7 4b bb 4e b2 73 bc
       0.014694311 -0.0025860858 -0.0031084777 -0.014874054
000010 8b 66 96 bc e1 51 60 3a 92 6c cf 3a bf e9 08 bc
       -0.018359443 0.0008557123 0.0015825203 -0.008356511
000020 89 41 3e bb 41 a3 b9 3b 69 13 a3 ba 5a b9 22 3c
       -0.0029030761 0.0056652133 -0.0012441698 0.009931887
000030 8c fe 80 3a 89 df c1 3b 1f 23 ee bb 40 ab 60 3c
       0.0009841486 0.00591654 -0.0072673704 0.013712704
000040 f9 7a b2 bc 47 fe 76 bc eb c4 1f bc 7c de 15 bc
       -0.021787154 -0.015075273 -0.009751539 -0.009147283
000050 bd 04 e6 3b 0c 26 9b bb e1 8f 1b 39 69 14 93 39
       0.007019608 -0.00473476 0.00014835551 0.00028053232
000060 3c 21 0a 3c 94 c9 a7 3b 53 64 6c 3c c9 51 61 bc
       0.008430775 0.0051204655 0.014428216 -0.013752409
000070 1f 42 23 3c 48 0a 1c bc d3 0c 40 3c 19 73 35 3c
       0.009964495 -0.009523936 0.0117218075 0.011074805
000080 03 d2 19 bb 43 9f 30 bc c4 69 90 bb aa 32 ca bb
       -0.0023471124 -0.010780158 -0.0044071395 -0.0061705904
000090 5f 08 8f 3b 68 76 f6 ba 0a ef 0b ba 25 14 d4 bb
       0.0043650116 -0.0018803598 -0.0005338049 -0.006472128
0000a0 b3 77 93 ba aa 60 e5 ba 47 96 a2 bc 48 c3 8c 3c
       -0.0011250883 -0.0017500122 -0.019847048 0.017182961
0000b0 fe f3 79 3c a7 d0 cf b9 c8 a5 11 3c 79 2a 3c bb
       0.015255926 -0.00039637575 0.008889623 -0.002871184
0000c0 b8 86 9b 3b ee 79 03 3c f9 1b 84 bb 55 57 6f bb
       0.0047462843 0.008024676 -0.004031655 -0.003652056
0000d0 63 4a 00 3c e8 08 fe ba 86 64 95 3c c8 e9 56 bb
       0.007830235 -0.0019381316 0.01823641 -0.0032793153
0000e0 fd 29 32 3c 3a 5a 54 ba f1 dd 92 3c 8e e0 00 3c
       0.010874269 -0.0008100603 0.017928096 0.007866038
0000f0 97 ab 12 bb 81 39 62 3c ec cc 21 bc 4d 82 a8 bb
       -0.0022380108 0.013807655 -0.009875517 -0.005142486
000100 07 a4 6a bb 4f 78 c5 3a 5a 67 9a bc 5b 42 5f 3c
       -0.0035803334 0.0015065762 -0.01884811 0.01362666
000110 f3 d8 76 bc 5e d1 a6 bc 12 15 b1 3b 5f e1 c8 bb
       -0.015066373 -0.020363506 0.005404123 -0.006130382
000120 f6 fc 1e bc 9d dc 47 bc 02 8f 53 3c 0b bc 97 bb
       -0.009703865 -0.012198594 0.012912514 -0.0046305708
000130 e8 65 91 3b a0 3f 53 3b 5a 55 a1 3b 66 34 4b bc
       0.004437197 0.0032233968 0.004923505 -0.0124026295
000140 47 b4 9e 3b 3a 98 46 3c 59 52 6f 3c 4b 77 44 3c
       0.004843268 0.012121255 0.014607036 0.011991332
000150 d5 a2 7d bc af 8f 15 bc 7c b0 84 3c 4d c0 b2 3c
       -0.015480717 -0.009128495 0.016197436 0.021820212
000160 c9 2e 3a bc 0f ac 04 bc 34 20 25 bc 39 01 6e 3c
       -0.0113636935 -0.008097663 -0.010078479 0.014526659
000170 66 c8 81 3c 05 ec 92 bb 95 86 8d 3b a0 33 fe 3b
       0.015842628 -0.004483702 0.004319022 0.007757619

Linear_Trend.weight f4 [96, 336]
000000 99 2e 88 bb 2b b2 27 bc 6a 06 71 bc 76 22 0e 3d
       -0.0041559455 -0.01023535 -0.014711002 0.034700833
000010 c8 02 22 3b 02 b2 67 3c 18 be a7 bc 9d 6a 61 bc
       0.0024720896 0.014141561 -0.020476386 -0.013758329
000020 98 52 60 bc f4 86 6e bc 01 35 26 3d 42 5d 12 3d
       -0.013691567 -0.0145585425 0.040577892 0.03573347
000030 9b 9c 50 bc 8d fa 92 bc 3e 71 c1 bc 4f 5c a8 3c
       -0.01273265 -0.017941738 -0.023613568 0.020551829
000040 cb 12 da bc 22 2a 6e bc 01 a2 b7 3b 8d 7d 7c bc
       -0.02662029 -0.014536412 0.005604029 -0.015410793
000050 8b 39 fb 3c d1 45 0c 3d cd 8a 17 3a d1 38 9d 3b
       0.030667087 0.03424627 0.0005780876 0.004798033
000060 ad e7 1f 3c d2 08 2a 3c 6b a1 02 bd 65 9d 5e bc
       0.009759826 0.0103780795 -0.03189222 -0.0135873305
000070 45 e0 19 bd 7c b4 0f 3d 66 51 bc 3c 55 de bc 3c
       -0.037567396 0.035084233 0.022988033 0.023055235
000080 b4 9a c3 bc 49 ef ef 3c 69 6e 7e bc e7 2b 03 bc
       -0.02387748 0.029288905 -0.0155292535 -0.008006073
000090 02 e8 03 3d 91 4d 4d 3c 90 04 b9 bc 6b 4b e4 bc
       0.03220368 0.0125307 -0.022585183 -0.027867993
0000a0 28 ea a4 3c 72 13 36 bc 7e 8b d5 bc 7b c2 09 bd
       0.020131186 -0.011113035 -0.026067492 -0.033632737
0000b0 9c bf 28 3c 90 79 a0 bc da 7f 83 3c c4 be 8a 3c
       0.0102995895 -0.019589216 0.016052175 0.016936667
0000c0 b4 61 84 ba 37 f5 ba bc de 37 94 bc 9d 9d bb bb
       -0.0010099919 -0.022822006 -0.018093046 -0.005725576
0000d0 d5 df 73 3c d8 80 59 bb 0c 1c 99 bc 7c 4e d4 3b
       0.014884909 -0.003318837 -0.018690132 0.0064790826
0000e0 25 b9 e0 3c c8 69 c1 3c b2 37 d3 3c 46 c0 23 bd
       0.027432034 0.02361001 0.025783394 -0.039978288
0000f0 c7 09 93 3b 85 1f 3b bb a3 c6 96 3c fe 10 09 bc
       0.0044872495 -0.0028552723 0.018405264 -0.008365868
000100 9c 61 a5 3c 2a cc c0 3c fc e6 e5 3b 06 60 44 3c
       0.020188145 0.023534853 0.007016061 0.011985784
000110 76 37 a5 3c 09 7b 7b bc 49 fe c4 3c 17 60 43 bd
       0.020168047 -0.015349158 0.024047034 -0.04769906
000120 4d f8 03 bd f4 eb 1e 3c e9 54 b7 3c 6e c4 e2 3b
       -0.03221922 0.00969981 0.022379356 0.006920389
000130 d0 e4 85 3c a3 f9 38 bd a3 5b 87 3c e4 3b d1 3c
       0.016344458 -0.045159947 0.016523188 0.025541253
000140 20 b7 1d bd 9c b8 80 bc 98 5f cb b9 13 b0 09 bd
       -0.03850472 -0.015713029 -0.000387904 -0.033615183
000150 ba 2a 41 bd f6 51 8e ba be 04 39 3c b3 f3 ea 3c
       -0.047159888 -0.0010858166 0.0112926345 0.028680658
000160 0d b6 21 bc 56 22 a5 3b 61 aa bb 3c f5 86 55 ba
       -0.009870064 0.0050394936 0.022908391 -0.00081454153
000170 96 dc b1 3c 84 86 4c 3c 7e ae 84 3c fd 3f 51 3b
       0.021711629 0.012483243 0.016196486 0.003192901
000180 0a 46 a6 3c 8c 88 01 3c 39 fd 7e bc fd 1c 00 3c
       0.02029707 0.0079060905 -0.015563303 0.007819411
000190 d4 8d 0b bd 6f fa e2 3c d5 95 d7 3a a7 20 e0 3c
       -0.034070805 0.027707307 0.0016447852 0.02735932
0001a0 f3 13 a1 bc 12 2e a4 bc 97 65 c4 bc 33 6e 91 bc
       -0.019662833 -0.0200415 -0.023974223 -0.017752742
0001b0 e5 89 92 3c 32 66 1f bc d9 19 e6 bc 33 07 18 3d
       0.017888019 -0.009728955 -0.028088497 0.03711624
0001c0 f0 8c a5 bc 63 63 c1 bb 5d 56 77 3c ca 51 ba bc
       -0.020208806 -0.0059017404 0.015096274 -0.022744078
0001d0 d6 4b c7 bc 6c ea b5 bb 00 16 1e 3d 21 63 8e 3c
       -0.024328154 -0.005551627 0.0385952 0.017381253
0001e0 a6 66 0e bc ae 00 d6 3b 44 f8 08 bd 31 14 bc 3c
       -0.0086914655 0.0065308427 -0.03343989 0.022958847
0001f0 7f 76 1f 3d 33 97 df bc ff dd 4c ba eb 05 19 b9
       0.038931366 -0.027293777 -0.00078150624 -0.00014593422
000200 a6 40 1f 3d 7b fc 2c ba 67 27 82 bc c3 10 29 bc
       0.038880013 -0.0006598902 -0.01588793 -0.010318938
000210 f3 7f aa 3b d6 34 a2 bc d3 a4 21 3c 46 33 43 ba
       0.005203241 -0.019800585 0.009865957 -0.00074463
000220 83 ff a7 bc 55 1c a7 bc 1f 35 e2 3b 2d 0b 93 3c
       -0.02050758 -0.020399252 0.006903305 0.017949665
000230 7b 39 aa 3c b2 a6 af bc 81 a0 80 bc 7f 45 2f 3d
       0.020779362 -0.021441791 -0.015701534 0.042790886
000240 7a db c0 bc d6 59 2b 3d b2 7f e4 bb 5e 6e 6e 3b
       -0.023542155 0.04183372 -0.0069732303 0.0036381702
000250 43 2d d9 bc 5a ea 0d 3d 66 e3 b7 3c 6e a5 70 bc
       -0.02651084 0.034647323 0.0224473 -0.014687879
000260 f1 35 3c bb ec 36 b3 bc 22 55 02 bd c8 c0 ef bc
       -0.0028718675 -0.021876775 -0.03181947 -0.02926673
000270 f9 ad 25 bc ae 60 fd bb 20 d5 90 bc 79 dc ea 3c
       -0.010112279 -0.0077324724 -0.01767975 0.028669583
000280 7e c3 8a bb 4e dc e7 bc 1f 80 11 3d f3 1e 0b 3d
       -0.0042347303 -0.028303292 0.035522576 0.033965062
000290 6f ab a2 3b 1c d3 8d bc 1f 26 8c 3c 44 4b ac 3b
       0.004964284 -0.017312579 0.017108021 0.005257996
0002a0 46 b5 fd 3c 66 fa 0c bd 60 2d 7e 3c 21 97 7e 3c
       0.030970227 -0.034418486 0.015513748 0.015538962
0002b0 b1 b4 9d bc 75 32 b0 bb e0 28 30 3c 20 c9 b8 3c
       -0.0192512 -0.0053771087 0.010751933 0.022556841
0002c0 8e 97 cb 3c f0 c0 80 3a b7 3c a8 3c 3e 7a 36 3c
       0.02485254 0.0009823125 0.020536764 0.011137543
0002d0 4f ca 19 bd 25 b8 28 bd 0f 4d 2c bd 9f ca 93 3c
       -0.037546452 -0.04119124 -0.042065676 0.018040953
0002e0 e6 31 e4 3c 84 d9 82 3b b1 06 61 3c ea bb b8 3c
       0.027855825 0.003993215 0.0137345055 0.022550542
0002f0 06 75 00 bd 89 4c 2d bd fa 5a 30 bc 33 48 5e 3c
       -0.031361602 -0.042309318 -0.010763878 0.013567018
000300 c1 8e ef bc ba 52 70 3b 33 01 ad 3c 67 fe ea 3b
       -0.029242875 0.0036670403 0.021118736 0.0071714404
000310 92 30 01 3d df 6d b1 ba 86 ee 34 3c 82 2c 13 bd
       0.03154046 -0.0013536772 0.011043197 -0.035931118
000320 92 9c a1 3b 86 60 71 bc 33 31 27 3c eb 4e 00 3d
       0.0049319947 -0.014732486 0.010204601 0.031325262
000330 03 7e 0f 3d c1 77 93 bc ae 25 23 bc 3e fe f3 bc
       0.035032284 -0.018001439 -0.009957714 -0.029784318
000340 0c 90 13 3b a8 58 07 bd cd b1 d9 3a 1d dc b5 3c
       0.0022516279 -0.033043534 0.0016608775 0.022199685
000350 5a 3f 18 bd ef 29 df 3c d5 8b 4e 3c 5c f7 1a 3d
       -0.03716979 0.027241675 0.012606581 0.037833557
000360 85 b7 ce bc 60 38 11 3d e6 b6 99 bc 2e ac 41 bc
       -0.025233993 0.035454154 -0.01876397 -0.011820836
000370 b0 80 d0 bc 9e da b8 bc f9 4c 55 bc 9b 0c d6 3c
       -0.025451988 -0.022565182 -0.01301884 0.026129058
000380 8c 09 26 3d a1 f4 14 3d f3 36 76 3c 3f d6 a5 bc
       0.04053645 0.03636611 0.015027749 -0.020243762
000390 fc f4 06 bd e7 00 a8 bc 66 84 23 bc 16 f7 a9 3b
       -0.03294848 -0.020508243 -0.009980297 0.0051869256
0003a0 b5 fa a8 3c 88 57 4f 3b 38 7b 0c bd 30 c1 f9 3c
       0.020627359 0.0031637866 -0.034297198 0.030487627
0003b0 79 a2 0b bd c9 e4 c4 bc 8a d8 1e bc af ad 8f 3c
       -0.034090493 -0.024034875 -0.009695182 0.017538873
0003c0 8e 6f 9e bc de d2 9e 3c df de 90 3c a5 cf b2 bb
       -0.019340303 0.019387659 0.017684398 -0.005456882
0003d0 47 e8 3a bc 7c b0 0e 3d 77 e2 87 3c 22 6f a0 bc
       -0.011407918 0.034836277 0.016587479 -0.019584242
0003e0 d5 e3 ca bc eb c9 d5 bc 44 68 02 3d 71 cc 49 3c
       -0.024766842 -0.026097259 0.031837717 0.012316809
0003f0 e6 d3 0a 3d c0 76 ef bc cf 79 5f bb f3 c0 f2 3b
       0.03389349 -0.02923143 -0.0034099703 0.0074082552

Linear_Trend.bias f4 [96]
000000 ec 3c 73 bc 46 f9 4b 3b 7b f7 54 3b 51 90 81 3c
       -0.014846068 0.003112392 0.0032496143 0.015815886
000010 99 30 9b 3c 76 08 17 39 45 e4 83 b9 b5 86 1d 3c
       0.018944072 0.00014403634 -0.0002515634 0.009614636
000020 51 6c 7d 3b a4 c3 92 bb a0 ed 14 3b d1 02 17 bc
       0.0038669298 -0.0044788886 0.0022724643 -0.00921698
000030 a9 f0 10 ba c3 33 ad bb b4 e0 08 3c f7 31 4d bc
       -0.0005529025 -0.0052857115 0.008354355 -0.01252412
000040 8b ba b7 3c db 00 83 3c 58 c2 2c 3c ce 59 27 3c
       0.022427818 0.015991619 0.010544382 0.010214282
000050 7a 2e b8 bb 47 42 a9 3b a8 e0 07 3a 69 13 5f b9
       -0.005620775 0.0051653716 0.00051833177 -0.00021274168
000060 de b2 04 bc c3 a9 84 bb 45 34 60 bc 65 7d 76 3c
       -0.008099286 -0.0040485575 -0.013684337 0.015044545
000070 31 4e 09 bc 1d da 2c 3c e2 ce 20 bc ab 1d 22 bc
       -0.008380459 0.010550049 -0.00981495 -0.009894769
000080 4e c4 81 3b 4f 44 51 3c d9 1d db 3b ae 87 fe 3b
       0.003960169 0.012772634 0.0066869077 0.007767639
000090 3f 37 5d bb 95 97 4e 3b 16 a5 10 3b 0e 45 0d 3c
       -0.0033754853 0.0031523455 0.0022071055 0.008622421
0000a0 e2 b3 60 3b a5 cd 77 3b af c4 b1 3c ed 2c 6d bc
       0.0034286906 0.0037811783 0.021700231 -0.014476043
0000b0 d9 b7 3b bc 5c 34 68 3b d7 dd 9f bb 7b f0 f0 3b
       -0.011457407 0.00354316 -0.0048787403 0.0073528863
0000c0 57 94 7d ba ce 66 3d bb 99 56 1d 3c c9 0f 04 3c
       -0.00096732884 -0.0028900388 0.009603166 0.008060404
0000d0 a5 dd 22 bb df ba c3 3b b0 65 64 bc c5 3a 0f 3c
       -0.0024851349 0.0059732045 -0.01394026 0.008742039
0000e0 3c 6d ba bb 98 2a ce 3b f7 98 44 bc 04 d9 0f bb
       -0.0056892913 0.0062916987 -0.01199936 -0.002194942
0000f0 44 ee 0e 3c 39 db 0a bc 9b 0b 7e 3c c9 aa 21 3c
       0.008723799 -0.008475118 0.015505697 0.0098673785
000100 ab 49 04 3c 34 c4 10 3b 55 fd b9 3c 9b f1 19 bc
       0.008074204 0.0022089602 0.022703806 -0.009395982
000110 bf 91 9d 3c a8 f3 d1 3c 40 6b 2d b9 a4 dd 38 3c
       0.019234536 0.02562888 -0.0001653852 0.011283312
000120 c7 41 65 3c ec 8b 8d 3c d7 74 f9 bb e5 08 31 3c
       0.013992733 0.017278634 -0.0076128053 0.010805343
000130 37 b5 95 3a 92 64 03 3b cd 83 d1 3a 33 fc 98 3c
       0.0011421804 0.0020048958 0.0015984714 0.018674945
000140 60 26 40 3a 6a 8b c7 bb a0 47 1c bc d9 f4 e8 bb
       0.0007329937 -0.0060896175 -0.009538561 -0.0071092662
000150 3b 63 a4 3c 46 63 66 3c de f1 38 bc e7 fa 8b bc
       0.020066848 0.014061755 -0.011288134 -0.017087413
000160 5e 3b 85 3c fc 51 4f 3c 0a 58 6a 3c e2 05 13 bc
       0.01626366 0.012653824 0.014303217 -0.008973571
000170 52 02 26 bc 84 7f 18 3c 5c 05 5b 39 5b a2 1a bb
       -0.010132389 0.009307746 0.00020887464 -0.0023595307

exp_avg f4 [96, 336]
000000 6f 49 cd 37 b2 f7 45 b7 c3 b4 df b6 0a be 81 b8
       2.44721e-05 -1.1799786e-05 -6.6669613e-06 -6.186597e-05
000010 7f a7 5e b8 62 5a 0f b8 f0 df 07 b8 7f da a9 b7
       -5.3084917e-05 -3.4178032e-05 -3.2395066e-05 -2.0248115e-05
000020 c2 15 c1 36 ea 99 13 38 91 64 8d 38 db 01 1c 38
       5.754381e-06 3.5190875e-05 6.742136e-05 3.7195026e-05
000030 af d3 1a 38 50 f1 6b 38 ed 8d f3 38 ae a3 c6 38
       3.6913607e-05 5.6253106e-05 0.00011613579 9.4718635e-05
000040 0f 90 2b b6 a0 04 83 b7 e8 06 9f b7 c1 b6 65 b7
       -2.5564839e-06 -1.561857e-05 -1.8957493e-05 -1.3692014e-05
000050 42 bf a0 b8 0c be 0f b8 40 25 83 b7 4d 73 85 b6
       -7.665019e-05 -3.427085e-05 -1.5633763e-05 -3.9771317e-06
000060 dc 4b 0d b8 e1 0b 2b b8 7d d4 5f b8 3c 78 88 b8
       -3.368767e-05 -4.078064e-05 -5.336524e-05 -6.507381e-05
000070 3b 63 2c b7 8b dd 0b 38 1b f1 5a b6 8a 2c 24 b8
       -1.0275103e-05 3.334651e-05 -3.2624873e-06 -3.9142127e-05
000080 ed eb dd 32 49 7b 96 37 ba cb 9d 38 3a 87 86 37
       2.5835073e-08 1.7938803e-05 7.5242904e-05 1.6037015e-05
000090 e2 ea 0c b8 da 0f b8 b6 61 46 83 38 1d 67 c1 37
       -3.3597353e-05 -5.4854727e-06 6.259676e-05 2.3055409e-05
0000a0 9d fe c1 b6 20 86 17 b8 93 8a 43 38 5c 47 06 38
       -5.781489e-06 -3.612612e-05 4.662068e-05 3.201455e-05
0000b0 79 83 a5 b5 21 51 b3 b7 ab 0a 24 b8 19 24 81 b8
       -1.2331722e-06 -2.1376241e-05 -3.9110582e-05 -6.157923e-05
0000c0 f3 18 f7 36 51 71 91 b8 49 c3 3a b8 a1 0a 3d 38
       7.364078e-06 -6.9352456e-05 -4.452773e-05 4.507101e-05
0000d0 f5 26 10 38 1d f7 9e 37 b6 fb 60 b7 aa 3c ff 36
       3.4368557e-05 1.8950139e-05 -1.3410046e-05 7.6066544e-06
0000e0 8b 1b 97 b7 ab 6f 8a b7 cc 53 f3 b7 b3 00 22 b8
       -1.8013428e-05 -1.6502881e-05 -2.9006878e-05 -3.862446e-05
0000f0 5e 8e b7 b7 1e bb d5 b7 ff 8b be b7 84 ea ca b7
       -2.1881595e-05 -2.5478712e-05 -2.2714956e-05 -2.4189481e-05
000100 c9 24 1e b8 69 38 63 b8 f4 04 1c 38 00 7e f8 b7
       -3.7704394e-05 -5.4173554e-05 3.719791e-05 -2.9622577e-05
000110 0c 6e 94 b7 be 6a a9 36 66 4f 89 b7 19 d7 c4 b7
       -1.769422e-05 5.049019e-06 -1.6368645e-05 -2.3465183e-05
000120 9e 04 51 38 b9 0c df 35 bb 40 d2 37 dc fa 92 38
       4.9833783e-05 1.6618498e-06 2.5064093e-05 7.008549e-05
000130 bb 3f 17 38 5d 3d 40 38 45 8c 1b 38 3c cc 33 38
       3.606056e-05 4.5833516e-05 3.7085516e-05 4.2867134e-05
000140 ea 1a 89 38 77 8f 71 37 62 e5 58 36 a3 ea db b6
       6.537682e-05 1.4398122e-05 3.2320027e-06 -6.554024e-06
000150 00 b1 4a b8 66 68 95 b8 1c e1 16 b8 24 33 b2 b7
       -4.8325397e-05 -7.1243194e-05 -3.5972436e-05 -2.1243068e-05
000160 0b ec 5b b8 87 29 85 b7 b1 a3 21 b7 3a 4b 73 b7
       -5.24335e-05 -1.5874173e-05 -9.63446e-06 -1.4501444e-05
000170 45 ed 24 b8 8d fb ec b7 d5 ee a8 38 a0 25 f3 b5
       -3.932162e-05 -2.825053e-05 8.05535e-05 -1.8115861e-06
000180 42 b6 34 b6 fc 2d 70 b7 a5 99 4c 37 9c fe 0b 37
       -2.6928178e-06 -1.4315821e-05 1.2195121e-05 8.3443265e-06
000190 6c 20 0f 38 0f 06 a1 36 7d df f5 37 8c de d1 37
       3.4124052e-05 4.798879e-06 2.9310346e-05 2.5018373e-05
0001a0 ef 74 94 37 05 11 3e b7 f7 94 22 38 64 4c 21 38
       1.7697426e-05 -1.1328845e-05 3.8762544e-05 3.8456536e-05
0001b0 ab 5f 2a 38 c1 5c 2b 38 8e c0 0b 37 a5 86 ef 37
       4.0620256e-05 4.085596e-05 8.329878e-06 2.8553719e-05
0001c0 26 09 32 36 d3 3a 99 b7 b6 8b 0a b8 f7 67 e3 b6
       2.6529392e-06 -1.8266413e-05 -3.303188e-05 -6.7772303e-06
0001d0 cc 68 52 b8 11 14 d0 b8 f9 07 87 b8 6b 92 f8 b7
       -5.01655e-05 -9.9219506e-05 -6.438787e-05 -2.9632085e-05
0001e0 8c 3b 11 38 3f 01 b2 38 2a ed a7 37 36 38 e4 37
       3.462615e-05 8.4879335e-05 2.001839e-05 2.7205893e-05
0001f0 e1 26 4a 38 6f ab ad b6 7f a6 a5 37 85 5a 53 37
       4.819676e-05 -5.1757593e-06 1.9747064e-05 1.2597656e-05
000200 c3 e7 6d 38 1f a5 81 37 d7 d1 34 b8 ea 92 9c b7
       5.6721048e-05 1.5454889e-05 -4.3110773e-05 -1.8665061e-05
000210 2f ff 50 b8 06 4f 03 b7 00 a2 7e 37 88 dc 8c 36
       -4.9828723e-05 -7.8266075e-06 1.5177298e-05 4.1979984e-06
000220 3f c2 26 36 ab ca 56 38 2a ba b6 37 80 12 76 38
       2.4848994e-06 5.1210325e-05 2.178278e-05 5.86682e-05
000230 4e 69 e5 37 ae b6 27 38 0c 5a 73 38 46 3d 80 37
       2.7347964e-05 3.9986036e-05 5.8019577e-05 1.5287322e-05
000240 25 ba 23 b8 81 3c d1 b7 6c ad 7b b8 78 88 35 b8
       -3.903559e-05 -2.4942916e-05 -6.0004575e-05 -4.328086e-05
000250 a4 2c ed b7 12 27 20 b8 ca 2a d5 b7 7d fc 47 b8
       -2.8273389e-05 -3.818336e-05 -2.5411504e-05 -4.7680445e-05
000260 3f 6a 50 b8 7e b0 11 b8 96 95 21 37 6e bf a7 38
       -4.9690014e-05 -3.4735065e-05 9.631176e-06 7.998837e-05
000270 18 3b cf 37 8c d3 30 37 2b 16 3c 38 c0 09 83 38
       2.470384e-05 1.0539672e-05 4.484334e-05 6.248383e-05
000280 5c af db b7 38 27 49 37 d3 ba 37 38 6d 78 ec b7
       -2.6188492e-05 1.1989665e-05 4.3804594e-05 -2.818947e-05
000290 67 78 33 b8 1c 33 30 b8 dd e3 df b8 1f 75 ec b8
       -4.278906e-05 -4.200927e-05 -0.000106759115 -0.000112751724
0002a0 05 7c f1 b8 52 4b 5c b8 1a 80 0b b7 df e9 09 38
       -0.00011514876 -5.2522235e-05 -8.314872e-06 3.2881155e-05
0002b0 fc d3 24 37 3d 2a 8a b7 b3 46 06 37 d9 b3 48 b8
       9.824518e-06 -1.647055e-05 8.003483e-06 -4.7851212e-05
0002c0 6c 05 96 b8 4c 01 89 b8 f9 20 73 38 a9 4b 07 b6
       -7.153567e-05 -6.5329106e-05 5.7966423e-05 -2.0160608e-06
0002d0 8d fd 60 38 08 3e a2 37 21 32 6a b7 d2 5d 30 38
       5.36419e-05 1.934079e-05 -1.3959158e-05 4.2049047e-05
0002e0 a4 3e 97 38 a7 ac 15 37 d2 ad 90 37 b9 cc 7c 37
       7.211909e-05 8.921291e-06 1.7247079e-05 1.5068036e-05
0002f0 f4 cc 2f 38 82 91 41 b7 74 d9 2e b7 cc d7 8b b7
       4.191413e-05 -1.1537575e-05 -1.0421838e-05 -1.667058e-05
000300 c0 3c 32 38 33 c0 dc 37 59 e2 d6 37 80 82 d7 b7
       4.2495085e-05 2.6315543e-05 2.561619e-05 -2.5690766e-05
000310 87 e7 ee b7 74 9b b5 b5 ad 63 89 37 93 35 af 36
       -2.8479624e-05 -1.3530794e-06 1.6378088e-05 5.2216433e-06
000320 d7 11 9c b6 e2 15 01 b8 59 19 ac 37 4a 2e e9 b5
       -4.651239e-06 -3.0776377e-05 2.0515801e-05 -1.7373325e-06
000330 8d a1 31 38 4b 0e fa 36 d2 79 5d 37 8a 7e cb 35
       4.2350544e-05 7.4522445e-06 1.320099e-05 1.5161506e-06
000340 35 39 25 b6 6d 6d c2 37 89 ca 2c 37 4d df 8e 37
       -2.4620215e-06 2.3177558e-05 1.0299155e-05 1.7031702e-05
000350 c6 d6 a8 37 1c dd b5 b5 c5 f5 ce b7 dd 82 dc 36
       2.0127172e-05 -1.3549902e-06 -2.4671559e-05 6.5717454e-06
000360 88 15 05 b7 52 7f 94 38 8f a9 66 38 ab f6 38 36
       -7.932431e-06 7.080905e-05 5.4994187e-05 2.7561716e-06
000370 78 07 9a 37 f4 07 7f 37 7d ea c3 37 6a f3 86 37
       1.8361708e-05 1.5201036e-05 2.3355004e-05 1.6087393e-05
000380 89 a1 33 b8 b0 c9 27 b8 5c 19 93 b7 c4 39 93 b7
       -4.2827367e-05 -4.000374e-05 -1.7535574e-05 -1.7550665e-05
000390 17 be 16 b8 49 78 41 b8 ef 90 7a b8 bd 0e 92 b7
       -3.5939822e-05 -4.612681e-05 -5.9739625e-05 -1.741142e-05
0003a0 b2 09 ca 36 61 99 e4 36 b5 db 52 b6 fd dd 89 38
       6.021198e-06 6.812785e-06 -3.1420325e-06 6.5740176e-05
0003b0 de 78 71 38 45 bb 1a 38 1f 90 4c b7 db 87 28 b8
       5.7571444e-05 3.689087e-05 -1.2192903e-05 -4.0180847e-05
0003c0 e4 58 c7 36 87 f7 43 37 4d 31 30 38 f9 ab 01 37
       5.9410104e-06 1.1680538e-05 4.2007585e-05 7.72904e-06
0003d0 da 59 b0 37 14 eb 07 38 11 14 5b b7 76 9d e0 b7
       2.1022675e-05 3.240544e-05 -1.3058089e-05 -2.6776204e-05
0003e0 b0 84 08 38 41 e0 2c b8 53 ca 21 b8 69 3c 8f b8
       3.25485e-05 -4.121685e-05 -3.857382e-05 -6.8300236e-05
0003f0 f6 57 82 b8 38 76 dc b7 fc 2b 35 b7 fb df 07 37
       -6.215267e-05 -2.6281094e-05 -1.0798682e-05 8.098777e-06

exp_avg_sq f4 [96, 336]
000000 a3 01 04 32 92 1b 7a 32 6e ff 94 32 c8 f3 b1 32
       7.683783e-09 1.4558184e-08 1.7345624e-08 2.071637e-08
000010 69 56 c8 32 50 8d c1 32 b3 38 c6 32 79 86 c8 32
       2.332236e-08 2.2532419e-08 2.3076018e-08 2.3344215e-08
000020 af e1 c6 32 8e 8f c1 32 16 a9 bf 32 00 ce b6 32
       2.3152863e-08 2.2533438e-08 2.2312218e-08 2.1281267e-08
000030 53 c1 bb 32 e1 9b b3 32 46 88 bc 32 77 1b ba 32
       2.1857579e-08 2.0909228e-08 2.194805e-08 2.166574e-08
000040 32 54 c4 32 fa c7 c5 32 61 c3 c6 32 f8 12 bf 32
       2.285569e-08 2.3024757e-08 2.3139082e-08 2.2243952e-08
000050 13 0f bd 32 fc 93 ba 32 c5 a0 b6 32 94 e5 b7 32
       2.200935e-08 2.1720545e-08 2.1260698e-08 2.1408404e-08
000060 bd 5a c6 32 30 c2 bd 32 82 82 c4 32 24 0c c0 32
       2.3091497e-08 2.2090802e-08 2.2876751e-08 2.2357263e-08
000070 5c 48 bf 32 45 86 be 32 bf 5b c5 32 ac 08 c1 32
       2.2268232e-08 2.217997e-08 2.297554e-08 2.24721e-08
000080 d3 5b b6 32 81 90 b4 32 a3 7a bd 32 64 08 b9 32
       2.1229345e-08 2.102047e-08 2.2058265e-08 2.154065e-08
000090 28 a2 c0 32 cf 8c c4 32 e6 e5 bb 32 7e 54 c3 32
       2.2425482e-08 2.2881435e-08 2.187421e-08 2.273941e-08
0000a0 24 7c bc 32 3b f2 ba 32 6e 5d bd 32 7d 3f ca 32
       2.1942533e-08 2.1763404e-08 2.2044983e-08 2.3544766e-08
0000b0 a8 49 bd 32 2d 2d be 32 1c d9 bb 32 05 35 b5 32
       2.203599e-08 2.2139455e-08 2.1868395e-08 2.1095284e-08
0000c0 93 e3 b6 32 e5 55 c5 32 68 c5 bf 32 21 20 c2 32
       2.1291077e-08 2.2972879e-08 2.2325096e-08 2.2599183e-08
0000d0 57 87 c5 32 31 13 c9 32 13 b0 c1 32 70 53 bd 32
       2.2995364e-08 2.3408207e-08 2.2548226e-08 2.2040439e-08
0000e0 5c a2 bc 32 89 a1 b7 32 51 42 c5 32 94 4c c4 32
       2.1959913e-08 2.1377462e-08 2.2963976e-08 2.2852227e-08
0000f0 0b 73 be 32 e6 2f b5 32 e0 93 be 32 40 ae c5 32
       2.2171227e-08 2.1092955e-08 2.2186157e-08 2.3013058e-08
000100 a8 18 bb 32 44 ef bb 32 d2 e7 ae 32 88 ba a2 32
       2.1780878e-08 2.187847e-08 2.0361686e-08 1.8944107e-08
000110 ac 78 b9 32 11 58 c9 32 1c c4 c1 32 a3 65 bb 32
       2.159171e-08 2.3439528e-08 2.2557337e-08 2.1815884e-08
000120 63 41 c2 32 d3 c0 b6 32 42 b4 b3 32 1b 71 b2 32
       2.2614307e-08 2.1275275e-08 2.0920314e-08 2.0773362e-08
000130 8a be bb 32 cf 7b bd 32 97 81 bb 32 6a 92 c1 32
       2.1856312e-08 2.2058797e-08 2.1828596e-08 2.2534739e-08
000140 46 08 b9 32 20 89 b4 32 44 a8 b5 32 ee 6b b9 32
       2.1540597e-08 2.1017115e-08 2.1147692e-08 2.1585915e-08
000150 7c 83 c9 32 2c 4b c6 32 15 b6 bc 32 a2 23 be 32
       2.3459272e-08 2.3084418e-08 2.1968882e-08 2.2135115e-08
000160 d3 56 b8 32 f3 9d bc 32 ab df b6 32 4b aa b7 32
       2.1459902e-08 2.1957907e-08 2.1289301e-08 2.1381444e-08
000170 16 36 b5 32 0e 83 bc 32 7b e0 b7 32 11 22 b7 32
       2.1095769e-08 2.1945677e-08 2.1406086e-08 2.1319496e-08
000180 03 c2 bb 32 3c 30 b7 32 df 01 be 32 3d 14 c1 32
       2.1857891e-08 2.1325938e-08 2.2119762e-08 2.247736e-08
000190 5b 22 c7 32 ed 08 c7 32 db 66 c0 32 cc 22 c5 32
       2.3182272e-08 2.3170708e-08 2.2398515e-08 2.2949642e-08
0001a0 86 23 c3 32 79 e1 b7 32 7b 0b b5 32 37 84 b7 32
       2.2717142e-08 2.1406537e-08 2.1076394e-08 2.1364128e-08
0001b0 49 a4 c4 32 84 39 ba 32 15 f3 b4 32 69 c9 ba 32
       2.2892111e-08 2.1679405e-08 2.1065299e-08 2.174484e-08
0001c0 e8 ea b4 32 8a b6 b1 32 a1 3e b8 32 4e a8 b5 32
       2.1061581e-08 2.0688521e-08 2.14489e-08 2.114771e-08
0001d0 85 0b b8 32 7a 49 c1 32 ff dc b8 32 bc 55 bb 32
       2.1425658e-08 2.250157e-08 2.1520917e-08 2.1808653e-08
0001e0 c1 0f b8 32 40 16 c2 32 c8 e0 bf 32 68 ff b9 32
       2.1427583e-08 2.259469e-08 2.2337545e-08 2.165298e-08
0001f0 9f c3 bb 32 c5 93 b4 32 1c 60 b5 32 fc dc bb 32
       2.1858623e-08 2.1021956e-08 2.1114879e-08 2.1870157e-08
000200 d9 89 ba 32 87 62 b1 32 0c c2 b7 32 f8 08 be 32
       2.1715936e-08 2.0650317e-08 2.1392246e-08 2.212299e-08
000210 df 1a c7 32 94 b2 b7 32 c0 49 b1 32 cb 7c b0 32
       2.3178869e-08 2.1385212e-08 2.063905e-08 2.0545846e-08
000220 7e aa b7 32 2a 53 b0 32 2e 2d b6 32 de 02 b6 32
       2.1381535e-08 2.0526915e-08 2.1208134e-08 2.1188892e-08
000230 b3 ad bd 32 3d 2e b4 32 fc 50 bc 32 d6 1a b4 32
       2.2081485e-08 2.0975785e-08 2.1922908e-08 2.0966962e-08
000240 25 08 bd 32 79 36 c0 32 e4 75 bd 32 35 71 bf 32
       2.20062e-08 2.2376513e-08 2.2056106e-08 2.2286807e-08
000250 b2 1e bf 32 3f 00 b2 32 97 84 ba 32 82 c3 b8 32
       2.2249285e-08 2.072204e-08 2.1713545e-08 2.1509326e-08
000260 d8 cd bc 32 23 f0 b7 32 cc c2 b3 32 15 65 b9 32
       2.1979687e-08 2.1413205e-08 2.0926926e-08 2.1582801e-08
000270 2f 55 c0 32 a2 86 b9 32 f7 69 bb 32 3b 5e b8 32
       2.2390479e-08 2.1598058e-08 2.1817852e-08 2.146327e-08
000280 dd 37 bd 32 61 9e ae 32 b5 a4 ac 32 85 1f b1 32
       2.20279e-08 2.0328288e-08 2.0098335e-08 2.0619845e-08
000290 39 2b bc 32 5d 6b c3 32 a4 a6 c2 32 b3 d4 c0 32
       2.1905736e-08 2.2749811e-08 2.2660352e-08 2.2448466e-08
0002a0 25 16 ba 32 cf cc b2 32 b5 92 ba 32 b6 6e c3 32
       2.166332e-08 2.0815063e-08 2.1719964e-08 2.2751333e-08
0002b0 40 df c0 32 d9 ec b5 32 03 b5 b4 32 99 a1 bf 32
       2.2453264e-08 2.1178879e-08 2.1037073e-08 2.2308813e-08
0002c0 b3 81 c5 32 5b e7 be 32 36 25 b9 32 d5 0c bd 32
       2.2992799e-08 2.222412e-08 2.1553756e-08 2.2008331e-08
0002d0 22 d1 c4 32 9c 31 bd 32 98 e5 b7 32 9e a5 bc 32
       2.2912506e-08 2.2025056e-08 2.1408411e-08 2.1961394e-08
0002e0 5f eb b5 32 9b 4f b5 32 c2 a9 b7 32 83 b1 b9 32
       2.1178208e-08 2.1107374e-08 2.13812e-08 2.1617558e-08
0002f0 33 d7 b8 32 5d 74 bb 32 00 7d c1 32 93 c2 bd 32
       2.151828e-08 2.1822581e-08 2.2525e-08 2.2090978e-08
000300 60 b1 c1 32 f7 c2 b4 32 03 7f b7 32 a6 a7 c0 32
       2.2548818e-08 2.1043418e-08 2.1361762e-08 2.242798e-08
000310 74 7d b7 32 2a 1f bb 32 a9 73 b7 32 cd 06 c3 32
       2.1361053e-08 2.1783837e-08 2.13566e-08 2.270408e-08
000320 83 f2 cc 32 31 00 cc 32 67 96 c5 32 c1 4b b5 32
       2.3859007e-08 2.3748813e-08 2.3002213e-08 2.1105622e-08
000330 9f d6 ab 32 38 f9 b7 32 f0 74 bd 32 f2 f7 b8 32
       2.0004618e-08 2.1417335e-08 2.2055673e-08 2.1533172e-08
000340 13 75 ae 32 fb 52 bd 32 af 4b c0 32 59 34 c4 32
       2.0309505e-08 2.2040231e-08 2.2386159e-08 2.2841208e-08
000350 25 85 b9 32 e9 c9 b5 32 6d fe bf 32 c6 58 c6 32
       2.1597382e-08 2.1162991e-08 2.2351026e-08 2.3090603e-08
000360 7d 67 b9 32 e0 cb bf 32 20 2e ba 32 47 3e bd 32
       2.1583896e-08 2.2328038e-08 2.1674225e-08 2.2030816e-08
000370 8a 80 bd 32 3a b2 ba 32 ac bf c0 32 82 ce b4 32
       2.2060949e-08 2.1734298e-08 2.2438904e-08 2.1048667e-08
000380 31 95 b1 32 39 41 b4 32 23 70 b1 32 aa 15 b9 32
       2.0673356e-08 2.0984418e-08 2.0656506e-08 2.1546686e-08
000390 45 2d c2 32 b7 f3 c1 32 53 d2 be 32 a6 09 b7 32
       2.2605159e-08 2.2578986e-08 2.2214556e-08 2.1308391e-08
0003a0 43 3e b5 32 ee fc c4 32 a6 f9 c6 32 ee c6 c0 32
       2.1099487e-08 2.2932422e-08 2.316376e-08 2.2442205e-08
0003b0 d9 16 c4 32 4d f1 bc 32 cc a8 ae 32 ca b5 b6 32
       2.2827793e-08 2.1995811e-08 2.0333026e-08 2.1270257e-08
0003c0 17 65 c0 32 f7 f6 bf 32 ff a1 c3 32 0d 87 c0 32
       2.2397712e-08 2.2347633e-08 2.2774655e-08 2.2413156e-08
0003d0 40 6b c6 32 ef c0 c4 32 0d 73 bf 32 4f a2 bf 32
       2.3099005e-08 2.290514e-08 2.2287646e-08 2.2309136e-08
0003e0 39 43 c0 32 1c 92 ba 32 6f 45 bb 32 5a aa c9 32
       2.2382311e-08 2.1719693e-08 2.180124e-08 2.3476947e-08
0003f0 03 3c bc 32 b8 e3 bb 32 9b 62 b0 32 21 db b6 32
       2.191337e-08 2.187322e-08 2.0533937e-08 2.1287237e-08

exp_avg f4 [96]
000000 74 65 7c 39 1b 54 21 38 7b c5 bd 37 e1 36 48 b9
       0.00024070387 3.846372e-05 2.2622515e-05 -0.0001909393
000010 fe ee 70 b9 f5 65 35 b9 78 5d e2 b8 3a ce 35 38
       -0.00022977215 -0.00017299487 -0.0001079393 4.3345826e-05
000020 be 01 79 39 f4 57 42 39 50 1c 97 37 94 29 ba b8
       0.0002374714 0.00018534047 1.8013787e-05 -8.876916e-05
000030 f9 97 c5 b8 72 76 9b b9 4b da a1 39 e7 0f e1 b8
       -9.421999e-05 -0.00029652152 0.00030870954 -0.00010731798
000040 9c 15 cc b9 22 8b 35 b9 4d 5a 2d b9 16 3a ee b7
       -0.00038926012 -0.00017313336 -0.00016532205 -2.839886e-05
000050 50 8f 4b 39 0b 81 07 38 54 3c 85 b9 a6 79 af b9
       0.00019412977 3.230669e-05 -0.00025412685 -0.00033469236
000060 57 51 61 39 7d a7 d3 b7 fc 02 7c 39 45 56 9c 38
       0.00021487974 -2.5231153e-05 0.00024033705 7.4547286e-05
000070 46 25 7d 39 db 09 64 b9 a2 bb 3a b7 17 f0 89 b9
       0.00024141846 -0.00021747446 -1.1130151e-05 -0.00026309557
000080 7b 0a 93 b8 50 a9 f7 b8 e6 dd 7e 38 d6 c0 2c ba
       -7.0114584e-05 -0.00011809415 6.0764978e-05 -0.0006590014
000090 ce 06 7f b9 c6 a8 0b b9 8e b3 8f b9 f6 1e af b9
       -0.0002432123 -0.00013318946 -0.00027408864 -0.0003340167
0000a0 ba 24 ee b8 8e 12 9b b9 1a 7c aa b8 3b de 02 ba
       -0.00011355565 -0.00029577728 -8.1293474e-05 -0.00049922214
0000b0 b7 42 fd b8 0a 33 d9 37 02 dd 67 38 12 d7 f1 b9
       -0.00012076407 2.5892183e-05 5.528052e-05 -0.00046127342
0000c0 ee b3 ab b9 44 0b ae b9 c8 b0 49 b9 3e f6 e9 b9
       -0.0003274972 -0.0003319626 -0.0001923471 -0.00044624688
0000d0 56 6b 8b b9 fe 44 ab b9 c4 76 fc b8 9f d4 9e b7
       -0.00026592118 -0.00032667065 -0.00012038418 -1.8934077e-05
0000e0 48 ec 4d b9 1e 21 95 b9 52 d5 ee b9 e5 d2 85 b9
       -0.00019638345 -0.0002844417 -0.00045553833 -0.00025524865
0000f0 b9 9e 9d b9 3e ec c6 b8 b4 b8 af b9 bf 08 6f b9
       -0.0003006363 -9.485379e-05 -0.00033516216 -0.00022796074
000100 3a 52 bd b9 1d eb f8 b9 62 02 85 b9 15 72 b1 b9
       -0.00036110153 -0.0004747742 -0.00025369512 -0.00033845069
000110 df 2a c4 b9 96 dd e9 b9 e9 34 06 ba 2b 5b 99 b9
       -0.00037415975 -0.00044606318 -0.00051195786 -0.0002925036
000120 1e b0 bb b9 db b6 97 b9 fb c1 a9 b9 f8 92 ac b9
       -0.00035798637 -0.00028937202 -0.0003237872 -0.00032915897
000130 e3 2c 9c b9 d1 25 df b8 cf de af b9 44 92 1a b9
       -0.00029788082 -0.000106405125 -0.00033544606 -0.00014741073
000140 8a 94 79 b9 5d b2 99 b9 4f 03 fd b8 8b f4 3b b9
       -0.00023801826 -0.00029315325 -0.000120645964 -0.00017924809
000150 aa 8e 65 b9 fc 10 e6 b8 a8 ae 95 b9 f2 6e a3 b9
       -0.00021892288 -0.00010970418 -0.00028549624 -0.00031172443
000160 b8 96 3a b9 d8 f0 84 b7 e5 ec 86 b9 7f e4 68 b9
       -0.0001779449 -1.5847778e-05 -0.00025734972 -0.00022210366
000170 8d a2 85 b9 95 56 a5 34 7e af 2e b8 ed cf b6 b6
       -0.00025488847 3.0796642e-07 -4.1648273e-05 -5.4482284e-06

exp_avg_sq f4 [96]
000000 ab 7f 47 35 e4 6b 49 35 e7 28 3c 35 92 8f 46 35
       7.431906e-07 7.5035337e-07 7.009498e-07 7.396967e-07
000010 c3 e5 3c 35 10 af 3b 35 df 0b 3e 35 8b ab 37 35
       7.0369805e-07 6.991768e-07 7.079779e-07 6.842244e-07
000020 70 39 35 35 c3 34 35 35 26 5b 3b 35 80 b7 36 35
       6.7511337e-07 6.750453e-07 6.9795567e-07 6.806731e-07
000030 5a 2c 2c 35 c1 9d 31 35 47 ee 29 35 ef 8f 31 35
       6.4139533e-07 6.61672e-07 6.3304145e-07 6.614709e-07
000040 ae 4e 3a 35 15 01 37 35 e7 97 36 35 01 12 35 35
       6.9404894e-07 6.8174387e-07 6.802133e-07 6.7453954e-07
000050 ba 75 3a 35 5d 9d 36 35 47 c9 3a 35 41 21 37 35
       6.9461714e-07 6.8029277e-07 6.9583297e-07 6.8221203e-07
000060 76 02 34 35 7b 66 3c 35 e9 07 3d 35 63 b9 40 35
       6.7058807e-07 7.0184586e-07 7.04195e-07 7.1795347e-07
000070 72 f3 36 35 3a c7 3a 35 8e dc 3f 35 ea 16 3a 35
       6.8154543e-07 6.958031e-07 7.1473994e-07 6.9323744e-07
000080 9b 16 3f 35 e1 9d 40 35 14 1a 39 35 96 d2 40 35
       7.118594e-07 7.175532e-07 6.895582e-07 7.1832017e-07
000090 2d 20 33 35 7b 77 3c 35 23 ab 38 35 46 f5 38 35
       6.672952e-07 7.0209325e-07 6.879438e-07 6.890226e-07
0000a0 06 dc 38 35 5e 54 31 35 c8 64 35 35 75 69 38 35
       6.886552e-07 6.606041e-07 6.757441e-07 6.86988e-07
0000b0 04 c5 3f 35 5e 4d 37 35 8d bc 38 35 4a f4 31 35
       7.143974e-07 6.8285397e-07 6.881972e-07 6.6293126e-07
0000c0 bd 9b 30 35 34 19 2f 35 55 9f 2a 35 96 19 35 35
       6.579174e-07 6.5229256e-07 6.3561794e-07 6.7464987e-07
0000d0 2a 69 32 35 d6 1c 32 35 14 3c 34 35 5e ca 2f 35
       6.64632e-07 6.635213e-07 6.714265e-07 6.5487063e-07
0000e0 c1 bf 2d 35 79 eb 38 35 7c cf 36 35 f7 6c 35 35
       6.472656e-07 6.8888e-07 6.8102213e-07 6.758632e-07
0000f0 48 80 3f 35 b3 f4 3b 35 d6 e3 39 35 65 c8 33 35
       7.133972e-07 7.001901e-07 6.9249415e-07 6.697431e-07
000100 1b d0 37 35 d7 d7 33 35 e6 90 33 35 05 82 34 35
       6.8475646e-07 6.6996785e-07 6.689355e-07 6.724443e-07
000110 79 2a 3d 35 f1 5e 39 35 f0 7e 31 35 91 53 31 35
       7.046979e-07 6.905603e-07 6.6122357e-07 6.6059243e-07
000120 fc af 32 35 b4 44 3a 35 cc a6 34 35 14 d3 38 35
       6.656626e-07 6.9390376e-07 6.7297947e-07 6.88525e-07
000130 b5 f0 36 35 73 6b 36 35 4e 6d 3f 35 4e b3 45 35
       6.815056e-07 6.795664e-07 7.1312104e-07 7.364914e-07
000140 27 f8 42 35 55 5d 3e 35 eb ce 3d 35 f8 4f 3b 35
       7.263174e-07 7.091633e-07 7.070909e-07 6.97793e-07
000150 f7 66 44 35 3e 39 39 35 80 b3 36 35 5b 09 37 35
       7.3165523e-07 6.900117e-07 6.806149e-07 6.8186426e-07
000160 e5 bc 38 35 5e 14 32 35 46 f5 31 35 bb e0 33 35
       6.882022e-07 6.6339805e-07 6.629456e-07 6.700972e-07
000170 c3 09 34 35 d1 fe 2c 35 47 47 36 35 9b aa 41 35
       6.706943e-07 6.44458e-07 6.7904006e-07 7.2146366e-07

exp_avg f4 [96, 336]
000000 61 da 92 39 ad d9 91 39 4b 07 92 39 0e 66 94 39
       0.00028009995 0.00027818736 0.00027852724 0.00028304796
000010 93 59 90 39 93 41 8e 39 f4 8d 89 39 49 fb 86 39
       0.00027532558 0.00027133207 0.0002623644 0.00025745694
000020 53 9f 82 39 9b f8 7d 39 be 21 7d 39 3b 29 76 39
       0.00024914238 0.00024220573 0.0002414053 0.00023475748
000030 3d f6 68 39 2c b3 5f 39 40 1f 57 39 b5 aa 52 39
       0.00022216975 0.00021333684 0.0002051564 0.00020090754
000040 29 d8 48 39 6a 9a 46 39 db fa 42 39 97 8c 39 39
       0.00019154012 0.00018940275 0.00018594733 0.00017695349
000050 78 4b 38 39 c1 74 32 39 e5 f0 29 39 98 88 21 39
       0.00017575722 0.00017018897 0.00016206836 0.00015405042
000060 ac 79 18 39 a9 33 10 39 fb 97 05 39 39 ee fa 38
       0.00014541176 0.00013752155 0.00012740486 0.000119653014
000070 9b ed e1 38 d0 f0 e2 38 22 09 da 38 b2 ee d2 38
       0.000107730935 0.000108213746 0.00010396751 0.00010058041
000080 86 23 bf 38 b2 21 c4 38 ac 97 af 38 a0 50 a2 38
       9.1142065e-05 9.3522845e-05 8.372901e-05 7.7397795e-05
000090 17 e3 a0 38 02 94 8f 38 69 71 7c 38 b2 dd 77 38
       7.671693e-05 6.84634e-05 6.0187103e-05 5.909586e-05
0000a0 94 71 85 38 0d f3 71 38 44 ca 54 38 02 45 44 38
       6.36309e-05 5.7685236e-05 5.0733113e-05 4.679431e-05
0000b0 85 5f 4b 38 fc 25 2e 38 1c ea 27 38 f5 32 09 38
       4.848793e-05 4.152021e-05 4.0033934e-05 3.2710803e-05
0000c0 30 b1 e2 37 a1 ac c1 37 15 92 b2 37 a6 c2 96 37
       2.7023809e-05 2.308778e-05 2.1287278e-05 1.7972034e-05
0000d0 63 6b 8b 37 7c 42 49 37 39 cb 56 37 69 a4 4b 37
       1.6620097e-05 1.1996013e-05 1.280271e-05 1.2138023e-05
0000e0 16 e9 50 37 c9 ad 56 37 b6 f0 6a 37 f9 ce 1a 37
       1.2452036e-05 1.27958565e-05 1.4003532e-05 9.227305e-06
0000f0 bb de a5 37 54 fd ad 37 ad 94 f1 37 47 b7 0a 38
       1.977325e-05 2.0741172e-05 2.8798671e-05 3.3072454e-05
000100 6c 19 20 38 7b 77 2f 38 3b f1 38 38 ef 97 51 38
       3.817065e-05 4.1834526e-05 4.4093682e-05 4.9970982e-05
000110 be dd 6c 38 76 50 72 38 bf f4 8a 38 8c e3 85 38
       5.6473298e-05 5.777223e-05 6.62594e-05 6.384318e-05
000120 0c 8e 90 38 ce 05 9d 38 d8 a5 a6 38 c2 14 ab 38
       6.8929134e-05 7.4874246e-05 7.9463876e-05 8.157782e-05
000130 7c bc b1 38 fa b7 ad 38 35 6a c5 38 2c d8 c9 38
       8.475126e-05 8.283551e-05 9.4134746e-05 9.624692e-05
000140 e0 2c c2 38 1e 0f cc 38 7d 74 db 38 bf 7f db 38
       9.2589995e-05 9.730294e-05 0.000104644314 0.00010466528
000150 bf 25 e0 38 78 5e ea 38 cc 0c f4 38 a3 93 fc 38
       0.00010688183 0.00011175586 0.0001163721 0.00012043796
000160 10 aa f7 38 12 74 fe 38 69 6f 03 39 65 4b 03 39
       0.000118095544 0.000121332836 0.00012534637 0.0001252122
000170 76 61 07 39 ff d0 05 39 8f b9 09 39 73 ec 0b 39
       0.0001291091 0.00012761726 0.00013134464 0.00013344157
000180 bf bd 11 39 c6 36 16 39 b9 29 19 39 02 45 20 39
       0.00013898964 0.0001432552 0.0001460676 0.00015284496
000190 59 c6 1e 39 54 6b 28 39 38 95 26 39 1d d3 2a 39
       0.00015141944 0.00016061711 0.00015886582 0.00016291109
0001a0 40 bb 25 39 57 61 24 39 36 99 23 39 93 89 20 39
       0.00015805382 0.0001567652 0.00015601967 0.0001531004
0001b0 75 59 26 39 6f 55 27 39 d4 b3 26 39 f1 b6 2d 39
       0.00015864319 0.00015958188 0.00015897985 0.00016566717
0001c0 29 95 28 39 e3 72 27 39 82 1d 29 39 1c 36 23 39
       0.00016077295 0.0001596916 0.00016128088 0.00015565049
0001d0 5f 09 23 39 cc 8f 23 39 a6 a5 25 39 b5 c6 1f 39
       0.00015548382 0.0001559846 0.00015797335 0.00015237446
0001e0 b0 0d 18 39 7f f2 15 39 43 6b 0e 39 48 96 11 39
       0.00014500949 0.00014300084 0.00013582133 0.00013884262
0001f0 f0 41 0f 39 ca 0d 07 39 5a 1b 08 39 85 54 08 39
       0.00013662106 0.0001287974 0.0001298016 0.00013001457
000200 67 ee 09 39 32 46 05 39 22 be 05 39 ee 2c 05 39
       0.0001315415 0.00012710018 0.00012754698 0.00012700606
000210 0b c0 01 39 af f0 ef 38 74 bc e0 38 a1 e7 cf 38
       0.0001237394 0.00011441239 0.000107162545 9.9136734e-05
000220 81 73 bd 38 76 80 ac 38 5d 82 a6 38 d7 a3 98 38
       9.0337366e-05 8.225527e-05 7.939779e-05 7.278442e-05
000230 69 d0 88 38 59 43 59 38 88 03 42 38 4b 6f 54 38
       6.523805e-05 5.1799554e-05 4.6256493e-05 5.064839e-05
000240 c9 e3 23 38 a3 d2 2d 38 3e 7b 07 38 aa 69 f6 37
       3.907437e-05 4.1442585e-05 3.2301286e-05 2.9374689e-05
000250 85 f2 a3 37 9e ec ad 37 ad fa 6f 37 b3 db 80 36
       1.9544046e-05 2.073339e-05 1.4303875e-05 3.8402736e-06
000260 e7 55 69 b6 93 ec 4d b7 60 2f be b7 36 e8 07 b8
       -3.4769707e-06 -1.2274034e-05 -2.2671826e-05 -3.240277e-05
000270 70 59 22 b8 98 4c 2e b8 1a de 38 b8 06 90 1d b8
       -3.8707105e-05 -4.1556166e-05 -4.4075867e-05 -3.756585e-05
000280 b6 a7 28 b8 10 93 34 b8 97 f2 13 b8 fd 7e 18 b8
       -4.0210514e-05 -4.3052307e-05 -3.527346e-05 -3.635789e-05
000290 49 f7 25 b8 6f 6b 2c b8 05 35 06 b8 b7 8e 01 b8
       -3.9569368e-05 -4.110805e-05 -3.1997468e-05 -3.088891e-05
0002a0 35 26 d7 b7 d7 5d e9 b7 33 81 9c b7 24 57 5e b7
       -2.5647789e-05 -2.7819462e-05 -1.8656812e-05 -1.325252e-05
0002b0 ba 6f 33 b7 f5 d2 03 b6 b3 9e cf 36 86 97 56 37
       -1.0695245e-05 -1.9643314e-06 6.1875558e-06 1.2790673e-05
0002c0 29 35 bf 37 fa e5 f2 37 88 44 27 38 36 85 52 38
       2.2793729e-05 2.895574e-05 3.9879727e-05 5.0191964e-05
0002d0 c8 40 79 38 65 75 98 38 e1 a1 af 38 bf bd cb 38
       5.942656e-05 7.269791e-05 8.3748026e-05 9.715137e-05
0002e0 09 77 d9 38 83 11 e4 38 60 39 f9 38 6c 84 05 39
       0.00010369538 0.00010875149 0.00011883932 0.000127332
0002f0 db b5 09 39 5b f6 11 39 f9 5e 20 39 ae b2 27 39
       0.00013133085 0.00013920052 0.00015294169 0.00015992924
000300 59 fe 2b 39 0f fc 33 39 c5 9d 3b 39 e2 65 40 39
       0.00016402583 0.0001716467 0.00017892483 0.00018348501
000310 05 7f 46 39 3b 4d 46 39 09 ba 4c 39 8f 7c 4c 39
       0.0001893007 0.00018911522 0.0001952426 0.00019501358
000320 0f 4b 55 39 fe 57 55 39 81 fa 5a 39 94 fa 60 39
       0.00020341224 0.00020346043 0.0002088342 0.00021455652
000330 56 87 64 39 8a 65 62 39 9b 5f 66 39 b5 f6 64 39
       0.00021794191 0.00021590866 0.00021970125 0.0002183568
000340 8c 88 6b 39 86 d0 6a 39 d1 6c 70 39 1b 53 73 39
       0.00022462214 0.0002239366 0.00022928721 0.00023205245
000350 4a 9b 6b 39 21 37 71 39 b6 69 70 39 2e 67 71 39
       0.00022469196 0.00023004088 0.00022927564 0.00023021988
000360 39 06 69 39 1f 34 6b 39 df f1 61 39 70 5d 60 39
       0.0002222293 0.00022430763 0.00021547776 0.00021397113
000370 6a 0e 5e 39 e3 7d 5d 39 20 f2 5b 39 2e b8 60 39
       0.0002117694 0.00021123099 0.00020975666 0.00021430917
000380 45 3b 62 39 df d0 60 39 4d 5b 5c 39 79 11 56 39
       0.00021575119 0.00021440115 0.00021014847 0.0002041514
000390 5a 97 52 39 d1 ab 52 39 d7 bb 50 39 55 c4 4e 39
       0.00020083543 0.00020091167 0.00019906402 0.0001971883
0003a0 fa 97 4f 39 1d b6 4c 39 62 05 46 39 dc 40 49 39
       0.00019797674 0.00019522799 0.00018884757 0.00019193016
0003b0 e9 a0 41 39 0c 37 41 39 43 34 41 39 ef 7d 40 39
       0.00018465858 0.00018426421 0.00018425383 0.00018357461
0003c0 61 6a 39 39 fa a3 3c 39 94 cb 3c 39 e1 34 3c 39
       0.00017682604 0.00017990163 0.00018004916 0.00017948776
0003d0 4a 30 39 39 59 5f 3c 39 c8 cb 39 39 e2 5a 36 39
       0.00017660964 0.00017964597 0.0001771889 0.00017390729
0003e0 ae 2b 35 39 0f 64 34 39 ac aa 38 39 d1 82 37 39
       0.00017277777 0.00017203412 0.00017611188 0.00017500973
0003f0 e6 c4 3a 39 ca a8 33 39 d1 ae 37 39 4d 9f 38 39
       0.00017811693 0.00017133649 0.00017517364 0.00017606952
