checkpoints/DLinear/ETTh2_100_336_96/8a2b2d718f742d0600ed44c9646baa98/DLinear_100.pt (torch, 782262 bytes, 12 tensors)

Linear_Seasonal.weight f4 [96, 336]
000000 3c 32 ad 3c 4b 01 96 bc 58 7b 35 3b 7d ab 60 bb
       0.021142118 -0.018311163 0.0027691927 -0.0034281902
000010 07 47 82 bb 44 e4 0b bc 60 79 fc bb 4c 76 ea bb
       -0.0039757523 -0.0085383095 -0.0077048987 -0.0071552154
000020 b5 44 40 ba c6 75 2e 3a 25 8f 4c bc 96 b9 25 bc
       -0.0007334457 0.0006655123 -0.0124853 -0.010115048
000030 d9 8d 89 3a 90 9b 0d bb fd 4f 51 bc ce 7d 05 3b
       0.0010494544 -0.0021607615 -0.012775418 0.0020369175
000040 79 15 e5 3b 78 d8 3a bc a5 f2 a1 3b fa fe a7 bb
       0.006991085 -0.011404149 0.0049422556 -0.005126831
000050 c5 5c ed bb aa 26 33 bc fa 22 00 bd 0b e8 18 bd
       -0.007243725 -0.010934511 -0.031283356 -0.03733067
000060 46 70 8b 3d 3e 30 57 bb 83 c9 68 bb d7 5c c6 bb
       0.06808524 -0.003283515 -0.00355205 -0.006053548
000070 67 90 91 ba 1b bb 39 bc fb 5b 44 3b d9 d4 82 bb
       -0.0011105657 -0.011336113 0.0029962051 -0.0039926586
000080 5e cd ca ba dc 2a 32 3c 2e 78 25 bc 7a 66 af 38
       -0.0015472581 0.010874476 -0.010099454 8.363738e-05
000090 e9 c1 41 3b b9 57 8e b9 ff 46 d4 3b cc c2 72 ba
       0.0029565042 -0.0002714971 0.00647819 -0.00092605944
0000a0 be 2a 98 bb da 11 22 3c df 68 ca bb ff 89 2e 3b
       -0.004643767 0.009891951 -0.0061770524 0.0026632545
0000b0 2a 9e fe 39 28 5d 8b b9 0a 2f a7 bb 9b 58 5a bc
       0.00048564497 -0.00026581553 -0.005102043 -0.013326789
0000c0 3e 7f 08 3d cb d6 91 3a dd 7f b2 3b bd d3 54 3b
       0.033324473 0.0011126635 0.0054473714 0.0032474839
0000d0 94 c1 fe bb 86 e0 62 3c fe b0 b5 ba 99 bf 8b 3b
       -0.007774541 0.013847476 -0.0013861952 0.0042647836
0000e0 7b e3 52 38 dc ff 0c 3c d8 06 06 bc 06 b0 f5 3b
       5.027976e-05 0.0086059235 -0.008180343 0.0074977903
0000f0 a3 c0 a4 39 b0 8f cc bb 6b ac 79 3c c1 c8 65 3b
       0.00031424043 -0.006242715 0.015238862 0.0035062286
000100 61 74 68 3b ed fb 7f 3b a9 10 4b ba 03 f4 a0 ba
       0.0035469758 0.0039060072 -0.0007746318 -0.0012279752
000110 8e 99 ff 3b ff bf 1e 3b 4f 82 1f 3a 18 c0 a1 bc
       0.0078002876 0.0024223325 0.0006084786 -0.019744918
000120 e5 62 27 3d 4a f2 9e 3a 07 c7 01 3c d6 cd 23 3b
       0.040865798 0.0012126651 0.007920987 0.0024994514
000130 76 61 9c 3b 69 70 7a 3c 1f 4f 1c bc ec 98 2a 3b
       0.0047723604 0.01528559 -0.009540348 0.002603109
000140 1c 83 2f 3c c2 fc 48 3c dc f2 82 bc 4d 91 e2 bb
       0.010712411 0.012267293 -0.015984945 -0.006914294
000150 cc 35 15 bb cc 0f c1 3b 90 0c 1d bc a8 a0 cf 39
       -0.002276766 0.0058917757 -0.009585515 0.00039601815
000160 89 02 e1 bb ce f3 53 bc 5a 82 bd bc 1b 13 11 bb
       -0.0068667573 -0.012936546 -0.023133446 -0.0022136632
000170 da b7 d7 bc 96 72 83 bb 82 ef 9b bc 98 53 0a bd
       -0.026332784 -0.0040114624 -0.019035105 -0.033771127
000180 20 af 08 3d 21 73 78 bc 54 bf ca bb 16 bd bb ba
       0.033370137 -0.015164168 -0.006187359 -0.001432332
000190 93 ec 24 bb 68 d7 a6 bb 0d b9 68 bc a7 df 69 ba
       -0.0025165423 -0.0050915964 -0.014204276 -0.00089215714
0001a0 a6 d2 68 bc 61 3b a3 3b ce 5a 5c bc e2 b0 38 bc
       -0.014210379 0.0049814438 -0.013449384 -0.011272641
0001b0 7a 9b 06 3c 32 04 cc 3a d6 d1 a8 bb bd de f8 3a
       0.008215779 0.0015565215 -0.0051519675 0.001898728
0001c0 3d ad 18 bc 09 ed 27 3c 44 54 74 3c 3a 12 39 3b
       -0.009318647 0.010249385 0.014912669 0.0028239624
0001d0 76 09 b2 3a 4a d0 be bb 38 a0 c9 3b b4 f7 cf bc
       0.0013583142 -0.00582317 0.0061531328 -0.025386669
0001e0 46 2f 4f 3d 47 66 82 ba 9c e4 26 bc 11 e2 ba bb
       0.050582193 -0.0009948694 -0.010186341 -0.0057032187
0001f0 50 0b a6 39 6b f5 9c ba 53 9d 56 3b ef 08 8f ba
       0.00031670416 -0.0011974996 0.003274758 -0.0010912697
000200 ec 90 04 bc b0 ae 8d bb 3f c8 cb 3b 9f 53 76 bb
       -0.008091193 -0.004323803 0.0062189396 -0.0037586463
000210 fd 34 30 bb b2 91 1b 3c 3a 63 8f bb 3b 43 bf bc
       -0.0026887052 0.009495186 -0.0043758424 -0.023347488
000220 69 e2 08 3c a3 71 8c 3b 7a cc 47 bc 29 47 09 bc
       0.008354762 0.0042860075 -0.012194747 -0.008378782
000230 13 a6 21 3b 46 d8 c2 bc 21 b4 6f bb 76 4a 2e bd
       0.0024665638 -0.023784768 -0.003657587 -0.04255148
000240 d3 40 69 3d 9b c8 da bb 59 ef ee 3b 16 3f 47 bc
       0.056946587 -0.006676746 0.007291716 -0.012161037
000250 eb 6b 99 3a dd 81 19 ba 2b 6f 82 3b 63 77 3a bc
       0.0011705136 -0.0005855838 0.0039805374 -0.011381003
000260 96 76 1f 3c 32 3e fd 3b c7 87 12 3c 64 7c d5 3b
       0.009732863 0.0077283615 0.008943505 0.0065150727
000270 42 38 1c 3c c1 09 c8 ba 22 cb 88 3b a7 cb 49 3c
       0.009534897 -0.0015261696 0.004174606 0.012316621
000280 15 96 ff 3b b0 6f 2a 3a ba 47 4f 3c 27 5e f0 3b
       0.0077998736 0.0006501628 0.012651378 0.0073354426
000290 ce 2d 0e 3c af 88 8e 3b f0 24 41 bc 9a eb 08 bd
       0.008677913 0.00434979 -0.011788592 -0.033427812
0002a0 6f 29 89 3d 9b 7a 09 ba c2 39 f5 3b 97 ac 22 3c
       0.06697356 -0.0005244405 0.007483692 0.009928844
0002b0 8d 9e 49 ba 07 13 fe 3b aa b4 70 bb 1a 62 ec 3a
       -0.00076911674 0.007753733 -0.0036728778 0.0018034608
0002c0 51 85 3c 3b b5 d4 08 3b e4 b0 51 bb 98 a0 c6 bb
       0.0028765986 0.0020878736 -0.0031996304 -0.0060616247
0002d0 99 1d 1c bc 6f b3 46 bc 88 58 d8 b9 dc 1e 85 3b
       -0.009528541 -0.012127741 -0.0004126469 0.0040625166
0002e0 fb f1 45 bc d0 9c e5 bb 6a 75 ab bb 07 06 de bb
       -0.012081618 -0.007007219 -0.0052325027 -0.006775621
0002f0 dd 54 73 bb 72 cd 83 bc 8a b1 b9 bc 37 fd da bc
       -0.003712944 -0.016089175 -0.022667665 -0.02673207
000300 cc 18 42 3d 20 4e 01 ba 5d de 9b ba ef 04 2f 3a
       0.04738693 -0.0004932601 -0.0011891831 0.00066764554
000310 eb b3 b5 bb 01 20 2f 3c 89 93 aa ba 4d 9f ad bb
       -0.0055451295 0.010688783 -0.001301394 -0.005298531
000320 36 24 91 bc 7b b1 fc 3b 92 e4 da 3b 38 79 da bb
       -0.017717462 0.007711587 0.0066800797 -0.0066672824
000330 ad 59 d6 3b c9 f1 e8 3b 81 a6 36 bb 65 9b 38 3c
       0.006541452 0.007108901 -0.002787024 0.011267518
000340 8e 3a 34 3b 10 0b a0 39 68 4a 19 bb 29 49 5f ba
       0.0027500722 0.0003052582 -0.0023390297 -0.00085176766
000350 ba e3 af 3b 8c 5e 06 3b 52 4e d4 b8 d1 7a 35 bd
       0.0053677233 0.0020503132 -0.00010123536 -0.04430658
000360 12 d2 0a 3d 3e 71 ab 3b da b5 46 3a dd 06 b6 bb
       0.033891745 0.0052320054 0.00075801986 -0.0055550174
000370 7a 7c 54 3a c7 45 53 bc 54 3f e8 bb 33 5a be 3a
       0.00081057067 -0.012895054 -0.0070876274 0.0014522731
000380 0e 95 91 ba 82 7f 88 bc 35 09 4e 3a ab cc 0f bc
       -0.0011107044 -0.016662363 0.00078596483 -0.008776824
000390 9d 0a 95 b9 58 75 a6 b9 a1 11 da bb 38 aa d5 bb
       -0.00028427402 -0.00031749415 -0.0066549336 -0.006520536
0003a0 6a 87 d9 3a 0d 83 7b bb ae 22 28 bb f3 1d 9c bc
       0.0016596143 -0.0038377673 -0.0025655436 -0.01905725
0003b0 fe de 8f 3a 84 d0 c8 bc b5 9d 40 39 68 6f 12 bd
       0.0010976491 -0.02451349 0.00018369297 -0.035750777
0003c0 02 f2 29 3d e9 5b c7 3b b4 38 45 bc cb 30 35 bc
       0.041490562 0.0060839546 -0.012037445 -0.011058996
0003d0 6e c9 99 bb dc 66 85 3b bf df 9d bc 63 c6 f4 3b
       -0.0046932017 0.0040710997 -0.01927173 0.0074699386
0003e0 ab a9 28 bc a4 1d 85 3b d6 52 77 bc e1 28 8a 3b
       -0.010294358 0.0040623713 -0.015095433 0.004216299
0003f0 08 f1 a2 bc a7 2c ca 3b 32 4f 3c bc e3 5d 86 39
       -0.019890323 0.0061698738 -0.011493491 0.00025628423

Linear_Seasonal.bias f4 [96]
000000 c7 6f 18 bd 01 bf a0 3c 2f e9 e6 3a 6e bd 25 3b
       -0.037215974 0.019622328 0.0017617102 0.002528991
000010 43 22 6e 3c f0 2b e6 bc 7d c9 03 bd 02 95 70 3c
       0.014534536 -0.028097123 -0.032174576 0.014683964
000020 a0 69 7e bc 88 3c 90 3c ad f2 ad 3c 25 af e2 3c
       -0.015528113 0.017606989 0.02123388 0.027671406
000030 a4 e5 15 bd 91 7b 0b 3b 38 93 3d 3b 58 9c 80 3a
       -0.036595955 0.0021283368 0.002892686 0.0009812219
000040 e3 bd 5f bb b2 e0 f8 3c 0f 88 3d 3d f6 02 0e bd
       -0.003414028 0.03038058 0.046272334 -0.034670793
000050 95 ee 59 bc 48 9d dd bc 30 b1 94 bb d5 15 a1 3c
       -0.013301511 -0.027052537 -0.004537724 0.01966373
000060 c8 90 16 3d 8c d8 d9 3b 3b e2 f3 bb 59 c5 d2 3a
       0.036759168 0.006648129 -0.0074427403 0.0016080543
000070 bf 9b 89 3a 07 0e 20 3d 5c 8c 8d 3a c8 84 b3 3c
       0.0010498686 0.039075878 0.0010799277 0.021913901
000080 78 ce 46 3c 82 74 39 3c 8c 2b 37 3b d7 75 9f ba
       0.012134187 0.0113192815 0.002794954 -0.0012165856
000090 15 db 57 3c de ee 15 bc 0e c9 86 bc a0 e5 94 3b
       0.013174792 -0.009151189 -0.016453292 0.004543975
0000a0 d5 05 de 3c f8 70 98 3a 7a 32 26 3d 09 27 5b 3b
       0.02710239 0.0011630347 0.040575482 0.0033440015
0000b0 29 09 77 bc 75 45 84 bc 58 28 18 3d 4a 1d 10 3d
       -0.015077868 -0.016146401 0.03714785 0.035184182
0000c0 1e bb a5 bc 57 08 25 3d ba c4 23 bb 29 12 d3 bc
       -0.020230826 0.040291157 -0.0024989084 -0.025765495
0000d0 d4 86 27 3a 7e a8 c7 37 fb 84 f4 3c 60 b4 14 bc
       0.00063906354 2.3801109e-05 0.029848566 -0.009076208
0000e0 f6 9c cd ba 52 f8 f8 ba b1 92 89 3c ed 76 4d bb
       -0.0015687037 -0.0018994904 0.01679358 -0.0031351403
0000f0 14 fc b3 3c 08 83 a0 3c 26 fd 3b 39 a0 22 a0 3c
       0.021970786 0.01959373 0.00017928015 0.01954776
000100 33 c2 9d 3c 2a aa 04 bd ee 08 6a bb 56 26 ca 3c
       0.01925764 -0.032388844 -0.003571089 0.024676483
000110 e6 79 c5 3c 21 4b ef bc d7 81 df bb ed ca 3a bc
       0.024105977 -0.029210629 -0.006820898 -0.01140092
000120 59 6d 00 ba b6 8b 5c bb bd c7 94 bc 58 13 2d bc
       -0.00048991066 -0.003365261 -0.018161649 -0.010563694
000130 75 cb f3 39 3c bd 64 3b 23 d6 a9 bb 48 0e a6 bb
       0.0004650016 0.0034902832 -0.005182998 -0.0050676204
000140 2d 64 74 3c 7b b2 4f bb fa d0 26 3c 5a 18 ef bc
       0.014916462 -0.0031692076 0.01018166 -0.029186416
000150 97 a9 6c 3b fe 33 e5 3a 0a e6 ad 3c f2 f6 8f bc
       0.0036111826 0.0017486808 0.021227855 -0.017573807
000160 07 c4 f0 3b dc 6b cc 3b 2e 31 26 bc 6a 15 64 3c
       0.007347587 0.006238444 -0.010143561 0.013921121
000170 fe 9f 1b 3d 3e cc 88 bc b7 b2 f3 3b 69 38 da 3c
       0.037994377 -0.016698953 0.007437076 0.026638227

Linear_Trend.weight f4 [96, 336]
000000 a0 39 92 bc ce 4e 09 bc 95 aa 81 3c 53 43 58 3d
       -0.017849743 -0.008380605 0.01582841 0.05279858
000010 34 d8 57 3b c5 c1 33 3c 8f ce ef bc 73 fc 16 bd
       0.0032935264 0.010971491 -0.0292733 -0.036861848
000020 41 65 37 bb 78 b4 97 bc 94 66 96 3b e8 c6 ab bb
       -0.0027983936 -0.018518671 0.004589865 -0.0052422173
000030 9f 7f 36 bd 10 d2 40 3d 5b 9f d9 3c 49 9c 56 3c
       -0.044555303 0.04707533 0.026565244 0.013098785
000040 9f 4b 12 3c 64 3e 2a 3d e7 60 e4 bc 72 ed a1 3c
       0.008929162 0.041563407 -0.027878238 0.019766543
000050 db 87 bd 3b 6e 09 37 bc 02 c0 f4 bc 45 73 34 bc
       0.0057840175 -0.011171682 -0.029876713 -0.0110138105
000060 99 4b c2 3b 74 bf a2 bb c0 51 36 3c 84 3f 3b bd
       0.005929422 -0.0049666706 0.011127889 -0.04571487
000070 29 db 84 bc 2a 8e fe 3a 58 d1 27 bc ce 1c 04 3d
       -0.016217785 0.001942103 -0.0102427825 0.032254033
000080 c0 d5 b3 3b b9 0f 86 3c 40 ac 19 3d 99 62 8c bc
       0.0054881275 0.016364919 0.037517786 -0.017136859
000090 be 7f da bc 16 0c ab 3c 6f f5 ac 3c e3 45 7c bc
       -0.02667224 0.020879786 0.021113126 -0.015397522
0000a0 a1 9a b7 3c de 4a b2 bc 68 7c 06 3d 32 3b 7f 3c
       0.0224126 -0.021764215 0.032833487 0.015578078
0000b0 13 9d b9 bb c5 b5 1d bd 8a 22 49 bd fb a0 9b 3c
       -0.0056644767 -0.038503427 -0.049105205 0.01899766
0000c0 6e 42 cb bb 1c 9b 0e 3c f9 c8 27 bd 51 0a 02 3c
       -0.0062029874 0.008703973 -0.040963147 0.00793703
0000d0 f8 d4 1c bd b5 38 1d 3d f8 8d 09 3d ef b6 ca b9
       -0.03828904 0.03838416 0.033582658 -0.00038664739
0000e0 d9 1d 18 bd d4 72 30 3d 26 a2 0b bd ee 40 70 3c
       -0.03713784 0.04307826 -0.034090184 0.014663918
0000f0 f7 1b 13 3c 14 f3 e2 3b f6 0c 27 3c d4 e6 b2 3c
       0.008978835 0.00692595 0.010195961 0.021838583
000100 51 98 fb 3a 79 a7 bb bc 08 45 02 3d d6 67 0e bc
       0.0019195174 -0.022907006 0.031804115 -0.008691749
000110 0c a8 23 3c 97 07 ac 3c e9 52 ea 3b 60 4e 93 bc
       0.009988796 0.020999713 0.007150997 -0.017981708
000120 c3 5e b9 bb c6 af cf bc 37 22 26 bd 12 aa 1b bd
       -0.0056570484 -0.02535237 -0.040559974 -0.03800399
000130 45 a7 2d bd 8e a0 36 3d 81 f9 43 3d d4 73 12 bb
       -0.04239585 0.04458671 0.047845367 -0.002234687
000140 09 b3 06 3c df d1 fb bc e7 c7 04 bd 76 32 2f 3d
       0.008221396 -0.030739723 -0.032417204 0.042772733
000150 f3 41 35 bd a5 a0 84 bc 74 11 00 3d 3d 4f 8f 3c
       -0.044252347 -0.016189883 0.031266645 0.017493838
000160 0e 65 e9 bc 63 b4 25 3d 89 28 64 3c e1 bd c1 bc
       -0.02849057 0.040455233 0.01392568 -0.023650112
000170 61 3d a1 bc a0 79 51 3c 87 42 b2 3c f6 00 dc 3c
       -0.019682588 0.012785345 0.021760238 0.026855927
000180 59 aa 18 3c 15 cb b2 bc 42 35 eb 3c 8a 59 cf bc
       0.009317958 -0.021825353 0.028711919 -0.02531125
000190 f3 19 11 3d 41 71 13 3d b9 6c 64 3c 64 59 30 3c
       0.035425138 0.03599668 0.013941937 0.0107635
0001a0 eb e6 bc bc 09 1b 48 3c 7d f9 7b bb bd 3d 03 bd
       -0.023059329 0.012213477 -0.0038448267 -0.0320413
0001b0 f3 e7 40 bd 64 fd 3e bd 26 79 34 bd 94 47 fb 3c
       -0.047096204 -0.04662837 -0.04406085 0.03067378
0001c0 4d f9 a1 3c 5d 7b 13 3d 80 8f 0d 3d ff d7 e8 bb
       0.019772196 0.03600632 0.03456068 -0.007105827
0001d0 34 7d ec 3b 4a 4f 02 bd a8 7b 8e 3b 79 0f 0a 3d
       0.007217074 -0.031813897 0.004348237 0.033706162
0001e0 d7 e7 9c bc 80 8e f7 3b b1 d9 0b bd 36 2d 13 3b
       -0.019153519 0.007554829 -0.034143154 0.0022457368
0001f0 aa a8 56 bd 34 d3 d2 bc c9 a9 04 3c f5 b2 ad 3c
       -0.052406944 -0.025735475 0.008097121 0.021203497
000200 ed 8d 12 3d 2e 73 ea 3c a0 5a 12 bd 95 47 75 3c
       0.035779882 0.028619375 -0.035730958 0.01497068
000210 ae 9a df bb 67 31 33 bc 03 bc 56 b9 99 b3 0c 3c
       -0.006823859 -0.010937071 -0.0002047867 0.008587741
000220 f6 16 cb 3c eb 1a 08 3d f4 82 0c 3c 8c ee dd 3b
       0.024791222 0.033228796 0.0085761435 0.006772822
000230 af 44 d5 bc 56 44 ab 3c 2d ae 41 bd 7e 06 f5 bc
       -0.026033727 0.020906609 -0.047285248 -0.029910322
000240 c5 aa 1b 3d 10 91 20 bd 6b 7a 60 3c 1b 0f 04 3d
       0.038004655 -0.039200842 0.013701062 0.03224097
000250 5f ea a6 bc 49 ad 0c 3d 4a 20 03 3b 22 aa 9f 3c
       -0.020375429 0.034344945 0.002000826 0.019490305
000260 3a 2a 93 bc 96 be 1a 3d c1 7e 35 bd 3d b4 a8 3c
       -0.017964471 0.037779413 -0.044310335 0.020593757
000270 28 37 ea bc 6f 0a 06 bc 4e a9 93 3c f2 d2 d6 bb
       -0.028590754 -0.0081811985 0.018025067 -0.0065559084
000280 e3 fb 0e bb e9 8f 78 bc 5c 3f af 3b ea c8 fc ba
       -0.0021817617 -0.01517103 0.005348129 -0.0019285951
000290 fc 0c b0 bc 95 c7 8d bc 1b 54 06 3d 19 ba 7c bc
       -0.021490566 -0.017307082 0.032795053 -0.0154252285
0002a0 60 60 0b bd fb 09 8c bc c1 7c 3e bb ec 96 df 3c
       -0.034027457 -0.017094603 -0.0029066058 0.027293645
0002b0 ed 1c be 3b db e0 17 bd 27 8e cd 3c 01 45 d1 bb
       0.005801788 -0.037079673 0.025092198 -0.0063863997
0002c0 7d 8b 96 3c c8 12 ce bc 3f 1c 36 3d 29 43 33 3d
       0.01837706 -0.02515544 0.04446053 0.04376522
0002d0 b7 dd 0a bd d4 72 fd bc 46 45 e1 3c f2 19 39 bc
       -0.03390285 -0.030938543 0.027498852 -0.01129769
0002e0 12 1e 42 3d 90 e8 36 bd 55 91 92 3a 78 35 bc 3b
       0.04739196 -0.044655383 0.0011182228 0.0057436787
0002f0 4d c6 40 bb 05 5b 31 3d 5a 2c 55 bc 06 f6 12 bc
       -0.0029415071 0.043299694 -0.0130110625 -0.008969789
000300 5a 05 08 3d be 7e 19 3d 06 ea 7a bc d2 d1 29 bc
       0.03320823 0.037474386 -0.015314585 -0.0103649665
000310 45 f2 34 bc 5d 7a aa bc b1 7b a0 bc fa 03 bf 3c
       -0.01104409 -0.0208103 -0.01959023 0.023317326
000320 c7 a4 0c bd 49 84 02 3c 86 d3 a2 3c 95 32 28 bd
       -0.03433683 0.00796611 0.019876253 -0.041063864
000330 5d 26 9e bb cc 15 e6 3c e6 16 e1 bc 35 ed 94 bc
       -0.0048263506 0.028086565 -0.02747674 -0.018179515
000340 71 83 f9 3c 64 3d 9c bc 62 5f 98 bc 50 f6 57 3d
       0.030458184 -0.019072242 -0.01860017 0.052725136
000350 b6 97 3d bc a3 26 d0 bc 4f 90 34 3c 34 6d 5b 3d
       -0.011571815 -0.025409048 0.011020734 0.05357094
000360 7d 99 0a bc e6 d0 2c 3c 18 4e 0a bd e2 88 5e bc
       -0.008459446 0.010547852 -0.033765882 -0.01358244
000370 ce 16 26 bd 24 69 46 3d bc 80 30 bc 02 32 44 3b
       -0.040549092 0.048440114 -0.01077288 0.0029937034
000380 c4 59 e8 bc a8 e2 46 3d f5 dd 74 3c c4 fe be bc
       -0.028363116 0.048556 0.014945497 -0.023314841
000390 7e 56 d0 3c cb 6c 26 3d 8f 75 92 bc bd cf 2c bd
       0.025431868 0.040631097 -0.017878322 -0.042190302
0003a0 0f 55 38 3d 27 a7 9d bc 66 03 0f bc 61 c1 fd bb
       0.045002993 -0.019244744 -0.008728838 -0.007744
0003b0 56 15 4e bc 74 dc 36 bb de 1f 81 bb f8 ad 46 bc
       -0.012578329 -0.0027902396 -0.0039405664 -0.012126438
0003c0 be 30 b7 bb 73 9b e4 bb 27 9f 9a 3c 80 45 13 bd
       -0.0055905273 -0.006976539 0.018874718 -0.035954952
0003d0 82 b5 e2 bc 3d 4a 0b 3d cc 30 d0 3a 10 59 3f 3d
       -0.02767444 0.034006346 0.0015883683 0.046715796
0003e0 73 3c cd bc b9 6a c2 3c 29 29 1e 3d 29 63 a4 bc
       -0.025053238 0.02373253 0.038613472 -0.020066814
0003f0 04 e8 a3 bc 37 12 e5 3c 81 77 ca bc 6b 9f 45 3d
       -0.020008095 0.027962787 -0.024715187 0.048247736

Linear_Trend.bias f4 [96]
000000 f8 3b 1b 3d e5 70 93 bc bf 81 93 3a b9 ea 67 3a
       0.037898988 -0.017998168 0.0011253877 0.0008846927
000010 ed ce 2a bc ff fb 01 3d 67 84 17 3d 8b c0 20 bc
       -0.0104253115 0.031734463 0.036991503 -0.009811531
000020 d4 92 a9 3c b4 72 4f bc 1c 70 81 bc b6 e4 b1 bc
       0.020699896 -0.012661625 -0.015800528 -0.021715503
000030 b8 a7 31 3d 37 91 a6 3b 34 43 a9 3b b6 77 d6 3b
       0.04337284 0.005083229 0.005165482 0.0065450324
000040 1a de 38 3c 7d f9 bf bc ee 06 1e bd f0 fc 2c 3d
       0.011283422 -0.023434395 -0.038580827 0.042233407
000050 1d 56 ab 3c 83 ea 0d 3d 7d 07 35 3c 8e 53 4f bc
       0.020915085 0.034647476 0.011049149 -0.012654198
000060 89 1d e7 bc cd 70 1d 3b f4 9e 88 3c 58 78 06 3c
       -0.028212326 0.0024023533 0.016677357 0.008207403
000070 d1 8b 02 3c d5 a5 f4 bc 95 3b 11 3c 21 58 29 bc
       0.007967905 -0.029864231 0.008864303 -0.010335953
000080 7e 21 e7 ba e4 2e 7f b9 3f a1 05 3c 07 d6 44 3c
       -0.0017633883 -0.00024336163 0.00815612 0.012013919
000090 bc ff 16 bb ae 73 ab 3c 01 e3 e1 3c 20 3c cd 3b
       -0.0023040613 0.020929184 0.027574064 0.006263271
0000a0 bb 52 86 bc d3 4a 15 3c d8 d8 f6 bc 0f 92 cf 3b
       -0.01639687 0.009112078 -0.030132696 0.00633455
0000b0 71 bf cc 3c 0f ac df 3c 0d 08 d4 bc d5 75 c3 bc
       0.02499363 0.027303724 -0.025882745 -0.023859898
0000c0 3c 07 06 3d 32 70 ea bc f8 c5 5b 3c e1 9d 1b 3d
       0.032721743 -0.028617952 0.013413899 0.037992362
0000d0 83 7b 33 3c a3 e8 4b 3c 47 90 8d bc 1f 63 af 3c
       0.01095474 0.012445602 -0.01728071 0.02140957
0000e0 fe 4a 67 3c 69 3f 60 3c f7 5d 8d bb ba 49 77 3c
       0.014117001 0.013686993 -0.00431418 0.015093261
0000f0 9d 0b 1c bc 49 45 eb bb 76 e6 3f 3c ea 72 e2 bb
       -0.009524253 -0.0071798903 0.011712661 -0.0069106715
000100 34 67 e0 bb ea d5 36 3d 9f 38 7f 3c b1 d9 44 bc
       -0.0068482403 0.044637598 0.015577464 -0.012014792
000110 7a 5e 37 bc 49 b0 2b 3d 9d cc a0 3c 76 6f c9 3c
       -0.011191959 0.041916166 0.019628817 0.024589282
000120 50 af 68 3c a4 27 91 3c 11 41 07 3d 68 5d ce 3c
       0.014201954 0.017719097 0.033021037 0.025191024
000130 b3 36 6e 3c 36 23 33 3c ea bf a1 3c 2d 53 a0 3c
       0.0145394085 0.010933688 0.019744832 0.019570911
000140 28 29 38 ba 25 a2 8b 3c 9b c9 85 3b d2 00 33 3d
       -0.0007025176 0.01704509 0.004082871 0.043701954
000150 f9 47 36 3c 13 f6 5a 3c 62 3f c4 bb 00 d3 06 3d
       0.011125558 0.013364333 -0.005989001 0.03291607
000160 b0 c5 08 3c 42 60 08 3c ff 65 cc 3c 65 60 b2 3a
       0.008347914 0.008323731 0.02495098 0.001360905
000170 19 9e bb bc b5 1a 01 3d bf 3a fa 3b 6a a7 38 bc
       -0.022902535 0.03151961 0.0076363976 -0.011270383

exp_avg f4 [96, 336]
000000 f1 c4 63 b7 46 92 79 b7 a8 96 f2 38 f1 4a 66 38
       -1.3576108e-05 -1.48756135e-05 0.00011567521 5.4906068e-05
000010 6b 2b cb b6 80 a2 8e b8 4c 66 9f b8 51 ee 1a b8
       -6.054926e-06 -6.8013556e-05 -7.600765e-05 -3.693841e-05
000020 07 46 7d b7 11 83 59 37 ef 68 f8 b7 c5 e9 42 b8
       -1.509628e-05 1.2964724e-05 -2.9612767e-05 -4.647092e-05
000030 94 e4 75 b7 6e 99 03 38 6a ca 3a b8 b4 80 44 38
       -1.4656358e-05 3.1375726e-05 -4.453437e-05 4.6849906e-05
000040 f8 ae 7f b3 ed 57 48 38 4f 5c c1 38 05 68 6c 37
       -5.9530947e-08 4.7765603e-05 9.220151e-05 1.4090915e-05
000050 d9 c5 b6 38 28 a5 97 38 74 01 87 38 cb aa 21 b7
       8.715288e-05 7.231004e-05 6.437572e-05 -9.636114e-06
000060 bc 64 a3 37 ef f3 63 b7 2d ec 3c 36 81 fc fb b8
       1.9478022e-05 -1.358705e-05 2.8151655e-06 -0.00012015645
000070 19 d5 86 b8 7b ea 9a b8 8f 14 0b 38 e8 bc 25 b8
       -6.4293105e-05 -7.3869676e-05 3.315933e-05 -3.9515e-05
000080 e5 3c 4d 37 c2 14 15 38 fd 51 0a 39 7d 4c 6e 38
       1.223313e-05 3.55437e-05 0.00013191249 5.6814857e-05
000090 5e b6 35 37 ca 02 90 38 46 f8 b6 38 bf 25 da 37
       1.0830901e-05 6.8669746e-05 8.724681e-05 2.6005202e-05
0000a0 a1 df 4d b8 40 00 82 b8 30 6c e9 b8 8d 93 82 b8
       -4.908408e-05 -6.1989296e-05 -0.00011130457 -6.2263665e-05
0000b0 36 c2 ba 36 02 46 ec b7 0e 80 92 b8 28 5a 98 b8
       5.565841e-06 -2.8165992e-05 -6.9856746e-05 -7.264718e-05
0000c0 e4 c9 32 b8 f8 76 01 b9 35 d5 a1 37 07 68 cc b6
       -4.2626532e-05 -0.00012346718 1.9291978e-05 -6.091784e-06
0000d0 ff 28 24 b5 cf 63 13 37 89 ff 55 b7 ba 8a 6a 36
       -6.115442e-07 8.785121e-06 -1.2755286e-05 3.4949467e-06
0000e0 84 30 24 38 60 cc 96 38 05 eb b0 38 7f 61 0e 38
       3.914583e-05 7.190625e-05 8.43611e-05 3.394624e-05
0000f0 1a 1b 26 b7 54 46 8b 38 d6 2f 1e 38 f2 0e 58 38
       -9.900681e-06 6.641136e-05 3.7714686e-05 5.1512332e-05
000100 80 f1 b2 b7 2c 3f 5b 37 c0 4e d4 37 eb 2b e9 b7
       -2.133171e-05 1.3068126e-05 2.530904e-05 -2.7796215e-05
000110 d5 66 3e 38 70 a5 d2 b5 7f 26 ce b7 43 15 28 b8
       4.53953e-05 -1.5694368e-06 -2.457504e-05 -4.0074123e-05
000120 31 40 1a 37 ce cf 18 b7 f6 0f 00 38 08 74 20 b8
       9.194061e-06 -9.108289e-06 3.0532443e-05 -3.8255035e-05
000130 00 92 58 37 9a 11 56 38 9b 10 a6 b8 0b 17 a6 37
       1.2908597e-05 5.103797e-05 -7.91859e-05 1.9799472e-05
000140 9a 16 8d 38 44 e6 49 38 95 bb 63 38 87 3e 23 37
       6.727614e-05 4.8136586e-05 5.4295717e-05 9.730115e-06
000150 85 2c c3 38 26 d1 be 38 bd df 1f b7 08 ed c2 b6
       9.306617e-05 9.098863e-05 -9.529232e-06 -5.8092446e-06
000160 58 18 24 b8 05 be 64 37 d5 3e 01 b8 d9 79 09 b8
       -3.912332e-05 1.3634101e-05 -3.0814514e-05 -3.2776825e-05
000170 b8 5b 2d b8 5c 28 9b b8 25 bd b0 b6 e4 f0 73 b8
       -4.1331834e-05 -7.3984935e-05 -5.267228e-06 -5.816006e-05
000180 ac 97 40 b8 11 d8 6a b8 95 77 05 b8 67 e8 e3 b8
       -4.5917623e-05 -5.5991175e-05 -3.182104e-05 -0.00010867492
000190 23 93 d1 b8 0a 09 13 b7 a0 7c 33 38 7e b6 f7 b6
       -9.993303e-05 -8.763987e-06 4.279299e-05 -7.3824185e-06
0001a0 d9 4c 11 37 4b a1 8f 38 ec 00 11 b5 d9 b0 f3 37
       8.660566e-06 6.8488145e-05 -5.401805e-07 2.9050208e-05
0001b0 a2 f7 b5 38 31 3c a5 38 3f 13 2c 38 0a 26 67 38
       8.676878e-05 7.8790246e-05 4.102592e-05 5.511012e-05
0001c0 4e 7f d1 b7 45 fb c6 38 f0 e0 4b b7 df 75 87 b8
       -2.4974022e-05 9.488178e-05 -1.2152115e-05 -6.459257e-05
0001d0 69 1c d0 b6 2f 69 eb b8 a4 98 05 b8 23 ac e1 b8
       -6.2021904e-06 -0.00011225265 -3.185183e-05 -0.00010760899
0001e0 1c ad 8e b8 8b 3b 16 b8 ca 78 e1 37 6c d3 ef b8
       -6.803332e-05 -3.581824e-05 2.6878337e-05 -0.000114357885
0001f0 fc 07 8a b8 27 7e ff b7 9b d1 d6 b6 9c 73 fa b7
       -6.58184e-05 -3.0457113e-05 -6.4020983e-06 -2.9856157e-05
000200 71 9b 3d b7 89 a1 d6 38 cd 18 e1 38 fc f8 1c 38
       -1.1301469e-05 0.000102344035 0.000107334556 3.7425183e-05
000210 6f d8 02 38 58 12 81 36 cd 37 7a 38 4d 61 d0 b7
       3.1195985e-05 3.846635e-06 5.9656613e-05 -2.4840841e-05
000220 c3 a9 30 b8 3b cb 0c b8 8f 78 0f b8 e0 ca 93 b8
       -4.2119773e-05 -3.3567874e-05 -3.4206136e-05 -7.047295e-05
000230 bd 0c 7e b8 69 83 cf b7 f5 85 d9 38 35 e5 86 38
       -6.0570183e-05 -2.4737516e-05 0.00010372318 6.432311e-05
000240 1f e7 80 38 1b bd 86 37 0f 37 ee 36 46 2b 6f 38
       6.146565e-05 1.6062104e-05 7.0993624e-06 5.7022342e-05
000250 58 00 dc 37 4d 68 c9 b7 3f e7 da b7 a0 9a 3e b8
       2.6226204e-05 -2.4009636e-05 -2.6095307e-05 -4.5443536e-05
000260 2f a0 22 b7 a2 43 f6 36 e1 09 5f b7 b0 cb 93 38
       -9.693248e-06 7.339245e-06 -1.3294136e-05 7.047446e-05
000270 ec 87 df 36 8e 63 5b 38 89 79 55 38 cc 37 59 b8
       6.6617413e-06 5.2306386e-05 5.0896346e-05 -5.1788797e-05
000280 72 da 7f b8 f8 fc 87 b5 21 08 72 b8 39 db 00 b8
       -6.100018e-05 -1.0131907e-06 -5.7704867e-05 -3.0721745e-05
000290 39 e8 19 b8 fa 7c 4a 36 61 e6 20 b8 d0 d2 a8 36
       -3.6694317e-05 3.0173092e-06 -3.836153e-05 5.031332e-06
0002a0 b4 26 a4 38 13 7c 7d b6 e7 76 7e 38 5c 04 ed b7
       7.8273384e-05 -3.7772159e-06 6.0669056e-05 -2.8254632e-05
0002b0 11 0a 16 38 ac 96 10 b8 67 d3 08 b8 ed d4 d9 b8
       3.5772162e-05 -3.44726e-05 -3.262181e-05 -0.00010387027
0002c0 87 bb a1 38 83 a4 7b 38 67 a9 7d 38 4c da 2e 39
       7.712008e-05 5.9996277e-05 6.047767e-05 0.00016675255
0002d0 e9 dd 16 39 64 7f f0 38 b7 01 3d 38 fd e5 93 37
       0.00014387783 0.0001146782 4.506271e-05 1.7630862e-05
0002e0 a9 bf 33 b7 1c 5d 8b b8 c8 a6 52 b8 00 8b 9e b8
       -1.0713856e-05 -6.6453795e-05 -5.022323e-05 -7.559918e-05
0002f0 61 e0 dd b8 dd 1b dd b8 ae 32 35 b7 1f f8 28 b8
       -0.00010579895 -0.00010543291 -1.08002405e-05 -4.0285402e-05
000300 5a 38 55 b8 5f 96 c4 b8 f1 6d 25 b7 10 3d a1 b7
       -5.083564e-05 -9.374017e-05 -9.860364e-06 -1.922113e-05
000310 b4 16 91 b8 a5 50 0c b9 38 2f d3 b7 79 a6 af b7
       -6.9183676e-05 -0.00013381483 -2.5175148e-05 -2.0939146e-05
000320 02 30 72 b5 ab e9 d9 37 73 78 b5 36 8d 68 63 38
       -9.0221886e-07 2.5977226e-05 5.4082425e-06 5.4218388e-05
000330 f1 d9 27 38 d7 09 1b 39 13 e8 46 39 1e 6c 4f 38
       4.0018876e-05 0.00014785618 0.00018969206 4.9453338e-05
000340 0f 1f a8 38 be df 32 b7 1d 31 c6 b8 94 53 b5 b8
       8.0166494e-05 -1.0661721e-05 -9.450524e-05 -8.64632e-05
000350 99 2e 47 b8 c6 1c b2 b8 2d 70 d5 b8 cd a4 d3 b8
       -4.7488695e-05 -8.493061e-05 -0.00010177526 -0.000100919606
000360 76 e2 5f 36 d6 0e 5b 38 3e 41 51 38 7f a3 35 37
       3.3361407e-06 5.2227486e-05 4.9890245e-05 1.0826508e-05
000370 44 c1 bc b6 b4 2b 30 38 e4 ee c9 b7 58 a0 c0 38
       -5.6253357e-06 4.200237e-05 -2.407231e-05 9.18514e-05
000380 7c 0e d2 38 6c 56 22 38 39 23 8b 38 8e 3f 36 38
       0.00010016278 3.8704296e-05 6.634597e-05 4.345137e-05
000390 8e ce ae b7 5c 1e 86 38 3a 7f fb 38 31 0c 0f b7
       -2.08386e-05 6.395273e-05 0.000119923105 -8.526303e-06
0003a0 49 f2 1b b8 fb 80 66 b7 f8 93 99 b8 5f 16 56 b8
       -3.7180525e-05 -1.3739099e-05 -7.32317e-05 -5.104241e-05
0003b0 7f d0 6c b8 e5 fb 27 b8 9c 50 8c b7 8c 22 26 b7
       -5.646096e-05 -4.0050498e-05 -1.6726837e-05 -9.902415e-06
0003c0 bc 08 93 36 42 62 04 38 78 c1 c3 37 86 42 0c b8
       4.381958e-06 3.1562762e-05 2.3335902e-05 -3.3440556e-05
0003d0 83 75 9a b8 9b 16 d5 b7 4a 5d 1b b8 3c fb 40 33
       -7.3651805e-05 -2.5402105e-05 -3.7041762e-05 4.493198e-08
0003e0 6d 95 0b 38 25 87 8e 37 70 3b 86 37 a8 30 52 b8
       3.3279346e-05 1.699065e-05 1.6001723e-05 -5.0113216e-05
0003f0 92 84 f8 b8 38 f2 f4 37 94 5c 16 38 aa 9b f5 37
       -0.00011850255 2.9199859e-05 3.5849007e-05 2.9278763e-05

exp_avg_sq f4 [96, 336]
000000 ef 24 ad 32 97 12 26 33 20 ae 38 33 6a ac 4e 33
       2.0156646e-08 3.8666794e-08 4.2999204e-08 4.8119922e-08
000010 53 13 47 33 d7 6e 4f 33 08 43 5d 33 5b ab 6c 33
       4.6350873e-08 4.829675e-08 5.1516537e-08 5.510388e-08
000020 c7 af 6e 33 4b 06 76 33 5a 03 83 33 49 c1 82 33
       5.557356e-08 5.728206e-08 6.1007725e-08 6.088755e-08
000030 e4 a0 6d 33 cb 2b 76 33 e4 e4 7d 33 ae 31 77 33
       5.532719e-08 5.7316168e-08 5.9114328e-08 5.7554352e-08
000040 0d 3d 73 33 76 92 75 33 90 c5 65 33 5a 67 6c 33
       5.663337e-08 5.7176713e-08 5.34979e-08 5.504203e-08
000050 e5 e5 72 33 7b a3 83 33 45 f2 82 33 c5 5c 81 33
       5.6554104e-08 6.1299e-08 6.097665e-08 6.023905e-08
000060 69 cc 78 33 d3 d1 75 33 46 b5 75 33 21 1c 74 33
       5.792791e-08 5.723434e-08 5.7208375e-08 5.683626e-08
000070 f3 d1 6e 33 82 f0 74 33 41 e6 70 33 03 44 7f 33
       5.560464e-08 5.7029418e-08 5.608877e-08 5.943367e-08
000080 8b 71 6d 33 86 88 72 33 5f fe 79 33 45 cb 70 33
       5.528413e-08 5.6469183e-08 5.820618e-08 5.6064227e-08
000090 8f ea 75 33 52 94 7a 33 00 5a 7f 33 ab c0 79 33
       5.7256837e-08 5.8342557e-08 5.945367e-08 5.815006e-08
0000a0 8c 9a 7a 33 9c 03 71 33 0e b7 7a 33 aa e8 81 33
       5.834822e-08 5.6115468e-08 5.8374148e-08 6.049352e-08
0000b0 65 1e 77 33 ce ce 78 33 ed 64 7c 33 78 4e 7c 33
       5.7536813e-08 5.7930087e-08 5.8765114e-08 5.874469e-08
0000c0 28 38 78 33 47 e5 71 33 d8 08 78 33 ab 74 7c 33
       5.7793073e-08 5.632071e-08 5.7750043e-08 5.877943e-08
0000d0 8c ca 7f 33 6b 1a 80 33 4a 4e 81 33 b3 a8 80 33
       5.955603e-08 5.96527e-08 6.021271e-08 5.991151e-08
0000e0 99 4c 80 33 df 87 74 33 8d 0d 70 33 96 4f 7e 33
       5.9743975e-08 5.693425e-08 5.589168e-08 5.9211366e-08
0000f0 bd 5e 74 33 59 39 84 33 ab b8 7d 33 8d 81 81 33
       5.689684e-08 6.1571605e-08 5.9074107e-08 6.030596e-08
000100 bb b5 81 33 28 a8 7c 33 4f 78 7a 33 88 3d 80 33
       6.040087e-08 5.882626e-08 5.831708e-08 5.971657e-08
000110 c2 9d 83 33 a5 48 82 33 dc f6 73 33 05 e7 71 33
       6.128859e-08 6.066811e-08 5.6802364e-08 5.6322296e-08
000120 ec 19 71 33 3a c0 6f 33 da 70 74 33 9f c3 78 33
       5.613576e-08 5.5821353e-08 5.6913315e-08 5.7919916e-08
000130 0d bf 72 33 6a 07 80 33 e6 b1 7c 33 e1 73 6b 33
       5.6518775e-08 5.961813e-08 5.883512e-08 5.4820593e-08
000140 a7 88 7e 33 83 f6 65 33 44 91 5f 33 29 25 6a 33
       5.9263268e-08 5.354242e-08 5.2053352e-08 5.4516168e-08
000150 d0 df 6f 33 fb 16 80 33 94 39 80 33 27 01 74 33
       5.585008e-08 5.9646446e-08 5.970938e-08 5.6811725e-08
000160 d1 ad 6e 33 2c 90 65 33 ab 5f 6e 33 2c 32 70 33
       5.557178e-08 5.344934e-08 5.5500703e-08 5.5924986e-08
000170 19 82 76 33 b1 78 81 33 a2 32 7b 33 8f 35 76 33
       5.739466e-08 6.028984e-08 5.8486542e-08 5.732505e-08
000180 8a ef 6e 33 95 eb 70 33 aa 26 6c 33 b8 83 69 33
       5.5631553e-08 5.6093615e-08 5.4983197e-08 5.4369337e-08
000190 04 f5 6d 33 5e 54 73 33 dc a1 82 33 61 7c 74 33
       5.5403703e-08 5.6654578e-08 6.083039e-08 5.69238e-08
0001a0 38 ed 77 33 77 fa 73 33 93 17 79 33 65 a8 70 33
       5.7724918e-08 5.6805643e-08 5.799627e-08 5.603251e-08
0001b0 bc 25 80 33 a8 07 71 33 ba fd 71 33 81 6c 7c 33
       5.967328e-08 5.611915e-08 5.6342948e-08 5.8772006e-08
0001c0 87 d2 71 33 9e 4d 79 33 41 e7 6b 33 6b c4 71 33
       5.630366e-08 5.8045423e-08 5.4925525e-08 5.6290826e-08
0001d0 f2 3a 7c 33 54 3f 7b 33 75 93 81 33 33 1a 7e 33
       5.8726933e-08 5.8498088e-08 6.033853e-08 5.916281e-08
0001e0 9f 9a 71 33 7c fc 69 33 ce 7a 6d 33 84 51 75 33
       5.6252812e-08 5.4479173e-08 5.5292553e-08 5.7117646e-08
0001f0 5a 9b 7f 33 5e d5 75 33 3a e3 80 33 4e 63 80 33
       5.9513106e-08 5.7237564e-08 6.001797e-08 5.978528e-08
000200 ab 58 7f 33 2c 01 81 33 64 86 7f 33 84 3f 6f 33
       5.9452457e-08 6.007244e-08 5.949404e-08 5.570429e-08
000210 a8 fe 76 33 74 58 76 33 1e 75 79 33 1c b5 7a 33
       5.7507947e-08 5.7356786e-08 5.8081348e-08 5.837238e-08
000220 7c 42 76 33 2e 78 6f 33 cb 06 6e 33 0a 25 66 33
       5.7336806e-08 5.5755827e-08 5.541987e-08 5.3584735e-08
000230 c5 1e 6b 33 3d fe 76 33 ef b4 7b 33 7a 96 6f 33
       5.4743186e-08 5.7507567e-08 5.860505e-08 5.578338e-08
000240 d5 db 70 33 63 8f 7a 33 eb 7e 76 33 ae 23 74 33
       5.607929e-08 5.833807e-08 5.739177e-08 5.6843128e-08
000250 ed f1 7e 33 ca 26 6f 33 24 2f 61 33 a9 6a 78 33
       5.9359014e-08 5.5681802e-08 5.242977e-08 5.7839006e-08
000260 b1 66 7e 33 fd 01 73 33 a5 47 6c 33 c9 3e 6e 33
       5.923238e-08 5.6579655e-08 5.5013192e-08 5.5470796e-08
000270 44 fe 7e 33 5e 8d 71 33 fa d4 83 33 5d a9 81 33
       5.9370237e-08 5.6240758e-08 6.138903e-08 6.0378376e-08
000280 4e 9d 7d 33 b8 a5 7a 33 d5 02 78 33 d4 67 6f 33
       5.904922e-08 5.835838e-08 5.7744575e-08 5.5740955e-08
000290 d0 79 79 33 db f7 7b 33 51 bb 81 33 f2 f4 7c 33
       5.8085618e-08 5.8665915e-08 6.041103e-08 5.88961e-08
0002a0 60 d8 67 33 44 cd 6f 33 ce 60 78 33 66 c6 6c 33
       5.398067e-08 5.5833212e-08 5.7830043e-08 5.5128474e-08
0002b0 3e 8d 70 33 67 5d 7b 33 dd 58 71 33 a2 dd 80 33
       5.6007813e-08 5.852544e-08 5.6193006e-08 6.000779e-08
0002c0 20 95 74 33 1b 44 68 33 a0 51 75 33 cc 4c 71 33
       5.6946305e-08 5.407865e-08 5.7117745e-08 5.618203e-08
0002d0 10 c9 74 33 8c f5 6f 33 10 f9 6d 33 06 0b 7c 33
       5.6993542e-08 5.5869847e-08 5.5407384e-08 5.8683348e-08
0002e0 ff 66 77 33 8b 59 7c 33 2c 88 6f 33 43 f7 70 33
       5.7602843e-08 5.875476e-08 5.577037e-08 5.6104238e-08
0002f0 92 66 7e 33 1a e4 7f 33 d4 30 7b 33 f6 ed 76 33
       5.923227e-08 5.957927e-08 5.84849e-08 5.7492763e-08
000300 fb f6 75 33 b7 9d 73 33 9e 07 6f 33 4f 46 70 33
       5.7268135e-08 5.6721287e-08 5.565345e-08 5.59433e-08
000310 99 80 74 33 af 38 7b 33 4d b4 66 33 34 5f 75 33
       5.6927636e-08 5.8492045e-08 5.371503e-08 5.7130094e-08
000320 a2 f0 74 33 ac cb 80 33 24 0c 7e 33 7f 44 76 33
       5.702953e-08 5.997512e-08 5.9150025e-08 5.7338635e-08
000330 8a 2b 7a 33 94 51 77 33 33 68 7b 33 fb 90 7c 33
       5.824726e-08 5.7583364e-08 5.853526e-08 5.880518e-08
000340 a8 96 75 33 7d 99 83 33 2c 17 74 33 a5 a6 73 33
       5.718053e-08 6.128082e-08 5.683175e-08 5.672941e-08
000350 08 40 7d 33 35 c3 71 33 1f ac 73 33 1f 62 73 33
       5.896439e-08 5.6289725e-08 5.673439e-08 5.6667087e-08
000360 b6 d6 74 33 28 26 75 33 cb 4f 81 33 7e b3 71 33
       5.7005956e-08 5.707821e-08 6.021545e-08 5.6275432e-08
000370 f7 51 70 33 e2 6e 79 33 ee c2 76 33 30 3f 79 33
       5.59539e-08 5.8075678e-08 5.7453626e-08 5.80323e-08
000380 f1 c7 71 33 47 15 76 33 0e ea 6f 33 2f db 73 33
       5.629403e-08 5.729569e-08 5.5859395e-08 5.6777193e-08
000390 1a f1 6c 33 25 b5 77 33 e1 ab 78 33 fb ee 76 33
       5.5167312e-08 5.767392e-08 5.7898323e-08 5.749369e-08
0003a0 28 85 81 33 95 ae 7f 33 90 d0 7e 33 0e 3a 77 33
       6.0312516e-08 5.9530596e-08 5.932867e-08 5.756197e-08
0003b0 9e fc 75 33 45 19 86 33 96 b3 80 33 85 08 79 33
       5.727326e-08 6.244458e-08 5.993131e-08 5.798258e-08
0003c0 5c f1 7a 33 6c cf 74 33 16 ea 72 33 3e ec 63 33
       5.8427176e-08 5.6999326e-08 5.6557916e-08 5.3067417e-08
0003d0 11 64 7c 33 51 dd 75 33 f1 65 80 33 b5 30 7e 33
       5.8764332e-08 5.7244794e-08 5.9790075e-08 5.9183282e-08
0003e0 99 a2 80 33 f1 de 79 33 1a ad 7e 33 dd 67 6f 33
       5.990041e-08 5.8177594e-08 5.929642e-08 5.5740987e-08
0003f0 b9 e9 70 33 35 c4 65 33 25 25 6c 33 e9 06 74 33
       5.6091924e-08 5.3496667e-08 5.4981815e-08 5.6816962e-08

exp_avg f4 [96]
000000 b3 4a 93 b8 33 1b 80 39 bb 8b c9 38 ce 17 34 b9
       -7.02342e-05 0.00024434327 9.610454e-05 -0.00017175006
000010 8a 3d 66 b9 0b fb 68 39 92 bd b4 39 2f 13 a2 39
       -0.00021957434 0.00022218765 0.00034473516 0.0003091334
000020 cf 68 7c 39 bb 01 ba 39 e3 01 b0 b8 6c 8b 1e b8
       0.00024071637 0.00035477974 -8.3926854e-05 -3.7799982e-05
000030 ce e2 ed 38 02 62 bf 38 80 11 63 39 cf 93 ba 39
       0.00011343286 9.125845e-05 0.00021654926 0.0003558681
000040 67 3b 0c 3a eb 80 3f b9 9a 8c f7 b7 93 29 01 39
       0.0005349428 -0.00018263205 -2.9510167e-05 0.00012317886
000050 86 3d 97 38 c6 60 52 36 b6 35 57 b9 cb d4 30 39
       7.211701e-05 3.1348768e-06 -0.00020524007 0.0001686394
000060 e9 ca 60 b8 7e 8b 8c 38 fd 61 d9 38 f5 bd 39 b9
       -5.3594737e-05 6.701703e-05 0.00010365618 -0.0001771374
000070 5b 56 bb b9 dd b6 ea b5 4d ca 35 b8 88 05 03 b8
       -0.0003573176 -1.7487579e-06 -4.334217e-05 -3.1237985e-05
000080 00 4a 0f b8 87 73 94 b9 a5 ce ab 38 da 7a ba 38
       -3.4162775e-05 -0.00028314834 8.192406e-05 8.892054e-05
000090 5f c8 8b 37 0f d0 b1 36 bc 8b 2b 39 81 ae de b8
       1.6663396e-05 5.2992323e-06 0.00016359886 -0.00010618289
0000a0 10 d6 3c 37 88 aa d9 b8 b9 d2 4f b9 70 db f6 b8
       1.12555135e-05 -0.0001037913 -0.00019819559 -0.000117710675
0000b0 02 77 b1 b9 56 26 c7 b8 65 51 a9 b9 b8 90 b9 b9
       -0.00033848739 -9.4962e-05 -0.00032294836 -0.00035393774
0000c0 33 7a 98 37 61 60 97 b8 f5 ca 07 b8 47 c7 f6 38
       1.8176715e-05 -7.218193e-05 -3.2375527e-05 0.000117673124
0000d0 9e b1 6d 39 aa 6b 5c b8 44 ae 9a 35 3a 50 4a 39
       0.00022668249 -5.2552357e-05 1.1524612e-06 0.00019294108
0000e0 0b f4 70 b8 de d6 81 b9 35 aa 99 b9 12 bb f9 b8
       -5.744774e-05 -0.00024764886 -0.00029309248 -0.0001190809
0000f0 d8 d9 ba b9 eb 68 08 39 cb e8 06 b9 6f 97 a1 b8
       -0.0003563899 0.00013009056 -0.00012865958 -7.705285e-05
000100 b3 0d 03 39 68 50 98 b8 3f 45 5e 39 cc be 60 38
       0.00012498237 -7.2629016e-05 0.00021197366 5.3583455e-05
000110 56 9c 35 38 17 84 0b b8 34 f2 12 38 8d 9b ad 37
       4.3299362e-05 -3.32632e-05 3.503468e-05 2.0695641e-05
000120 24 82 fd 34 35 cb 09 b8 e0 a3 69 b9 2c e3 5c b9
       4.7219612e-07 -3.2852597e-05 -0.0002228166 -0.00021065463
000130 a2 5a 90 37 b9 3c 6f b7 a9 2b 30 38 8e 53 c3 b9
       1.7208342e-05 -1.4259648e-05 4.200233e-05 -0.0003725555
000140 df 80 b0 b9 08 39 ae b9 b0 27 97 b9 1a cd 8b 37
       -0.00033665352 -0.00033230358 -0.00028830534 1.66656e-05
000150 f5 d8 e7 b8 8e a2 cc 38 ff 09 bf b8 73 9d 1f b9
       -0.0001105535 9.757756e-05 -9.109452e-05 -0.00015222076
000160 9e 6a 05 b9 c1 04 db 38 f8 72 8a 37 10 d0 9c b7
       -0.00012723586 0.00010443619 1.6504418e-05 -1.8693536e-05
000170 3b 5c 90 39 e7 ae 5f 38 e8 d5 93 b8 6e d8 2b b9
       0.00027534537 5.3330234e-05 -7.0493494e-05 -0.00016388457

exp_avg_sq f4 [96]
000000 bb a0 24 35 12 ef 22 35 e7 ac 1a 35 79 d8 18 35
       6.1328655e-07 6.0697596e-07 5.7621077e-07 5.693942e-07
000010 4e a6 1b 35 c5 53 24 35 97 e2 19 35 bd 36 19 35
       5.7984005e-07 6.121666e-07 5.7326673e-07 5.7076596e-07
000020 4c 3f 23 35 e4 06 22 35 b2 c1 1f 35 6c cd 25 35
       6.081434e-07 6.035973e-07 5.951398e-07 6.176622e-07
000030 b2 ff 23 35 18 91 25 35 8e 9d 25 35 0a a5 20 35
       6.109432e-07 6.167843e-07 6.169656e-07 5.984481e-07
000040 ae cf 25 35 cc 6c 1d 35 c5 12 17 35 71 b9 15 35
       6.1769504e-07 5.864538e-07 5.6279197e-07 5.577668e-07
000050 3c 0a 19 35 53 8c 1f 35 aa 88 1a 35 65 7d 26 35
       5.7011835e-07 5.9436314e-07 5.7568343e-07 6.202229e-07
000060 6a 21 1e 35 0a 0f 18 35 d7 a8 23 35 5a 5f 1a 35
       5.890821e-07 5.66463e-07 6.0967926e-07 5.7508225e-07
000070 da e2 23 35 38 f0 1d 35 42 8f 21 35 e8 37 1f 35
       6.1052344e-07 5.883662e-07 6.018564e-07 5.931347e-07
000080 49 8d 1d 35 a8 5f 21 35 4d 5d 1c 35 27 8c 1e 35
       5.8692655e-07 6.011637e-07 5.82503e-07 5.9063535e-07
000090 98 6f 1e 35 2d 5e 21 35 4a 38 1e 35 6b 71 1e 35
       5.9021977e-07 6.011422e-07 5.89415e-07 5.902463e-07
0000a0 65 a3 22 35 c5 75 24 35 b8 14 24 35 00 3e 21 35
       6.0587473e-07 6.126614e-07 6.112491e-07 6.0067396e-07
0000b0 97 cf 20 35 e9 e3 21 35 18 88 21 35 5a b9 26 35
       5.990673e-07 6.0308827e-07 6.0175216e-07 6.210954e-07
0000c0 99 45 28 35 86 a9 28 35 ac 0d 27 35 a9 73 26 35
       6.2686155e-07 6.2831566e-07 6.2232243e-07 6.2008127e-07
0000d0 bd f2 23 35 57 61 26 35 31 35 20 35 8e 3b 1f 35
       6.107546e-07 6.1981467e-07 5.968205e-07 5.931878e-07
0000e0 0b d7 20 35 a9 f3 1f 35 00 30 24 35 00 de 25 35
       5.9917573e-07 5.958669e-07 6.116461e-07 6.179034e-07
0000f0 83 cc 2c 35 92 85 21 35 bc ce 28 35 17 e5 29 35
       6.4372597e-07 6.0171544e-07 6.2885715e-07 6.3290776e-07
000100 2c 09 2b 35 c5 11 23 35 54 45 22 35 a6 d6 2a 35
       6.371581e-07 6.074809e-07 6.045059e-07 6.364229e-07
000110 26 36 26 35 82 3f 2d 35 ee 20 2d 35 c4 ee 28 35
       6.1918615e-07 6.453994e-07 6.449544e-07 6.2932327e-07
000120 b1 f8 2b 35 e8 ff 2d 35 74 f6 2e 35 92 bf 23 35
       6.406436e-07 6.4819915e-07 6.517869e-07 6.1001003e-07
000130 dc 86 27 35 78 78 25 35 38 14 26 35 23 8a 2f 35
       6.2408594e-07 6.1642595e-07 6.186924e-07 6.5393596e-07
000140 0d 66 27 35 df 82 1e 35 db 72 1a 35 f2 7d 21 35
       6.236085e-07 5.905003e-07 5.753661e-07 6.016045e-07
000150 e0 d8 24 35 a4 0a 22 35 80 da 24 35 dd 5e 24 35
       6.1410356e-07 6.0365187e-07 6.141272e-07 6.1232805e-07
000160 99 4e 20 35 b8 51 23 35 f7 d6 24 35 44 24 2c 35
       5.971902e-07 6.084115e-07 6.1407576e-07 6.4127767e-07
000170 6f d6 28 35 0f 27 24 35 2e 55 2f 35 39 d4 26 35
       6.289692e-07 6.11516e-07 6.5316533e-07 6.2148644e-07

exp_avg f4 [96, 336]
000000 c9 5b 63 b9 c9 09 5e b9 39 2b 5a b9 7a 78 51 b9
       -0.000216826 -0.00021175215 -0.00020806202 -0.00019976674
000010 84 ee 53 b9 e2 56 4e b9 9d be 4b b9 62 db 48 b9
       -0.00020211382 -0.00019678057 -0.00019430598 -0.00019155213
000020 3f 6a 3e b9 34 b5 39 b9 ff fc 30 b9 ca b1 2e b9
       -0.00018159392 -0.00017710478 -0.00016878916 -0.00016660165
000030 f4 aa 2e b9 bc ec 21 b9 a2 84 20 b9 94 ed 28 b9
       -0.00016657618 -0.00015442347 -0.00015308199 -0.00016110233
000040 e0 f0 2b b9 1e 2d 29 b9 ec a0 2a b9 d9 16 23 b9
       -0.00016397564 -0.00016133903 -0.00016272411 -0.00015553403
000050 e1 b9 21 b9 43 2f 21 b9 40 70 1e b9 7b ca 19 b9
       -0.00015423402 -0.00015371763 -0.0001510987 -0.00014666647
000060 f7 dd 16 b9 60 33 16 b9 2c 11 14 b9 e4 3c 19 b9
       -0.00014387803 -0.00014324253 -0.00014120777 -0.000146139
000070 13 e1 1b b9 85 2f 1e b9 c8 b3 27 b9 bd 97 2b b9
       -0.00014865799 -0.00015085757 -0.00015993335 -0.00016364358
000080 17 a8 30 b9 5d 4b 36 b9 3d fe 3b b9 70 d3 49 b9
       -0.00016847286 -0.00017384948 -0.00017928421 -0.0001924762
000090 98 fa 4e b9 5f 18 52 b9 4a 2f 53 b9 72 e4 59 b9
       -0.00019739044 -0.0002003624 -0.00020140145 -0.00020779835
0000a0 dc 6e 53 b9 97 32 57 b9 89 b7 50 b9 fb 05 55 b9
       -0.00020163826 -0.00020522844 -0.00019904798 -0.00020315491
0000b0 e5 a5 54 b9 c7 2f 56 b9 67 69 55 b9 6f 4d 52 b9
       -0.00020279696 -0.00020426429 -0.00020352528 -0.00020056007
0000c0 4b 1d 57 b9 7e 4b 52 b9 4a 63 57 b9 f0 51 52 b9
       -0.0002051491 -0.00020055284 -0.00020540986 -0.00020057685
0000d0 d6 9d 57 b9 16 7e 4b b9 60 00 47 b9 8b d6 45 b9
       -0.00020562796 -0.0001940656 -0.00018978259 -0.00018867308
0000e0 6d d6 43 b9 de 94 3a b9 f9 9b 41 b9 3d 9e 3a b9
       -0.00018676529 -0.000177938 -0.00018464019 -0.0001779729
0000f0 ee 57 37 b9 30 49 35 b9 36 3e 2e b9 9e 77 2f b9
       -0.00017484996 -0.0001728877 -0.00016617108 -0.00016733861
000100 99 35 31 b9 8d 5f 32 b9 83 5e 31 b9 6a fc 35 b9
       -0.00016900002 -0.00017010998 -0.00016915244 -0.00017355537
000110 9b 98 33 b9 62 11 35 b9 c5 74 3a b9 5f f0 43 b9
       -0.0001712762 -0.00017267981 -0.00017781842 -0.00018686194
000120 2c 3e 44 b9 a4 ca 46 b9 fb b4 50 b9 3a 2c 58 b9
       -0.00018715177 -0.00018958241 -0.00019903846 -0.00020615841
000130 43 af 62 b9 46 ab 5e b9 a6 0f 67 b9 ec bb 75 b9
       -0.0002161833 -0.00021235374 -0.00022035706 -0.00023435027
000140 d6 5f 7c b9 fe 7d 86 b9 29 83 8a b9 70 2c 8b b9
       -0.00024068294 -0.00025652343 -0.00026419133 -0.00026545255
000150 7b dd 93 b9 db a2 97 b9 8c bd 99 b9 c6 60 a1 b9
       -0.0002820304 -0.000289223 -0.00029323658 -0.00030780415
000160 64 0a a9 b9 f5 98 a9 b9 c1 d5 ae b9 1a fb b2 b9
       -0.00032241934 -0.00032348154 -0.00033347125 -0.0003413789
000170 fd 7d b6 b9 30 3d b8 b9 fb fc bb b9 c4 7b bf b9
       -0.00034807614 -0.00035140803 -0.00035855905 -0.00036522571
000180 4a e8 c1 b9 a0 ca c6 b9 43 db c7 b9 be f3 cb b9
       -0.00036984897 -0.0003791647 -0.000381196 -0.0003890078
000190 b5 72 cb b9 1c af ca b9 b1 52 ce b9 c7 0c d1 b9
       -0.0003880464 -0.0003865891 -0.00039352992 -0.00039873106
0001a0 0b fc d3 b9 38 24 d5 b9 3a 67 d6 b9 9b 10 db b9
       -0.00040432843 -0.0004065351 -0.0004089417 -0.00041783307
0001b0 1f 17 dd b9 7e 96 dd b9 da 5a dc b9 d3 a2 da b9
       -0.0004216963 -0.0004226453 -0.0004202936 -0.00041701514
0001c0 c4 bb da b9 97 aa d8 b9 65 ff d8 b9 cd e0 dc b9
       -0.00041720096 -0.0004132583 -0.00041389014 -0.0004212916
0001d0 86 22 dc b9 a6 0a dc b9 3d bc d8 b9 7d 9e d5 b9
       -0.00041987392 -0.00041969604 -0.0004133898 -0.0004074461
0001e0 b3 32 d7 b9 f3 24 d6 b9 80 28 d7 b9 51 f1 d4 b9
       -0.0004104577 -0.0004084479 -0.0004103817 -0.00040615586
0001f0 44 e5 d7 b9 59 9c d4 b9 af 55 d3 b9 a8 90 d1 b9
       -0.00041178812 -0.0004055228 -0.00040308895 -0.00039971364
000200 de 41 ce b9 9a 60 cc b9 df b3 c8 b9 30 62 c1 b9
       -0.00039340457 -0.00038981886 -0.00038280987 -0.00036884984
000210 f5 99 bc b9 f9 51 b8 b9 94 1e b4 b9 21 53 b0 b9
       -0.0003597286 -0.0003515629 -0.00034355058 -0.00033631272
000220 34 cf a9 b9 7b a5 a5 b9 ad 0b a4 b9 4a 08 a2 b9
       -0.0003238857 -0.00031594545 -0.00031289217 -0.00030905224
000230 8c 68 a0 b9 ab a1 9a b9 69 be 9d b9 5a fc 9a b9
       -0.00030595472 -0.0002949362 -0.0003008724 -0.00029561186
000240 d0 97 95 b9 fe e9 96 b9 37 ef 90 b9 23 3e 90 b9
       -0.00028532604 -0.00028784567 -0.0002764405 -0.00027512116
000250 28 d3 91 b9 f2 4b 8c b9 d1 d6 8c b9 20 58 8a b9
       -0.0002781388 -0.00026759465 -0.00026862932 -0.0002638707
000260 3a 07 8a b9 a8 34 84 b9 4b 4e 87 b9 97 3b 84 b9
       -0.00026326795 -0.00025216234 -0.0002580754 -0.000252214
000270 9b 0e 85 b9 11 82 83 b9 23 35 7f b9 97 2a 80 b9
       -0.0002537862 -0.00025083174 -0.0002433849 -0.00024445794
000280 12 c5 7d b9 3a c7 7e b9 29 5c 7a b9 38 e7 7b b9
       -0.00024201375 -0.00024297545 -0.0002387619 -0.00024023361
000290 fb aa 76 b9 29 65 71 b9 3d 48 68 b9 0e 4a 64 b9
       -0.00023524083 -0.00023021236 -0.00022152155 -0.00021771362
0002a0 1b d0 61 b9 04 a2 5a b9 f1 cc 58 b9 dc c9 56 b9
       -0.00021535197 -0.00020850456 -0.00020675712 -0.00020483829
0002b0 b3 2b 57 b9 8c 39 5c b9 ad 31 58 b9 fe bc 5c b9
       -0.00020520277 -0.00021002273 -0.00020617871 -0.0002105124
0002c0 37 a7 5d b9 17 d0 65 b9 2c 18 60 b9 53 79 61 b9
       -0.00021138495 -0.00021916661 -0.0002137131 -0.00021502869
0002d0 0d 29 6e b9 c2 c8 76 b9 c4 f0 72 b9 3e 4b 7c b9
       -0.00022712741 -0.00023535176 -0.0002316861 -0.00024060623
0002e0 83 81 79 b9 14 ff 85 b9 64 28 84 b9 04 57 84 b9
       -0.00023794737 -0.00025557785 -0.00025207095 -0.00025241834
0002f0 cc 20 83 b9 ff 22 82 b9 c4 6a 86 b9 1f 6f 86 b9
       -0.00025010703 -0.00024821606 -0.00025638018 -0.00025641263
000300 3f d7 86 b9 48 33 86 b9 81 9f 86 b9 d6 52 85 b9
       -0.00025718843 -0.0002559668 -0.0002567731 -0.00025429454
000310 3d d7 82 b9 d3 e6 81 b9 d4 94 80 b9 6f 08 7a b9
       -0.00024955897 -0.00024776775 -0.00024524948 -0.00023845
000320 7d 53 7a b9 bd 44 70 b9 ee c4 69 b9 a3 4d 6e b9
       -0.0002387296 -0.0002291379 -0.00022293974 -0.0002272637
000330 8b 47 63 b9 46 3a 55 b9 61 d4 4e b9 07 20 47 b9
       -0.00021675059 -0.00020334971 -0.00019724808 -0.0001899005
000340 f4 b2 3b b9 9d ac 36 b9 a5 89 2c b9 cf af 1a b9
       -0.00017900375 -0.00017421176 -0.00016454475 -0.00014752078
000350 e9 e0 16 b9 8a 59 11 b9 54 8f 06 b9 cd 72 f6 b8
       -0.000143889 -0.00013861633 -0.0001283263 -0.000117515774
000360 33 37 ff b8 7f 0e ef b8 4e 71 f1 b8 21 fa f5 b8
       -0.00012169629 -0.00011399108 -0.0001151288 -0.000117291005
000370 0d da fb b8 a1 a3 ea b8 15 05 f7 b8 07 d6 eb b8
       -0.00012009228 -0.00011188468 -0.000117788244 -0.00011245539
000380 c6 71 ec b8 6a 18 d9 b8 80 b0 d8 b8 64 eb d7 b8
       -0.00011274549 -0.00010351914 -0.00010332558 -0.00010295844
000390 72 dd c5 b8 ad 56 c0 b8 f1 b1 cf b8 0b 09 dd b8
       -9.4349394e-05 -9.171418e-05 -9.903673e-05 -0.000105397856
0003a0 b4 cd d2 b8 8e 91 e2 b8 7a a2 e7 b8 76 0b e6 b8
       -0.000100518955 -0.000108036314 -0.00011045202 -0.000109693894
0003b0 c4 61 ec b8 32 63 f1 b8 4b 3c f3 b8 1d 3c fe b8
       -0.00011271567 -0.00011510252 -0.000115983734 -0.00012122861
0003c0 d8 f2 04 b9 83 b8 02 b9 8a bd 00 b9 06 d6 09 b9
       -0.00012678967 -0.00012466502 -0.0001227764 -0.00013145068
0003d0 b7 7d 08 b9 b3 48 fb b8 ff ea 02 b9 73 e4 f7 b8
       -0.00013016803 -0.00011982154 -0.00012485309 -0.0001182043
0003e0 88 70 fe b8 d5 79 e2 b8 2e 6d d3 b8 46 25 d3 b8
       -0.000121326244 -0.00010799213 -0.000100816 -0.00010068207
0003f0 3b c9 cb b8 53 41 b6 b8 40 fc b9 b8 43 9f a9 b8
       -9.7172764e-05 -8.690604e-05 -8.868473e-05 -8.088213e-05
