checkpoints/DLinear/ETTh2_100_336_96/8a2b2d718f742d0600ed44c9646baa98/DLinear_best_val_MAE.pt (torch, 782442 bytes, 12 tensors)

Linear_Seasonal.weight f4 [96, 336]
000000 65 e6 c4 3c a9 02 99 bc f1 4f 6c 3b 9f 04 6e bb
       0.024035642 -0.018678026 0.003605839 -0.0036318672
000010 b5 38 8b bb 7e 44 0b bc 0a e3 d7 bb 6e 76 f9 bb
       -0.0042487034 -0.0085002165 -0.0065883445 -0.007612995
000020 3a 89 a2 ba 6f c9 1a 3b 37 be 53 bc d7 95 1a bc
       -0.0012400516 0.00236186 -0.012923769 -0.009435139
000030 2d c0 f7 3a 77 49 2f bb 27 13 5d bc 88 e7 57 3b
       0.0018901877 -0.002674667 -0.013493336 0.00329444
000040 60 8b c4 3b 19 be 36 bc b4 e1 8d 3b c7 18 d4 bb
       0.00599806 -0.011153721 0.0043298844 -0.0064726803
000050 30 ee e4 bb 70 e6 6f bc 22 46 ff bc ed f1 18 bd
       -0.006986402 -0.014642343 -0.031161372 -0.037340093
000060 be 9f 86 3d 57 54 99 bb 71 fa 65 bb a8 32 f8 bb
       0.06573437 -0.0046792435 -0.0035091902 -0.007574398
000070 5b c8 ef ba 70 b5 48 bc 53 7b 6e 3b 62 12 91 bb
       -0.0018293964 -0.012250289 0.0036389425 -0.00442724
000080 f9 41 66 ba 72 73 1f 3c d7 c0 0e bc 8b 2f a9 b9
       -0.00087836344 0.009732114 -0.008712969 -0.00032269614
000090 20 c0 35 3b 9c ca 3a 3a 3f 47 b0 3b d5 21 02 3a
       0.0027732924 0.0007125528 0.005379587 0.0004964148
0000a0 b3 c4 a6 bb 27 fc 1e 3c 54 56 bf bb 98 3a 1e 3b
       -0.0050893663 0.0097036725 -0.0058391485 0.0024143811
0000b0 34 83 d8 3a 8a c4 0d ba 0e 40 95 bb 94 a0 49 bc
       0.0016518594 -0.000540801 -0.004554755 -0.012306351
0000c0 3b 33 0b 3d 2a 5e 8b 3a 02 5d cc 3b d1 65 94 3b
       0.033984404 0.0010632921 0.0062366733 0.004528739
0000d0 b5 b2 0f bc 7d 77 7e 3c ed 54 00 bb 25 02 aa 3b
       -0.008770634 0.015531418 -0.001958187 0.005188244
0000e0 5f a0 0b 3b 0f 75 1c 3c 64 33 f4 bb 50 18 12 3c
       0.0021305305 0.009549393 -0.0074524153 0.008916929
0000f0 af 98 ba 3a 1f 73 d0 bb c0 5f 7b 3c 2a 9f a1 3b
       0.0014236177 -0.0063613798 0.015342653 0.004932304
000100 62 dc b4 3b d0 31 8d 3b 01 16 89 ba 68 5b 9c ba
       0.0055194357 0.0043089166 -0.0010458828 -0.0011929097
000110 9e ce 10 3c 2c 8a 71 3b 93 cf bd 3a a3 f9 9e bc
       0.008838324 0.0036856038 0.0014481418 -0.019406145
000120 38 b1 22 3d eb 91 e2 3a ad 79 13 3c 26 72 15 3b
       0.03971979 0.0017285919 0.009001178 0.0022803633
000130 0e 4c d3 3b 65 cf 55 3c c7 47 0e bc ad 63 17 3b
       0.0064482754 0.013049935 -0.008684105 0.0023100183
000140 45 10 43 3c db a5 51 3c 4e e2 83 bc 98 28 f8 bb
       0.011905734 0.012795891 -0.016099121 -0.0075731985
000150 0b b8 70 bb 98 2d e4 3b ca ec 2b bc 04 64 91 ba
       -0.0036730792 0.006963443 -0.010493467 -0.0011092429
000160 8f 69 e3 bb 2e fc 6a bc 57 72 c5 bc 38 09 b4 bb
       -0.006940074 -0.014342351 -0.024102373 -0.005494263
000170 4d 85 e0 bc ff a3 a6 bb de 67 b6 bc 8b 63 15 bd
       -0.027407313 -0.005085468 -0.022266325 -0.036471885
000180 6f be 03 3d 75 88 86 bc 0c 0a 08 bc 3d 77 0d bb
       0.032164034 -0.01642249 -0.008303177 -0.0021585964
000190 f2 bc 1b bb 03 4a db bb dc d8 60 bc 16 9b 56 bb
       -0.0023763743 -0.0066921725 -0.013723578 -0.0032746247
0001a0 82 ed 70 bc a3 04 b3 3b 6f 0f 7c bc f2 26 32 bc
       -0.014705064 0.005463199 -0.015384539 -0.010873543
0001b0 4e 9e dd 3b c5 b2 19 3b 0f 2d cb bb 79 c1 00 3a
       0.006763256 0.0023452502 -0.0062004398 0.0004911642
0001c0 5e ec e9 bb 3f 4c 0e 3c b0 30 7b 3c b0 33 46 3b
       -0.007138773 0.008685171 0.015331432 0.003024321
0001d0 04 c9 67 b7 24 82 ba bb 3b c3 e0 3b 12 ef db bc
       -1.38154755e-05 -0.0056917835 0.006859211 -0.026847396
0001e0 d9 6f 4d 3d c8 73 1a ba 12 84 29 bc 39 f5 e8 bb
       0.050155494 -0.00058918865 -0.010346429 -0.007109311
0001f0 6a b4 20 3a 9b 30 f3 36 6a de 1d 3b 6c 31 eb ba
       0.00061303994 7.2476228e-06 0.0024088868 -0.0017943806
000200 97 a6 0b bc ba b7 5a bb cf 4f b4 3b 46 ac 5f bb
       -0.008523605 -0.003337367 0.005502678 -0.0034129783
000210 2f 06 ba ba f1 21 10 3c 9e d7 a5 bb 75 1a b2 bc
       -0.0014192517 0.008797155 -0.005061104 -0.021741131
000220 4f bc e1 3b b6 fc 91 3b f0 11 52 bc da a0 0a bc
       0.006888903 0.0044551743 -0.012821659 -0.008461202
000230 7e f6 58 ba 7b 1c be bc ed b3 59 bb 25 5b 33 bd
       -0.00082764763 -0.02320694 -0.0033218816 -0.043788094
000240 70 5b 61 3d 72 8c a4 bb a6 33 88 3b 87 6c 2d bc
       0.055018842 -0.005021625 0.0041565476 -0.010584957
000250 d9 a8 d3 3a 54 10 d6 ba 09 e1 b7 3b 33 b9 33 bc
       0.0016148343 -0.001633177 0.005611543 -0.010969448
000260 76 81 39 3c 54 14 1a 3c 8b 37 11 3c 07 23 ff 3b
       0.01132237 0.009404261 0.00886334 0.007786158
000270 5d 2a 35 3c 29 35 8d ba c8 07 bd 3b 4f 80 60 3c
       0.0110574635 -0.0010773289 0.00576875 0.013702466
000280 92 40 e4 3b a4 d2 4e 3b d4 6c 53 3c 83 67 10 3c
       0.006965705 0.0031558657 0.012904365 0.008813742
000290 53 bb 33 3c 7a 15 76 3b d1 e6 63 bc e7 00 f4 bc
       0.010969955 0.0037549422 -0.013910011 -0.029785587
0002a0 97 20 8c 3d 76 6b 44 3a 5f e6 e8 3b 27 43 29 3c
       0.068421535 0.00074928196 0.0071075405 0.010330952
0002b0 d0 c7 40 ba 84 d4 d1 3b be 51 56 bb 97 26 67 3b
       -0.0007353993 0.0064035077 -0.003270253 0.0035270804
0002c0 76 45 c6 3a 39 a5 65 3b fa 00 58 bb 1e d5 d9 bb
       0.0015126902 0.0035041107 -0.0032959566 -0.00664772
0002d0 89 00 20 bc f7 8b 31 bc eb b2 8b b9 8e b1 26 3b
       -0.009765753 -0.010836593 -0.0002664545 0.002543542
0002e0 89 87 51 bc c0 62 fe bb b8 84 cd bb ac cd e1 bb
       -0.012788662 -0.0077632368 -0.006271925 -0.006890973
0002f0 66 04 c2 bb 2c 33 78 bc 05 52 cc bc f3 66 dc bc
       -0.0059209345 -0.015148919 -0.024941454 -0.026904559
000300 a1 2b 45 3d 1a 56 1e bb 05 b5 f8 b9 90 be a5 3a
       0.04813731 -0.0024160207 -0.00047437116 0.0012645293
000310 0e d1 ca bb f7 0f 25 3c 76 a0 16 bb 52 8f 89 bb
       -0.006189472 0.010074607 -0.0022983826 -0.0041979933
000320 22 1e 91 bc 30 83 04 3c 71 34 d5 3b 3d a6 d5 bb
       -0.017714564 0.008087918 0.0065064956 -0.0065200613
000330 aa 2f d4 3b f6 6a 0a 3c 46 22 34 bb 5e 4f 24 3c
       0.0064754086 0.008448353 -0.002748625 0.010028688
000340 6f 1f 67 3b 18 19 9c b9 42 c6 49 bb 5c 19 e4 37
       0.0035266539 -0.00029773335 -0.0030788337 2.7191527e-05
000350 de 91 87 3b b2 89 79 3a d7 c4 91 ba e5 4c 31 bd
       0.004137262 0.00095191144 -0.0011121285 -0.043286223
000360 66 e2 05 3d 50 cb 50 3b 68 21 e9 38 ac a6 be bb
       0.032686614 0.0031859465 0.00011116528 -0.0058182087
000370 4f 0e 26 3a 5c a4 3f bc 8e fb 1f bc 2e c4 00 3b
       0.00063345296 -0.011696901 -0.009764565 0.0019648182
000380 77 af 35 bb 83 ab 8e bc 70 9a 17 3a 61 76 18 bc
       -0.0027722993 -0.017415768 0.0005783206 -0.0093055675
000390 57 e4 cf b9 ae 57 a8 ba 9e d1 ea bb 5e 77 ea bb
       -0.00039652243 -0.0012843513 -0.0071661016 -0.007155343
0003a0 ff 94 39 3a ef 51 9c bb c0 f2 81 bb 85 1c a0 bc
       0.0007079392 -0.0047705094 -0.0039657056 -0.01954485
0003b0 ad e3 83 b9 fb 4f df bc 33 b5 d8 b9 de 40 1c bd
       -0.000251559 -0.027259817 -0.00041333734 -0.0381478
0003c0 ce f6 2b 3d d4 0c 2c 3a 22 54 18 bc c5 66 43 bc
       0.04198342 0.0006563191 -0.009297403 -0.011926358
0003d0 a4 ee cb bb b5 62 bf 3a 47 41 93 bc 9f a7 9b 3b
       -0.0062235165 0.001460156 -0.017975463 0.0047502066
0003e0 27 d5 4b bc 62 92 5f 3b ac 96 81 bc 20 d0 44 3b
       -0.012440956 0.003411435 -0.015818916 0.0030031279
0003f0 66 d4 96 bc 9b f9 9b 3b 40 04 56 bc 1e c2 73 3a
       -0.018411826 0.00475998 -0.013062537 0.000929864

Linear_Seasonal.bias f4 [96]
000000 05 b1 21 bd dc e1 a7 3c 54 9e b6 3a 45 11 19 3b
       -0.03947546 0.02049344 0.0013932684 0.002335624
000010 c5 a3 79 3c 00 a1 f4 bc 2b b3 0d bd 77 05 81 3c
       0.0152368 -0.029861927 -0.034594696 0.015749676
000020 e9 3b 8a bc f6 fc 97 3c c6 ab b8 3c 6c 9a ef 3c
       -0.01687427 0.018553238 0.022542845 0.029248439
000030 91 32 21 bd 5d 4f 03 3b 84 1a 26 3b f5 50 34 3a
       -0.039354865 0.0020036318 0.0025345394 0.00068785186
000040 f4 15 82 bb 00 03 05 3d b9 c7 47 3d bf 2e 18 bd
       -0.003969902 0.032473564 0.048774455 -0.037153956
000050 8a 92 6c bc 74 44 eb bc 7a ee 99 bb 8a d1 a8 3c
       -0.0144392345 -0.028719164 -0.004697618 0.020607729
000060 1d 05 1c 3d 17 8c d2 3b 64 07 09 bc eb ac a6 3a
       0.038090814 0.0064253914 -0.0083635785 0.0012716328
000070 bf 11 84 3a 8b 27 2c 3d 2b 1c 9a 3a b9 eb b9 3c
       0.001007609 0.0420299 0.0011757662 0.02269541
000080 0e ff 50 3c ec 27 3e 3c d6 2f 1f 3b 38 de a6 ba
       0.012756122 0.011606198 0.0024289987 -0.0012731021
000090 30 62 68 3c c5 69 29 bc 83 0a 93 bc bd 9d 95 3b
       0.014183566 -0.010340159 -0.017949348 0.004565923
0000a0 89 fb eb 3c c6 89 88 3a 99 32 2f 3d ba 69 66 3b
       0.028806465 0.0010417036 0.042772863 0.0035158233
0000b0 2a c0 83 bc 78 c5 8e bc 28 e1 1e 3d 2f 80 17 3d
       -0.016082842 -0.017428145 0.038788944 0.03698748
0000c0 48 0b b4 bc da 87 2e 3d 81 c7 22 bb 67 bf e5 bc
       -0.021978036 0.042610027 -0.0024838152 -0.02804537
0000d0 7e 9c 21 3a fb d8 9a b9 ed 93 00 3d 17 68 23 bc
       0.0006164982 -0.00029534832 0.031391073 -0.009973547
0000e0 49 93 11 bb c7 88 17 bb ae 0b 8f 3c a5 9b 75 bb
       -0.0022213033 -0.0023122297 0.017461624 -0.0037476805
0000f0 14 07 bd 3c a3 52 a7 3c 30 af 97 b8 01 82 a4 3c
       0.023074664 0.020425146 -7.232872e-05 0.020081522
000100 a3 12 a4 3c 4c 46 0e bd 61 6c 85 bb 38 84 d5 3c
       0.020028418 -0.03473501 -0.0040717577 0.026064023
000110 c3 c7 ce 3c 65 be fd bc 4e 75 f7 bb ea 29 4e bc
       0.025241738 -0.030974576 -0.0075518256 -0.012583235
000120 66 81 9b ba 62 14 83 bb 99 b7 a3 bc 4b fb 43 bc
       -0.0011864125 -0.0040002326 -0.019985007 -0.011961768
000130 2c b3 07 b9 b5 59 60 3b a8 83 bc bb b1 7d b8 bb
       -0.0001294135 0.0034233157 -0.0057529993 -0.005630218
000140 ab 69 7d 3c 8e 89 5f bb a0 b0 28 3c b7 61 00 bd
       0.015467088 -0.0034109089 0.010296017 -0.031343188
000150 97 44 68 3b 5a 43 9f 3a 35 e7 b3 3c f9 2f 9f bc
       0.0035441273 0.001215081 0.021960834 -0.019432055
000160 f0 6f e0 3b 10 65 d2 3b 1e a1 35 bc 44 30 66 3c
       0.0068492815 0.006420739 -0.011085777 0.014049593
000170 c1 39 23 3d b6 26 94 bc b4 38 f1 3b c7 d2 e0 3c
       0.03985 -0.018084865 0.007361496 0.027444256

Linear_Trend.weight f4 [96, 336]
000000 22 60 a0 bc 9d 67 1c bc 7a 4e 83 3c fe 6d 61 3d
       -0.01957709 -0.009546188 0.016028631 0.055036537
000010 2a 11 41 3b 1b 4e 36 3c 15 a8 ff bc 80 4c 20 bd
       0.0029459693 0.01112702 -0.031208077 -0.039135456
000020 3b cb 4f bb 9c 2c a1 bc b1 6b 9d 3b 7b 15 b1 bb
       -0.0031706828 -0.019674592 0.0048040976 -0.005404172
000030 bb 29 40 bd f5 66 4b 3d 65 db e5 3c 65 ba 63 3c
       -0.046914797 0.049658734 0.028058717 0.01389942
000040 3c 06 1c 3c a2 e8 33 3d 21 4a ef bc 94 b1 ab 3c
       0.009522971 0.043923028 -0.029210152 0.0209587
000050 94 a9 cc 3b c0 93 3e bc ea 35 00 bd 12 d9 3b bc
       0.006245801 -0.011631906 -0.031301416 -0.011465328
000060 43 59 cf 3b 20 80 a8 bb 49 ee 40 3c ad f0 44 bd
       0.0063277795 -0.005142227 0.011775562 -0.04808109
000070 55 88 8b bc 56 6a 08 3b b0 62 30 bc 5d 26 0b 3d
       -0.017032782 0.0020815334 -0.010765716 0.033972133
000080 d0 f4 bd 3b 21 0b 8d 3c 71 d1 21 3d 19 fd 93 bc
       0.005797006 0.01721722 0.03950638 -0.018065022
000090 c1 71 e7 bc ec e1 b3 3c fe d9 b5 3c 8f 07 85 bc
       -0.028252484 0.021958314 0.022198673 -0.016238956
0000a0 e2 02 c1 3c 6e 01 bc bc 85 44 0d 3d 91 b8 85 3c
       0.023560945 -0.0229499 0.034489173 0.01632336
0000b0 f3 56 c5 bb af 51 26 bd 6b c8 53 bd 1c 2f a3 3c
       -0.006022328 -0.040605243 -0.051704805 0.019919924
0000c0 58 fa d7 bb 4b 56 15 3c 48 e6 30 bd 32 c6 07 3c
       -0.0065911226 0.009114812 -0.043188363 0.008287
0000d0 b8 4b 25 bd b7 07 25 3d 8e 65 10 3d 2a 44 03 ba
       -0.040355414 0.04029056 0.0352531 -0.00050074107
0000e0 0a 6a 20 bd 28 2b 39 3d 9a 4c 13 bd 6a 61 7b 3c
       -0.039163627 0.045207173 -0.035961725 0.01534305
0000f0 76 20 17 3c cf 70 e9 3b 76 e8 2c 3c 6c b6 ba 3c
       0.009224048 0.0071240435 0.01055347 0.022792064
000100 91 56 f1 3a f7 4b c7 bc 91 32 08 3d bb 00 19 bc
       0.001841264 -0.024328215 0.03325135 -0.009338553
000110 d3 c2 28 3c e9 f5 b2 3c d0 3d f0 3b 89 81 9c bc
       0.010300356 0.021845775 0.0073315874 -0.019104736
000120 aa 60 c9 bb 32 fc db bc 0d 71 2f bd 6f 4e 24 bd
       -0.0061455565 -0.026853655 -0.042832423 -0.040113863
000130 c1 20 37 bd 13 a1 3f 3d da f0 4d 3d d8 c6 1c bb
       -0.04470897 0.04678447 0.050278522 -0.002392223
000140 2b 09 0e 3c 43 36 04 bd 4d 53 0b bd 22 d7 38 3d
       0.008669178 -0.03227831 -0.03401499 0.04512704
000150 68 79 3e bd 18 09 8a bc 9c 7a 07 3d c2 7b 98 3c
       -0.0465025 -0.01685004 0.033075914 0.0186137
000160 c5 72 f3 bc 72 56 2f 3d 1c da 75 3c 44 2c c9 bc
       -0.029717812 0.04280705 0.015005615 -0.02455724
000170 01 a4 a6 bc e0 68 62 3c c2 ce be 3c 0d af ea 3c
       -0.020341875 0.013818949 0.02329195 0.028647924
000180 3e 63 26 3c 60 0c b9 bc e1 5c fa 3c 75 65 d7 bc
       0.010155497 -0.022588909 0.030561866 -0.026293496
000190 a0 23 1a 3d 4a 5a 1c 3d a1 83 74 3c c6 bf 3c 3c
       0.03763163 0.038172044 0.014923961 0.011520332
0001a0 a2 16 c5 bc 14 d1 54 3c 60 8e 80 bb 06 7f 09 bd
       -0.024058644 0.012989301 -0.0039232224 -0.033568405
0001b0 b3 10 4b bd 53 c5 48 bd 41 c9 3d bd 11 20 04 3d
       -0.049576472 -0.049016308 -0.04633451 0.032257143
0001c0 0e 41 aa 3c ce 04 1b 3d 03 b2 14 3d e9 e3 f7 bb
       0.020782974 0.03784638 0.036302578 -0.007565011
0001d0 a4 8e f6 3b 4e 5a 09 bd 18 d3 92 3b 21 d4 10 3d
       0.0075243283 -0.033533387 0.0044807307 0.035358552
0001e0 89 da a5 bc 63 a9 00 3c 08 72 13 bd df 34 19 3b
       -0.020245807 0.007852885 -0.03599742 0.002337746
0001f0 84 e1 61 bd bb 54 de bc e9 3d 0b 3c 1d f0 b6 3c
       -0.05514671 -0.027140012 0.008498647 0.022331292
000200 3f 26 1a 3d e0 3e f7 3c a7 8a 19 bd 04 69 82 3c
       0.03763413 0.030181348 -0.037485745 0.015919216
000210 a9 f7 ea bb 17 04 3a bc 7b 39 f1 b8 23 f8 15 3c
       -0.0071706367 -0.011353514 -0.00011502482 0.009153399
000220 d1 8c d6 3c 06 8e 0f 3d 1e 67 15 3c 90 d7 ed 3b
       0.026190193 0.035047553 0.009118823 0.007258363
000230 db 2c df bc 11 f0 b4 3c 83 61 4b bd ba 85 00 bd
       -0.027243068 0.022087129 -0.04965354 -0.03137753
000240 ba c2 23 3d 27 c1 28 bd ee 5e 6c 3c 41 cc 0a 3d
       0.039980628 -0.04119983 0.01442693 0.033886198
000250 97 56 b0 bc 60 92 13 3d 9e dd 02 3b 6f a6 a6 3c
       -0.021525664 0.036028266 0.001996852 0.020343034
000260 5b 1f 9c bc 3f f2 21 3d 14 bd 3f bd 8b 05 b0 3c
       -0.01905792 0.039537665 -0.04681118 0.021487018
000270 e3 31 f9 bc 5d a0 10 bc 8f e0 98 3c cd 68 ea bb
       -0.030419296 -0.008827296 0.018661765 -0.0071536065
000280 ac 4f 2a bb 8d 5b 85 bc f8 e5 ad 3b c8 d3 18 bb
       -0.002598743 -0.016279006 0.0053069554 -0.002331959
000290 aa d9 bb bc b1 a1 97 bc 37 f0 0b 3d 7c ef 86 bc
       -0.022930939 -0.018509718 0.034164634 -0.016471617
0002a0 31 71 13 bd 10 9a 94 bc 7a eb 52 bb 6d 92 e9 3c
       -0.03599662 -0.018139869 -0.0032183812 0.028512204
0002b0 85 b9 c3 3b ed ec 1f bd c6 71 d7 3c 5c 71 dc bb
       0.0059730434 -0.03904431 0.026299369 -0.0067273807
0002c0 31 32 9e 3c ff 1a d8 bc 3f e7 3f 3d ed 33 3d 3d
       0.019311043 -0.02638006 0.046851393 0.0461921
0002d0 38 e3 11 bd e6 9f 04 bd 90 00 ee 3c 40 9b 3f bc
       -0.035617083 -0.032379054 0.029053003 -0.011694729
0002e0 84 eb 4c 3d 68 7c 3f bd bd 32 b6 3a bd 46 cd 3b
       0.050029293 -0.046749502 0.0013900619 0.006264536
0002f0 cf 56 3a bb 5b 77 3b 3d 61 7e 5c bc 19 dc 16 bc
       -0.002843309 0.045768123 -0.013457865 -0.009207749
000300 3e bb 0f 3d c6 fc 21 3d b8 f5 82 bc 4e 80 31 bc
       0.035090677 0.039547704 -0.015986308 -0.010833813
000310 c3 10 3d bc ca f4 b2 bc 9b a4 a8 bc 57 c9 c8 3c
       -0.011539641 -0.02184524 -0.020586303 0.024510069
000320 c2 0c 14 bd bd 0a 08 3c a1 07 aa 3c 24 1f 31 bd
       -0.03614498 0.008303341 0.02075559 -0.04324259
000330 41 a4 ad bb 9c 67 f0 3c d8 14 ee bc a9 14 9e bc
       -0.0052991216 0.02934628 -0.029062673 -0.01929696
000340 30 53 02 3d 0f a8 a5 bc b0 7c a1 bc 8b 66 62 3d
       0.031817615 -0.020221738 -0.019712776 0.055273574
000350 33 5f 4a bc 07 65 dc bc a7 e2 3a 3c 0c 18 66 3d
       -0.012351799 -0.026903642 0.011406577 0.056175277
000360 fa 3c 14 bc 71 5e 33 3c c5 e2 11 bd 96 b1 6b bc
       -0.009047741 0.01094781 -0.035616655 -0.0143856015
000370 b3 e6 2e bd de 54 50 3d e5 69 3a bc 9c d6 4d 3b
       -0.04270048 0.050862186 -0.011377786 0.0031408435
000380 7f 73 f4 bc c1 3c 51 3d 87 2a 81 3c a9 c5 c7 bc
       -0.02984023 0.05108333 0.015767349 -0.024386244
000390 eb a5 da 3c b3 e3 2e 3d 11 63 99 bc 0c 43 35 bd
       0.026690444 0.04269762 -0.018723996 -0.044253394
0003a0 89 2d 42 3d 2e 26 a5 bc 26 d0 14 bc a8 3e 04 bc
       0.047406707 -0.020159807 -0.00908283 -0.008071579
0003b0 15 7b 57 bc 78 49 3b bb 3a 44 85 bb 2e d8 4f bc
       -0.013151904 -0.0028577726 -0.004066971 -0.012685819
0003c0 8d 56 bd bb fe bc ed bb 60 64 a3 3c 94 6b 1a bd
       -0.00577814 -0.0072551956 0.019945323 -0.03770025
0003d0 fd b6 ed bc 16 d9 12 3d a5 1c e9 3a 38 81 49 3d
       -0.02901792 0.03585156 0.0017785026 0.0491955
0003e0 f6 23 d7 bc f3 46 cd 3c e5 ac 26 3d 3d 7f ab bc
       -0.026262265 0.025058245 0.04069223 -0.020934695
0003f0 99 34 ac bc 65 83 f1 3c 94 e7 d3 bc 9e fa 4f 3d
       -0.021021174 0.0294816 -0.025867261 0.050776117

Linear_Trend.bias f4 [96]
000000 4d a8 25 3d 2d 65 a0 bc f2 8b 3b 3a 2e d4 18 3a
       0.040443707 -0.019579494 0.00071543374 0.0005829957
000010 84 79 3a bc 13 0c 0b 3d 18 46 20 3d 69 6d 29 bc
       -0.011381511 0.03394706 0.039129347 -0.010341027
000020 1c ed b1 3c 74 c3 5f bc 4d 40 8a bc 32 04 bf bc
       0.021719508 -0.0136574395 -0.016876364 -0.02331743
000030 2f 5b 3b 3d 3f b2 a8 3b ea 4b a2 3b 61 7f d8 3b
       0.045741256 0.0051482017 0.0049528973 0.0066069816
000040 f6 29 3f 3c 8b 52 cb bc 09 65 2a bd 95 ff 36 3d
       0.011667719 -0.024819633 -0.04160026 0.044677336
000050 cf fb b3 3c 90 5f 17 3d 18 d3 42 3c 53 e2 61 bc
       0.021970658 0.03695637 0.011891149 -0.01378687
000060 a6 0c ff bc fe 2d f9 3a 83 de 8d 3c 1d fa 07 3c
       -0.031133961 0.0019010899 0.017318016 0.008299378
000070 61 27 09 3c c2 99 00 bd 71 16 1b 3c 44 f6 3e bc
       0.008371205 -0.031396635 0.0094658 -0.011655394
000080 52 0f 06 bb c4 f5 38 ba 96 52 05 3c 8c f9 51 3c
       -0.002045591 -0.0007055665 0.008137366 0.012815844
000090 94 5e 16 bb ba a5 b1 3c 02 dd ec 3c 3f 91 d1 3b
       -0.0022944557 0.02168547 0.028913978 0.0063954885
0000a0 64 1f 8f bc a7 96 1b 3c 51 d2 04 bd 6c 72 db 3b
       -0.017471023 0.009496368 -0.032427136 0.0066969898
0000b0 59 9a d9 3c f1 b3 eb 3c df a6 e7 bc c5 80 d3 bc
       0.026562857 0.028772326 -0.028277813 -0.025818238
0000c0 7b 84 0c 3d 86 65 fb bc a9 66 6c 3c 43 e0 22 3d
       0.03430603 -0.030688059 0.014428773 0.039764654
0000d0 4e f8 3d 3c d9 bd 53 3c ca 95 99 bc bf 33 b8 3c
       0.011594845 0.012923681 -0.018748183 0.022485612
0000e0 65 1b 6d 3c d9 0e 6a 3c 6d 4c a4 bb 12 35 80 3c
       0.014471863 0.0142857665 -0.0050139935 0.015650306
0000f0 3a c3 2a bc c6 1c 04 bc 9b cb 47 3c dd c0 03 bc
       -0.010422522 -0.008063501 0.012194539 -0.008041588
000100 6f b2 fc bb 2d 00 41 3d 79 45 85 3c a7 b0 53 bc
       -0.0077117006 0.04711931 0.016268479 -0.012920535
000110 e9 a4 48 bc 97 89 36 3d eb 26 a8 3c 34 10 d2 3c
       -0.012246349 0.04456481 0.02052637 0.025642492
000120 97 13 6c 3c b9 d1 96 3c 38 cf 0c 3d 49 48 d5 3c
       0.014408967 0.01841055 0.034377307 0.026035445
000130 04 1a 73 3c ce b9 39 3c cb f9 a9 3c d3 6e a8 3c
       0.014837746 0.011335803 0.020748993 0.020560658
000140 04 1f 95 ba 82 2e 94 3c 73 90 79 3b 32 4b 3d 3d
       -0.0011377041 0.018088583 0.0038080483 0.04621429
000150 11 1c 3d 3c 39 3e 5e 3c ee a3 e5 bb 14 63 0c 3d
       0.011542336 0.01356464 -0.0070080673 0.034274176
000160 27 a4 01 3c c3 86 0d 3c 1f c8 d6 3c b7 7a 37 3a
       0.007912672 0.008638087 0.026218472 0.0006999182
000170 ba 30 cc bc 61 da 07 3d 6a 29 f8 3b 9f 0f 53 bc
       -0.024925578 0.033167247 0.0075732963 -0.012882142

exp_avg f4 [96, 336]
000000 3b 26 80 38 00 e0 06 38 4e ad d9 b7 26 9b cd b7
       6.1106366e-05 3.2156706e-05 -2.5949117e-05 -2.4510151e-05
000010 3c e8 a9 b7 26 62 56 36 ea 08 93 b7 69 ab a7 37
       -2.0254512e-05 3.1945615e-06 -1.7527916e-05 1.998777e-05
000020 ab 7c 46 b8 38 18 39 b8 74 21 0b b8 10 86 0b b9
       -4.7322985e-05 -4.4129993e-05 -3.3171338e-05 -0.00013306015
000030 d9 02 05 b9 67 ae dd b8 43 ba 19 b9 08 47 56 b8
       -0.00012684929 -0.00010570586 -0.00014660605 -5.108773e-05
000040 de d9 7f b8 91 e5 32 b8 c4 86 c2 b4 44 46 e4 38
       -6.0999642e-05 -4.2652307e-05 -3.623337e-07 0.00010884975
000050 ad 21 45 38 be 8c b0 38 fc e3 5d 38 1f c7 1a 39
       4.6999823e-05 8.418549e-05 5.2902833e-05 0.00014760763
000060 65 92 a9 38 1f 4a 08 39 02 c7 c5 38 60 0d d5 38
       8.085816e-05 0.00012997583 9.43076e-05 0.00010159123
000070 b1 5d 65 38 b2 b3 0b 38 cf 89 21 38 de 64 b2 b8
       5.468511e-05 3.3307537e-05 3.8513735e-05 -8.5064894e-05
000080 3d 7d f1 b8 65 61 88 b8 03 58 3f b8 ef 32 d5 b8
       -0.00011515103 -6.5031265e-05 -4.5619916e-05 -0.000101661186
000090 00 dd d8 b8 06 9d b6 b8 d6 52 e7 b8 4a 8d f2 b8
       -0.00010340847 -8.707684e-05 -0.00011030368 -0.000115657764
0000a0 ee 63 a3 b8 65 89 d5 b7 4d 1c ff 37 70 c3 2d b8
       -7.791059e-05 -2.5455558e-05 3.0411547e-05 -4.142843e-05
0000b0 4d aa ec 38 42 c4 57 38 2a 67 07 39 e8 57 1f 39
       0.00011285078 5.1442774e-05 0.00012913035 0.00015196169
0000c0 d7 88 37 39 aa d3 1e 39 b9 32 93 38 85 4d 0c 39
       0.00017503217 0.00015146905 7.018954e-05 0.00013380319
0000d0 aa b5 87 b7 0a c4 b6 b5 52 21 8d b5 ff 18 79 b8
       -1.6177848e-05 -1.3617112e-06 -1.0515016e-06 -5.9389506e-05
0000e0 2b bf b2 b8 a1 74 cd b8 ab 88 ec b7 5a 74 90 b8
       -8.523309e-05 -9.7968856e-05 -2.8197033e-05 -6.888127e-05
0000f0 27 6e 9c b7 71 f2 94 b8 78 dc 93 b7 ce a2 49 38
       -1.8647943e-05 -7.102348e-05 -1.762643e-05 4.8073758e-05
000100 e7 75 33 b7 26 4c f6 35 a3 ce ff 37 ac 2c 09 b8
       -1.0696683e-05 1.835059e-06 3.0494592e-05 -3.270495e-05
000110 78 81 c5 38 11 63 ea b7 ab 24 47 37 63 c1 b9 38
       9.4178075e-05 -2.7941105e-05 1.1869862e-05 8.8575085e-05
000120 f4 37 a4 38 54 0b ad 38 1f 35 bb 38 1d b0 27 38
       7.8305515e-05 8.251393e-05 8.9267494e-05 3.997992e-05
000130 34 c5 81 b7 e9 2e 50 b8 fa 47 a8 b7 74 78 a8 b8
       -1.5469828e-05 -4.9634753e-05 -2.0060677e-05 -8.0333004e-05
000140 ea db 8a b8 e0 22 bd b8 95 98 f4 b8 8c 27 51 b8
       -6.621315e-05 -9.018718e-05 -0.00011663247 -4.9866314e-05
000150 98 08 fe b8 9e 9f b8 b8 e4 81 85 b8 d4 c3 1e b8
       -0.000121132645 -8.803535e-05 -6.366128e-05 -3.7852515e-05
000160 fa b6 82 b5 50 7f 8b b8 03 08 96 37 f8 18 72 b7
       -9.739008e-07 -6.65175e-05 1.7885124e-05 -1.44301375e-05
000170 6d 81 d8 38 2b 4a c4 35 61 a0 33 37 a7 32 09 39
       0.0001032379 1.4624724e-06 1.07065725e-05 0.00013084208
000180 6a bf 7e 38 5d 84 f9 38 72 fe 94 37 ac b8 c2 38
       6.0736587e-05 0.000118979 1.776146e-05 9.285039e-05
000190 10 cd 3b 36 fb 0a 23 38 61 15 2b b8 cf d7 e4 b8
       2.7984534e-06 3.8872455e-05 -4.0789488e-05 -0.00010912085
0001a0 fd ba 1c b9 09 9b 11 b9 c4 cf a9 b7 e3 58 05 b8
       -0.00014946978 -0.00013886033 -2.0243118e-05 -3.1792453e-05
0001b0 5a 49 73 b8 a1 7f de b8 26 4f 8b b8 7d 88 b8 36
       -5.800403e-05 -0.00010609558 -6.642779e-05 5.4995166e-06
0001c0 89 c6 d4 37 b7 20 4c 38 15 fd 47 38 eb 40 f2 38
       2.536482e-05 4.866786e-05 4.7681e-05 0.00011551551
0001d0 ad 76 97 37 a7 57 36 b5 a9 5e 8e 38 ee e3 cb 38
       1.8055865e-05 -6.7927834e-07 6.7887195e-05 9.7222495e-05
0001e0 c9 d0 61 38 4d 51 e5 b7 e1 bc b0 b8 bc 26 a4 37
       5.3838627e-05 -2.7336786e-05 -8.4275154e-05 1.956836e-05
0001f0 4b 4c a4 b7 22 ac 0a 37 a1 06 b9 38 e5 a3 02 38
       -1.958585e-05 8.265519e-06 8.822722e-05 3.1147054e-05
000200 63 4d f8 36 94 c9 8f b8 52 08 2f b8 42 55 72 b6
       7.399985e-06 -6.856318e-05 -4.1731e-05 -3.6110437e-06
000210 cf 17 38 b5 fd 4f d3 b7 6f f7 8e b8 60 60 d5 37
       -6.857999e-07 -2.5190408e-05 -6.817176e-05 2.5436457e-05
000220 bf ce df b4 e5 47 81 b8 b1 60 0b b7 2d eb 51 b8
       -4.1687414e-07 -6.164591e-05 -8.307558e-06 -5.0048508e-05
000230 77 a9 d0 b7 cf cd 4c 38 5d 81 4f 38 ed c0 1d 39
       -2.4874445e-05 4.8829064e-05 4.9473125e-05 0.00015044557
000240 e1 e3 bd 38 99 10 70 37 f9 1b ae 37 a4 a4 97 38
       9.054668e-05 1.4308979e-05 2.0755442e-05 7.230908e-05
000250 85 c8 19 37 94 1b 2d 38 d2 ee 52 38 0f 1e 1d b7
       9.166198e-06 4.12721e-05 5.029032e-05 -9.364928e-06
000260 be a0 85 b8 bd 03 25 b9 7d 4a f0 b8 bb 3f 08 b9
       -6.371875e-05 -0.00015737019 -0.00011457966 -0.00012993712
000270 44 b5 3d b8 da fd 1a b8 91 bc 9f b8 a8 f5 91 38
       -4.522993e-05 -3.695288e-05 -7.616834e-05 6.959896e-05
000280 91 bd 8e 37 7e 8c 54 38 b8 1b dd 38 98 a8 bc 38
       1.7015993e-05 5.0675582e-05 0.00010543264 8.9959416e-05
000290 a9 cd a9 38 f8 99 93 38 61 9e f5 37 a8 4e 53 39
       8.096855e-05 7.038185e-05 2.9280027e-05 0.0002015183
0002a0 0b 7e 26 39 9a b4 10 b7 63 1c 49 38 68 b5 95 38
       0.00015877948 -8.625118e-06 4.794857e-05 7.138663e-05
0002b0 15 fd 9e b6 60 e2 9c b8 0e 8d 1b b8 eb a2 8d b8
       -4.7382296e-06 -7.480825e-05 -3.7086247e-05 -6.75375e-05
0002c0 b8 f0 73 b8 82 07 e2 b8 c4 e6 f3 b8 2c 38 1d b9
       -5.81599e-05 -0.00010777918 -0.000116301264 -0.00014993612
0002d0 d1 54 c6 b8 10 50 b5 b8 d9 a2 83 b8 4c 31 67 b8
       -9.457174e-05 -8.6456654e-05 -6.2768995e-05 -5.5120603e-05
0002e0 64 50 83 37 da 41 8e b7 a4 e6 2c b8 4c 4b 52 38
       1.5653852e-05 -1.6958384e-05 -4.1222796e-05 5.0138027e-05
0002f0 0a d9 d2 38 a7 ce f2 38 e8 a9 b6 38 e3 f2 63 39
       0.00010054007 0.00011577951 8.710084e-05 0.0002173889
000300 42 97 aa 38 87 d1 b3 38 8d c4 56 38 09 ab ad 38
       8.134406e-05 8.574413e-05 5.1204628e-05 8.2811406e-05
000310 4d 14 0b 38 8a 20 04 b8 fd b2 75 b8 a8 37 d1 b8
       3.315909e-05 -3.1501557e-05 -5.8579248e-05 -9.9762634e-05
000320 18 34 ea b8 6e f2 35 b9 dc 21 0b b9 39 d4 31 b9
       -0.00011167693 -0.00017351817 -0.00013268687 -0.00016959095
000330 6c 35 23 b9 bf 28 fb b8 f0 18 bc b8 9a f6 19 b8
       -0.00015564793 -0.00011976202 -8.9691835e-05 -3.670771e-05
000340 ab 1d ac b8 c8 d9 05 b8 41 f8 7d 38 14 f5 ce 38
       -8.207125e-05 -3.1912496e-05 6.0551105e-05 9.868495e-05
000350 f5 2d c5 38 3b dc 3a 39 b3 fe 04 39 30 82 80 39
       9.402252e-05 0.00017820385 0.00012683384 0.0002451106
000360 d8 c1 26 39 01 cf 3c 39 2a 38 bb 38 ee b5 c9 38
       0.00015903206 0.00018006192 8.927316e-05 9.618314e-05
000370 df 4e c8 b8 69 1c e9 b8 84 0c ce b8 f7 16 0e b9
       -9.551434e-05 -0.000111155976 -9.825177e-05 -0.0001355073
000380 4b 03 28 b9 ad 6c 01 b9 4b e3 87 b8 ae e0 20 b8
       -0.00016022955 -0.00012342884 -6.479638e-05 -3.8356222e-05
000390 33 4b 11 b7 0b ea 80 b7 a3 76 ff b6 fd f3 96 38
       -8.660182e-06 -1.5367774e-05 -7.6134033e-06 7.198004e-05
0003a0 16 51 32 38 a7 5a d7 38 45 cb f6 36 e4 47 6a b8
       4.2514024e-05 0.00010268884 7.355035e-06 -5.58569e-05
0003b0 a6 4c 2a 37 2f fa 64 38 ec f2 d3 38 50 f1 fc 38
       1.0150636e-05 5.4592438e-05 0.00010106512 0.00012061244
0003c0 2a d7 15 39 7c 07 be 38 32 5f f5 38 84 33 cd 38
       0.00014289902 9.0613e-05 0.00011700242 9.784757e-05
0003d0 ab 20 8a b8 a3 63 e4 b7 b1 a2 b6 b7 0e d7 1e b9
       -6.586438e-05 -2.7226115e-05 -2.177185e-05 -0.00015148168
0003e0 a1 63 9c b8 48 cc 09 b9 6a e7 db b8 fb 5e 2a b9
       -7.457217e-05 -0.00013141439 -0.00010485838 -0.00016247846
0003f0 ca b7 0c b9 ed d0 d3 b8 05 7d 5c b8 45 3c be b7
       -0.00013419907 -0.000101001795 -5.256852e-05 -2.267783e-05

exp_avg_sq f4 [96, 336]
000000 d0 be a9 32 22 52 28 33 4c 2d 42 33 eb c0 3f 33
       1.976096e-08 3.9190247e-08 4.5210342e-08 4.464611e-08
000010 77 66 47 33 e4 5d 51 33 a9 49 50 33 2c 01 5d 33
       4.642649e-08 4.8746998e-08 4.8495767e-08 5.1456638e-08
000020 0b 9f 70 33 7e 6a 74 33 3d c8 7d 33 7e 88 76 33
       5.6024003e-08 5.690753e-08 5.908827e-08 5.7400477e-08
000030 31 49 6a 33 14 47 6c 33 6a e8 76 33 3a a1 76 33
       5.4548938e-08 5.5012677e-08 5.7487718e-08 5.7422973e-08
000040 ba 12 6f 33 d4 2d 6e 33 fc 55 65 33 6c 57 63 33
       5.5663556e-08 5.5455374e-08 5.339642e-08 5.2932066e-08
000050 c7 d9 6a 33 0a ff 6d 33 dc f7 73 33 76 1f 77 33
       5.4680438e-08 5.541282e-08 5.6803273e-08 5.7537783e-08
000060 77 89 6b 33 d7 51 7e 33 37 d8 77 33 d3 25 79 33
       5.4840225e-08 5.9213416e-08 5.7705815e-08 5.800923e-08
000070 25 24 72 33 cb 0f 74 33 91 31 73 33 dc a2 6f 33
       5.637789e-08 5.682504e-08 5.6622927e-08 5.5794644e-08
000080 ee 01 73 33 93 39 71 33 3f 25 7b 33 3e 45 7c 33
       5.65796e-08 5.616455e-08 5.8474367e-08 5.8736298e-08
000090 07 ea 7f 33 0f 45 78 33 2a 22 7c 33 be 50 71 33
       5.958466e-08 5.7804808e-08 5.8704394e-08 5.618562e-08
0000a0 00 f9 7f 33 04 ac 72 33 a9 43 69 33 82 e8 70 33
       5.959828e-08 5.6501463e-08 5.4311077e-08 5.609082e-08
0000b0 a5 5c 71 33 27 44 73 33 d5 e2 7b 33 2c f5 85 33
       5.6196445e-08 5.663983e-08 5.8646794e-08 6.2378916e-08
0000c0 a6 b5 81 33 11 d8 7d 33 f8 7b 82 33 3b 65 80 33
       6.040072e-08 5.9102664e-08 6.0761465e-08 5.978878e-08
0000d0 9d 3f 78 33 f6 c8 7f 33 95 f1 7a 33 63 e7 7c 33
       5.7799856e-08 5.9554587e-08 5.842738e-08 5.8883767e-08
0000e0 31 cb 76 33 91 dd 82 33 81 07 82 33 d4 82 7d 33
       5.746114e-08 6.0938994e-08 6.054962e-08 5.902514e-08
0000f0 b9 28 7f 33 aa c0 7b 33 89 20 81 33 6e 12 7c 33
       5.940885e-08 5.861572e-08 6.012949e-08 5.8690084e-08
000100 51 4e 79 33 d7 a7 7e 33 ce a0 80 33 ee ba 74 33
       5.804606e-08 5.9291633e-08 5.989715e-08 5.698069e-08
000110 3f 64 72 33 ae ab 70 33 a6 f8 6b 33 b1 fc 73 33
       5.643619e-08 5.6035496e-08 5.4941346e-08 5.6807668e-08
000120 30 e2 75 33 2a bb 79 33 15 74 80 33 04 6c 84 33
       5.7249224e-08 5.8145055e-08 5.98158e-08 6.166377e-08
000130 19 a2 76 33 20 7c 7e 33 9d fb 73 33 f7 bf 69 33
       5.7423765e-08 5.9251875e-08 5.6806687e-08 5.442413e-08
000140 0e 6d 69 33 cf b0 75 33 c7 51 79 33 09 2b 7a 33
       5.4348725e-08 5.7204314e-08 5.8049206e-08 5.82468e-08
000150 49 fd 75 33 dc 33 73 33 55 b7 7c 33 a0 8e 7c 33
       5.727387e-08 5.6625012e-08 5.884006e-08 5.880304e-08
000160 b2 2c 81 33 75 b2 7c 33 ef cc 75 33 b4 27 69 33
       6.0151606e-08 5.8835628e-08 5.7229894e-08 5.428565e-08
000170 18 38 71 33 8a 39 6c 33 db 02 75 33 8b 35 70 33
       5.6163202e-08 5.5000363e-08 5.7046105e-08 5.592805e-08
000180 df 39 7e 33 e8 ee 83 33 97 dc 72 33 37 54 76 33
       5.9191617e-08 6.14362e-08 5.654564e-08 5.735293e-08
000190 b9 30 73 33 5b df 66 33 74 1e 6e 33 28 87 68 33
       5.662216e-08 5.375419e-08 5.544139e-08 5.4139633e-08
0001a0 6b db 73 33 6d 59 7a 33 21 99 73 33 d1 55 77 33
       5.6777406e-08 5.8288993e-08 5.6717116e-08 5.758722e-08
0001b0 42 75 6f 33 0d 59 6c 33 3f 09 75 33 6b a1 69 33
       5.575317e-08 5.5029023e-08 5.7051917e-08 5.439635e-08
0001c0 9e f8 6b 33 cd 1b 6c 33 30 14 60 33 f9 1f 7a 33
       5.4941317e-08 5.4973317e-08 5.2172425e-08 5.823674e-08
0001d0 bf ea 75 33 cd 70 7c 33 a7 de 7b 33 fa c4 78 33
       5.7257008e-08 5.8775914e-08 5.8642993e-08 5.792115e-08
0001e0 31 f6 7a 33 b1 0f 6f 33 0f b2 68 33 fd 09 6e 33
       5.843157e-08 5.5660795e-08 5.4178653e-08 5.5422777e-08
0001f0 91 29 76 33 0b c4 70 33 be 1b 69 33 0e 22 72 33
       5.7314143e-08 5.6057655e-08 5.427477e-08 5.637599e-08
000200 8a 44 79 33 fe 42 7e 33 c5 b4 72 33 91 a1 7a 33
       5.8037166e-08 5.9199913e-08 5.6509425e-08 5.8354605e-08
000210 9e e8 77 33 63 ee 70 33 64 dc 71 33 6f 67 71 33
       5.7720733e-08 5.6096166e-08 5.631263e-08 5.6206257e-08
000220 9c 90 73 33 08 f4 77 33 7b 62 66 33 93 31 72 33
       5.6709368e-08 5.7731114e-08 5.3640616e-08 5.6390103e-08
000230 33 33 74 33 b1 e8 71 33 68 c0 73 33 18 e4 76 33
       5.6857242e-08 5.6323817e-08 5.675284e-08 5.748379e-08
000240 e5 1a 85 33 1e 9f 79 33 8f cf 7f 33 e8 69 7a 33
       6.198187e-08 5.8119547e-08 5.9560588e-08 5.8303982e-08
000250 94 71 70 33 f0 7c 77 33 bd 25 75 33 84 36 74 33
       5.5982653e-08 5.76228e-08 5.707783e-08 5.686026e-08
000260 de 88 71 33 a6 8b 79 33 12 89 82 33 3d 7b 7a 33
       5.6236665e-08 5.810184e-08 6.07853e-08 5.8319745e-08
000270 5a f0 6f 33 75 87 5d 33 5b 36 70 33 32 2f 71 33
       5.5865122e-08 5.157877e-08 5.592879e-08 5.615511e-08
000280 2f bc 7a 33 4c bd 72 33 be 0f 79 33 c1 55 70 33
       5.8378813e-08 5.651718e-08 5.7989148e-08 5.5957347e-08
000290 51 ca 76 33 a3 9b 72 33 42 2b 6c 33 e2 16 78 33
       5.7460344e-08 5.6486567e-08 5.4987375e-08 5.776281e-08
0002a0 bd 22 81 33 95 54 7a 33 f8 4f 7a 33 17 8c 6c 33
       6.0133495e-08 5.8284588e-08 5.8280392e-08 5.5075443e-08
0002b0 9d 4d 6f 33 cc ca 70 33 50 ab 62 33 92 b4 6b 33
       5.5717113e-08 5.6063797e-08 5.2775533e-08 5.487943e-08
0002c0 43 b7 63 33 25 90 6e 33 26 e1 77 33 dd 82 7a 33
       5.301923e-08 5.5544792e-08 5.771394e-08 5.832668e-08
0002d0 15 de 71 33 74 5f 6b 33 b8 96 71 33 13 c2 72 33
       5.6314168e-08 5.4802015e-08 5.6249263e-08 5.6521525e-08
0002e0 3e 5c 7d 33 4f 90 77 33 0a 91 6d 33 4c 6d 69 33
       5.8990047e-08 5.7640417e-08 5.5312775e-08 5.4348945e-08
0002f0 c3 39 6a 33 bf e7 74 33 e9 df 68 33 e7 4c 74 33
       5.4534905e-08 5.702145e-08 5.4220354e-08 5.688062e-08
000300 16 07 7b 33 b4 b5 71 33 3a a3 76 33 6c 7a 7d 33
       5.8446936e-08 5.6277443e-08 5.7424792e-08 5.9017495e-08
000310 c4 10 72 33 cc 54 73 33 25 78 60 33 d1 6b 6e 33
       5.6360264e-08 5.665497e-08 5.2263335e-08 5.551175e-08
000320 c4 25 6d 33 1f 11 6c 33 f4 02 6f 33 bc 84 78 33
       5.521521e-08 5.4963603e-08 5.564921e-08 5.786272e-08
000330 92 e6 7e 33 f3 2b 77 33 9a 33 7b 33 ab 71 77 33
       5.9348686e-08 5.754914e-08 5.8487423e-08 5.761255e-08
000340 16 22 76 33 c7 86 74 33 b5 4a 67 33 f8 71 6c 33
       5.730734e-08 5.6933256e-08 5.3851824e-08 5.5051686e-08
000350 81 5c 66 33 87 c7 77 33 39 6c 64 33 c2 62 80 33
       5.363518e-08 5.7690638e-08 5.3183815e-08 5.9784284e-08
000360 da ec 78 33 17 16 82 33 ce 7e 7e 33 3d 09 80 33
       5.7957415e-08 6.057615e-08 5.925431e-08 5.962145e-08
000370 ac 50 6f 33 5a d8 70 33 97 49 6e 33 9e 3a 77 33
       5.5719894e-08 5.6076125e-08 5.5480623e-08 5.756248e-08
000380 18 2e 77 33 47 6c 75 33 7e e0 6f 33 0f f1 75 33
       5.755109e-08 5.7141985e-08 5.58507e-08 5.726275e-08
000390 04 cb 83 33 91 cd 76 33 6a 5e 7a 33 02 f0 7a 33
       6.137091e-08 5.74633e-08 5.829353e-08 5.8425947e-08
0003a0 50 5e 73 33 79 88 74 33 16 5e 6e 33 52 63 6d 33
       5.6663623e-08 5.6934798e-08 5.5499264e-08 5.5271194e-08
0003b0 e3 b5 65 33 1b b3 6f 33 f7 b8 7d 33 f3 e4 7c 33
       5.3483642e-08 5.580942e-08 5.9074377e-08 5.888155e-08
0003c0 25 6b 74 33 51 27 72 33 4f 75 75 33 0d f6 70 33
       5.6908124e-08 5.6380774e-08 5.71502e-08 5.6103136e-08
0003d0 55 57 68 33 d8 2c 6f 33 71 17 64 33 7c 7a 6e 33
       5.4096137e-08 5.568731e-08 5.3106707e-08 5.5525092e-08
0003e0 c3 33 79 33 f1 56 7e 33 13 cb 83 33 45 91 77 33
       5.8021907e-08 5.9218056e-08 6.137102e-08 5.764129e-08
0003f0 ad 58 71 33 a7 2c 66 33 33 f7 60 33 e4 ee 73 33
       5.6192835e-08 5.359166e-08 5.237889e-08 5.6795116e-08

exp_avg f4 [96]
000000 4f 9b 9a 39 d8 6e 1d 39 5f c8 a4 38 7e fd 4b b9
       0.00029488883 0.0001501398 7.8574514e-05 -0.00019454022
000010 7c e3 5e b9 be ee e1 b8 5e 91 e1 37 02 bf 89 b9
       -0.00021256314 -0.00010773305 2.6889782e-05 -0.00026272988
000020 4c 93 7d b6 3f 84 ca b8 34 fd 54 b7 8c 67 60 b9
       -3.7785676e-06 -9.656743e-05 -1.2695138e-05 -0.00021400879
000030 0b f1 9d b8 f5 5f db b9 e9 c5 2f b9 d7 3e cd b8
       -7.531241e-05 -0.0004184243 -0.00016763028 -9.7868666e-05
000040 ca 11 b1 b8 71 10 af 38 78 b2 bf b8 21 13 c9 38
       -8.443331e-05 8.347713e-05 -9.140832e-05 9.58799e-05
000050 7d cc d2 38 cc 49 23 38 ed 6c 1d b8 c8 3e 37 38
       0.00010051669 3.8930957e-05 -3.7533162e-05 4.368907e-05
000060 39 4b 82 38 c8 5f bc 39 cd 86 b2 39 ff 88 40 39
       6.2128944e-05 0.00035929517 0.0003405124 0.00018361582
000070 a5 23 36 39 2f 5a 0e b9 e8 7d 94 38 56 50 46 39
       0.00017370151 -0.00013575771 7.080642e-05 0.00018912679
000080 58 2a 91 b7 7c 00 d3 38 06 9f 80 b8 64 e6 d8 38
       -1.7305065e-05 0.00010061354 -6.133136e-05 0.00010342596
000090 77 f6 f8 b8 da b2 82 b8 a4 c9 d4 b9 9a 04 dc b8
       -0.00011871469 -6.232197e-05 -0.00040586025 -0.000104912746
0000a0 cb 60 18 ba a2 29 83 b9 34 33 fe b9 7d c6 ed b9
       -0.0005812763 -0.00025017286 -0.00048484805 -0.00045352048
0000b0 14 1d 8d b9 23 bc e4 b9 f6 8a e6 b9 3b fc cd b9
       -0.0002691528 -0.00043627722 -0.00043972553 -0.00039288573
0000c0 ca 50 f8 b9 8d 71 c4 37 f0 23 85 b9 fc ff fa b9
       -0.0004736244 2.3417897e-05 -0.00025394512 -0.0004787444
0000d0 06 bd c4 b9 01 fc 6c b9 7d 7b f5 b8 16 d6 59 b9
       -0.00037524867 -0.00022600593 -0.00011705512 -0.00020774486
0000e0 da 31 a1 b9 4e 79 45 b9 a7 df 97 b9 26 9e a7 b9
       -0.00030745455 -0.00018832574 -0.00028967598 -0.00031970552
0000f0 27 48 2d b9 34 bd b4 b9 f2 67 eb b9 15 50 08 ba
       -0.00016525445 -0.00034473243 -0.00044900138 -0.00051999214
000100 ff 71 c8 b9 21 b1 6c b9 65 7f ad b9 20 e0 2c b9
       -0.00038231906 -0.000225727 -0.00033092048 -0.00016486691
000110 9b d3 a8 38 e4 18 9e b7 7b d8 b1 b8 60 eb 82 b9
       8.050279e-05 -1.8846658e-05 -8.48034e-05 -0.000249709
000120 b3 62 fc b8 1b 02 14 b9 8e 59 84 b8 d2 35 32 b9
       -0.000120346805 -0.00014115164 -6.310931e-05 -0.00016995452
000130 85 67 bc b9 35 fb 9e b9 0b 31 0d b9 7e 06 a4 b8
       -0.00035935282 -0.00030323272 -0.00013465078 -7.821339e-05
000140 c0 b4 72 b9 24 60 c6 b9 66 a3 f0 b9 f3 fa e2 b9
       -0.00023146253 -0.00037837133 -0.00045898109 -0.0004329305
000150 c4 63 25 ba 9f 27 f1 b9 a0 c1 07 ba 87 45 8c b9
       -0.0006309117 -0.00045996622 -0.00051786937 -0.00026754683
000160 8c f2 89 b9 bd 1e 54 b9 44 f5 e0 b9 8c 46 87 b9
       -0.00026311388 -0.00020229346 -0.00042907347 -0.00025801768
000170 54 54 a6 b8 56 a8 e1 b9 0d 9a 3d 36 44 aa ba b9
       -7.931204e-05 -0.00043040764 2.8252864e-06 -0.00035603542

exp_avg_sq f4 [96]
000000 90 b5 23 35 3f 85 1f 35 c6 21 1f 35 24 48 1d 35
       6.098644e-07 5.9426014e-07 5.928126e-07 5.8592036e-07
000010 69 3a 1e 35 23 0d 16 35 38 51 18 35 4b bc 25 35
       5.8944585e-07 5.589847e-07 5.67426e-07 6.174129e-07
000020 c0 9f 28 35 d9 3a 23 35 14 46 22 35 6f 05 2a 35
       6.2817344e-07 6.0807866e-07 6.045168e-07 6.333784e-07
000030 c4 96 28 35 94 0e 25 35 d5 98 25 35 77 3c 23 35
       6.280427e-07 6.1488504e-07 6.168969e-07 6.081022e-07
000040 67 d0 21 35 e6 32 28 35 b7 e1 1c 35 d1 ad 28 35
       6.028044e-07 6.2658944e-07 5.8442987e-07 6.2837813e-07
000050 2e f4 28 35 a6 3a 1d 35 d9 e7 26 35 ec ad 21 35
       6.2940205e-07 5.85724e-07 6.21772e-07 6.0230263e-07
000060 96 ea 1e 35 08 17 25 35 58 31 23 35 b5 2a 22 35
       5.9200954e-07 6.1500805e-07 6.0794036e-07 6.041185e-07
000070 01 1c 20 35 9d 7a 23 35 9b 92 23 35 9a 8a 1e 35
       5.9645396e-07 6.090066e-07 6.093557e-07 5.906128e-07
000080 08 0c 19 35 c5 99 1b 35 27 ee 2b 35 1f cd 28 35
       5.701445e-07 5.7965764e-07 6.404902e-07 6.288337e-07
000090 04 be 1f 35 bd 3d 25 35 1f 7a 26 35 9d ff 24 35
       5.9508625e-07 6.155713e-07 6.201753e-07 6.146673e-07
0000a0 af 32 2d 35 62 43 2c 35 d6 75 34 35 3c e1 2b 35
       6.4521276e-07 6.417305e-07 6.72267e-07 6.4030223e-07
0000b0 74 21 32 35 a7 53 2e 35 d4 06 2a 35 b0 ce 2b 35
       6.635885e-07 6.494178e-07 6.333987e-07 6.4003234e-07
0000c0 28 1f 33 35 49 e6 2b 35 2d be 36 35 a5 b0 28 35
       6.6728035e-07 6.4037573e-07 6.8077026e-07 6.284193e-07
0000d0 18 5e 27 35 3f 39 2a 35 91 83 28 35 a9 48 1d 35
       6.234927e-07 6.341324e-07 6.277633e-07 5.859279e-07
0000e0 38 a5 24 35 93 26 27 35 21 29 22 35 eb 17 21 35
       6.1335186e-07 6.226848e-07 6.0409553e-07 6.001198e-07
0000f0 e5 89 21 35 bb 87 2c 35 da 30 2a 35 4b fb 29 35
       6.0177837e-07 6.4272507e-07 6.3401023e-07 6.3323085e-07
000100 4c a6 28 35 22 c4 25 35 52 5a 29 35 46 ef 20 35
       6.282687e-07 6.17527e-07 6.308884e-07 5.9952833e-07
000110 de ab 25 35 84 fc 2a 35 62 35 2d 35 95 b3 2c 35
       6.171739e-07 6.3697394e-07 6.4525204e-07 6.433632e-07
000120 be e7 32 35 b6 80 2c 35 38 3e 2c 35 f2 a4 29 35
       6.6647397e-07 6.426229e-07 6.4165533e-07 6.3197433e-07
000130 5a 14 25 35 a7 e5 2c 35 63 14 24 35 4c bb 2b 35
       6.1496905e-07 6.440918e-07 6.112443e-07 6.3975017e-07
000140 8f b2 21 35 7b 84 23 35 76 7f 26 35 a7 c0 25 35
       6.023701e-07 6.0915016e-07 6.20253e-07 6.1747636e-07
000150 ee aa 2b 35 90 e0 2b 35 4e 7f 31 35 18 51 25 35
       6.39512e-07 6.4029246e-07 6.612289e-07 6.1585297e-07
000160 c0 ed 25 35 4c 46 2b 35 91 58 2f 35 e8 4f 29 35
       6.181326e-07 6.380476e-07 6.532146e-07 6.3073685e-07
000170 6a d9 24 35 16 4f 2a 35 35 ba 28 35 d9 8a 28 35
       6.141114e-07 6.344502e-07 6.2855844e-07 6.2786927e-07

exp_avg f4 [96, 336]
000000 71 da 2b b9 33 fd 32 b9 a8 12 3a b9 3b 96 3b b9
       -0.00016389207 -0.00017069727 -0.00017745292 -0.00017889675
000010 13 ee 46 b9 16 fd 4a b9 c3 88 52 b9 90 e9 51 b9
       -0.00018971441 -0.00019358503 -0.00020078108 -0.00020018802
000020 3f 76 4f b9 c5 e7 50 b9 24 3e 4f b9 f3 46 4d b9
       -0.00019785108 -0.00019922767 -0.00019764208 -0.00019576754
000030 c3 b8 51 b9 ab 33 45 b9 0f 2b 45 b9 40 02 41 b9
       -0.00020000622 -0.00018806632 -0.00018803425 -0.00018406752
000040 70 b0 3d b9 93 04 37 b9 d9 22 3c b9 da 88 38 b9
       -0.00018090173 -0.00017453944 -0.00017942059 -0.00017598589
000050 24 a3 3e b9 b3 17 40 b9 1d e3 40 b9 57 3e 40 b9
       -0.00018180587 -0.00018319376 -0.00018395153 -0.0001833377
000060 3a c6 3b b9 aa c1 39 b9 d1 dc 36 b9 cd 94 3a b9
       -0.00017907555 -0.0001771512 -0.00017439133 -0.00017793775
000070 2a 86 37 b9 7b 68 33 b9 da 45 31 b9 72 27 2e b9
       -0.0001750222 -0.00017109692 -0.00016906057 -0.00016608628
000080 48 cc 30 b9 82 1a 2f b9 a6 99 2a b9 18 69 2c b9
       -0.00016860769 -0.00016699175 -0.00016269702 -0.00016442349
000090 b9 61 2c b9 96 ce 23 b9 80 6a 26 b9 2d d6 28 b9
       -0.00016439603 -0.0001562185 -0.00015870668 -0.00016101515
0000a0 27 b7 29 b9 4a 2e 31 b9 f0 fd 2c b9 de d1 33 b9
       -0.00016185326 -0.0001689728 -0.00016497797 -0.00017148952
0000b0 66 f0 36 b9 e3 1c 3b b9 98 37 3c b9 15 ba 37 b9
       -0.00017446428 -0.00017844471 -0.00017949787 -0.00017521561
0000c0 f0 93 39 b9 28 90 39 b9 4a c3 3f b9 b4 8a 37 b9
       -0.00017698086 -0.00017696677 -0.0001828793 -0.00017503911
0000d0 2b ba 3c b9 f1 a0 35 b9 ea b2 38 b9 8a 76 44 b9
       -0.0001799843 -0.0001732146 -0.00017614258 -0.00018736176
0000e0 18 5c 48 b9 92 42 4b b9 d4 9d 5b b9 57 69 5e b9
       -0.00019107794 -0.00019384388 -0.00020944263 -0.00021210812
0000f0 1a 2d 69 b9 27 69 74 b9 0e 2c 7e b9 58 f2 82 b9
       -0.00022237413 -0.00023308826 -0.0002423974 -0.00024976092
000100 c5 48 8b b9 58 ab 91 b9 9a 52 93 b9 cc a5 9b b9
       -0.00026566364 -0.00027784216 -0.00028099568 -0.00029687432
000110 44 03 9f b9 50 f0 a2 b9 a0 3f a8 b9 97 1a ae b9
       -0.00030329276 -0.00031078095 -0.0003209086 -0.00033207677
000120 49 6d b2 b9 df b6 b8 b9 2d fd bc b9 6b a6 c0 b9
       -0.0003403223 -0.00035231464 -0.00036046785 -0.00036745085
000130 36 2b c5 b9 7c 6f c4 b9 a8 90 c6 b9 7a d4 cc b9
       -0.00037606963 -0.00037467096 -0.0003787328 -0.0003906822
000140 9a b0 cb b9 b9 f1 d1 b9 b5 11 d3 b9 38 ee cd b9
       -0.00038850756 -0.00040043684 -0.0004025825 -0.00039278134
000150 d1 c7 d4 b9 89 54 d3 b9 04 d5 d2 b9 b1 01 d4 b9
       -0.00040584666 -0.0004030804 -0.0004021303 -0.0004043705
000160 46 8b d7 b9 74 83 d2 b9 5c 53 d3 b9 ef 9b d6 b9
       -0.00041111762 -0.00040152261 -0.00040307164 -0.0004093344
000170 8a dc d6 b9 ac a3 d5 b9 18 56 d2 b9 70 c5 ce b9
       -0.00040981575 -0.0004074847 -0.00040118466 -0.00039438484
000180 5d 6a ce b9 02 2b ce b9 44 47 c9 b9 d3 fd c8 b9
       -0.0003937063 -0.00039323425 -0.00038390805 -0.00038336086
000190 5e 68 c2 b9 01 4e bf b9 dc 01 bc b9 9a db b7 b9
       -0.00037080323 -0.00036488476 -0.0003585954 -0.00035068096
0001a0 fc 74 b6 b9 ce f1 b3 b9 b3 72 b0 b9 a0 25 ad b9
       -0.00034800905 -0.000343217 -0.00033654794 -0.00033025164
0001b0 43 bf ac b9 44 60 ab b9 18 53 ac b9 e7 dd a4 b9
       -0.00032948898 -0.00032687385 -0.00032868306 -0.00031445848
0001c0 6d 8c a4 b9 d0 57 a0 b9 b3 41 9c b9 00 12 9a b9
       -0.00031385143 -0.00030583004 -0.00029803588 -0.0002938658
0001d0 28 02 94 b9 b2 ae 91 b9 99 bd 8a b9 d8 e8 85 b9
       -0.00028230366 -0.00027786713 -0.00026462672 -0.0002554122
0001e0 ea 6f 85 b9 7d 88 80 b9 ff 72 7e b9 fd 6f 70 b9
       -0.0002545112 -0.00024515754 -0.00024266167 -0.00022929902
0001f0 7c d6 70 b9 e3 8d 6b b9 91 25 64 b9 00 19 61 b9
       -0.00022968085 -0.00022464203 -0.00021757769 -0.00021466985
000200 8e 28 60 b9 08 e9 5a b9 1b 95 5b b9 3f 65 4e b9
       -0.00021377412 -0.00020876911 -0.00020941014 -0.00019683408
000210 95 be 4d b9 fe 24 4c b9 c2 c3 45 b9 27 fd 3a b9
       -0.00019621321 -0.00019468737 -0.0001886031 -0.00017832649
000220 11 ca 36 b9 c0 7e 30 b9 90 72 2e b9 4c 9e 2f b9
       -0.00017432148 -0.00016831886 -0.00016636611 -0.0001674827
000230 a8 0b 34 b9 9d 71 32 b9 7d cd 38 b9 71 73 37 b9
       -0.0001717048 -0.00017017727 -0.00017624158 -0.00017495245
000240 61 f2 2e b9 66 74 36 b9 ef 46 30 b9 86 3a 26 b9
       -0.00016684226 -0.00017400234 -0.00016811093 -0.00015852795
000250 33 ca 2a b9 5f 2f 21 b9 9a cf 1c b9 1c 64 16 b9
       -0.00016287788 -0.00015371804 -0.00014954657 -0.00014342408
000260 50 d2 14 b9 b3 99 0a b9 f5 5b 14 b9 ad cf 06 b9
       -0.00014192727 -0.00013217963 -0.00014148637 -0.00012856601
000270 85 92 0c b9 02 bc 0e b9 eb 41 0b b9 6e cd 0c b9
       -0.00013406023 -0.00013612214 -0.0001328063 -0.00013427969
000280 73 24 11 b9 cf f8 17 b9 dc 55 1b b9 00 06 24 b9
       -0.00013841856 -0.0001449317 -0.00014813937 -0.00015642494
000290 da 96 2b b9 d3 9b 30 b9 66 4c 2d b9 01 dd 37 b9
       -0.00016364027 -0.00016842717 -0.00016527026 -0.0001753457
0002a0 94 d9 3c b9 11 65 41 b9 a7 98 45 b9 f0 2e 46 b9
       -0.00018010131 -0.00018443564 -0.00018844251 -0.00018900237
0002b0 8e c7 4f b9 b1 f3 5a b9 79 e5 5c b9 54 92 67 b9
       -0.00019815398 -0.00020880882 -0.0002106632 -0.00022084388
0002c0 12 2a 69 b9 11 47 71 b9 04 91 6d b9 84 89 6a b9
       -0.00022236284 -0.00023010025 -0.00022656104 -0.00022367208
0002d0 a3 30 7d b9 51 24 82 b9 64 c2 7f b9 9f 5a 83 b9
       -0.00024146079 -0.0002482259 -0.00024391111 -0.00025053785
0002e0 9b e9 82 b9 72 7e 8a b9 8e 55 89 b9 cb cf 8b b9
       -0.00024969582 -0.0002641562 -0.0002619442 -0.00026666964
0002f0 56 65 8e b9 52 55 8f b9 b5 e9 93 b9 e2 7d 95 b9
       -0.00027159852 -0.00027338654 -0.0002821215 -0.00028513285
000300 36 12 94 b9 50 cf 94 b9 4d fe 97 b9 ad 3b 97 b9
       -0.00028242328 -0.0002838322 -0.00028990433 -0.00028845426
000310 cd e3 97 b9 98 6d 99 b9 61 95 97 b9 51 0f 92 b9
       -0.0002897069 -0.00029264088 -0.0002891226 -0.00027858702
000320 98 f7 93 b9 ed 7e 8f b9 c3 cf 8d b9 f0 c6 8c b9
       -0.00028222497 -0.00027369653 -0.0002704841 -0.000268511
000330 3e d5 8a b9 ab 56 85 b9 59 a3 86 b9 bd 49 83 b9
       -0.0002648029 -0.0002543231 -0.00025680175 -0.00025041206
000340 5d 62 82 b9 c6 f3 85 b9 36 00 85 b9 3c 8c 80 b9
       -0.0002486882 -0.00025549362 -0.00025367894 -0.00024518545
000350 46 65 83 b9 9e 7e 82 b9 5c d2 78 b9 dd 9e 6c b9
       -0.00025061722 -0.0002488987 -0.00023729488 -0.00022565895
000360 60 cd 69 b9 01 00 5f b9 c4 c8 5c b9 fb a1 51 b9
       -0.0002229712 -0.00021266939 -0.00021055626 -0.00019992136
000370 92 b8 4f b9 4f 79 3c b9 6b 9e 3f b9 23 83 41 b9
       -0.00019809816 -0.00017974268 -0.00018274195 -0.00018454767
000380 f2 5d 47 b9 28 3c 3f b9 0f 3e 45 b9 bb 42 49 b9
       -0.00019013116 -0.0001823759 -0.00018810503 -0.00019193713
000390 89 da 48 b9 8b e5 4a b9 b2 76 55 b9 af b6 59 b9
       -0.00019154897 -0.00019349733 -0.0002035748 -0.00020762788
0003a0 a1 95 59 b9 2e ed 60 b9 be bf 5f b9 9d db 65 b9
       -0.00020750474 -0.00021450661 -0.00021338367 -0.00021920954
0003b0 ed 61 67 b9 b6 97 68 b9 15 76 6b b9 b8 e5 73 b9
       -0.00022066357 -0.00022181761 -0.00022455335 -0.00023259863
0003c0 a3 bc 7a b9 e3 23 81 b9 e1 31 82 b9 95 49 87 b9
       -0.0002391213 -0.00024631535 -0.00024832695 -0.0002580403
0003d0 bc 31 8b b9 5c b4 8a b9 58 cd 8f b9 3d a8 8d b9
       -0.000265492 -0.0002645579 -0.00027428078 -0.00027018963
0003e0 9b 65 8f b9 3c 36 8c b9 00 16 8c b9 6f 5c 8f b9
       -0.00027350787 -0.0002674329 -0.00026719272 -0.00027343954
0003f0 65 3b 91 b9 48 f7 8f b9 b3 2d 94 b9 5a 84 92 b9
       -0.00027700808 -0.00027459324 -0.00028262808 -0.000279459
