checkpoints/DLinear/ETTh1_100_336_96/32ee901496c9ad4dc68d9ef852bcab02/DLinear_100.pt (torch, 782262 bytes, 12 tensors)

Linear_Seasonal.weight f4 [96, 336]
0	0x3ce57833	0.028011417
1	0xbc59dea6	-0.013297712
2	0xbba1a770	-0.00493329
3	0x3b386d76	0.0028141416
4	0xbbc03722	-0.0058659473
5	0xba35fd38	-0.00069423346
6	0xba8503d4	-0.0010148236
7	0xbc51bf5c	-0.012801971
8	0x3ad01406	0.0015875108
9	0xbb609b62	-0.0034272303
10	0xbb1ad26f	-0.0023623963
11	0xbb719547	-0.0036862658
12	0xbb783134	-0.0037871124
13	0x3920d43b	0.00015337851
14	0xbbd29ee7	-0.006427634
15	0xbbfc9565	-0.007708239
16	0xbb95738f	-0.004560895
17	0xbb7bedb5	-0.0038441245
18	0xbad42a54	-0.0016186931
19	0xbc9b2d51	-0.018942507
20	0x3b48b1ef	0.0030623635
21	0xbb335fef	-0.0027370413
22	0xbc6855c0	-0.014180601
23	0xbce56423	-0.02800185
24	0x3d02ef8b	0.031966727
25	0x3bd3afe7	0.006460178
26	0xbc03ad5b	-0.008036937
27	0xbb45494a	-0.0030103498
28	0xbafb53b6	-0.0019174728
29	0x3bd4bfbb	0.0064925826
30	0xbaeb17a9	-0.0017936128
31	0xba89407e	-0.0010471491
32	0xbba9732c	-0.0051712003
33	0x3aee83ca	0.0018197235
34	0xbbe72a6a	-0.0070546167
35	0xbaf0e9d6	-0.0018380235
36	0xbc3c4f2a	-0.011493484
37	0xbb795592	-0.0038045389
38	0xbb47f0de	-0.0030508558
39	0x3b65759e	0.0035012732
40	0xbc35d485	-0.011098032
41	0xbc29eae2	-0.010370942
42	0xbb8092e5	-0.003923761
43	0xbc1fc54a	-0.009751627
44	0xbb095d7f	-0.002096027
45	0xbc09e240	-0.008415759
46	0xbcc8fe32	-0.024535272
47	0xbd5e0384	-0.05420257
48	0x3d496f06	0.049178146
49	0xbc069b0f	-0.00821568
50	0xbc2baec3	-0.010478678
51	0xbc78b25e	-0.015179245
52	0xbb893e5f	-0.0041883434
53	0xbcfc19ac	-0.03077396
54	0xbbfbfeb5	-0.0076902756
55	0xbbdec163	-0.006797956
56	0xbc7c15bb	-0.01538604
57	0xbca40632	-0.020022485
58	0xbc990e64	-0.01868362
59	0xbc81713b	-0.015801063
60	0xbc305c39	-0.010764175
61	0xbbbf21d4	-0.00583289
62	0xbc0a8281	-0.008453966
63	0xbc9584d8	-0.018251821
64	0xbc1daa32	-0.009623097
65	0xbc3f94f6	-0.01169323
66	0xba98168d	-0.00116034
67	0xbcaa9a61	-0.020825567
68	0xb97436c5	-0.00023290057
69	0x3b22d6a2	0.002484717
70	0xbc377623	-0.0111976
71	0xbce4a0e5	-0.027908752
72	0x3d117b87	0.035518195
73	0xbc3fbf22	-0.011703284
74	0xbbe64ee9	-0.00702845
75	0xbb3e9199	-0.0029078482
76	0x3c540fe9	0.012943246
77	0xbbaba472	-0.0052381093
78	0x3b8bdc4f	0.004268206
79	0x3b2514c9	0.002518939
80	0xba2d2682	-0.00066051644
81	0xba16c768	-0.000575176
82	0x3b8cf852	0.004302063
83	0x3ad44da8	0.001619746
84	0x3c1cc628	0.0095687285
85	0x3bd43c59	0.0064769206
86	0xbc27eb46	-0.010248965
87	0x3a527caa	0.00080294407
88	0x3b8660f6	0.004100914
89	0xba212ef8	-0.00061486615
90	0xbb50f08c	-0.0031881658
91	0xbb53dffc	-0.003232955
92	0x3b875143	0.00412956
93	0xbc0ce72c	-0.008600038
94	0xbc371362	-0.011174055
95	0xbd25af30	-0.040450275
96	0x3cc5c158	0.024140045
97	0xbb86a83b	-0.00410941
98	0xbc91554a	-0.017740864
99	0x3bbc725e	0.0057509383
100	0xbcd9813e	-0.026550885
101	0xbb400307	-0.002929868
102	0xbb856c96	-0.0040717823
103	0xbc6e6366	-0.014550066
104	0xbc822cb6	-0.01589046
105	0xbc23653d	-0.009972868
106	0xbb109762	-0.0022062887
107	0xbc1656d3	-0.009175974
108	0xbb9a35e0	-0.0047061294
109	0xbbc0df69	-0.0058860076
110	0xbc06fdc9	-0.008239218
111	0xbc4a529b	-0.012348796
112	0x3a7b2a61	0.0009581205
113	0xba4eb095	-0.0007884589
114	0xbad0d885	-0.0015933668
115	0xbbca7cab	-0.0061794124
116	0x3c0ea667	0.008706666
117	0x3c73f6f2	0.014890419
118	0xbc443441	-0.011975349
119	0xbd1570e6	-0.03648462
120	0x3d3de4f2	0.046360917
121	0x3bb279f2	0.005446666
122	0x3a84a9de	0.0010121425
123	0xbab50083	-0.0013809357
124	0x39e6da19	0.00044031514
125	0xbc3c6e4b	-0.011500905
126	0x3b81f359	0.003965777
127	0x3b4ee127	0.0031567307
128	0x3bf9473f	0.00760737
129	0xbc193098	-0.009349965
130	0xba8fd5ff	-0.001097381
131	0x3b7e2098	0.0038776752
132	0xbbd08618	-0.0063636415
133	0x3b6c920e	0.0036097798
134	0xbb167be8	-0.0022962037
135	0xbc4cae50	-0.012492731
136	0x3b00b84b	0.0019641097
137	0x3ab6342a	0.0013901044
138	0xba87c4d7	-0.0010358345
139	0xbab9ad45	-0.0014166018
140	0xbbb89e9b	-0.0056341416
141	0xbaec8723	-0.0018045645
142	0xbc1a5700	-0.0094201565
143	0xbd34edbb	-0.04417203
144	0x3cfb8981	0.030705215
145	0x39ad175b	0.00033014533
146	0xbbc7c960	-0.006097004
147	0xbc351d7b	-0.011054392
148	0xbade6ceb	-0.0016969716
149	0x3c4ebc25	0.012618099
150	0x3adcdeca	0.0016851064
151	0x3b862ff3	0.0040950715
152	0xbb438e34	-0.0029839398
153	0x3bca6848	0.006176982
154	0x3bbc88c5	0.005753609
155	0x3b7e7a79	0.0038830324
156	0x3c390e61	0.011294932
157	0x3b83ffed	0.0040283115
158	0x3c22f86f	0.0099469265
159	0x3c65f94b	0.014036487
160	0x3b84c986	0.004052344
161	0x3996b581	0.0002874546
162	0x3c39be41	0.011336864
163	0x3bf779d6	0.007552366
164	0x3c809a06	0.015698444
165	0x3ba59b07	0.005053881
166	0x3c3eb14e	0.011638952
167	0xbd02ca14	-0.031930998
168	0x3d6dd5cd	0.058065224
169	0x3b9d81c6	0.00480673
170	0x3b26046e	0.002533223
171	0x3c00bba9	0.007857242
172	0x3b8d8fe5	0.004320132
173	0x3ba46d46	0.005017909
174	0x3b0c42a4	0.0021402026
175	0x3a2d6131	0.0006613909
176	0x3b07f62c	0.0020746095
177	0xbbaa5649	-0.0051982743
178	0xbbc48fa3	-0.005998568
179	0xbb8802c2	-0.0041507194
180	0x3ac3836b	0.0014916485
181	0xbc3034c6	-0.01075477
182	0xbb2ea1e9	-0.00266468
183	0xbac4a4d9	-0.0015002742
184	0xbbbb2937	-0.0057117003
185	0xbb6898bb	-0.0035491425
186	0x3ad7cf05	0.0016464895
187	0xbc8e3917	-0.017361207
188	0x3a685209	0.0008862322
189	0xbbe8e8db	-0.0071078367
190	0xbc08bcf4	-0.008345831
191	0xbd2f6cd1	-0.042828385
192	0x3d715b03	0.058924686
193	0x3b9ff07c	0.004880963
194	0x3c03279f	0.008005052
195	0xbb836292	-0.004009553
196	0xbb04e71e	-0.0020279358
197	0x3b477b86	0.0030438616
198	0x3bdc15de	0.006716474
199	0x3c1b73e0	0.009488076
200	0x3b76b40d	0.003764394
201	0x3bfed115	0.0077763894
202	0x3b252a94	0.002520238
203	0x3b5ce80f	0.0033707654
204	0x3bbee7e0	0.0058259815
205	0xb6e8d841	-6.939314e-06
206	0xbaea530c	-0.0017877533
207	0x3c479d0b	0.012183438
208	0x3b9e76bc	0.0048359316
209	0xbc142353	-0.009041625
210	0x3c012974	0.007883418
211	0xb9b89a45	-0.00035210155
212	0xbb5ecee6	-0.0033997833
213	0xbc066cfb	-0.008204694
214	0xbc404920	-0.011736184
215	0xbd3262ef	-0.04355138
216	0x3d65e81b	0.056129556
217	0x3bbfc0e6	0.0058518527
218	0xbc453220	-0.0120358765
219	0xbbcc21fe	-0.006229638
220	0xbc370d7e	-0.01117265
221	0xbae0a5df	-0.0017139277
222	0xbc51cd40	-0.012805283
223	0xbbefc872	-0.007317596
224	0xbbb9d233	-0.0056708097
225	0x38df2949	0.000106411586
226	0xbc80c94e	-0.01572099
227	0xbbf7843c	-0.0075536054
228	0xbc827f87	-0.01592995
229	0xbbf0f698	-0.007353615
230	0xbb6cbef4	-0.003612456
231	0x3bda62cb	0.006664609
232	0xbc239f05	-0.009986644
233	0xbb8cb357	-0.00429384
234	0xbb2d65b9	-0.0026458337
235	0xbc3b5414	-0.01143362
236	0xbb6e5ca3	-0.0036371134
237	0xbb58646a	-0.0033018836
238	0xbd0bb491	-0.03410775
239	0xbd743b78	-0.059627026
240	0x3d831009	0.06399543
241	0x3b93d999	0.0045120236
242	0xba4de08a	-0.00078535883
243	0xbc285a77	-0.010275475
244	0x3bde86ec	0.0067909863
245	0xbc711066	-0.014713382
246	0xbbcd7975	-0.0062705823
247	0xbbe3b17b	-0.0069486476
248	0xbbcc1ab4	-0.006228769
249	0xbbdf0691	-0.0068062027
250	0xbb504990	-0.0031782128
251	0x3a4db858	0.0007847599
252	0xb999f5df	-0.00029365622
253	0x3bcc9a4e	0.0062439805
254	0xbb73022c	-0.0037080152
255	0xbbe38efe	-0.006944536

Linear_Seasonal.bias f4 [96]
0	0x3ba9267d	0.005162059
1	0xbc5fc536	-0.013657859
2	0xbcab064f	-0.020877032
3	0xba309f5e	-0.0006737615
4	0xbccb624d	-0.024827147
5	0x3c8319dd	0.016003544
6	0x3b30cb46	0.002697663
7	0xbd1c768b	-0.03819899
8	0x3bf7e56f	0.0075651924
9	0x3d0c1f82	0.034209736
10	0xbb38ac77	-0.002817897
11	0x3cfcf749	0.030879634
12	0xbcecc6aa	-0.028903324
13	0xbbb32604	-0.0054671783
14	0x3bb08589	0.0053870124
15	0x3ca4d298	0.02011995
16	0xbd2bf22d	-0.041979004
17	0x3ba2ee86	0.004972282
18	0xbbc09494	-0.005877087
19	0xbb93cafb	-0.004510281
20	0xbb8d1619	-0.0043056128
21	0xbbf00021	-0.007324234
22	0xb87c0ddf	-6.00944e-05
23	0x3bc8631f	0.006115332
24	0xbcde98e2	-0.02717251
25	0xbd3ef70d	-0.046622325
26	0xb9f1245c	-0.00045994192
27	0x3c2df58a	0.010617623
28	0x3c0cb082	0.008587005
29	0xbbfaaf2a	-0.0076502757
30	0x3a024bce	0.0004970402
31	0xbced5ecb	-0.028975865
32	0xbc3dbba6	-0.011580383
33	0x3cea539e	0.028604325
34	0xbc5faa79	-0.013651484
35	0xbc869c1c	-0.01643186
36	0x3ca49133	0.020088768
37	0xbc66e3f3	-0.014092433
38	0xbaabcd6c	-0.0013107485
39	0xbcbffc71	-0.023435803
40	0xbcfa9c4b	-0.030592104
41	0x3cae3958	0.021267578
42	0x3cc7f815	0.024410287
43	0x3c94ef17	0.018180413
44	0x3c1395f0	0.009007916
45	0xbc8c5065	-0.017128179
46	0xbb9902fc	-0.004669545
47	0xbc3df740	-0.0115945935
48	0xbc22486a	-0.00990496
49	0xbba1cdbe	-0.0049378565
50	0x3c8b4e2e	0.017005052
51	0x3cab76eb	0.020930728
52	0x393da291	0.00018085005
53	0x3b554e5b	0.0032547924
54	0xbc3e6da4	-0.01162282
55	0xbcf50c43	-0.029913073
56	0x3b5e5f50	0.0033931322
57	0xbc47eca6	-0.0122024175
58	0xbb46db4c	-0.0030343113
59	0x3d007260	0.031359076
60	0x3c5e0271	0.013550387
61	0x3bb4151d	0.005495681
62	0x3c21a682	0.009866359
63	0x3d0447b3	0.03229494
64	0xbc39a223	-0.01133016
65	0xbd002b29	-0.03129116
66	0xbd3881cc	-0.04504566
67	0x3c399bbe	0.011328636
68	0xbbd532a2	-0.00650628
69	0x3aaab732	0.0013024567
70	0x3c165d4c	0.009177517
71	0x3c7fbfe4	0.015609715
72	0xbc3b929d	-0.01144853
73	0x3ca6f3f2	0.020379994
74	0xbc6cbca3	-0.014449271
75	0xbb189f8a	-0.0023288452
76	0x3ca22072	0.019790862
77	0x3ca6d132	0.020363424
78	0xba3994ba	-0.0007079352
79	0xbceb62be	-0.028733607
80	0xbb995f9f	-0.0046805884
81	0x3c8e41e6	0.017365407
82	0x3d031db0	0.032010734
83	0xbca6bb14	-0.020352878
84	0xbd0dda80	-0.034632206
85	0xbd08c83c	-0.033394083
86	0x3ca79dcf	0.020460991
87	0xbcef4c96	-0.029211324
88	0x3bd1f9b5	0.006407941
89	0x3c6b1824	0.014349017
90	0x3d0b44b4	0.034001067
91	0xbd1c1a3e	-0.038110964
92	0xbd446834	-0.04795094
93	0xbc61b2f5	-0.013775577
94	0xbc9c5cd3	-0.01908723
95	0xbc4206c2	-0.0118424315

Linear_Trend.weight f4 [96, 336]
0	0xbcb678c9	-0.022274392
1	0xbca9389e	-0.02065688
2	0x3cb54d84	0.022131689
3	0xbc4a810d	-0.01235987
4	0x3c5cb60e	0.01347114
5	0xbc7bbc49	-0.015364715
6	0xbcbae355	-0.022813478
7	0x3ba849d9	0.0051357565
8	0x3c467486	0.012112742
9	0x3ce1c311	0.027558835
10	0xbcaa5cb1	-0.020796152
11	0x3c9dcdc3	0.019263154
12	0x3cdc7b9d	0.026914412
13	0xbc193314	-0.009350557
14	0xbaa4d69c	-0.0012576166
15	0xbbd76562	-0.006573365
16	0x3d27f33b	0.041003447
17	0x3c40230f	0.011727109
18	0xbb86d2f3	-0.0041145026
19	0xbce70179	-0.028198944
20	0xbc9cf945	-0.01916183
21	0x3cc10acd	0.02356472
22	0xbd29fcc3	-0.041500818
23	0xbc00903e	-0.00784689
24	0x3d330f3f	0.04371571
25	0xbb2e819f	-0.0026627553
26	0x3d0b6af2	0.034037538
27	0xbc9b42c6	-0.018952738
28	0x3cc18126	0.023621153
29	0xbb5baf53	-0.003352125
30	0xbc27a7f0	-0.0102329105
31	0xbc580786	-0.0131853875
32	0xbbfedea0	-0.007778004
33	0xbd12e002	-0.03585816
34	0xbcf42e65	-0.029807279
35	0x3c098790	0.008394137
36	0x3d03741e	0.03209316
37	0x3c71b1ff	0.01475191
38	0xbd217b9e	-0.03942453
39	0xbc221922	-0.009893687
40	0xbcdbd575	-0.026835183
41	0x3c850898	0.01623945
42	0x3ca7bf92	0.02047709
43	0xbcb61773	-0.022227978
44	0x3adb56ef	0.0016734282
45	0x3cfee52c	0.031115137
46	0x3c571ef3	0.013129937
47	0x3c799a1b	0.0152344955
48	0x3cb5b0db	0.022179058
49	0xbc56cfd1	-0.013111071
50	0xbd2410b7	-0.040055003
51	0x3c54d420	0.012990028
52	0x3d0cdbec	0.03438942
53	0x3b331259	0.0027324168
54	0xbd2bcfc8	-0.041946203
55	0x3c0b14dc	0.00848886
56	0xbbea1e02	-0.0071446905
57	0xbb1b4f0c	-0.0023698239
58	0x3a172414	0.0005765569
59	0x3cdd2132	0.026993368
60	0x3c4a5ec1	0.012351693
61	0xbb53cbf7	-0.0032317617
62	0x3ba76db9	0.0051095155
63	0x3c240365	0.010010575
64	0xbc76a110	-0.015053049
65	0x3c59130e	0.013249172
66	0x3b2dafb9	0.0026502444
67	0x3cf5dd65	0.030012796
68	0x3adb4ae4	0.0016730693
69	0xbb8c5c39	-0.0042834547
70	0x3d2df57a	0.042470433
71	0xbd0ba7f0	-0.034095705
72	0xbd252ae6	-0.040324114
73	0xbcf2cf07	-0.029639734
74	0x3cee994b	0.02912583
75	0xbb1a6c15	-0.0023562957
76	0x3cc22142	0.0236975
77	0xbcc486cc	-0.023990057
78	0xbbcb74b8	-0.0062089823
79	0x3ca2433a	0.019807447
80	0xbd1d3ce3	-0.038388144
81	0xbd14b0cd	-0.036301423
82	0x3c21928c	0.0098616
83	0xbcea2f01	-0.028586866
84	0x3ccd4c5e	0.025060829
85	0x3d00eafd	0.031474102
86	0xbd0ef3f7	-0.03490063
87	0xbd2f70bb	-0.042832118
88	0x3ce92f40	0.028464913
89	0xba588392	-0.00082593516
90	0xbc08df58	-0.008354031
91	0x3cc3eb20	0.023915827
92	0x3c8b8b47	0.017034186
93	0x3cb36f83	0.021903759
94	0xbbd6dd75	-0.0065571615
95	0xbd0bd667	-0.034140017
96	0x3c0a7e55	0.0084529715
97	0x3ced0807	0.028934492
98	0xbc82bf9b	-0.015960505
99	0xba37de5a	-0.0007014029
100	0xbcf1a6ae	-0.029498424
101	0x3cb8ff58	0.022582695
102	0x3c3ff8e6	0.011717057
103	0x3ce8f93f	0.028439162
104	0x3be6b7a2	0.0070409337
105	0xbb160211	-0.0022889415
106	0x3d04e42d	0.032444168
107	0x3cdc577e	0.026897188
108	0x3c767413	0.015042323
109	0xbc118e1f	-0.008883982
110	0xbd360e68	-0.044447333
111	0xbd39a756	-0.0453256
112	0x3c13b236	0.009014657
113	0x3ad0ba4a	0.0015924659
114	0xbcb68bd8	-0.02228348
115	0x3d0373f9	0.032093022
116	0x3cf16f54	0.02947203
117	0x3cd9444e	0.026521828
118	0xbcd07f78	-0.025451407
119	0x3aadcba0	0.0013259538
120	0xbcaa12f5	-0.020760993
121	0x3c030261	0.007996173
122	0xbd14ff6d	-0.036376406
123	0x3b0df9de	0.0021663825
124	0xbc8592c1	-0.01630533
125	0xbbb9fd27	-0.00567593
126	0xbc6a8832	-0.014314698
127	0xbbf755cb	-0.007548069
128	0xbcf4918e	-0.029854562
129	0x3ccdff90	0.025146276
130	0x3d04f219	0.032457445
131	0xbd34b8ec	-0.044121668
132	0xbc55c521	-0.0130474875
133	0x3cd5a2fa	0.02607869
134	0x3c2b04fb	0.010438199
135	0x3d0a9eec	0.033842966
136	0x3cb8c2f6	0.022553902
137	0xbccbb942	-0.024868611
138	0x3d2803a7	0.04101911
139	0x3c1c1e93	0.009528774
140	0xbd0e7fca	-0.034789838
141	0x3d119e2e	0.035551243
142	0x3af62cb1	0.001878163
143	0xbc26cf2f	-0.010181232
144	0xbc4a82d1	-0.012360291
145	0x3b7bcee8	0.0038422886
146	0xbc8f4abd	-0.017491693
147	0xbaa69e7e	-0.0012712029
148	0xbcc504fd	-0.02405023
149	0xbc9d52d4	-0.019204535
150	0x3d09aed6	0.033614002
151	0x3d1b3adf	0.03789794
152	0x3c2505b5	0.010072161
153	0x3cc31546	0.023813855
154	0xbbd65d03	-0.0065418496
155	0xbd00b284	-0.031420246
156	0xbc72dac6	-0.014822667
157	0xbc99cba0	-0.018773854
158	0x3c3896a8	0.011266388
159	0x3c2f092c	0.010683339
160	0x3b9043cc	0.0044026133
161	0xbcd2c3dc	-0.025728159
162	0x3b34fb42	0.0027615582
163	0xbd20a531	-0.03922004
164	0xbc184d3f	-0.009295761
165	0x3d2b3ae0	0.041804194
166	0xbd364135	-0.04449578
167	0x3cc55b85	0.024091491
168	0xbcde911a	-0.0271688
169	0x3d22993c	0.039696917
170	0x3cf4c4a2	0.029878918
171	0xbd418947	-0.04725006
172	0xbc69947a	-0.014256591
173	0xbcacce0a	-0.02109434
174	0x3cfc928b	0.030831596
175	0x3b469d8e	0.0030306312
176	0x3a655c68	0.00087494263
177	0x3d04eb2e	0.032450847
178	0xbd25d72a	-0.0404884
179	0xbc8296f1	-0.015941115
180	0x3c700a82	0.014650943
181	0x3cdc57c2	0.026897315
182	0x3a4111d7	0.0007365024
183	0x3b3887da	0.0028157146
184	0xbbf48280	-0.007461846
185	0x3cb137b1	0.021633001
186	0x394fa890	0.00019803853
187	0x3cea4167	0.02859564
188	0x3cecd96e	0.028912272
189	0xbd55f016	-0.052230917
190	0xbba40237	-0.005005147
191	0x3d0bcbfa	0.034130074
192	0x3d01bf7a	0.031676747
193	0xbb9e9cef	-0.0048404853
194	0x3ce317c4	0.027721293
195	0xbd3f4c87	-0.04670384
196	0xbba567d9	-0.00504778
197	0xbce277db	-0.027645042
198	0x3d050ce6	0.032483004
199	0x3cc758f9	0.024334418
200	0xbd376795	-0.044776518
201	0xbd3761b3	-0.044770908
202	0x3c37c652	0.011216717
203	0xbad19607	-0.0015990146
204	0xbc56bc81	-0.013106466
205	0xbcb6adb3	-0.022299623
206	0xbb1f3244	-0.0024291435
207	0xbc03387c	-0.008009072
208	0x3bab6624	0.005230682
209	0xbc0ed3e4	-0.008717511
210	0x3bb94765	0.005654263
211	0xbbedb13d	-0.0072537945
212	0xbcf75819	-0.030193375
213	0x3ca106a7	0.019656492
214	0xbb9c5ba8	-0.0047716685
215	0x3cca819e	0.02472001
216	0x3cb3a035	0.021926979
217	0x3d457608	0.048208266
218	0x3d425d91	0.047452513
219	0xbd04de2f	-0.032438453
220	0x3c2b8260	0.010468096
221	0xbd124d08	-0.035717994
222	0x3c574e92	0.013141291
223	0x3d41fcab	0.047360104
224	0xbcd063b9	-0.025438176
225	0xbd0e9932	-0.034814067
226	0xbb963a26	-0.0045845686
227	0xbca6772c	-0.020320497
228	0x3c2f9ec9	0.01071901
229	0x3d00817c	0.031373486
230	0xbb12c718	-0.00223965
231	0x3c7ed437	0.015553526
232	0xbcd60952	-0.026127491
233	0x3ca54801	0.020175936
234	0xbd073e9a	-0.033018686
235	0xbd0d1e09	-0.034452472
236	0xbc300dbc	-0.010745462
237	0x3c762baa	0.015025059
238	0x3c3167cf	0.010827973
239	0x3cebdc99	0.028791713
240	0xbcce7ca9	-0.025205927
241	0xbc8c7409	-0.017145174
242	0xbc8dcfbc	-0.01731097
243	0x3d1ffd89	0.03906015
244	0xbc5074cc	-0.012723159
245	0x3c8141c1	0.015778424
246	0x3b8e755e	0.0043474874
247	0x3d08e7b2	0.033424087
248	0x3d194030	0.03741473
249	0x3cbaa81f	0.022785245
250	0xbc96a748	-0.018390313
251	0xbcc7a76c	-0.024371825
252	0x3d15200c	0.036407515
253	0xbc52490f	-0.012834801
254	0xbd19ef5b	-0.037581783
255	0x3b90891f	0.0044108774

Linear_Trend.bias f4 [96]
0	0xbc048034	-0.008087207
1	0x3c3117f4	0.0108089335
2	0x3c8af367	0.016961766
3	0xbb513a52	-0.003192563
4	0x3caf0f5e	0.021369632
5	0xbc99530c	-0.018716358
6	0xbbc62769	-0.0060471785
7	0x3d12297a	0.035684086
8	0xbc2d5143	-0.010578456
9	0xbd1dae8b	-0.038496535
10	0xbaa9a7f2	-0.0012943728
11	0xbd122c40	-0.03568673
12	0x3cc55e88	0.024092928
13	0x3ad06df9	0.0015901915
14	0xbc16befd	-0.009200809
15	0xbcc339b5	-0.023831228
16	0x3d1a14a2	0.037617333
17	0xbc1202b3	-0.008911776
18	0x3aaba895	0.0013096506
19	0xb94d2a6c	-0.00019566127
20	0xbaba8440	-0.0014230087
21	0x3b21212f	0.002458643
22	0xbb984c0f	-0.0046477388
23	0xbc3d061d	-0.011537102
24	0x3cada9a0	0.021199048
25	0x3d262c58	0.040569633
26	0xbbcc3de3	-0.0062329634
27	0xbc8d5e0b	-0.017256757
28	0xbc6c8710	-0.014436498
29	0x3b2f7ae0	0.002677612
30	0xbb844558	-0.0040365867
31	0x3cc7474a	0.024325985
32	0x3bcaeff6	0.0061931564
33	0xbd094b29	-0.033518944
34	0x3c16b3cc	0.00919814
35	0x3c381f6f	0.011237963
36	0xbcca2801	-0.024677278
37	0x3c11b16d	0.008892399
38	0xbb93fe18	-0.0045163743
39	0x3c8cf2de	0.017205652
40	0x3cc9340e	0.024560954
41	0xbcdf5391	-0.027261527
42	0xbcf621d5	-0.03004543
43	0xbcc42a08	-0.023945823
44	0xbc77d107	-0.01512552
45	0x3c35a1b1	0.0110859135
46	0xbaba8534	-0.0014230371
47	0x3bc8c646	0.0061271517
48	0x3b637e73	0.003471282
49	0xbba15356	-0.0049232645
50	0xbce472e8	-0.027886823
51	0xbcfffd7b	-0.031248799
52	0xbc366836	-0.011133244
53	0xbc5243de	-0.012833564
54	0x3a37d24d	0.0007012233
55	0x3c9bb2fc	0.019006245
56	0xbc654eb2	-0.013995813
57	0x3a9c1648	0.0011908496
58	0xbc084e36	-0.008319428
59	0xbd2d5854	-0.042320564
60	0xbcc8c522	-0.024508063
61	0xbc808e15	-0.01569275
62	0xbca8914b	-0.020577094
63	0xbd316893	-0.04331262
64	0x3a4f2753	0.0007902283
65	0x3ca71578	0.02039598
66	0x3d0cee24	0.034406796
67	0xbcb33424	-0.021875449
68	0xbb7a84a1	-0.0038226026
69	0xbc3dd168	-0.011585571
70	0xbca1ed01	-0.019766333
71	0xbcd64d9d	-0.026160056
72	0x3a4b2538	0.00077493815
73	0xbcfc60a7	-0.030807806
74	0x3b7d1b46	0.0038620993
75	0xbc0d84e1	-0.008637638
76	0xbcfba0da	-0.030716348
77	0xbcf7e156	-0.030258816
78	0xbc1d1acd	-0.009588909
79	0x3c975df1	0.018477412
80	0xbbc6be22	-0.006065146
81	0xbce09065	-0.027412603
82	0xbd2fcf63	-0.04292239
83	0x3c22721d	0.009914902
84	0x3cc4ab82	0.024007563
85	0x3cbc22b4	0.022965766
86	0xbcffa04a	-0.031204361
87	0x3c9bbe0b	0.019011518
88	0xbc8e6edc	-0.017386846
89	0xbcd164e5	-0.025560806
90	0xbd39f44e	-0.045399003
91	0x3cdc966f	0.026927201
92	0x3d1592a1	0.03651679
93	0x3b388c85	0.0028159928
94	0x3c025bc9	0.007956454
95	0xb94aa7e5	-0.00019326767

exp_avg f4 [96, 336]
0	0xb89d86e5	-7.5114694e-05
1	0x3834833a	4.303756e-05
2	0x390e5f77	0.00013577739
3	0x3916061f	0.00014307395
4	0x391b6df8	0.00014822918
5	0x36f7c6e0	7.3843257e-06
6	0xb7babfa3	-2.2262166e-05
7	0xb871eef1	-5.768141e-05
8	0xb839e426	-4.4319917e-05
9	0xb88c57d9	-6.692083e-05
10	0xb7eaf9bb	-2.8011264e-05
11	0x3694e539	4.4374287e-06
12	0x3800dfea	3.0726114e-05
13	0x368a1b97	4.1159324e-06
14	0xb8a29937	-7.7533005e-05
15	0x3880c220	6.139674e-05
16	0x38f76059	0.00011795824
17	0x396588f8	0.00021890167
18	0x393684d6	0.00017406358
19	0x392d668d	0.00016536769
20	0x37c1bd97	2.3095678e-05
21	0xb89ed4ba	-7.5736505e-05
22	0xb8f36153	-0.00011605271
23	0xb980b8a1	-0.00024551622
24	0xb98aee3d	-0.00026498912
25	0xb8f63610	-0.00011740264
26	0x382586b9	3.9464536e-05
27	0x37142999	8.831173e-06
28	0x3891c07e	6.949993e-05
29	0x38547304	5.0651855e-05
30	0x37966d90	1.7932412e-05
31	0x38a185dd	7.702012e-05
32	0x38fa9e90	0.000119504635
33	0x37f89606	2.9633764e-05
34	0xb6f99da0	-7.4391282e-06
35	0x35e66b0c	1.716749e-06
36	0xb86d16bd	-5.652638e-05
37	0xb881b665	-6.185173e-05
38	0xb8925a6a	-6.9786634e-05
39	0xb774b946	-1.4586671e-05
40	0x388043dd	6.116156e-05
41	0x3903c1e1	0.00012565359
42	0x38cdde79	9.8166005e-05
43	0x394d9573	0.00019605998
44	0x391557aa	0.00014242405
45	0x388761f4	6.455547e-05
46	0x37dfeb26	2.6693171e-05
47	0xb89db9c7	-7.520947e-05
48	0xb94b4802	-0.00019386414
49	0xb90ea50f	-0.00013603664
50	0xb7d330f3	-2.5175954e-05
51	0xb8e2bca6	-0.00010811658
52	0xb818dd11	-3.6445508e-05
53	0xb9196e55	-0.00014632319
54	0xb92ed30b	-0.00016672553
55	0xb92eeccd	-0.00016682148
56	0xb8c076fc	-9.177436e-05
57	0xb878fd3b	-5.9363647e-05
58	0x384be903	4.861598e-05
59	0x38ad1969	8.254016e-05
60	0x393a8d09	0.00017790882
61	0x39116200	0.00013864785
62	0x37ed50bf	2.8290202e-05
63	0x389c07c1	7.440104e-05
64	0x390021fc	0.00012219691
65	0x3922a7c3	0.0001551202
66	0x3963cb7e	0.00021724214
67	0x38fed3bf	0.000121511046
68	0x37a2bda2	1.940021e-05
69	0xb6cbca06	-6.07339e-06
70	0xb88a7345	-6.6018234e-05
71	0xb8f2c40b	-0.00011575975
72	0xb93fe1b9	-0.00018299268
73	0xb83b6abc	-4.468368e-05
74	0x382c3fa2	4.106726e-05
75	0xb765e7e6	-1.3703457e-05
76	0xb8117adc	-3.4685116e-05
77	0xb8fc9ca3	-0.00012045472
78	0xb8d7e5d0	-0.00010294805
79	0xb79b3076	-1.8500006e-05
80	0x3708eca8	8.1613325e-06
81	0xb7fcbbd3	-3.0128203e-05
82	0xb8d6d938	-0.00010244775
83	0xb86aafa4	-5.5953526e-05
84	0xb885fa86	-6.388598e-05
85	0xb86684da	-5.496e-05
86	0xb86f8f92	-5.711575e-05
87	0xb8330a72	-4.2686654e-05
88	0x3825ae5f	3.950146e-05
89	0x3931fe5e	0.00016974795
90	0x39ac1d74	0.0003282834
91	0x399f9c4a	0.00030443288
92	0x39505728	0.00019868894
93	0x3893d9b7	7.050059e-05
94	0x3753eca1	1.26316745e-05
95	0xb8bdd585	-9.0519934e-05
96	0xb862a098	-5.4032163e-05
97	0xb8558ba9	-5.0913226e-05
98	0xb86a6514	-5.5884084e-05
99	0xb9081e90	-0.00012981356
100	0xb91ade5d	-0.00014769421
101	0xb9233a12	-0.00015566524
102	0xb8e364b2	-0.000108429595
103	0xb899b74f	-7.3297524e-05
104	0xb8a86738	-8.03009e-05
105	0xb8084d17	-3.2496722e-05
106	0xb676520b	-3.6704612e-06
107	0xb88b50e7	-6.643106e-05
108	0xb6d7f88f	-6.4364353e-06
109	0xb71a9601	-9.214041e-06
110	0xb7d2d31b	-2.5132254e-05
111	0x379ec4cc	1.8926708e-05
112	0x38bcf364	9.0098736e-05
113	0x393b3e49	0.00017856913
114	0x391ae029	0.0001477009
115	0x39002f2d	0.00012224606
116	0x38a3cd1e	7.810652e-05
117	0x37ce939f	2.4625855e-05
118	0x37380940	1.0969408e-05
119	0x377f53b0	1.5218669e-05
120	0xb910c490	-0.00013806135
121	0xb90df09e	-0.00013536445
122	0x3804afd9	3.1635023e-05
123	0x3870bffe	5.7399266e-05
124	0x3896a6c1	7.183618e-05
125	0x36db535c	6.536413e-06
126	0x382bd430	4.0967192e-05
127	0x3862673e	5.397875e-05
128	0x38d0f562	9.963919e-05
129	0x380109f1	3.0765255e-05
130	0xb781614d	-1.5423308e-05
131	0xb7ac7100	-2.0556618e-05
132	0xb7f4c27b	-2.9177629e-05
133	0xb8fefc8f	-0.000121587065
134	0xb8fda4b9	-0.00012094662
135	0xb89f048f	-7.58256e-05
136	0xb86c3ac2	-5.6321507e-05
137	0x38bddeec	9.053745e-05
138	0x390735c2	0.0001289463
139	0x3900b6da	0.00012275149
140	0xb7bad350	-2.2271328e-05
141	0xb884c644	-6.33118e-05
142	0xb9197370	-0.00014634221
143	0xb945fd84	-0.00018881826
144	0xb92bc8ec	-0.0001638268
145	0xb8bd24cf	-9.0190784e-05
146	0x38a3a470	7.8030745e-05
147	0x383057d9	4.2043484e-05
148	0x3843e984	4.67091e-05
149	0x37a4b844	1.9636129e-05
150	0x37ae6010	2.0787149e-05
151	0x387aa9e1	5.9762857e-05
152	0x37f8c4eb	2.96556e-05
153	0xb76eef0c	-1.4241563e-05
154	0xb829ef7c	-4.0515777e-05
155	0xb83988f1	-4.4234974e-05
156	0xb884c50a	-6.330952e-05
157	0xb69c1974	-4.6521254e-06
158	0xb8a6b4a0	-7.949141e-05
159	0xb8b0c18f	-8.428387e-05
160	0x38982e2f	7.256527e-05
161	0x38a3a04b	7.8023026e-05
162	0x39656b06	0.00021879011
163	0x397200e7	0.00023079255
164	0x39453ddb	0.00018810427
165	0x38b0223d	8.398711e-05
166	0x38fa6cca	0.000119411925
167	0x37b36b9e	2.1388576e-05
168	0xb92c3c3a	-0.00016425634
169	0xb8b18e9b	-8.46658e-05
170	0xb69b13c5	-4.6216614e-06
171	0xb7ca8ed7	-2.4146791e-05
172	0xb7f9ea57	-2.9792236e-05
173	0xb8dc7391	-0.000105119434
174	0xb8e35b06	-0.00010841158
175	0xb94b220b	-0.0001937227
176	0xb888481d	-6.4984175e-05
177	0xb8df03ca	-0.000106341744
178	0x36fdba84	7.561701e-06
179	0x37c509a7	2.3488725e-05
180	0x37efe733	2.859868e-05
181	0x383b0f00	4.4598244e-05
182	0x38302430	4.1995372e-05
183	0x38d9288e	0.0001035492
184	0x38fcea7a	0.00012059971
185	0x39670409	0.0002203138
186	0x391f0ff8	0.0001516937
187	0x38e2d5c0	0.00010816334
188	0x38b425d2	8.5901134e-05
189	0x37f3dd4b	2.9070905e-05
190	0xb8db0474	-0.00010443563
191	0xb9885ce5	-0.00026009153
192	0xb98a91f5	-0.00026430158
193	0xb934a70b	-0.00017228366
194	0xb862d181	-5.4077715e-05
195	0x37e24b1f	2.697628e-05
196	0xb603a260	-1.9615036e-06
197	0xb8306cdc	-4.2063053e-05
198	0x37178d14	9.033149e-06
199	0x387bc9ee	6.0031125e-05
200	0x388370fd	6.2676125e-05
201	0xb780942c	-1.5327787e-05
202	0x37af0017	2.0861668e-05
203	0xb7b72174	-2.1830878e-05
204	0x37f41943	2.909883e-05
205	0xb7bd1463	-2.2540049e-05
206	0xb88dd225	-6.7625464e-05
207	0xb7248792	-9.806727e-06
208	0x378b7c03	1.6627839e-05
209	0x38aa609b	8.124226e-05
210	0x38f78cf1	0.0001180413
211	0x392af60e	0.00016304126
212	0x389dd490	7.525936e-05
213	0xb7581fbc	-1.2881992e-05
214	0xb86854a8	-5.5391953e-05
215	0xb8f00317	-0.00011444667
216	0xb924596b	-0.0001567357
217	0xb8e85135	-0.00011077748
218	0x3499bbce	2.8635117e-07
219	0xb73f12e6	-1.1388887e-05
220	0x371ad213	9.228027e-06
221	0xb61657cb	-2.2402844e-06
222	0xb6ba293c	-5.5480323e-06
223	0x3856d267	5.121753e-05
224	0x38804e5a	6.11811e-05
225	0x36dc0c4a	6.5579416e-06
226	0xb812b7ad	-3.4980174e-05
227	0x36882d8f	4.0584196e-06
228	0xb842507b	-4.6328158e-05
229	0xb8314a4f	-4.2269294e-05
230	0xb80377b9	-3.1344334e-05
231	0x389188f9	6.939652e-05
232	0x386ad5ed	5.598918e-05
233	0x391f3319	0.00015182457
234	0x393fc2d7	0.00018287763
235	0x392bfcb2	0.00016401967
236	0x383507af	4.316092e-05
237	0xb7f261a9	-2.8894125e-05
238	0xb896016f	-7.1528244e-05
239	0xb946c3c0	-0.00018955674
240	0xb97333a1	-0.00023193519
241	0xb91d9acf	-0.00015030357
242	0xb7d68ed6	-2.5577301e-05
243	0xb6b5e7e0	-5.421214e-06
244	0x371bcbaf	9.286144e-06
245	0xb8353469	-4.3202574e-05
246	0xb707b623	-8.089034e-06
247	0x37925cae	1.7447714e-05
248	0x38979773	7.228451e-05
249	0xb7dde78c	-2.6453075e-05
250	0xb8014c84	-3.0827257e-05
251	0xb87a086a	-5.961248e-05
252	0xb826f3f0	-3.980467e-05
253	0xb7977d52	-1.805896e-05
254	0xb82cbffb	-4.118679e-05
255	0x3886888c	6.415052e-05

exp_avg_sq f4 [96, 336]
0	0x3353b621	4.929291e-08
1	0x338c7c98	6.5419215e-08
2	0x33a93095	7.878513e-08
3	0x33d231de	9.787958e-08
4	0x33f887df	1.1573115e-07
5	0x340a0150	1.2852729e-07
6	0x340c38a8	1.3059127e-07
7	0x3412fd21	1.3689397e-07
8	0x34158d66	1.3928147e-07
9	0x3417701a	1.4103753e-07
10	0x340bbfeb	1.3015203e-07
11	0x340df4dd	1.3220729e-07
12	0x341377c6	1.3734015e-07
13	0x34162124	1.3981895e-07
14	0x3416aacc	1.4031974e-07
15	0x341bd2c6	1.4512179e-07
16	0x341aa700	1.4403122e-07
17	0x3422a976	1.5149075e-07
18	0x342aade0	1.5895739e-07
19	0x3423f318	1.5268995e-07
20	0x34231842	1.5189383e-07
21	0x3427a3b8	1.5612648e-07
22	0x342af0c1	1.592007e-07
23	0x342bdf52	1.600686e-07
24	0x3428d9d0	1.5725459e-07
25	0x342b52af	1.5955696e-07
26	0x3422a804	1.514855e-07
27	0x3423b3fb	1.5246034e-07
28	0x341e7c17	1.476004e-07
29	0x34265404	1.549052e-07
30	0x34215340	1.502458e-07
31	0x341806be	1.4158556e-07
32	0x34126ccb	1.3636888e-07
33	0x340c9c7c	1.3095445e-07
34	0x3405f928	1.2477233e-07
35	0x340a64d6	1.2888935e-07
36	0x341169f2	1.354272e-07
37	0x340f5be4	1.3351342e-07
38	0x34130241	1.3691262e-07
39	0x34149718	1.3838542e-07
40	0x3417161d	1.4071016e-07
41	0x341b5923	1.4467928e-07
42	0x34242a14	1.5288998e-07
43	0x34219bfa	1.5051037e-07
44	0x3425784a	1.5410583e-07
45	0x341ff1c2	1.489598e-07
46	0x3422676a	1.5125048e-07
47	0x34260cca	1.5464607e-07
48	0x342ec705	1.6277416e-07
49	0x342a10c1	1.5838579e-07
50	0x342a10b1	1.5838556e-07
51	0x3425cbe9	1.5441005e-07
52	0x341e8e81	1.476674e-07
53	0x341c0385	1.4529913e-07
54	0x341c3844	1.4549101e-07
55	0x34154244	1.3900814e-07
56	0x341ad603	1.4420225e-07
57	0x3415c81c	1.3949506e-07
58	0x340f0eb5	1.3323263e-07
59	0x340ed962	1.3303864e-07
60	0x3416bfd8	1.4039631e-07
61	0x341a7a05	1.4386758e-07
62	0x340fcf8e	1.3393421e-07
63	0x3410fe8f	1.3503653e-07
64	0x3417d101	1.4139006e-07
65	0x341b298b	1.4450613e-07
66	0x342781e7	1.5600345e-07
67	0x3423fa51	1.5271623e-07
68	0x34241f01	1.528497e-07
69	0x3425666a	1.540408e-07
70	0x3427a587	1.5613305e-07
71	0x34261f90	1.5471437e-07
72	0x342f3408	1.6317074e-07
73	0x3425c623	1.5438904e-07
74	0x3427768b	1.5596213e-07
75	0x34265731	1.5491675e-07
76	0x341e73d4	1.4757035e-07
77	0x341bcde0	1.4510397e-07
78	0x34218679	1.5043214e-07
79	0x3417eef0	1.4149896e-07
80	0x3419ae17	1.4312569e-07
81	0x3411da1e	1.3583528e-07
82	0x340ea3ba	1.3284344e-07
83	0x340db1b4	1.3196296e-07
84	0x3410d069	1.3486864e-07
85	0x34134beb	1.371806e-07
86	0x3417287c	1.4077699e-07
87	0x3411dcea	1.3584545e-07
88	0x3414c99d	1.385692e-07
89	0x341e3d8f	1.4737292e-07
90	0x3429b801	1.5806292e-07
91	0x3431b7c3	1.6551262e-07
92	0x342d4912	1.6138463e-07
93	0x34284236	1.5670307e-07
94	0x342769d9	1.5591594e-07
95	0x342949f3	1.5766254e-07
96	0x342ac200	1.590306e-07
97	0x34277575	1.5595818e-07
98	0x3425cac1	1.5440584e-07
99	0x34270cec	1.5557788e-07
100	0x3427645d	1.5589599e-07
101	0x34213751	1.5014417e-07
102	0x34200125	1.4901578e-07
103	0x341dee59	1.4708475e-07
104	0x3418d81a	1.423472e-07
105	0x3415d769	1.3955072e-07
106	0x340ec31b	1.329576e-07
107	0x340d8a25	1.3181905e-07
108	0x34132502	1.3703905e-07
109	0x3415e611	1.3960404e-07
110	0x3410a266	1.3470125e-07
111	0x34124bdd	1.3624908e-07
112	0x34125a05	1.3630059e-07
113	0x341d63c0	1.4658053e-07
114	0x3424ea98	1.5359035e-07
115	0x34293af5	1.57608e-07
116	0x342bda6c	1.6005077e-07
117	0x34288eb4	1.5698134e-07
118	0x34307013	1.643205e-07
119	0x3428030e	1.564733e-07
120	0x3426babc	1.5527888e-07
121	0x342b1408	1.5932903e-07
122	0x342ccaf5	1.6092584e-07
123	0x3425c9f8	1.5440298e-07
124	0x34191109	1.4255433e-07
125	0x342034bd	1.4920347e-07
126	0x342675ee	1.5502857e-07
127	0x341ed102	1.4790933e-07
128	0x3417ab30	1.4125249e-07
129	0x34119e90	1.3561862e-07
130	0x340d9d24	1.3188816e-07
131	0x340ee46e	1.3307883e-07
132	0x340d28c8	1.3146484e-07
133	0x341138bf	1.3524821e-07
134	0x3414c6a2	1.3855836e-07
135	0x34137dd2	1.3736215e-07
136	0x3414cd80	1.3858335e-07
137	0x3423b96f	1.5248018e-07
138	0x342dacf7	1.6174805e-07
139	0x342881b4	1.5693405e-07
140	0x342c6acb	1.60576e-07
141	0x342fb5e8	1.6364322e-07
142	0x342ab631	1.5898765e-07
143	0x342a6d53	1.5872256e-07
144	0x34372813	1.7057782e-07
145	0x3433ed23	1.6756944e-07
146	0x342a8237	1.5879856e-07
147	0x3426ad13	1.5522919e-07
148	0x341de2aa	1.4704224e-07
149	0x341df9d3	1.471265e-07
150	0x3420c7a3	1.4973789e-07
151	0x341ba659	1.4496017e-07
152	0x341a7221	1.4383888e-07
153	0x341881e6	1.420336e-07
154	0x340e9ef2	1.3282605e-07
155	0x34100860	1.3414092e-07
156	0x3416bdfe	1.4038957e-07
157	0x34172d3e	1.407943e-07
158	0x340e09b6	1.3228313e-07
159	0x340bfa77	1.3036502e-07
160	0x340c6613	1.307565e-07
161	0x341c69a3	1.4567063e-07
162	0x34215309	1.5024501e-07
163	0x3425ffbb	1.5459857e-07
164	0x342ec35f	1.6276088e-07
165	0x342f260a	1.6311984e-07
166	0x342bc860	1.5998512e-07
167	0x3427cb03	1.5626942e-07
168	0x342c82be	1.6066312e-07
169	0x3432848a	1.6625759e-07
170	0x342938f8	1.5760077e-07
171	0x3428b799	1.5713012e-07
172	0x342497e4	1.5328948e-07
173	0x341ebca5	1.4783525e-07
174	0x341edc26	1.4794986e-07
175	0x3421d9ba	1.5073502e-07
176	0x341d0471	1.462338e-07
177	0x341496d5	1.3838446e-07
178	0x34108366	1.3458848e-07
179	0x340dbd63	1.3200547e-07
180	0x340df7fa	1.3221862e-07
181	0x340e42c2	1.3249067e-07
182	0x3411de6f	1.3585098e-07
183	0x341318cc	1.3699463e-07
184	0x341160b5	1.3539359e-07
185	0x341d6776	1.4659403e-07
186	0x342c0038	1.6018828e-07
187	0x34287dbe	1.5691964e-07
188	0x342f7bbb	1.6343158e-07
189	0x342be658	1.6009415e-07
190	0x3421971b	1.5049265e-07
191	0x342143ba	1.5018932e-07
192	0x342d82f3	1.615952e-07
193	0x34237081	1.5221487e-07
194	0x3422b688	1.515383e-07
195	0x34232597	1.5194233e-07
196	0x341d77a9	1.4665297e-07
197	0x3420b297	1.4966132e-07
198	0x341fb37e	1.4873328e-07
199	0x34145333	1.3813842e-07
200	0x3417fc51	1.4154763e-07
201	0x3414f477	1.387251e-07
202	0x340b2eca	1.2962406e-07
203	0x34100565	1.3413008e-07
204	0x34129c27	1.3654117e-07
205	0x3415a020	1.393496e-07
206	0x3412a298	1.3656461e-07
207	0x34174949	1.4089632e-07
208	0x3413f0e2	1.3778075e-07
209	0x34206169	1.4936599e-07
210	0x3428937f	1.5699878e-07
211	0x34273ed1	1.557594e-07
212	0x3426a264	1.5519032e-07
213	0x3426cf81	1.5535444e-07
214	0x3429130b	1.574628e-07
215	0x34297fc7	1.5785837e-07
216	0x342c9329	1.6072285e-07
217	0x34321235	1.6584166e-07
218	0x342eb2f8	1.6270121e-07
219	0x34307147	1.6432487e-07
220	0x342232a9	1.5105856e-07
221	0x3421327f	1.5012664e-07
222	0x341c0fa8	1.4534328e-07
223	0x34132ece	1.370747e-07
224	0x341574a2	1.3919137e-07
225	0x3411a833	1.3565368e-07
226	0x340733a3	1.259164e-07
227	0x34111105	1.3510369e-07
228	0x34167b90	1.401479e-07
229	0x3415ff8a	1.3969671e-07
230	0x3412270b	1.3611513e-07
231	0x341460db	1.381881e-07
232	0x341685f0	1.4018565e-07
233	0x3421b0d9	1.505863e-07
234	0x34250e83	1.5372102e-07
235	0x3425bb50	1.5434966e-07
236	0x34261b16	1.5469809e-07
237	0x34284d0b	1.5674247e-07
238	0x342bad14	1.5988581e-07
239	0x342dcedb	1.6187134e-07
240	0x342f863a	1.6346976e-07
241	0x3432ac73	1.6640278e-07
242	0x342dc7e3	1.6184599e-07
243	0x34299878	1.579482e-07
244	0x3429c88c	1.581231e-07
245	0x34281d87	1.5656961e-07
246	0x3424f676	1.5363352e-07
247	0x341ba5c9	1.4495812e-07
248	0x34150c1d	1.3881113e-07
249	0x341a02e3	1.4343418e-07
250	0x34127fd6	1.3643816e-07
251	0x3412ca71	1.3670957e-07
252	0x341d6be3	1.4661013e-07
253	0x34195483	1.427998e-07
254	0x341955b4	1.4280414e-07
255	0x34196a81	1.4287981e-07

exp_avg f4 [96]
0	0xb9079b21	-0.00012932393
1	0xb71aa63e	-9.217822e-06
2	0xb8f74924	-0.00011791501
3	0xb88a7e0d	-6.6038316e-05
4	0xb9500249	-0.00019837277
5	0xb99cfd0e	-0.0002994318
6	0xb93c1505	-0.00017936908
7	0x39827e37	0.0002488957
8	0x3963f05e	0.00021737951
9	0x39e2c5be	0.00043253409
10	0x3986ace2	0.0002568728
11	0x39a611e0	0.00031675305
12	0x39c57658	0.0003766294
13	0x39498805	0.00019219525
14	0x39ba292a	0.00035507354
15	0x39a85d5a	0.0003211301
16	0x38e3d7ee	0.000108644235
17	0x3867f5b4	5.530352e-05
18	0x37391812	1.1032464e-05
19	0x36343770	2.685436e-06
20	0x38d4c5f4	0.000101458194
21	0x36f6fe25	7.3609576e-06
22	0xb994af13	-0.000283592
23	0xb945aab6	-0.00018850979
24	0xb91df69a	-0.00015064553
25	0xb9fa5170	-0.00047744391
26	0xb9f20a2c	-0.00046165416
27	0xb9be92ad	-0.00036348906
28	0xb8fe23d1	-0.00012118335
29	0xb8335e2a	-4.2764623e-05
30	0xb8acac10	-8.233648e-05
31	0xb90ddaf7	-0.00013528379
32	0xb9899ae6	-0.00026246085
33	0x37266813	9.918603e-06
34	0x3958cc32	0.00020675434
35	0x384b8f4b	4.8532424e-05
36	0x37bedfc1	2.2753959e-05
37	0x38816a58	6.1710074e-05
38	0x394b53c1	0.0001939079
39	0x3956763f	0.0002045268
40	0x391a2e71	0.00014703885
41	0xb7f262fc	-2.8894741e-05
42	0xb7d9a48f	-2.5945044e-05
43	0xb9980e37	-0.0002900229
44	0xb88411d9	-6.297575e-05
45	0xb93215a5	-0.00016983466
46	0xb96d170b	-0.00022610665
47	0xb975643c	-0.00023402361
48	0xb90c7464	-0.000133948
49	0xb978d414	-0.00023730128
50	0xb91f79c0	-0.00015208777
51	0xb8353c69	-4.3210024e-05
52	0xb876d987	-5.885356e-05
53	0xb9131429	-0.00014026523
54	0xb8a95531	-8.074416e-05
55	0xb91a7af5	-0.0001473239
56	0xb901f909	-0.00012395172
57	0xb7f5d751	-2.930654e-05
58	0xb88b01a6	-6.6283435e-05
59	0x3957ead5	0.0002059148
60	0x3855eeaa	5.100543e-05
61	0x36064944	2.0010202e-06
62	0x3947bef0	0.00019049249
63	0x38991565	7.2995936e-05
64	0x39334b9a	0.00017098934
65	0x3818c0ea	3.641929e-05
66	0xb5b62b1b	-1.3572602e-06
67	0xb8c1f82c	-9.249183e-05
68	0xb90ddb00	-0.00013528392
69	0xb90b39dd	-0.00013277629
70	0x38b30b10	8.537446e-05
71	0xb801caf6	-3.094502e-05
72	0xb9273d5a	-0.00015949216
73	0xb9b2c4f9	-0.00034097562
74	0xb988c516	-0.00026086782
75	0xb9745a56	-0.00023303306
76	0xb93fa3f1	-0.00018276252
77	0xb9748590	-0.00023319409
78	0xb89e881b	-7.559379e-05
79	0xb88920f6	-6.5388085e-05
80	0xb8f63ca2	-0.00011741488
81	0x38459be8	4.711366e-05
82	0x396c6e46	0.00022547794
83	0x39c6d41c	0.00037923537
84	0x364c74e4	3.0466408e-06
85	0x3850d99b	4.9793725e-05
86	0x38dfde95	0.00010674928
87	0xb8f0f34a	-0.00011489408
88	0x397bb986	0.00024006338
89	0xb5c2af16	-1.4505083e-06
90	0xb99075cc	-0.00027553586
91	0xb99d3e24	-0.00029991672
92	0xb966c5e8	-0.00022008235
93	0xb9663761	-0.0002195514
94	0xb8df85c1	-0.00010658382
95	0xb8f75c9b	-0.00011795127

exp_avg_sq f4 [96]
0	0x35020f58	4.84511e-07
1	0x3508b5f0	5.09287e-07
2	0x3508b22a	5.092321e-07
3	0x350b5706	5.190817e-07
4	0x350f5c06	5.3405563e-07
5	0x35133ff9	5.485486e-07
6	0x35144da5	5.5247284e-07
7	0x351260e2	5.453022e-07
8	0x3513c530	5.5048713e-07
9	0x35131f2c	5.480713e-07
10	0x3519fb2f	5.736246e-07
11	0x351f7b92	5.9411934e-07
12	0x3529297b	6.301777e-07
13	0x351a0304	5.737386e-07
14	0x35207283	5.977128e-07
15	0x351ee635	5.919458e-07
16	0x351c37b4	5.819559e-07
17	0x351d58d1	5.86163e-07
18	0x3514a83a	5.53791e-07
19	0x35141c98	5.5175906e-07
20	0x35151bb1	5.554712e-07
21	0x3514e292	5.5464e-07
22	0x351965e5	5.714522e-07
23	0x351d8851	5.8685424e-07
24	0x35190d3f	5.701622e-07
25	0x35104d35	5.375653e-07
26	0x3516777a	5.6053216e-07
27	0x351898dd	5.684686e-07
28	0x351904fd	5.70042e-07
29	0x351ad8a2	5.768471e-07
30	0x35210903	5.999029e-07
31	0x3522e92c	6.068901e-07
32	0x35204a36	5.9712636e-07
33	0x3514a1dc	5.536983e-07
34	0x35194411	5.709599e-07
35	0x351e9738	5.907964e-07
36	0x35208e98	5.9812146e-07
37	0x351a59c8	5.750012e-07
38	0x351f6205	5.9374753e-07
39	0x351aaefc	5.7624106e-07
40	0x351e633c	5.900399e-07
41	0x351cc2e1	5.8398115e-07
42	0x351442eb	5.5231675e-07
43	0x3515b432	5.5769044e-07
44	0x351b4a61	5.7850235e-07
45	0x3513e1c8	5.509032e-07
46	0x351463fd	5.52798e-07
47	0x35122d74	5.445538e-07
48	0x35116ae9	5.4172284e-07
49	0x3516370e	5.595947e-07
50	0x35132962	5.482199e-07
51	0x350f80ba	5.3458973e-07
52	0x35134bbc	5.4871975e-07
53	0x3516c292	5.616249e-07
54	0x35144d77	5.524702e-07
55	0x3517ecd6	5.6596525e-07
56	0x3517c748	5.6541876e-07
57	0x3518d8c6	5.693986e-07
58	0x351cf6ab	5.847348e-07
59	0x351aa63c	5.7611373e-07
60	0x3519883d	5.7195194e-07
61	0x35173984	5.633558e-07
62	0x351b1209	5.7768244e-07
63	0x3519584f	5.712545e-07
64	0x351654f2	5.6002966e-07
65	0x351778b4	5.642753e-07
66	0x3516bdbd	5.615546e-07
67	0x3518262f	5.6679977e-07
68	0x3516ea70	5.6220506e-07
69	0x35167c70	5.6060435e-07
70	0x35194eed	5.7111794e-07
71	0x351e36e8	5.8939486e-07
72	0x3517cca3	5.654967e-07
73	0x351ce32b	5.84451e-07
74	0x351cc7d1	5.84053e-07
75	0x3520affc	5.9860736e-07
76	0x351f3779	5.931284e-07
77	0x35217241	6.0143435e-07
78	0x352448e7	6.120085e-07
79	0x351f4be1	5.9342534e-07
80	0x3518f41f	5.6979655e-07
81	0x351853f7	5.67466e-07
82	0x35137c43	5.494259e-07
83	0x351a5f1c	5.7507873e-07
84	0x351672dc	5.6046497e-07
85	0x3511cb7a	5.4312807e-07
86	0x35198ab6	5.719879e-07
87	0x3514e573	5.546819e-07
88	0x35123351	5.4463914e-07
89	0x3513ddc2	5.508447e-07
90	0x351a9e50	5.7599846e-07
91	0x35179248	5.646475e-07
92	0x35145b07	5.526676e-07
93	0x35137edb	5.4946366e-07
94	0x3519f26e	5.7349723e-07
95	0x3518962e	5.684295e-07

exp_avg f4 [96, 336]
0	0xb98a9836	-0.00026434817
1	0xb986cf09	-0.00025712725
2	0xb98276d2	-0.0002488406
3	0xb97e8556	-0.00024272999
4	0xb96f5c79	-0.00022827265
5	0xb961b295	-0.00021524199
6	0xb9538669	-0.000201726
7	0xb941a658	-0.00018467882
8	0xb937a5d2	-0.00017514013
9	0xb930adbd	-0.0001684939
10	0xb931deee	-0.00016963083
11	0xb92f0be9	-0.00016693737
12	0xb930b873	-0.0001685338
13	0xb930c701	-0.00016858803
14	0xb92b02ad	-0.00016308828
15	0xb92bd021	-0.00016385365
16	0xb9252544	-0.00015749509
17	0xb9280f88	-0.00016027514
18	0xb925d229	-0.00015813917
19	0xb921487e	-0.00015381162
20	0xb916b19b	-0.00014371278
21	0xb90d3753	-0.00013467418
22	0xb90fba08	-0.00013706845
23	0xb90949a5	-0.00013092773
24	0xb904a9d6	-0.0001265177
25	0xb90b6334	-0.00013293029
26	0xb908a0d2	-0.00013029881
27	0xb90a0ebb	-0.00013166193
28	0xb9042600	-0.00012602657
29	0xb905a2a8	-0.00012744463
30	0xb90ad016	-0.00013238224
31	0xb90a0889	-0.00013163885
32	0xb90af415	-0.00013251633
33	0xb90d4754	-0.0001347338
34	0xb909a07d	-0.00013125125
35	0xb9052e9d	-0.00012701233
36	0xb9022d0c	-0.00012414547
37	0xb8fedda0	-0.00012152945
38	0xb9020342	-0.0001239898
39	0xb905ae32	-0.00012748761
40	0xb909ee8f	-0.00013154208
41	0xb90edfb4	-0.00013625511
42	0xb917f321	-0.00014491055
43	0xb92468ba	-0.00015679272
44	0xb929816d	-0.00016165311
45	0xb92e9b78	-0.0001665185
46	0xb930928c	-0.00016839261
47	0xb92dd6bf	-0.00016578565
48	0xb9273005	-0.0001594425
49	0xb92402d1	-0.00015641308
50	0xb92440bf	-0.00015664379
51	0xb919f59b	-0.00014682712
52	0xb912fc67	-0.00014017672
53	0xb9138bdb	-0.00014071113
54	0xb9153e38	-0.00014232926
55	0xb90f2af3	-0.00013653543
56	0xb917fc79	-0.00014494536
57	0xb91d1fcc	-0.00014984532
58	0xb9217b11	-0.00015400002
59	0xb9241b33	-0.00015650391
60	0xb92a5fe2	-0.00016248183
61	0xb925ffbb	-0.00015830893
62	0xb91edafb	-0.00015149631
63	0xb91f57a1	-0.00015196066
64	0xb920ca88	-0.00015334238
65	0xb923536e	-0.00015575971
66	0xb924a6c9	-0.00015702391
67	0xb91d8c07	-0.00015024851
68	0xb91b24a6	-0.00014795605
69	0xb91ae9dd	-0.00014773705
70	0xb9196fe7	-0.00014632904
71	0xb9276802	-0.00015965107
72	0xb92f8e41	-0.00016742294
73	0xb9392e8e	-0.00017660318
74	0xb93c6f9a	-0.00017970652
75	0xb9448eb1	-0.00018745173
76	0xb9456435	-0.00018824714
77	0xb94ab339	-0.00019330987
78	0xb943a3d0	-0.00018657674
79	0xb93f3e6c	-0.00018238433
80	0xb9448699	-0.00018742158
81	0xb944c67f	-0.00018765962
82	0xb941c85e	-0.00018480557
83	0xb9494203	-0.00019193445
84	0xb9438553	-0.00018646316
85	0xb93f0dda	-0.0001822034
86	0xb947ef19	-0.0001906719
87	0xb950fd46	-0.00019930777
88	0xb94fa027	-0.0001980072
89	0xb957e7aa	-0.000205903
90	0xb95861f9	-0.00020635863
91	0xb9545eb2	-0.00020253172
92	0xb958b120	-0.0002066535
93	0xb95b30b5	-0.00020903612
94	0xb95e6853	-0.00021210434
95	0xb960ed92	-0.00021450807
96	0xb95b7041	-0.00020927285
97	0xb95817af	-0.00020608188
98	0xb95c9d69	-0.00021039475
99	0xb958a38e	-0.00020660294
100	0xb956376b	-0.00020429275
101	0xb94a82fa	-0.00019313014
102	0xb94ba5d5	-0.00019421366
103	0xb95159b1	-0.00019965206
104	0xb95bb760	-0.0002095378
105	0xb9624e8a	-0.00021582298
106	0xb95f4aa2	-0.0002129474
107	0xb95dde2f	-0.00021158972
108	0xb95fb2f4	-0.00021333602
109	0xb9641354	-0.00021750975
110	0xb963314d	-0.00021666773
111	0xb95d976e	-0.00021132614
112	0xb94eb5c2	-0.00019713401
113	0xb948b3c3	-0.00019140453
114	0xb9430ef4	-0.0001860222
115	0xb936d1a4	-0.0001743497
116	0xb9304465	-0.00016810147
117	0xb92c5a9b	-0.00016436951
118	0xb931c43e	-0.00016953141
119	0xb930cfe7	-0.00016862118
120	0xb933429d	-0.00017095586
121	0xb936d81c	-0.0001743738
122	0xb941a528	-0.0001846744
123	0xb9417392	-0.00018448968
124	0xb948b2b6	-0.00019140061
125	0xb94a33e2	-0.00019283549
126	0xb9502465	-0.00019849984
127	0xb953c69e	-0.00020196519
128	0xb95fcf13	-0.00021344078
129	0xb9640741	-0.00021746477
130	0xb96eb1e9	-0.00022763725
131	0xb981a98c	-0.0002473112
132	0xb9860fd1	-0.00025570256
133	0xb984f65b	-0.0002536055
134	0xb9831aa0	-0.00025006104
135	0xb9833e08	-0.00025032484
136	0xb98567cb	-0.0002544507
137	0xb98a1476	-0.00026336656
138	0xb9873353	-0.00025787446
139	0xb9890fda	-0.00026142487
140	0xb98c4af1	-0.00026758717
141	0xb98b10da	-0.000265247
142	0xb98e06c3	-0.00027089388
143	0xb98e82f7	-0.00027181927
144	0xb98e73e5	-0.000271707
145	0xb98ba79f	-0.00026637033
146	0xb98a4804	-0.00026375067
147	0xb98735fd	-0.0002578943
148	0xb983cac2	-0.00025137333
149	0xb97e6302	-0.00024260211
150	0xb97068c0	-0.00022927206
151	0xb968dedb	-0.00022208264
152	0xb9666a61	-0.00021974139
153	0xb95dfe84	-0.00021171017
154	0xb956c5df	-0.00020482343
155	0xb94f4d50	-0.0001976986
156	0xb949fd44	-0.00019263203
157	0xb943eecc	-0.00018685608
158	0xb93a595b	-0.0001777163
159	0xb93bea1c	-0.00017920922
160	0xb93cc3fb	-0.00018002086
161	0xb943af8d	-0.00018662047
162	0xb943bbec	-0.00018666656
163	0xb94f778d	-0.00019785594
164	0xb9508056	-0.00019884235
165	0xb9505810	-0.00019869232
166	0xb958989b	-0.00020656215
167	0xb94ff666	-0.00019832849
168	0xb95488d5	-0.0002026887
169	0xb94b654f	-0.00019397329
170	0xb94d3c1a	-0.00019572713
171	0xb950b106	-0.00019902372
172	0xb947a88b	-0.00019040906
173	0xb94561c8	-0.0001882381
174	0xb93fe046	-0.00018298728
175	0xb94a0f4f	-0.00019269924
176	0xb9527a5c	-0.00020072743
177	0xb957be9a	-0.00020575002
178	0xb968ec8f	-0.00022213369
179	0xb977e3ba	-0.0002364059
180	0xb9817f62	-0.00024699705
181	0xb981f407	-0.00024786612
182	0xb983de07	-0.0002515169
183	0xb9844855	-0.00025230894
184	0xb985b213	-0.00025500412
185	0xb985eb51	-0.0002554306
186	0xb9864734	-0.00025611522
187	0xb982dee7	-0.00024961607
188	0xb97de570	-0.00024213432
189	0xb9838b77	-0.00025090176
190	0xb97f590c	-0.00024351868
191	0xb97ea237	-0.00024283757
192	0xb97fec65	-0.00024406759
193	0xb9831f4e	-0.0002500959
194	0xb983c0c5	-0.00025129892
195	0xb988a65d	-0.00026063892
196	0xb98822e0	-0.00025965925
197	0xb989e510	-0.0002630134
198	0xb9888384	-0.00026037928
199	0xb9883d68	-0.00025985693
200	0xb98c256b	-0.0002673076
201	0xb98de9fb	-0.00027067945
202	0xb98c6755	-0.0002677987
203	0xb98ce48e	-0.00026873167
204	0xb98b1ec1	-0.0002653506
205	0xb987d8df	-0.00025910788
206	0xb982a3bf	-0.00024917533
207	0xb9813fd5	-0.00024652356
208	0xb98004f0	-0.0002441774
209	0xb97f4a92	-0.00024346475
210	0xb979ac6a	-0.0002381072
211	0xb976646a	-0.00023497795
212	0xb9761149	-0.00023466827
213	0xb970a6ab	-0.00022950272
214	0xb9714da9	-0.00023012482
215	0xb96c482b	-0.00022533599
216	0xb96b1a89	-0.00022421232
217	0xb968faa6	-0.00022218618
218	0xb9673280	-0.0002204869
219	0xb967eb67	-0.00022117571
220	0xb95ea5d1	-0.00021233341
221	0xb95be880	-0.0002097208
222	0xb950b15f	-0.00019902502
223	0xb9494bd4	-0.00019197102
224	0xb9543cf0	-0.00020240596
225	0xb95812bd	-0.00020606346
226	0xb955bcad	-0.0002038355
227	0xb95b5737	-0.00020917958
228	0xb95c0f4b	-0.00020986532
229	0xb957eaf6	-0.00020591528
230	0xb956376a	-0.00020429274
231	0xb952c811	-0.00020101691
232	0xb954690d	-0.0002025703
233	0xb94f9c53	-0.00019799294
234	0xb9537339	-0.00020165452
235	0xb950e893	-0.00019923066
236	0xb94c16b1	-0.00019463409
237	0xb94b66ed	-0.00019397931
238	0xb94ba610	-0.00019421452
239	0xb948f7ca	-0.00019165795
240	0xb94e66b8	-0.00019683957
241	0xb949f6da	-0.00019260813
242	0xb9473894	-0.00018999196
243	0xb93aafb8	-0.00017803803
244	0xb9359b70	-0.0001731941
245	0xb928e36f	-0.00016106454
246	0xb926928a	-0.00015885584
247	0xb922c2d9	-0.0001552211
248	0xb925f86e	-0.00015828173
249	0xb925cfbd	-0.00015813015
250	0xb92aa848	-0.00016275153
251	0xb9285437	-0.00016053101
252	0xb920e769	-0.00015344996
253	0xb9200daa	-0.0001526388
254	0xb91ae360	-0.00014771288
255	0xb9146dc2	-0.00014155268
