checkpoints/DLinear/ETTh1_100_336_96/32ee901496c9ad4dc68d9ef852bcab02/DLinear_best_val_MAE.pt (torch, 782442 bytes, 12 tensors)

Linear_Seasonal.weight f4 [96, 336]
00000000: b6b9 043d d221 5ebc 57a4 98bb 8676 ff3a
00000010: c92f d2bb 0efa 8738 de98 5abb b4fc 12bc
00000020: 0dc3 ceba 2be0 06bb b43e 42bb c89c 4ebb
00000030: daf0 94bb e8b6 de3a 0600 0abc ade3 02bc
00000040: 4c2a c7bb c5bc 43bb 13fc 89bb 41f6 9ebc
00000050: 6cf2 f33a dcfb 3ebb 3df6 74bc f81d dfbc
00000060: 9c66 fd3c 1272 073c 3577 14bc 26c3 49bb
00000070: 50bf cfba 2cfb bc3b 3bc4 d3ba 9c0b cbba
00000080: 8bf8 a2bb 1a04 873a 7077 d5bb 02b9 88bb
00000090: 5d84 2ebc 1a49 a4bb ea88 71bb 0dd0 793b
000000a0: 342d 45bc 44c2 30bc b26f c0bb a882 14bc
000000b0: ac02 6abb 1979 1ebc 45b9 d8bc b08e 5dbd
000000c0: 4ebe 423d a063 36bc f380 10bc 2649 8dbc
000000d0: 0a5a d8bb 1f67 02bd 4aac 03bc 5330 0ebc
000000e0: 24eb 80bc e5b9 aebc d7a7 a9bc 4c63 77bc
000000f0: 1cdf 5fbc 5c53 9fbb 43cc 32bc 90c8 9bbc
00000100: 26fb 37bc 1650 57bc 4598 4bba a453 babc
00000110: 6e35 24bb cb0a 8f3b 7dfc 56bc 0829 eebc
00000120: ebb8 163d 71ea 5bbc 94e9 abbb a457 a4bb
00000130: e662 863c 2b22 dfbb b020 8f3b ff24 423b
00000140: 0a57 68ba e144 8d3a 7e5e 3e3b 07a0 573b
00000150: 0690 183c 8750 ac3b 89e8 16bc d777 f5b9
00000160: 64c5 573b 0d68 d8b8 22c0 81bb 7699 10bb
00000170: 11bf 713a 34ae b9bb dabe 71bc 3f8b 24bd
00000180: 2e48 b43c f6ec 7abb f575 a8bc 34c6 bf3b
00000190: 95ce dcbc d29d 23bb 8fd3 a8bb 22bd 81bc
000001a0: 9951 7ebc 73ae 34bc d56a 54bb 7842 21bc
000001b0: 50f2 96bb efda febb f048 f8bb 3645 48bc
000001c0: 57cf 99b9 79d6 e7ba cf3e 08bb c7ce a4bb
000001d0: 0b53 df3b 84ac 833c 3f90 41bc 3f9e 23bd
000001e0: 7a38 4d3d b02a a93b a6e9 cf3a dc5b a139
000001f0: ad07 15bb c9e3 12bc 7396 773b 4ce4 323b
00000200: 5e55 f03b 2532 20bc 5171 32ba 86d6 b73a
00000210: 95a5 b7bb 4ef4 4c3b fe8e 59bb c638 46bc
00000220: ec61 8b3a eb1a b83a 329c 853a a242 8bbb
00000230: cbd2 8cbb 002c 0bbb 2640 09bc f3eb 48bd
00000240: ac95 093d 408d 79ba 63fc edbb 60ce 21bc
00000250: 227b 03bb 13ba 413c 9183 723b 973c 583b
00000260: 960f 8aba f41e 9c3b 28e9 093c bd3a 7d3b
00000270: da75 463c 85b8 a13b 4543 333c 3cb8 553c
00000280: 0c61 b73b 9e03 cfb7 f313 553c 6cd0 cf3b
00000290: a2c9 993c 34eb b23b 6171 3c3c bb14 e5bc
000002a0: 471b 5e3d 914f 163c 2d6b 9e39 7aed 233c
000002b0: 1bd0 b83b 99e4 573b 9d92 a13b 4eb6 ccb9
000002c0: 86b9 af3a 4b64 8dbb ebb5 d6bb fcf7 98bb
000002d0: 345c 0a3b 0434 3bbc cf6f 78bb 7696 43ba
000002e0: fdfb 9cbb 2f48 b4bb b6cf be3a f586 96bc
000002f0: ae3b 4b3b a2e6 05bc dc7c 18bc ebc0 2abd
00000300: df89 6c3d 6538 bf3b 7fb0 d73b 196f 7fbb
00000310: fc36 c1ba 68f7 6a3b 03a7 d33b 370b 293c
00000320: 69e4 833b 1bb8 1b3c a2d3 f63a ecd3 7c3b
00000330: 8127 e43b b2de 0aba 1ca1 5eba 69cd 423c
00000340: a497 c43b 2b66 26bc c2de 123c 6f69 73ba
00000350: 51ef 88bb df35 27bc d975 1bbc 6926 32bd
00000360: 2d6f 5f3d 516c ca3b 942d 4abc 681c b6bb
00000370: ef0c 54bc fa9b a3b9 c2fe 77bc 19df ecbb
00000380: 8ba0 b5bb 5ec1 07bb 3680 82bc 0f7b 0fbc
00000390: 4946 7cbc 8612 22bc f637 85bb f024 c33b
000003a0: 43e1 24bc d4ea 95bb 4767 a1bb 4c63 2ebc
000003b0: fe32 52bb 8ee3 e9bb ef27 0dbd 7b3e 68bd
000003c0: 4cd1 7d3d 6d42 863b 63d6 baba 1fc0 2ebc
000003d0: 9134 cd3b 0cef 77bc 0293 06bc 1a7f c5bb
000003e0: 9154 e5bb 4b80 04bc c495 3ebb f7de ac3a
000003f0: 54ea 26ba 6b37 c23b 4fc9 87bb e0f6 c5bb
0.03240367 -0.013557868 -0.0046582627 0.0019490279 -0.006414388 6.483878e-05 -0.0033355276 -0.008971382
-0.0015774682 -0.0020580392 -0.0029639425 -0.0031526554 -0.0045453133 0.0016991766 -0.008422857 -0.007988852
-0.00607804 -0.0029867154 -0.004210958 -0.019404532 0.0018611676 -0.002914182 -0.014951286 -0.02723597
0.030932717 0.008266943 -0.009061624 -0.0030786484 -0.0015849862 0.0057672467 -0.0016156504 -0.0015491131
-0.0049734763 0.0010300905 -0.006514482 -0.0041724453 -0.010651675 -0.005013597 -0.0036855289 0.0038118393
-0.012034703 -0.010788504 -0.00587269 -0.009064354 -0.003570716 -0.009672427 -0.02645553 -0.054091156
0.04754477 -0.011132151 -0.008819806 -0.017246794 -0.0066025304 -0.031836625 -0.008036682 -0.008678514
-0.015737124 -0.021328876 -0.020709915 -0.015099358 -0.013664033 -0.004862232 -0.010912958 -0.019016534
-0.011229312 -0.013141653 -0.00077665254 -0.022744961 -0.002505626 0.0043653003 -0.013121721 -0.0290723
0.036797445 -0.013422594 -0.0052463505 -0.0050153304 0.01640458 -0.006809493 0.0043679103 0.0029624102
-0.00088630675 0.0010777974 0.002904802 0.003290178 0.009311682 0.005258623 -0.009210714 -0.0004681933
0.003292405 -0.000103190636 -0.0039596716 -0.0022064126 0.00092218915 -0.0056665186 -0.014754975 -0.040171858
0.022007074 -0.0038288212 -0.020564059 0.005852485 -0.026953975 -0.0024965894 -0.005152173 -0.015837256
-0.015522384 -0.01102792 -0.003241231 -0.009842508 -0.0046065226 -0.0077775638 -0.007577054 -0.012223532
-0.00029336914 -0.0017687819 -0.002078939 -0.0050295326 0.0068153194 0.016073473 -0.011814176 -0.039945837
0.05010269 0.0051625594 0.0015862479 0.00030776754 -0.002274017 -0.008965441 0.0037778884 0.002729672
0.0073343953 -0.00977758 -0.00068070466 0.0014025725 -0.0056044557 0.0031273547 -0.0033196802 -0.012098497
0.0010634041 0.0014046108 0.0010193645 -0.0042498866 -0.0042975894 -0.0021235943 -0.008377111 -0.049053144
0.033590004 -0.0009519644 -0.007262753 -0.009875864 -0.0020062407 0.011824149 0.003700469 0.0032995099
-0.001053321 0.004764432 0.008417405 0.0038639747 0.012113059 0.0049353265 0.010941331 0.013044413
0.0055962857 -2.4678007e-05 0.013005245 0.0063419845 0.018772904 0.0054601673 0.011501641 -0.027963987
0.054225232 0.009174244 0.0003021596 0.010005349 0.0056400425 0.0032942651 0.0049308077 -0.0003904574
0.0013406731 -0.0043149344 -0.006552448 -0.004668234 0.0021112086 -0.011425976 -0.003790844 -0.000746108
-0.0047907815 -0.005501769 0.0014557752 -0.0183749 0.0031010914 -0.008172663 -0.009307113 -0.041687887
0.05774867 0.00583558 0.0065823193 -0.0038976131 -0.0014741118 0.0035853032 0.0064591183 0.010317615
0.0040250313 0.009504343 0.0018831382 0.0038578464 0.006962717 -0.00052974664 -0.0008492635 0.011889794
0.0059995223 -0.010156195 0.008964242 -0.0009285425 -0.0041789194 -0.010205715 -0.009488546 -0.043493662
0.054549385 0.006177463 -0.012339968 -0.0055575855 -0.012942537 -0.00031205994 -0.015136423 -0.0072287438
-0.00554282 -0.002071462 -0.015930276 -0.008757367 -0.015397617 -0.009892112 -0.004065509 0.005955331
-0.010063472 -0.004575113 -0.0049256417 -0.010643791 -0.003207385 -0.0071377223 -0.03446191 -0.05670021
0.06196718 0.004097274 -0.0014254566 -0.010665922 0.00626237 -0.015132677 -0.00821376 -0.0060271146
-0.0069986065 -0.008087228 -0.0029080966 0.0013189007 -0.0006367315 0.0059270165 -0.004143871 -0.0060413927

Linear_Seasonal.bias f4 [96]
00000000: c7c7 c53b 520c 68bc abc0 b0bc c845 88b9
00000010: 0814 d3bc cb46 8b3c 4ca2 573b d19d 23bd
00000020: d03d 053c 10ad 163d 03da 2ebb 93dc 073d
00000030: fd9e f2bc 001b adbb edec bb3b fa4a b03c
00000040: 0bb9 33bd c26e b53b 399b cdbb 5d67 96bb
00000050: 22d0 82bb 0182 f3bb 873d 1a3a ddd1 e43b
00000060: 43f9 e6bc 2c41 47bd c72f 9838 68f4 3f3c
00000070: 27be 1a3c 3fdd fdbb fec0 0c3a facb f6bc
00000080: 77fe 3bbc 1a89 f93c b5b1 65bc ff1d 8abc
00000090: 0d11 af3c 85e2 68bc d3a6 21ba 90a1 c6bc
000000a0: 40f7 01bd 5b7e b83c 5225 d03c 8ea5 9c3c
000000b0: ebaa 1f3c 4246 93bc 0c50 95bb e910 46bc
000000c0: 51c7 2cbc fe6a 9fbb e033 963c 055b b63c
000000d0: 3d1d 133a 4f62 733b 636e 3ebc 4954 00bd
000000e0: 1312 8a3b 8bb0 4abc 37fb 51bb a0c3 083d
000000f0: eb16 723c 7a6b c83b a2ba 313c 8ea0 0c3d
00000100: 95ed 3dbc 4866 04bd fbcd 40bd 77b5 493c
00000110: bedb d6bb 5c76 f53a 3b3b 253c 8e68 883c
00000120: 0c4c 43bc e3a5 b13c 0d1a 6fbc b117 00bb
00000130: d61b ae3c 0953 af3c b4d8 98b9 675a f6bc
00000140: 1da6 95bb 2001 953c 3bae 0a3d f283 acbc
00000150: fc76 15bd 6f66 10bd 2b73 b23c 7792 fabc
00000160: 23b2 ea3b 4fbf 793c 2dfb 123d 05b4 23bd
00000170: 4c4d 4dbd 8cfd 66bc d14d a3bc c3ed 49bc
0.006035778 -0.014163094 -0.021576246 -0.00025991932 -0.025766388 0.01700153 0.0032903133 -0.039945427
0.008132413 0.03678614 -0.0026680238 0.03316934 -0.029616827 -0.0052827597 0.005735031 0.021520127
-0.043877643 0.005536885 -0.0062746075 -0.0045899586 -0.0039920965 -0.007431269 0.0005883802 0.0069830255
-0.02819503 -0.048646137 7.256824e-05 0.011715986 0.00944475 -0.007747322 0.0005369334 -0.03012656
-0.011474243 0.030460883 -0.014019419 -0.016860006 0.021370435 -0.014214163 -0.00061665213 -0.02424696
-0.031729937 0.022521188 0.02540842 0.019121911 0.00974534 -0.017977837 -0.0045566615 -0.012088993
-0.010545568 -0.0048650494 0.018335283 0.022260198 0.0005611962 0.0037137454 -0.011622998 -0.03133038
0.0042135804 -0.012371193 -0.0032040605 0.033389688 0.014775972 0.006116328 0.010847719 0.034332804
-0.0115922885 -0.032324106 -0.04707144 0.012311331 -0.006556957 0.001872729 0.010084922 0.016651418
-0.011919986 0.021685546 -0.014593613 -0.0019545371 0.021253508 0.021401899 -0.00029153156 -0.030072404
-0.0045669214 0.018189013 0.033857565 -0.02105901 -0.036490425 -0.03525394 0.021783432 -0.030587418
0.007162349 0.015243365 0.03588407 -0.039966602 -0.050122544 -0.014098536 -0.019934567 -0.012324753

Linear_Trend.weight f4 [96, 336]
00000000: 5f04 c4bc 3499 b5bc 4b8d be3c ebbb 5abc
00000010: f902 673c 473b 87bc 6f7e c8bc cd18 ae3b
00000020: f95c 503c eb06 ef3c f736 b6bc dbe7 a73c
00000030: 29dc e93c fbcc 23bc 30df b9ba 6416 e8bb
00000040: d383 323d 0b19 4b3c 0f85 92bb f02c f6bc
00000050: 5544 a8bc d893 cc3c 8542 35bd 7017 0bbc
00000060: a9f3 3d3d 0bc6 42bb 7285 133d 5f70 a6bc
00000070: 4c6a cc3c b633 72bb f18a 35bc 3654 67bc
00000080: ce37 0abc c9bb 1cbd 1750 02bd f069 123c
00000090: c6cf 0a3d 9222 7e3c 1b3b 2cbd be67 2ebc
000000a0: 511f ebbc 5772 8c3c e0c5 b13c 634d c2bc
000000b0: c232 e33a 5154 073d ed9a 643c c8e8 843c
000000c0: 5c6a c13c 8cb2 63bc 653c 2ebd 3084 633c
000000d0: fd0b 163d 9c82 433b 6051 36bd a3fb 153c
000000e0: 22aa f7bb a2be 1dbb a0f3 3b3a 9f33 ec3c
000000f0: 0a02 563c 8c56 5cbb bc03 b83b 2c6b 2f3c
00000100: 2b27 82bc e3ec 683c 0b6a 3c3b f3dc 023d
00000110: 7c1e ef3a 25a8 93bb 86d6 383d ce7f 14bd
00000120: 910c 30bd 7c8f 01bd 0eb7 fc3c 7edd 2cbb
00000130: 47bb cc3c 7974 d2bc 610c dfbb 33e5 aa3c
00000140: 175d 28bd 98b1 1ebd df70 273c 8e17 fabc
00000150: 98cc d73c 8d22 083d 79f0 18bd 32c3 3bbd
00000160: 663f f63c 69a7 90ba 8eea 14bc c5b8 ce3c
00000170: d637 933c 76c0 bd3c 73e4 e9bb 460a 15bd
00000180: 4c2e 113c e904 fb3c 4b1b 8bbc 76b3 49ba
00000190: 3479 00bd b7ad c43c f1ee 4b3c 9922 f83c
000001a0: 0ee7 f33b c7c2 1cbb ec3b 0d3d 82b6 ea3c
000001b0: d55d 823c 1d8e 1abc ce8a 41bd 1a14 45bd
000001c0: eb4d 1d3c abe3 e33a d501 c2bc 18c8 0b3d
000001d0: d036 003d 2771 e63c 532e debc f4ae aa3a
000001e0: 8b8b b5bc 915b 093c 6be0 1ebd 6526 103b
000001f0: 6a68 8fbc 2b5b cabb 5889 7abc b9a8 05bc
00000200: 858e 02bd 5e8c da3c 455f 0d3d 6c55 40bd
00000210: 9805 64bc 07c2 e23c b73e 353c b76f 133d
00000220: cf27 c43c b2b0 d8bc 2863 323d ccc4 243c
00000230: e775 17bd 55b5 1a3d dea1 033b 927a 31bc
00000240: 599e 56bc aa36 863b 6117 98bc c8bd b3ba
00000250: 27be d1bc aa77 a7bc 173e 123d 6676 243d
00000260: e9f0 2e3c a6a6 ce3c 3ca7 e7bb f2c2 08bd
00000270: d0f3 82bc cd8c a4bc e876 413c 1c04 383c
00000280: 1b1e 943b d7c5 e1bc 5ec4 393b e078 2bbd
00000290: 3175 24bc 8d50 353d 3938 42bd 0890 d03c
000002a0: 1fb6 edbc 3672 2c3d 1497 013d ce22 4ebd
000002b0: 8234 78bc 5c1e b8bc a91d 063d 003a 513b
000002c0: 8b22 843a 387d 0d3d e124 30bd 950e 89bc
000002d0: e2f8 7c3c 7937 eb3c 7b11 443a b4e8 463b
000002e0: 8c86 01bc da66 bc3c f769 8039 f1b2 f83c
000002f0: 6b9b fb3c d650 63bd 49c9 afbb c167 143d
00000300: abb2 093d a712 abbb 0bd3 f03c 31b8 4bbd
00000310: a608 b3bb 10e9 f1bc 1e12 0d3d b524 d33c
00000320: 508d 43bd 79df 43bd aca4 413c 26b4 ddba
00000330: c569 69bc 8b5c c3bc 3b34 30bb 30c5 0bbc
00000340: e664 b53b f5fc 17bc e464 c43b b8ef fbbb
00000350: 9258 03bd ee86 ab3c 14b5 a4bb 3b2a d83c
00000360: 1539 c03c 3b88 523d 1555 4f3d 2d28 0dbd
00000370: 599b 383c d33c 1bbd 2157 663c d2f4 4e3d
00000380: f099 dcbc 5682 17bd 4a2f 9abb aa98 aebc
00000390: 9495 3a3c 1d4e 093d fc80 14bb 9c73 883c
000003a0: 657d e3bc f774 b03c cef8 0fbd 0ffc 15bd
000003b0: 341a 3bbc aec3 823c ed60 3d3c b60b fb3c
000003c0: f2ef dbbc 0f5c 96bc 6c91 97bc 8e11 2a3d
000003d0: 67e7 5ebc f3bf 883c 34d3 933b af5e 113d
000003e0: 4ac3 223d 477f c53c 6ccf a0bc c09f d4bc
000003f0: 0609 1d3d 8863 63bc 6675 24bd 8350 943b
-0.023927866 -0.02216778 0.023260733 -0.013350467 0.01409983 -0.016507758 -0.02447435 0.005313015
0.012717479 0.029178103 -0.022243006 0.0204963 0.028547363 -0.009997602 -0.0014180895 -0.0070827473
0.04358275 0.012396107 -0.004471428 -0.030050725 -0.020540396 0.024972841 -0.04425289 -0.008489475
0.04637495 -0.0029720094 0.036015935 -0.020317255 0.02495303 -0.0036957092 -0.0110804895 -0.014119199
-0.008436156 -0.038265023 -0.03181466 0.00893639 0.033889554 0.015511172 -0.042048555 -0.010644851
-0.028701456 0.017144365 0.0217008 -0.023718541 0.0017333853 0.033039395 0.013952953 0.01622428
0.023610286 -0.013897549 -0.042538065 0.013886496 0.036632527 0.0029832488 -0.0445112 0.009154233
-0.007558123 -0.0024069925 0.0007169787 0.028833209 0.01306201 -0.0033620922 0.0056156795 0.010706704
-0.015887817 0.014216634 0.002874973 0.031948995 0.0018243338 -0.0045061284 0.04512646 -0.036254697
-0.042980734 -0.031630978 0.030849006 -0.0026377137 0.024991645 -0.025690304 -0.0068068956 0.020861244
-0.041104402 -0.038743585 0.010219782 -0.03052881 0.026342675 0.033236075 -0.037338708 -0.04584045
0.030059528 -0.001103622 -0.009089125 0.02523459 0.01797096 0.023163062 -0.007137829 -0.03638675
0.008861136 0.03064199 -0.016980788 -0.0007694283 -0.03136559 0.024008615 0.012447105 0.030289935
0.0074433153 -0.0023919807 0.034480974 0.02865148 0.015913883 -0.0094332965 -0.047251515 -0.048114873
0.009601097 0.0017386576 -0.023682514 0.03412637 0.031302273 0.028130127 -0.027121698 0.0013022111
-0.022161266 0.008383648 -0.03878824 0.0021995541 -0.017505843 -0.006175419 -0.015291534 -0.008157902
-0.0318742 0.02667826 0.034514684 -0.046956465 -0.013917349 0.02768041 0.011062316 0.03599521
0.023944763 -0.026451442 0.043551594 0.010056686 -0.036977675 0.037770588 0.0020085494 -0.010832446
-0.013099276 0.004095872 -0.018565835 -0.0013713175 -0.025603367 -0.020442802 0.035703745 0.040151976
0.010677555 0.025225949 -0.0070694964 -0.03338904 -0.0159854 -0.02008667 0.011808135 0.0112314485
0.0045201904 -0.027560158 0.0028345804 -0.041863322 -0.010037706 0.044266272 -0.0474169 0.025459304
-0.029017506 0.042101108 0.03163822 -0.05032616 -0.015149238 -0.022475414 0.03274313 0.003192544
0.0010081095 0.034543246 -0.04300392 -0.016730586 0.015440198 0.028712975 0.00074794114 0.0030351104
-0.007905614 0.022998262 0.00024493012 0.030358763 0.030713758 -0.055497013 -0.005364571 0.03623176
0.033617657 -0.0052207294 0.029397508 -0.049736205 -0.0054636775 -0.029530078 0.034441106 0.02577434
-0.047742188 -0.047820542 0.011819046 -0.001691465 -0.014246409 -0.023847839 -0.00268866 -0.0085309
0.0055357097 -0.009276618 0.0059934724 -0.007688489 -0.03206689 0.020938363 -0.005026469 0.026387325
0.023464719 0.05139945 0.05061825 -0.034462143 0.0112675065 -0.037899803 0.014058859 0.050526448
-0.026928872 -0.036989532 -0.0047053443 -0.02131303 0.011388201 0.03352176 -0.0022659888 0.01665669
-0.027769754 0.021540148 -0.035149388 -0.036617335 -0.0114198215 0.015962448 0.011558753 0.030645233
-0.026847813 -0.018354444 -0.01850196 0.041520648 -0.013604975 0.016693091 0.0045112614 0.035490688
0.039737023 0.024108542 -0.019630156 -0.025955081 0.038338684 -0.013878711 -0.040151022 0.0045261993

Linear_Trend.bias f4 [96]
00000000: 7a46 02bc 889c 3e3c f013 963c 73ea 3ebb
00000010: b564 bb3c aa22 a0bc 05da c1bb cdf2 1a3d
00000020: 58a0 33bc d7b6 22bd 5594 8bba 9acc 16bd
00000030: 1ae1 d53c 0836 0c3b bd3b 1dbc a95e cabc
00000040: f413 233d 1f6b 14bc 4c92 a83a c21d 60b8
00000050: 0d07 7cba fd05 3b3b 97be 8abb 29a9 3dbc
00000060: ea8c b93c 4d54 303d 4c88 c4bb aa0e 90bc
00000070: b2d2 71bc 8ecd 4b3b 7c8d 8abb 3ff3 d33c
00000080: 6f68 ec3b f9e7 0ebd 4be6 233c 08ee 473c
00000090: 853d d2bc d9d7 223c fa8c 82bb 8746 973c
000000a0: ef87 d63c 2251 e9bc 6a3a 02bd 37f3 cdbc
000000b0: dd7e 7fbc 26de 3e3c 066b 96ba 78c3 d53b
000000c0: bda3 653b 6eea 9ebb a448 ecbc 148e 05bd
000000d0: 7f9f 39bc 0211 58bc 1f68 ad3a b433 a43c
000000e0: 9453 66bc b6ac de3a ef61 0fbc 3e28 34bd
000000f0: bb5b cebc 6525 84bc 3b09 adbc c1b4 38bd
00000100: 4861 963a 6334 b43c 4f23 153d 31f0 b8bc
00000110: c1de 74bb d856 3fbc d3aa a6bc 3d93 dfbc
00000120: 2129 753a eaad 03bd 0b84 983b 59aa 0cbc
00000130: d956 02bd 8d3e 02bd eea5 1dbc 9b25 a03c
00000140: 9c59 c5bb a475 ecbc c519 38bd 3255 303c
00000150: d008 ce3c 52d7 c43c 9051 05bd f2d6 a43c
00000160: e354 92bc 05f3 dabc aeeb 42bd 3a86 e83c
00000170: b863 1e3d 4df9 5a3b 8c29 0b3c eb10 a4b8
-0.007951373 0.011634 0.018320054 -0.0029131442 0.02287517 -0.01954778 -0.0059158825 0.03782921
-0.010963522 -0.03972515 -0.0010649065 -0.036816217 0.026108313 0.002139451 -0.009596762 -0.02470334
0.03981395 -0.009058743 0.0012860983 -5.3433476e-05 -0.0009614088 0.0028537505 -0.004234146 -0.011575975
0.0226502 0.043049145 -0.005997693 -0.017585117 -0.014759706 0.0031097862 -0.004228292 0.025872825
0.007214598 -0.034889195 0.010003637 0.012202747 -0.0256641 0.009939157 -0.003984091 0.018466247
0.026187865 -0.02848107 -0.03179399 -0.025140388 -0.015594211 0.011649644 -0.0011475987 0.006523546
0.0035040223 -0.0048497235 -0.028843231 -0.0326062 -0.011329531 -0.013187649 0.0013229883 0.020044185
-0.0140580125 0.0016988728 -0.0087513765 -0.04398369 -0.025190225 -0.016131112 -0.021122565 -0.045094255
0.0011473084 0.021997636 0.036410626 -0.02257547 -0.0037364217 -0.01167842 -0.020345127 -0.027291888
0.0009352137 -0.03214828 0.0046544126 -0.008585536 -0.031821106 -0.031797934 -0.00962208 0.019549182
-0.006022645 -0.02886469 -0.04494645 0.0107625 0.025150687 0.024028454 -0.032548487 0.020122025
-0.017862743 -0.026727209 -0.047588043 0.028384317 0.038669318 0.0033412755 0.008493792 -7.8232806e-05

exp_avg f4 [96, 336]
00000000: 6438 8eb7 621d 66b8 6286 e8b8 eb39 f4b8
00000010: 5ab1 90b8 6cbe 53b8 d1f5 75b8 ad17 edb7
00000020: b3b2 7db7 0706 8db6 3be1 b938 de22 1f39
00000030: 3d1f 6f39 9e43 3439 237e bc38 0d32 4d39
00000040: c3b7 0c39 30fa 7538 e44a 9cb7 50e8 f4b7
00000050: 4e23 e9b8 17df 03b8 cbb7 85b8 174c 35b9
00000060: 51bb 0cb9 82ca 18b9 17c7 0cb9 29c2 4eb9
00000070: 2b8b 0eb9 8c6f afb8 a7fd 68b6 03fe 5cb8
00000080: bb1d 0938 b372 8838 d780 0d39 feaa 3439
00000090: 79ce f138 efe0 0e39 1764 bd38 8c42 6639
000000a0: 7c40 5739 043c 7e38 d072 7e38 00f1 18b8
000000b0: 89dc f7b7 ed37 5fb8 8979 d5b8 2f25 7fb9
000000c0: fa0b 20b9 fcdf 56b9 c79d 39b9 9f20 54b9
000000d0: 7c58 ceb8 7e39 80b8 4d4e b0b8 4047 9ab8
000000e0: 2606 6938 673e a638 72bf 3e39 f550 4939
000000f0: 09fd 8539 517b 7039 58c1 6639 e8fb 8639
00000100: abf2 5839 098d d038 fda2 0138 ae65 73b8
00000110: f46d 8db8 55dc d0b8 0450 43b9 0bf0 68b9
00000120: 8692 91b9 4e1b 76b9 2011 6bb9 1ab6 39b9
00000130: a04e 8bb8 55a4 b3b7 4e5c b1b7 3721 cf37
00000140: 195b 9838 a9b7 0939 d329 1339 c211 0439
00000150: efd3 0a39 2a04 4439 d825 7a39 90b7 8a39
00000160: 51f3 4339 813d be38 88e7 4e38 b98a 9db8
00000170: 9901 4fb8 df49 3cb9 8763 1eb9 c602 01b9
00000180: dd85 c2b8 db98 9ab8 c7ae 1db9 9675 c0b8
00000190: ee26 50b8 9320 c7b8 3c0a eeb8 774d afb8
000001a0: 1b04 84b6 74dc 78b8 f43d b1b8 7c36 35b8
000001b0: 32de b438 ea31 0b37 ec22 9d38 5e11 3e39
000001c0: a172 4a39 edce 2739 1b62 a638 80f6 7238
000001d0: e125 ab38 8586 3a38 65d0 8fb7 9064 d4b8
000001e0: a90d b8b8 a681 33b8 498c 83b7 c868 eeb8
000001f0: 7981 a9b8 669e 9ab8 59cf cdb8 6099 49b9
00000200: d9ad 16b9 35d5 ecb8 1655 41b8 f181 4838
00000210: 1b91 8138 3cef fd38 5078 3239 3d67 8d39
00000220: 2174 6439 5e08 3c39 7742 3739 4315 cb38
00000230: 7457 1938 74b3 9737 e80a 81b8 c71a 2db9
00000240: 6d9c 12b9 6c65 d6b8 1813 38b9 d67c 02b9
00000250: 9699 22b9 9ea5 0fb9 c13b fcb8 a14b 15b9
00000260: 5fc9 84b8 41a6 e7b7 817b ab38 11aa 9438
00000270: f87e 3339 e874 4e38 5bd2 deb5 341f 2139
00000280: bcaa 4039 fce5 3b39 481b 4739 7cb4 f538
00000290: ab07 1839 6966 0a39 e464 37b8 5e74 fdb8
000002a0: bc9e 23b9 b9e4 28b9 2356 44b9 d255 36b9
000002b0: 2a9a 27b9 a1ce 2cb9 45ce c9b8 4926 dbb8
000002c0: 561c c2b8 bf40 71b8 c81b b937 d609 7c38
000002d0: a24d 1939 dbaf 2539 cc4f 5539 fce7 7539
000002e0: c48a 8439 d11f 3c39 4f29 2239 e0df cf38
000002f0: 6fd3 ad38 9f4a ef36 cba2 7cb7 a319 85b8
00000300: 753e 90b8 588b 24b9 e275 35b9 bf73 beb8
00000310: ccfd 0db9 58ce 02b9 a97b 13b9 1c3f aeb8
00000320: 8203 afb8 ab56 bab8 eb65 1db8 2aa4 c438
00000330: 55d0 2d38 d9f7 44b7 0ced 3938 a50c 4d39
00000340: 1415 4639 7ec4 e538 c89d 08b6 59e5 29b8
00000350: 473a 5eb8 22cf 95b8 5492 d1b7 efc4 15b8
00000360: 9f51 bab8 4499 bbb8 b2fd a136 4564 62b7
00000370: d927 cb38 5973 a938 8d7a 83b7 3926 a6b8
00000380: 5a36 c037 050a d836 53b1 00b8 5949 22b8
00000390: 98d1 7bb5 e1ea deb7 02ea aa38 24eb 4139
000003a0: d642 df38 d06c 8438 7c56 0439 122b ac38
000003b0: 4de4 ae38 a331 1738 b6c9 f1b6 7394 a2b8
000003c0: 0ecc 31b9 f8ff cab8 4fb8 27b9 6e0c 8db8
000003d0: 7704 45b8 28f6 fcb7 edbb 99b8 3906 4db8
000003e0: d2dc 25b8 9fca adb8 0819 53b8 8854 cab8
000003f0: d7dd 3d35 c071 09b7 0b08 6db8 ff6b 2e39
-1.6953978e-05 -5.4863638e-05 -0.00011087653 -0.00011645615 -6.8994894e-05 -5.0483664e-05 -5.8641486e-05 -2.8263627e-05
-1.5121582e-05 -4.202829e-06 8.86344e-05 0.0001517641 0.00022804453 0.00017191327 8.9880334e-05 0.00019568969
0.00013419897 5.8645557e-05 -1.8631523e-05 -2.9195246e-05 -0.00011116882 -3.1440602e-05 -6.376168e-05 -0.00017289851
-0.00013421221 -0.0001457129 -0.00013425607 -0.00019718021 -0.0001359402 -8.3654275e-05 -3.471834e-06 -5.2688654e-05
3.2691034e-05 6.50635e-05 0.00013494804 0.00017229837 0.00011530234 0.0001362597 9.0308655e-05 0.000219593
0.0002052802 6.0614213e-05 6.0665247e-05 -3.6464073e-05 -2.954739e-05 -5.3219428e-05 -0.00010179269 -0.00024332547
-0.0001526325 -0.00020492071 -0.00017701751 -0.00020230048 -9.839327e-05 -6.1142244e-05 -8.406919e-05 -7.3565636e-05
5.5557255e-05 7.92712e-05 0.00018191131 0.00019199013 0.00025556263 0.00022934123 0.00022006535 0.00025746156
0.00020689766 9.944483e-05 3.090779e-05 -5.803041e-05 -6.743884e-05 -9.959253e-05 -0.00018626457 -0.00022214667
-0.00027765724 -0.0002347056 -0.00022417726 -0.00017710813 -6.6426815e-05 -2.1414986e-05 -2.1143027e-05 2.469179e-05
7.264893e-05 0.00013133757 0.00014034593 0.00012595116 0.00013239657 0.00018693568 0.00023855956 0.00026458176
0.00018687292 9.071362e-05 4.9329858e-05 -7.5121825e-05 -4.9354134e-05 -0.00017956596 -0.00015105131 -0.00012303432
-9.275575e-05 -7.371764e-05 -0.00015037796 -9.1771755e-05 -4.962732e-05 -9.495127e-05 -0.00011350631 -8.359079e-05
-3.9343845e-06 -5.933312e-05 -8.4515574e-05 -4.3204505e-05 8.624456e-05 8.296667e-06 7.492848e-05 0.00018126282
0.00019306924 0.00016003447 7.9337704e-05 5.7926867e-05 8.160971e-05 4.4471137e-05 -1.714397e-05 -0.00010127679
-8.776348e-05 -4.279767e-05 -1.5681742e-05 -0.000113682414 -8.082664e-05 -7.372796e-05 -9.813783e-05 -0.0001922599
-0.00014369878 -0.0001129307 -4.609403e-05 4.7804733e-05 6.178227e-05 0.00012108541 0.00017020223 0.00026970534
0.00021787036 0.00017932194 0.00017477 9.6837546e-05 3.655949e-05 1.8084167e-05 -6.153231e-05 -0.00016508541
-0.00013981918 -0.000102232065 -0.0001755472 -0.00012444271 -0.00015506739 -0.0001369924 -0.000120274264 -0.00014237921
-6.331759e-05 -2.7614764e-05 8.17692e-05 7.088867e-05 0.0001711807 4.9223105e-05 -1.660151e-06 0.0001536578
0.0001837415 0.00017919386 0.00018988282 0.00011716128 0.00014498706 0.00013198856 -4.372456e-05 -0.00012085655
-0.00015604025 -0.00016106934 -0.00018724105 -0.00017388843 -0.00015983792 -0.00016480174 -9.6228476e-05 -0.00010449865
-9.255919e-05 -5.7519177e-05 2.2066655e-05 6.0090642e-05 0.00014620138 0.00015801137 0.0002034299 0.00023451442
0.0002528039 0.0001794093 0.00015464913 9.912229e-05 8.2886654e-05 7.131442e-06 -1.5058274e-05 -6.3467094e-05
-6.8780886e-05 -0.00015692168 -0.0001730542 -9.0814654e-05 -0.00013541355 -0.00012474635 -0.0001406508 -8.3087216e-05
-8.345304e-05 -8.885314e-05 -3.7526635e-05 9.376586e-05 4.144044e-05 -1.1740217e-05 4.4328204e-05 0.00019555034
0.00018890604 0.000109561704 -2.035742e-06 -4.0506337e-05 -5.29832e-05 -7.143455e-05 -2.498288e-05 -3.5707777e-05
-8.884374e-05 -8.945403e-05 4.827708e-06 -1.34939955e-05 9.6872165e-05 8.080033e-05 -1.5673484e-05 -7.922616e-05
2.2913493e-05 6.438468e-06 -3.0682724e-05 -3.869212e-05 -9.3809786e-07 -2.6573836e-05 8.149819e-05 0.00018493511
0.00010645918 6.3145184e-05 0.00012620719 8.2096216e-05 8.339491e-05 3.6047433e-05 -7.205842e-06 -7.752413e-05
-0.00016956052 -9.6797885e-05 -0.00015995021 -6.725719e-05 -4.697262e-05 -3.0155366e-05 -7.3306124e-05 -4.8881604e-05
-3.954472e-05 -8.287024e-05 -5.0329632e-05 -9.647856e-05 7.0730806e-07 -8.192321e-06 -5.6512694e-05 0.00016634165

exp_avg_sq f4 [96, 336]
00000000: 614b 5c33 2a09 8d33 10b3 a633 6641 c133
00000010: f2c7 e033 25b0 0434 9211 0c34 a559 1934
00000020: 3648 1934 993f 1634 cfb1 0b34 c355 0734
00000030: e496 0534 5460 0a34 682e 1534 f6b8 1834
00000040: 0e84 1534 7657 1334 72a9 1434 bf94 1d34
00000050: 08d2 1a34 b721 2134 282f 1e34 a89f 2034
00000060: 9489 2234 788d 2634 cac2 1a34 88cd 1834
00000070: 8ce9 1934 66fd 1434 3208 1334 7afc 1a34
00000080: 8844 1834 9aba 1134 1f65 0a34 f48a 0934
00000090: 0352 0a34 3297 0f34 9f3e 0f34 9a31 1134
000000a0: 5fe3 1534 5d96 1034 126e 1b34 143c 1a34
000000b0: 23a4 2034 9458 2534 48d0 2434 a292 2534
000000c0: 1d40 1c34 c4f9 1b34 f1c5 1c34 e378 1a34
000000d0: 23d4 1434 06e8 0f34 06e0 1334 c165 1434
000000e0: ff3c 0e34 92cd 0c34 e93d 0d34 ba0b 0a34
000000f0: c7a2 0a34 9305 0a34 13bf 0934 3b38 0c34
00000100: 3f8a 0f34 350c 1234 9422 1534 8872 1734
00000110: 4257 1e34 3bf8 2034 407e 1b34 1f79 1e34
00000120: 9774 1a34 9e8d 1e34 d6f3 1a34 c972 1334
00000130: 4e25 1934 678d 1734 e106 1a34 8a5a 1c34
00000140: c291 1834 c5fb 1534 e287 0d34 1279 0434
00000150: 4981 0734 2b00 0d34 37d9 0f34 bf54 1334
00000160: cb99 1a34 6569 1c34 b063 2034 8397 1f34
00000170: 8820 2234 ccf5 2534 c87b 2434 d90c 2034
00000180: ad92 1f34 f4ff 2834 2d92 2434 dccf 2034
00000190: 0922 1834 4887 1534 8694 1134 e75f 1734
000001a0: bc79 1034 8d42 1134 4a96 0f34 03fc 0f34
000001b0: 965b 0a34 78c3 0d34 a29d 0d34 689a 0e34
000001c0: 380d 1534 f042 1934 7d87 1c34 3960 2234
000001d0: f81c 2034 3d23 1f34 5c53 2134 d019 1d34
000001e0: 0d4a 2334 54b1 2734 396d 2a34 be78 2234
000001f0: 2699 1a34 4dae 1734 7024 1c34 c03d 1a34
00000200: 8528 1534 2d51 1534 c33c 0f34 9030 0a34
00000210: 2c91 0734 d294 0f34 43b6 1234 d1bb 1334
00000220: 4ab0 1434 2e3b 1934 46d3 1434 9d05 1c34
00000230: 06db 1f34 3b36 2334 4a44 1b34 ab28 2134
00000240: 6e8b 2b34 4769 2d34 96e5 2534 bce1 1b34
00000250: 1243 1534 6105 1434 364a 1434 61f1 1734
00000260: 1b82 1434 43c8 1234 8eae 0c34 f71b 0b34
00000270: 1c26 0c34 c45e 0c34 caa5 0b34 98dd 0d34
00000280: 73a1 0f34 9e9c 1634 06e1 1734 ccfe 1a34
00000290: f4e2 1834 98f3 1e34 d788 1b34 897b 2234
000002a0: 66b7 2634 d3bc 2b34 5fa3 2834 02b3 2134
000002b0: af96 1434 43a9 1434 a617 1834 d613 1834
000002c0: b1f5 1934 e4eb 1534 49ad 0b34 431e 0b34
000002d0: 4da7 0b34 4bdf 0c34 88c9 0d34 f687 0b34
000002e0: a18a 1134 8ba6 1534 fb08 1d34 f218 2334
000002f0: fe1e 2034 e80a 2134 8f09 2034 1ac2 1e34
00000300: ba9d 2734 79a3 2334 7a62 2234 9e0d 1e34
00000310: a24c 1934 8887 2434 d83e 1a34 fa58 1a34
00000320: ba42 1234 bd65 1134 e98f 0d34 d7eb 0c34
00000330: e4f3 1234 6a0a 1634 1b05 1434 6e91 1534
00000340: 49fd 1234 6cfd 1534 fdb4 1734 1192 1c34
00000350: 007b 1b34 a4d0 2434 6578 2734 819f 2234
00000360: 440c 2134 d7a2 2434 b4c3 1f34 a94e 1f34
00000370: b0bb 1b34 efa2 1834 14aa 1534 77b3 1634
00000380: 6834 1534 f53f 1634 676e 0a34 3559 0834
00000390: 99b8 0934 a59e 1334 114a 0b34 868c 0b34
000003a0: 776c 0e34 4f50 1034 5286 1334 3922 1d34
000003b0: 496c 2034 3215 2534 ddfd 1c34 dd95 1d34
000003c0: 15c5 2634 7f90 2b34 fd75 2934 dc89 2134
000003d0: 25dc 1834 f25f 1634 b6cc 1634 6bc6 1834
000003e0: 468c 0c34 6094 0f34 ed19 1034 7098 0934
000003f0: b34f 0f34 8fdc 1734 ad0e 1534 5294 1734
5.12913e-08 6.567491e-08 7.762549e-08 8.999159e-08 1.0467183e-07 1.2357539e-07 1.3044908e-07 1.4281848e-07
1.4275506e-07 1.3992975e-07 1.301007e-07 1.2604055e-07 1.2441484e-07 1.2887295e-07 1.3893589e-07 1.4223392e-07
1.3924748e-07 1.372226e-07 1.3845218e-07 1.4675878e-07 1.4418777e-07 1.5006559e-07 1.4732052e-07 1.4959244e-07
1.5137476e-07 1.5511421e-07 1.4413231e-07 1.4230875e-07 1.4334199e-07 1.387576e-07 1.3693423e-07 1.4434218e-07
1.4181035e-07 1.3572063e-07 1.2889039e-07 1.280967e-07 1.2882087e-07 1.3372917e-07 1.3340694e-07 1.3522222e-07
1.3959423e-07 1.3465747e-07 1.4475543e-07 1.4364224e-07 1.4960874e-07 1.5399047e-07 1.5349463e-07 1.5420167e-07
1.4551956e-07 1.4526364e-07 1.4600643e-07 1.4386346e-07 1.3860749e-07 1.3402322e-07 1.3771941e-07 1.3820592e-07
1.3246971e-07 1.3113302e-07 1.3154171e-07 1.2856518e-07 1.291147e-07 1.285428e-07 1.2828632e-07 1.3058973e-07
1.3368206e-07 1.360175e-07 1.3889286e-07 1.4104637e-07 1.4746641e-07 1.4991467e-07 1.448143e-07 1.475896e-07
1.4384783e-07 1.4766417e-07 1.4431075e-07 1.37322e-07 1.4262807e-07 1.4114413e-07 1.434487e-07 1.456157e-07
1.420913e-07 1.39683e-07 1.3181082e-07 1.2337503e-07 1.2619888e-07 1.313171e-07 1.3396935e-07 1.3721272e-07
1.4398317e-07 1.4566974e-07 1.4937427e-07 1.4863149e-07 1.509926e-07 1.5456243e-07 1.5318722e-07 1.4905835e-07
1.4861389e-07 1.5739334e-07 1.5326869e-07 1.497678e-07 1.4168485e-07 1.3925921e-07 1.355821e-07 1.409786e-07
1.3455332e-07 1.3528388e-07 1.3372588e-07 1.3409594e-07 1.288557e-07 1.320276e-07 1.3188995e-07 1.3280953e-07
1.3881515e-07 1.4273587e-07 1.4577923e-07 1.5122431e-07 1.49117e-07 1.4820849e-07 1.502462e-07 1.4631155e-07
1.5207497e-07 1.5617599e-07 1.5872219e-07 1.5131351e-07 1.4398083e-07 1.4126381e-07 1.4541888e-07 1.4364832e-07
1.3891447e-07 1.3906238e-07 1.3340018e-07 1.2869918e-07 1.2625668e-07 1.3372053e-07 1.3663616e-07 1.3758769e-07
1.3847708e-07 1.4270765e-07 1.3860435e-07 1.4530674e-07 1.4887709e-07 1.5200287e-07 1.4460343e-07 1.5009088e-07
1.597634e-07 1.615018e-07 1.5450345e-07 1.4517622e-07 1.3901106e-07 1.3785531e-07 1.3810572e-07 1.4150784e-07
1.3830906e-07 1.3670164e-07 1.3102019e-07 1.2955557e-07 1.305238e-07 1.3072992e-07 1.3005697e-07 1.3212264e-07
1.3376648e-07 1.4026816e-07 1.4144834e-07 1.4435062e-07 1.4238668e-07 1.4803516e-07 1.4485282e-07 1.5132368e-07
1.5526675e-07 1.599431e-07 1.5705653e-07 1.5059416e-07 1.3838392e-07 1.3845151e-07 1.4164706e-07 1.416332e-07
1.4338617e-07 1.3962523e-07 1.3008425e-07 1.2956393e-07 1.3006247e-07 1.311975e-07 1.3204965e-07 1.2994846e-07
1.355461e-07 1.3937294e-07 1.4625031e-07 1.5189633e-07 1.4912436e-07 1.4998261e-07 1.4904639e-07 1.478551e-07
1.5610468e-07 1.5240029e-07 1.5123251e-07 1.471985e-07 1.4277114e-07 1.5322996e-07 1.436523e-07 1.4374737e-07
1.3621585e-07 1.354119e-07 1.3184003e-07 1.3124314e-07 1.3686036e-07 1.3973627e-07 1.3785431e-07 1.3929613e-07
1.3689454e-07 1.39689e-07 1.4128814e-07 1.4581771e-07 1.4480247e-07 1.5349593e-07 1.5596886e-07 1.5145453e-07
1.4998756e-07 1.5332931e-07 1.4879225e-07 1.4836645e-07 1.450378e-07 1.4215378e-07 1.393858e-07 1.4035128e-07
1.3895772e-07 1.3993106e-07 1.2892416e-07 1.269844e-07 1.2826276e-07 1.3748156e-07 1.2972329e-07 1.2996506e-07
1.326424e-07 1.3440261e-07 1.3739307e-07 1.4634215e-07 1.4940555e-07 1.5374533e-07 1.4620987e-07 1.4676284e-07
1.5531653e-07 1.5978183e-07 1.5782275e-07 1.5044446e-07 1.4236191e-07 1.4004743e-07 1.4044312e-07 1.4228287e-07
1.3089547e-07 1.3371891e-07 1.3420477e-07 1.2814576e-07 1.3346907e-07 1.414321e-07 1.3882045e-07 1.411693e-07

exp_avg f4 [96]
00000000: 75aa 0bb9 138f 6db9 4caa 70b8 eed4 53b9
00000010: 0e23 7038 b63b 1d39 1f35 b0b7 45b3 8138
00000020: 3606 e3b8 d1b8 10b8 4a9e 49b7 8dad 0e38
00000030: be57 89b7 ab03 c6b7 a5bf 17b9 cf67 46b8
00000040: 5b86 6039 061d 68b7 5139 1c37 8eec b8b8
00000050: 691e 75b7 1acb f438 975f f938 c88b 7e39
00000060: 38fc c738 fbd7 1a39 1b97 8238 a532 edb8
00000070: 2f8d e834 8c07 a3b7 a160 3eb9 2e0a 5ab9
00000080: 9691 5ab8 2ba8 70b9 c52a c2b8 09a5 9038
00000090: 6f4c 26b9 8f8c d6b8 e4d1 6f39 47fd 0b39
000000a0: afba 7639 45ac 19b9 f744 41b9 d8a2 af37
000000b0: dff3 3bb9 72af 16b9 34f0 9fb9 47b1 7738
000000c0: ee35 73b8 b34e 3e38 0d54 69b9 b9c0 22b9
000000d0: 90df 65b9 d168 21b9 ab02 80b9 9134 22b9
000000e0: dc8a 9cb9 0568 01ba 18e8 10ba 1048 e7b9
000000f0: a336 03ba 53a0 bfb9 bbc8 a7b9 37a4 d2b9
00000100: 62c6 2739 f836 02b8 943c 0138 7324 7f38
00000110: ca35 25b9 79b2 2a38 dc00 a838 e7c3 aa38
00000120: 4dbe 10b9 c485 29b9 57b6 ad38 c26d 3939
00000130: 0fdc 1bb9 f6ac 3e38 137e 3ab9 0dbc 01b9
00000140: 1378 0bb8 16f6 19b9 7276 57b9 3fac 21b9
00000150: c20f 7e38 bae1 df38 041e d538 27f2 2fb8
00000160: 4a7e 0d38 61d8 ff38 a974 0239 fe85 aa38
00000170: 3d4f a738 d032 9239 6f18 b239 6463 9138
-0.00013319573 -0.0002265538 -5.737906e-05 -0.0002020185 5.7253106e-05 0.00014994931 -2.1005571e-05 6.184591e-05
-0.000108253604 -3.45044e-05 -1.2017388e-05 3.401707e-05 -1.637253e-05 -2.3605147e-05 -0.00014471875 -4.7303558e-05
0.00021412356 -1.3835035e-05 9.31167e-06 -8.8178655e-05 -1.4610218e-05 0.00011672657 0.0001189105 0.000242754
9.536039e-05 0.00014767043 6.227029e-05 -0.00011310474 4.3316092e-07 -1.9434628e-05 -0.00018155809 -0.00020793892
-5.2110838e-05 -0.00022950831 -9.258607e-05 6.897195e-05 -0.00015859467 -0.00010230496 0.00022871007 0.00013350426
0.00023529933 -0.00014655392 -0.00018431606 2.0937456e-05 -0.00017924559 -0.00014370473 -0.00030505809 5.905449e-05
-5.798594e-05 4.5372824e-05 -0.00022251923 -0.00015521319 -0.00021922425 -0.00015393204 -0.0002441605 -0.00015469106
-0.00029858097 -0.00049364596 -0.0005527749 -0.00044113444 -0.0005005395 -0.0003654981 -0.00032002278 -0.0004017667
0.00016000264 -3.104561e-05 3.0812414e-05 6.0830684e-05 -0.00015755664 4.0697374e-05 8.011024e-05 8.142721e-05
-0.00013803803 -0.00016166928 8.283246e-05 0.00017683863 -0.0001486393 4.5460612e-05 -0.00017785309 -0.00012372453
-3.325201e-05 -0.00014682891 -0.00020548122 -0.00015418323 6.0572995e-05 0.000106755135 0.00010162222 -4.1948773e-05
3.3734636e-05 0.00012199651 0.00012441225 8.13119e-05 7.97794e-05 0.00027885148 0.0003396901 6.932652e-05

exp_avg_sq f4 [96]
00000000: 8a16 fd34 b60d 0835 a15e 0935 ef38 0f35
00000010: c342 1235 77d7 1235 cbca 0f35 c0bc 1335
00000020: 9c76 1635 4c57 1035 0850 1035 f929 1a35
00000030: edbe 1435 cf07 1735 194c 1c35 09bc 1335
00000040: 61c3 1435 a664 1a35 6dc2 2035 c248 2135
00000050: b082 1935 cfe4 1835 ef6e 1e35 58d6 1735
00000060: 3b7e 1835 a107 1b35 f1e1 1b35 6c71 1c35
00000070: 65e2 1935 d1bf 1b35 c3cb 1f35 283a 1e35
00000080: 5e3e 1b35 e98b 1535 f076 1735 d1ed 1e35
00000090: b0bc 1a35 5bcb 1c35 cf45 1b35 67ee 1435
000000a0: a9df 2035 ef30 1635 4fe0 1135 7602 1735
000000b0: 8504 1b35 fcb4 1935 fe2a 1f35 1154 1835
000000c0: 4f51 1c35 9c16 1c35 e3e1 1f35 23ab 1635
000000d0: c83d 1735 dd67 1b35 335f 1435 243b 1935
000000e0: 7878 1735 a64f 1b35 cb1a 1e35 1e6a 1a35
000000f0: f525 1635 fcf0 1635 ecfe 1135 633f 1535
00000100: cf5e 0d35 6ac1 1335 9380 1e35 e6ea 1e35
00000110: 529a 1235 14f5 1135 a51e 1535 0a2f 0f35
00000120: 446b 0f35 abc2 1235 13d3 1335 8b6c 1635
00000130: 9905 1735 72db 1035 1b26 1835 9496 1835
00000140: 043f 1535 01eb 0f35 e680 0e35 bb8b 1735
00000150: 9373 1135 523b 0f35 5a27 1035 da16 0e35
00000160: 39b9 0c35 ca94 0935 161c 1135 03b0 1735
00000170: 176d 1435 bd57 1b35 26bc 2035 0f34 2035
4.7141322e-07 5.06839e-07 5.117418e-07 5.33545e-07 5.448639e-07 5.470278e-07 5.3566754e-07 5.5036435e-07
5.6051954e-07 5.3771214e-07 5.376064e-07 5.743055e-07 5.541213e-07 5.6263247e-07 5.8225265e-07 5.5035395e-07
5.541861e-07 5.7515933e-07 5.988757e-07 6.008305e-07 5.7187117e-07 5.6957373e-07 5.9021016e-07 5.6563795e-07
5.68081e-07 5.77531e-07 5.807079e-07 5.827958e-07 5.732639e-07 5.802113e-07 5.952863e-07 5.8944215e-07
5.7832756e-07 5.571042e-07 5.642496e-07 5.9205655e-07 5.7644047e-07 5.841045e-07 5.7843585e-07 5.548122e-07
5.9930113e-07 5.595056e-07 5.434312e-07 5.6255465e-07 5.7748576e-07 5.726031e-07 5.929468e-07 5.6746745e-07
5.823285e-07 5.814743e-07 5.9560824e-07 5.612839e-07 5.6341787e-07 5.789314e-07 5.527283e-07 5.7083e-07
5.642719e-07 5.7857903e-07 5.8898576e-07 5.752389e-07 5.593459e-07 5.6230033e-07 5.438767e-07 5.5599065e-07
5.266456e-07 5.504322e-07 5.9046687e-07 5.920141e-07 5.4613804e-07 5.4373345e-07 5.555142e-07 5.33401e-07
5.3427743e-07 5.467252e-07 5.506892e-07 5.6037305e-07 5.626003e-07 5.3963515e-07 5.6679863e-07 5.684353e-07
5.5598525e-07 5.3613627e-07 5.3086694e-07 5.645522e-07 5.418489e-07 5.3357974e-07 5.3701444e-07 5.2932376e-07
5.24236e-07 5.1252994e-07 5.405758e-07 5.6508014e-07 5.5293043e-07 5.7869676e-07 5.9878437e-07 5.96804e-07

exp_avg f4 [96, 336]
00000000: 7ec8 9337 d682 da37 3cd4 1438 072d 2b38
00000010: 79e3 5138 5b53 5338 c387 5138 a6fd 5d38
00000020: 9043 5338 b247 5a38 547b 4038 ef8d 3c38
00000030: 6150 2f38 c958 0c38 750a 0338 7477 e537
00000040: ec04 0438 392e e437 ffbc e037 f211 c837
00000050: 5fa0 df37 ba1f 0f38 391c 0838 ab03 2338
00000060: e91b 3338 2fa1 0e38 13ee 1138 ebec 1038
00000070: 4751 2838 b5d9 1338 7995 1538 ae8f 1538
00000080: 92fb 1c38 c624 2038 d6d7 1d38 91b1 1738
00000090: 51f7 2a38 9f1c 2038 4986 0c38 17e7 1938
000000a0: adcc 2d38 dd58 5838 5615 6538 7959 5038
000000b0: c76d 7738 f01f 8b38 f644 9538 f78c 9e38
000000c0: 867d ab38 5f10 b138 060f b638 18dc d338
000000d0: ade4 db38 c8cb cf38 eaa7 c638 1387 cb38
000000e0: 9236 c938 63bd c738 2a58 c038 e557 be38
000000f0: 61e1 b838 01bf af38 7709 b038 16be b038
00000100: eee4 b438 769f bf38 871c be38 2679 ca38
00000110: 28a4 cd38 0220 cf38 83ac da38 601f c138
00000120: 8b4d b738 f0fb b038 ec40 bc38 4259 b638
00000130: ca8c b338 1ab6 9b38 a224 9738 e131 8f38
00000140: 5558 7a38 b02b 5b38 dfc0 5738 9d3f 4038
00000150: 8268 5b38 3406 6f38 3dfe 4c38 5815 4c38
00000160: 6c50 6d38 dc82 4738 c50d 2138 9f22 1238
00000170: 96a7 f237 7729 aa37 8750 b036 ddb1 06b7
00000180: 4e13 06b7 7135 63b7 736f d6b7 7d03 f2b7
00000190: c069 1cb8 5edf 13b8 e754 23b8 f9a4 21b8
000001a0: a6f6 16b8 52c1 10b8 9ecd d1b7 0445 c4b7
000001b0: a964 bfb7 c09a b9b7 02a2 b6b7 cc71 96b7
000001c0: 3abf 13b7 da71 fab6 7b6f e2b6 ceb2 0eb5
000001d0: 95ed dd34 9c1b 4cb5 01b4 22b6 9646 1237
000001e0: af0c 6337 bab3 af37 4e5b d537 5e13 2738
000001f0: d281 2e38 d3ff 3938 b240 4138 b244 4f38
00000200: b2d3 4a38 05db 6238 597b 6038 2445 3238
00000210: d45d 4438 423e 5f38 51fb 4b38 b9de 4c38
00000220: 127c 4738 56cd 2e38 3187 4a38 ab1d 3b38
00000230: fd8a 4338 29d0 7d38 1e56 8b38 9c51 9638
00000240: 6977 a438 b45b ab38 556e a038 3b3b a738
00000250: 19e1 9f38 511a a338 c091 b538 b2e9 b738
00000260: 775b bc38 50d6 cd38 3e21 c838 5a86 c338
00000270: 02bc cc38 2f91 cf38 8ffd d438 9602 dc38
00000280: 7f13 df38 7d58 df38 d313 f138 488a f038
00000290: fc6d 0139 90b8 0a39 6816 0639 15b7 0f39
000002a0: 1b16 1039 fde6 1939 ed01 2239 5336 2639
000002b0: b9d5 3039 0582 3239 42a0 3939 6ee0 3439
000002c0: abf6 3439 f22a 3439 bc05 2739 d009 2a39
000002d0: ecd6 2f39 0d56 3139 266b 2d39 5ab6 3039
000002e0: e781 2f39 1de3 3139 fba8 2d39 bd0a 2e39
000002f0: ee60 2b39 6192 1e39 08d6 2039 2180 2439
00000300: 2aa3 1f39 030d 1139 423f 0c39 5546 0039
00000310: 44dd ff38 9591 e938 eceb e238 be8b cc38
00000320: cad4 ac38 0454 9d38 f047 a538 8ca3 9f38
00000330: b8b3 9838 7a6a 9438 f3ff a638 6108 b538
00000340: 0fbe c938 91cb da38 6522 ea38 ba79 f038
00000350: 1e93 f938 1d31 0939 e472 0c39 6620 1339
00000360: 2011 1239 3e5e 1539 d538 1c39 e5b1 1b39
00000370: c7e9 1e39 2fef 1539 aeb9 1c39 a070 2439
00000380: e097 2139 7fcb 2339 6a04 2939 19db 2339
00000390: d3a5 1f39 3233 2039 11bb 1739 b3b1 1439
000003a0: 6f2d 0c39 07bd 0939 8aa9 f638 452a ef38
000003b0: a12e f338 f628 eb38 ba77 e038 79aa d938
000003c0: 8605 cc38 bf01 c938 1d82 c238 8001 d338
000003d0: 8b92 c338 6b62 cc38 8f2d cf38 aec6 d138
000003e0: a4c4 d338 ca10 d338 2de4 cd38 cf10 cd38
000003f0: 61ad db38 11c6 d538 da3d cf38 fd40 e038
1.7617127e-05 2.604855e-05 3.548361e-05 4.0811512e-05 5.0041333e-05 5.038395e-05 4.995592e-05 5.2926734e-05
5.0369243e-05 5.204202e-05 4.5891225e-05 4.495488e-05 4.179811e-05 3.346129e-05 3.1242573e-05 2.7354552e-05
3.1475836e-05 2.7201242e-05 2.6790889e-05 2.3850214e-05 2.665835e-05 3.4123404e-05 3.245121e-05 3.8865644e-05
4.270292e-05 3.4005552e-05 3.4792418e-05 3.4552922e-05 4.0130017e-05 3.5250287e-05 3.5663576e-05 3.565818e-05
3.742759e-05 3.818122e-05 3.763273e-05 3.6166577e-05 4.076149e-05 3.8173628e-05 3.3503664e-05 3.669326e-05
4.1437033e-05 5.1581173e-05 5.4617725e-05 4.9674392e-05 5.8991627e-05 6.633985e-05 7.1177186e-05 7.560284e-05
8.177296e-05 8.443067e-05 8.6812346e-05 0.0001010226 0.00010485328 9.9084864e-05 9.472652e-05 9.704954e-05
9.5945914e-05 9.5243355e-05 9.171695e-05 9.076278e-05 8.815784e-05 8.3802275e-05 8.394097e-05 8.42774e-05
8.62571e-05 9.1372916e-05 9.06522e-05 9.654676e-05 9.805738e-05 9.876491e-05 0.00010427183 9.208801e-05
8.7405635e-05 8.439261e-05 8.976631e-05 8.695062e-05 8.561609e-05 7.424895e-05 7.2070645e-05 6.828062e-05
5.968691e-05 5.2254356e-05 5.143962e-05 4.583561e-05 5.2311e-05 5.6987818e-05 4.8874168e-05 4.8657268e-05
5.6580102e-05 4.756717e-05 3.8398215e-05 3.4841356e-05 2.8926686e-05 2.0284888e-05 5.2545834e-06 -8.028434e-06
-7.991517e-06 -1.3542697e-05 -2.5562686e-05 -2.8850272e-05 -3.7291786e-05 -3.5255558e-05 -3.89413e-05 -3.8539034e-05
-3.5992496e-05 -3.451232e-05 -2.501049e-05 -2.3397159e-05 -2.2815848e-05 -2.212578e-05 -2.1771531e-05 -1.7934384e-05
-8.806406e-06 -7.4638347e-06 -6.748303e-06 -5.315932e-07 4.1337321e-07 -7.60361e-07 -2.4244657e-06 8.718713e-06
1.35332075e-05 2.0945317e-05 2.5434096e-05 3.983394e-05 4.1605737e-05 4.4345692e-05 4.6075038e-05 4.9416623e-05
4.835771e-05 5.4086577e-05 5.3520638e-05 4.25029e-05 4.6817426e-05 5.3225325e-05 4.863303e-05 4.8844817e-05
4.7560847e-05 4.1676067e-05 4.828646e-05 4.4611905e-05 4.6621066e-05 6.0513765e-05 6.644077e-05 7.167758e-05
7.842371e-05 8.1709964e-05 7.6499455e-05 7.974213e-05 7.6236385e-05 7.7773475e-05 8.6579006e-05 8.769649e-05
8.981575e-05 9.8150806e-05 9.542935e-05 9.3233495e-05 9.762497e-05 9.897572e-05 0.00010156177 0.00010490899
0.000106371 0.00010649951 0.00011495468 0.00011469849 0.00012343371 0.0001322946 0.00012787583 0.00013705746
0.00013741145 0.00014677267 0.00015450241 0.00015851231 0.00016864286 0.00017023839 0.00017702676 0.00017249744
0.00017258029 0.00017182136 0.00015928497 0.00016216119 0.00016769365 0.00016912092 0.00016538482 0.00016852599
0.00016737693 0.00016964642 0.00016561516 0.00016597933 0.0001634394 0.00015122585 0.00015338522 0.0001568799
0.00015224205 0.00013833125 0.00013375006 0.00012233232 0.000122005615 0.000111374226 0.00010820464 9.753507e-05
8.241234e-05 7.5019925e-05 7.8812125e-05 7.612174e-05 7.2814e-05 7.077023e-05 7.963171e-05 8.632313e-05
9.619828e-05 0.00010432967 0.00011164396 0.00011466765 0.00011900648 0.00013083634 0.0001339424 0.00014031082
0.00013930025 0.00014244855 0.00014898491 0.00014848223 0.00015155143 0.0001429885 0.0001494649 0.00015682215
0.00015410734 0.000156207 0.0001611874 0.00015626512 0.00015225196 0.00015277861 0.0001447017 0.00014180578
0.00013368366 0.00013135756 0.00011761773 0.000114042814 0.00011595828 0.00011213303 0.00010703453 0.00010379119
9.728507e-05 9.584752e-05 9.274876e-05 0.000100615434 9.32562e-05 9.74581e-05 9.879015e-05 0.000100029036
0.00010097891 0.00010064391 9.817663e-05 9.7782926e-05 0.00010475028 0.00010193524 9.88205e-05 0.00010693257

exp_avg_sq f4 [96, 336]
00000000: 3e2e d434 0eab d034 1b82 cd34 6ebd ca34
00000010: d37e c834 dacc c634 6cb8 c534 dfc9 c434
00000020: 414b c434 0642 c434 8738 c434 9050 c434
00000030: 098a c434 22c5 c434 3ba6 c434 d9b2 c434
00000040: 45a5 c434 30d3 c434 ce24 c534 3c77 c534
00000050: e41c c634 bbbd c634 8038 c734 31e5 c734
00000060: c779 c834 9ff8 c834 ee4d c934 5f9b c934
00000070: 23c4 c934 cce9 c934 96fb c934 5aa2 c934
00000080: f072 c934 6047 c934 4a12 c934 4704 c934
00000090: e408 c934 cf23 c934 2c58 c934 67c0 c934
000000a0: ca26 ca34 43b7 ca34 f82c cb34 9a9d cb34
000000b0: 76f5 cb34 b638 cc34 52a0 cc34 6e13 cd34
000000c0: 8b78 cd34 2297 cd34 048d cd34 ea63 cd34
000000d0: 5437 cd34 623c cd34 341d cd34 54ba cc34
000000e0: 4d9c cc34 1cc3 cc34 27ba cc34 209b cc34
000000f0: 7cc3 cc34 e0ea cc34 a7be cc34 33c6 cc34
00000100: c9f0 cc34 8c32 cd34 8659 cd34 8995 cd34
00000110: efb7 cd34 afd0 cd34 9dde cd34 8575 cd34
00000120: d845 cd34 2d1a cd34 dcfb cc34 35c5 cc34
00000130: fe9c cc34 449c cc34 5565 cc34 2f2b cc34
00000140: a2cc cb34 b853 cb34 8d9e ca34 fa23 ca34
00000150: 1bd5 c934 527e c934 8b20 c934 8f53 c934
00000160: a964 c934 7da4 c934 9fd2 c934 1522 ca34
00000170: d269 ca34 e27e ca34 55c2 ca34 9d13 cb34
00000180: 7e98 cb34 74e4 cb34 8818 cc34 e6dd cb34
00000190: 2cdb cb34 eaa6 cb34 8f15 cb34 ad75 ca34
000001a0: bfcf c934 ef97 c934 a74f c934 8403 c934
000001b0: 7aae c834 f04a c834 52d9 c734 8ea5 c734
000001c0: 7e48 c734 f2fa c634 53bd c634 03bf c634
000001d0: 046e c634 d74a c634 9944 c634 4e03 c634
000001e0: 93e6 c534 a8ee c534 9dcf c534 b38a c534
000001f0: ad45 c534 08ff c434 dca3 c434 615b c434
00000200: 6e3f c434 5e0b c434 90eb c334 04fd c334
00000210: da55 c434 da85 c434 c694 c434 7af1 c434
00000220: 5857 c534 9cf6 c534 4faa c634 d455 c734
00000230: 18e5 c734 b1a2 c834 8752 c934 f7e1 c934
00000240: bf7b ca34 6000 cb34 a531 cb34 7c45 cb34
00000250: f549 cb34 e54c cb34 2d01 cb34 4d8d ca34
00000260: 0f1d ca34 a17b c934 5ffb c834 a54c c834
00000270: 858a c734 7ed1 c634 6e1e c634 dc16 c634
00000280: 1def c534 09bd c534 2785 c534 eb53 c534
00000290: d75b c534 ee4a c534 8e23 c534 efcc c434
000002a0: bd6e c434 1153 c434 431e c434 b101 c434
000002b0: b7cb c334 ac9c c334 793d c334 abe8 c234
000002c0: 10e3 c234 0e12 c334 8b54 c334 9d9e c334
000002d0: a813 c434 05a3 c434 4cc3 c434 c5dd c434
000002e0: 65c8 c434 0c0e c534 6441 c534 338a c534
000002f0: 3d8a c534 bd02 c534 0ddf c434 9c79 c434
00000300: b654 c434 a763 c434 224e c434 cc3d c434
00000310: 3a63 c434 dd7a c434 0655 c434 b40e c434
00000320: b4b0 c334 2e33 c334 3797 c234 3d51 c234
00000330: a7e4 c134 3677 c134 9be6 c034 abf2 c034
00000340: 4e30 c134 d5a8 c134 e1f8 c134 c16b c234
00000350: 0cd8 c234 3c6e c334 6f21 c434 2e4e c434
00000360: 7b97 c434 d1a4 c434 c5a5 c434 afab c434
00000370: 77bb c434 0c83 c434 0d33 c434 3a08 c434
00000380: c20b c434 8828 c434 f79c c434 6fd0 c434
00000390: 4fd9 c434 04e3 c434 5dad c434 06cb c434
000003a0: 72af c434 90c1 c434 5884 c434 2566 c434
000003b0: a42c c434 7ebd c334 0241 c334 4cd9 c234
000003c0: 0199 c234 2d80 c234 a264 c234 3c63 c234
000003d0: a604 c234 4dc5 c134 9727 c134 d4c3 c034
000003e0: c53d c034 e8b0 bf34 2a3b bf34 b79d be34
000003f0: 180e be34 6ab1 bd34 f96e bd34 3ea6 bd34
3.9521723e-07 3.8867478e-07 3.827889e-07 3.776326e-07 3.734518e-07 3.7029423e-07 3.6828294e-07 3.6654725e-07
3.65626e-07 3.6555883e-07 3.6548974e-07 3.6566462e-07 3.660828e-07 3.6651278e-07 3.6628794e-07 3.6637974e-07
3.6628094e-07 3.6661504e-07 3.6720888e-07 3.6780864e-07 3.6901395e-07 3.701842e-07 3.7107748e-07 3.7233397e-07
3.7341508e-07 3.74338e-07 3.749587e-07 3.7552215e-07 3.7581876e-07 3.7609277e-07 3.762222e-07 3.7557294e-07
3.7522796e-07 3.74911e-07 3.7452475e-07 3.744228e-07 3.7445636e-07 3.7465222e-07 3.750332e-07 3.757916e-07
3.7653655e-07 3.7758772e-07 3.7844416e-07 3.7926367e-07 3.7990293e-07 3.8039224e-07 3.811461e-07 3.8198363e-07
3.8271932e-07 3.829419e-07 3.8286828e-07 3.8256923e-07 3.8224482e-07 3.822816e-07 3.8205474e-07 3.8133533e-07
3.8111685e-07 3.8139922e-07 3.8133405e-07 3.811083e-07 3.8140195e-07 3.8168855e-07 3.813668e-07 3.814217e-07
3.8173155e-07 3.8221003e-07 3.8249362e-07 3.8293027e-07 3.8318055e-07 3.8336063e-07 3.8346198e-07 3.8269732e-07
3.8235044e-07 3.820327e-07 3.8181213e-07 3.8141448e-07 3.8112188e-07 3.811166e-07 3.807169e-07 3.802938e-07
3.7960586e-07 3.787261e-07 3.7740793e-07 3.7651608e-07 3.7594222e-07 3.7531078e-07 3.7462846e-07 3.7499964e-07
3.7512407e-07 3.7558848e-07 3.7592415e-07 3.765023e-07 3.7702426e-07 3.771775e-07 3.7766827e-07 3.7825967e-07
3.792265e-07 3.7977918e-07 3.801581e-07 3.797315e-07 3.7971165e-07 3.7933142e-07 3.7827382e-07 3.7711052e-07
3.7590323e-07 3.7549714e-07 3.7497122e-07 3.7441725e-07 3.737985e-07 3.7307427e-07 3.722476e-07 3.7187095e-07
3.7119383e-07 3.706296e-07 3.7018125e-07 3.7019353e-07 3.696042e-07 3.6934827e-07 3.6930285e-07 3.6882778e-07
3.6861874e-07 3.6867755e-07 3.6845168e-07 3.6795026e-07 3.6744805e-07 3.6693405e-07 3.6627068e-07 3.6574332e-07
3.6553996e-07 3.6516116e-07 3.6492975e-07 3.6505674e-07 3.657031e-07 3.6605235e-07 3.6616092e-07 3.6683542e-07
3.675766e-07 3.687354e-07 3.700429e-07 3.7129087e-07 3.7233326e-07 3.7371277e-07 3.7499214e-07 3.7603579e-07
3.771547e-07 3.781197e-07 3.7847818e-07 3.7862253e-07 3.7865507e-07 3.7867645e-07 3.7812552e-07 3.7728242e-07
3.7646575e-07 3.752912e-07 3.74358e-07 3.730867e-07 3.7167425e-07 3.70328e-07 3.6902514e-07 3.6897006e-07
3.6868087e-07 3.683165e-07 3.679099e-07 3.6755168e-07 3.6760932e-07 3.6748628e-07 3.671998e-07 3.6656954e-07
3.6588418e-07 3.6568284e-07 3.6529863e-07 3.6509076e-07 3.6469802e-07 3.6435574e-07 3.6366308e-07 3.6304604e-07
3.6300526e-07 3.6334717e-07 3.6383094e-07 3.6436987e-07 3.6522147e-07 3.6626457e-07 3.6649942e-07 3.6669203e-07
3.665365e-07 3.670433e-07 3.6741687e-07 3.6794663e-07 3.679469e-07 3.6696102e-07 3.6670136e-07 3.6596327e-07
3.656948e-07 3.6580352e-07 3.6564694e-07 3.6552808e-07 3.6580042e-07 3.659724e-07 3.6569708e-07 3.6518543e-07
3.645015e-07 3.6358819e-07 3.624534e-07 3.6194425e-07 3.6115418e-07 3.603579e-07 3.5930574e-07 3.593935e-07
3.5984198e-07 3.6071893e-07 3.6130135e-07 3.6213717e-07 3.629251e-07 3.6401786e-07 3.653217e-07 3.6564728e-07
3.6618061e-07 3.6627765e-07 3.6628458e-07 3.663276e-07 3.6644244e-07 3.6603194e-07 3.654499e-07 3.651383e-07
3.65164e-07 3.6537335e-07 3.6622052e-07 3.66595e-07 3.6665958e-07 3.667302e-07 3.6633983e-07 3.6655564e-07
3.6635498e-07 3.664868e-07 3.6604138e-07 3.6582165e-07 3.6540325e-07 3.6459454e-07 3.636888e-07 3.629342e-07
3.624664e-07 3.6228576e-07 3.6208536e-07 3.6207518e-07 3.6138698e-07 3.6092607e-07 3.5977857e-07 3.590527e-07
3.580773e-07 3.570524e-07 3.561957e-07 3.550501e-07 3.5400512e-07 3.533308e-07 3.5284737e-07 3.532495e-07
